adbob_pretrained_weights/best_adbob_unet_with_lama_denois_20_each_neww.pth (torch, 685291 bytes, 12 tensors)

weight f4 [32, 3, 3, 3]
0	0x3d1c91d8	0.038225025
1	0xbe7bc359	-0.24586238
2	0x3e0ac9f8	0.13553607
3	0x3d893f38	0.06701511
4	0x3bb7dce2	0.005611048
5	0xbdeeea40	-0.116657734
6	0x3e145d43	0.14488702
7	0x3db8a21d	0.09015296
8	0xbe5fe7ae	-0.21865723
9	0xbdf0532d	-0.117346145
10	0xbe900433	-0.28128204
11	0x3debd13d	0.115145184
12	0x3e29e62b	0.16591708
13	0x3e055b0d	0.13023014
14	0x3e2a56b5	0.16634639
15	0x3e05143a	0.12995997
16	0xbe4b7b5f	-0.19871281
17	0x3d99754b	0.07493075
18	0xbdc4632f	-0.0958923
19	0xbe885447	-0.266268
20	0xbe47df06	-0.1951867
21	0x3d745473	0.05965085
22	0x3ddf07b2	0.1089014
23	0x3db0c6cb	0.08631667
24	0x3c6ad86d	0.0143338265
25	0x3dde14be	0.108438
26	0x3c765a6d	0.015036208
27	0x3e223a68	0.15842593
28	0xbd184217	-0.037172403
29	0x3e02217c	0.12708086
30	0xbd910f57	-0.07083004
31	0x3d9de8da	0.077104285
32	0x3e0bcf8a	0.13653389
33	0x3d06975f	0.032859202
34	0x3cd54127	0.026032044
35	0xbe268585	-0.16261871
36	0x3dddc078	0.10827726
37	0x3e3bbeaf	0.18334459
38	0x3db7c04c	0.089722246
39	0x3d0b31c0	0.033982992
40	0xbd540fbf	-0.05177283
41	0x3debc3fd	0.11511991
42	0x3d0f24b2	0.034947105
43	0xbe982751	-0.29717496
44	0x3cb9bb5e	0.022672351
45	0x3d9f5c43	0.077812694
46	0x3e1f3387	0.15547
47	0x3ceac2e4	0.028657384
48	0x3e556e06	0.20842752
49	0xbdcbf767	-0.099592976
50	0x3bee579c	0.0072736274
51	0x3c488e5f	0.012240975
52	0xbe41390e	-0.18869421
53	0x3c3ffb89	0.0117176855
54	0x3df6e933	0.12056198
55	0xbe15e410	-0.1463778
56	0xbe5a4a53	-0.21317415
57	0xbe0c7c74	-0.1371935
58	0x3d31c370	0.043399274
59	0xbd4574e5	-0.048207182
60	0xbe8916ac	-0.2677511
61	0xbd7b83c4	-0.06140496
62	0x3d48dcc9	0.049038682
63	0xbda834f2	-0.082132235
64	0x3de4a808	0.11164862
65	0x3d1d0142	0.038331278
66	0x3e3f05e4	0.18654591
67	0x3d2d1d0c	0.04226403
68	0x3e2888f8	0.164585
69	0xbe307c13	-0.1723483
70	0xbd392959	-0.045205448
71	0x3e2f75e4	0.17134815
72	0x3dea2b57	0.11434048
73	0x3e0b9fa8	0.13635123
74	0x3e11c81e	0.14236495
75	0x3da26231	0.07928885
76	0xbe291efe	-0.16515729
77	0x3e5100b4	0.20410424
78	0xbe52a121	-0.20569278
79	0xbdd7b8a3	-0.105332635
80	0x3e60be47	0.21947585
81	0x3d20ca00	0.039255142
82	0xbc7cc454	-0.015427668
83	0xbe25b5e1	-0.16182663
84	0xbe1ff121	-0.15619327
85	0x3e00d4b0	0.12581134
86	0xbdeba4eb	-0.11506065
87	0x3c90e2a7	0.017686201
88	0x3ddd8703	0.10816767
89	0xbdd5503a	-0.104156926
90	0x3df0ae34	0.117519766
91	0x3c80d485	0.015726337
92	0x3d9b77c3	0.07591202
93	0xbe8e8b45	-0.2784063
94	0x3d9d840b	0.07691201
95	0xbe1e5845	-0.1546336
96	0xbe68dbf7	-0.2274016
97	0xbdde98ac	-0.108689636
98	0xbd7affdc	-0.061279163
99	0x3c3421ff	0.010994433
100	0x3dc2dcba	0.095147565
101	0x3a8d807c	0.0010795738
102	0xbd972c11	-0.07381452
103	0x3dc37c17	0.09545153
104	0x3df88b75	0.12135974
105	0xbe294256	-0.16529211
106	0x3de247dd	0.11048863
107	0xbe5b96fa	-0.21444312
108	0x3c354065	0.011062716
109	0x3decb26c	0.11557469
110	0x3e193fec	0.1496579
111	0x3d421b13	0.0473891
112	0x3e106716	0.14101824
113	0x3d9918bf	0.07475423
114	0xbcd17ba9	-0.025571661
115	0x3dcb4049	0.09924371
116	0xbe4fe1e9	-0.20301022
117	0xbda528fe	-0.08064459
118	0xbd4d0e53	-0.05006249
119	0x3e0b317d	0.13593097
120	0x3d01bed3	0.031676125
121	0x3d6ac395	0.057315428
122	0xbd3d2f33	-0.04618759
123	0x3d87ea06	0.06636433
124	0x3e05731d	0.13032193
125	0x3e4a2835	0.197419
126	0xbb12bc09	-0.002238991
127	0xbe279590	-0.16365647
128	0xbe3a387e	-0.18185613
129	0xbd98a2d8	-0.07452935
130	0xbbba8be4	-0.005692946
131	0xbe106dc9	-0.1410438
132	0x3bd01fad	0.0063514323
133	0x3c42a520	0.011880189
134	0x3c5a1b02	0.013312103
135	0x3d2f4300	0.042788506
136	0xbe011d33	-0.12608795
137	0xbe2d32e7	-0.16913949
138	0xbd8d836a	-0.06909831
139	0x3b225f36	0.0024775988
140	0xbe15e1cf	-0.1463692
141	0xbe127382	-0.14301875
142	0x3e086e1e	0.13323256
143	0xbc64c18a	-0.013962159
144	0xbcb10c98	-0.02161245
145	0x3e1e0b21	0.15433933
146	0xbe1fedad	-0.1561801
147	0xbd2247d9	-0.0396193
148	0xbde3682f	-0.11103856
149	0x3ddc0557	0.10743206
150	0xbc2d008c	-0.010559212
151	0xbd824165	-0.06360129
152	0xbda84a10	-0.08217251
153	0xbd6031bb	-0.054734927
154	0xbe0c0de4	-0.13677174
155	0xbe362ab1	-0.17789723
156	0x3de24924	0.11049107
157	0xbe3a6424	-0.18202263
158	0xbe1a4dbe	-0.15068719
159	0xbdde9fc2	-0.10870315
160	0x3dc8fba1	0.098136194
161	0x3cd0f8b6	0.02550922
162	0xbe406ef0	-0.1879232
163	0x3e0f8994	0.14017326
164	0x3c461222	0.012089284
165	0x3e3ec046	0.18628034
166	0xbcf9ff66	-0.030517291
167	0xbe1cb59e	-0.15303656
168	0xbe2bc120	-0.1677289
169	0xbd95aaab	-0.07307943
170	0x3d3d8f96	0.046279512
171	0xbdf9a550	-0.12189734
172	0x3e010995	0.12601312
173	0x3dbe16bd	0.09281681
174	0x3e3f4d8f	0.1868193
175	0xbd7797e1	-0.060447577
176	0x3daa7381	0.08322812
177	0x3d4c401d	0.04986583
178	0x3cdefbd5	0.027219692
179	0xbbd23558	-0.0064150505
180	0x3d38bbbc	0.045100912
181	0x3d777ac7	0.060419824
182	0xbe4b3797	-0.19845425
183	0xbe53e1a6	-0.20691547
184	0x3e23109d	0.15924306
185	0x3d2c088e	0.042000346
186	0x3e0f7889	0.14010824
187	0x3d966ddb	0.07345172
188	0xbc2c767e	-0.010526298
189	0xbd80ce5d	-0.06289361
190	0xbce1f522	-0.027582709
191	0xbddf94c3	-0.10917046
192	0xbe34fd47	-0.17674743
193	0xbe21a280	-0.15784645
194	0x3d0690e9	0.03285304
195	0xbe2da236	-0.1695641
196	0xbb43d909	-0.0029884002
197	0x3d47aeb4	0.048750594
198	0xbdaeaf1e	-0.08529495
199	0x3d2fc6ec	0.042914316
200	0xbd15f758	-0.03661284
201	0x3df393f8	0.11893457
202	0x3b680ef0	0.0035409294
203	0x3d95b7f7	0.07310479
204	0xbc232918	-0.009958528
205	0xbe24d378	-0.16096294
206	0x3e1650f9	0.14679326
207	0xbe0da3a5	-0.13831957
208	0x3d05d804	0.03267671
209	0xbd1cb533	-0.038258743
210	0xbe32253e	-0.1739702
211	0xbd912d93	-0.07088771
212	0x3dd0fe12	0.1020471
213	0xbe317516	-0.17329821
214	0xbc530c71	-0.012881384
215	0xbdeacfc7	-0.11465412
216	0x3c4ce2a0	0.0125052035
217	0xbb61da32	-0.003446233
218	0xbddec223	-0.108768724
219	0x3e044a65	0.12919004
220	0x3e183182	0.14862636
221	0xbd9a6494	-0.07538715
222	0x3e02d32b	0.12775867
223	0x3e0254de	0.12727687
224	0xbdc4a486	-0.09601693
225	0x3e091ff8	0.13391101
226	0x3db8a741	0.09016276
227	0x3c8dab2e	0.017293539
228	0x3dee1588	0.116252005
229	0xbd355506	-0.044270538
230	0x3ddd8937	0.10817187
231	0x3b9a33d3	0.004705885
232	0xbe1a3788	-0.15060246
233	0xbd338201	-0.043825153
234	0x3e016d02	0.1263924
235	0xbc89faf1	-0.016843291
236	0x3cbb74c0	0.02288282
237	0xbca674bd	-0.020319337
238	0xbd8fb9fd	-0.07017896
239	0x3cd25dc0	0.02567947
240	0xbe260e92	-0.16216496
241	0x3d678c4a	0.056530274
242	0x3d5396d2	0.051657505
243	0xbe233200	-0.15937042
244	0xbe7d54df	-0.24739407
245	0x3e722822	0.23648122
246	0xbd150d9f	-0.036389943
247	0x3d70c443	0.05878092
248	0xbd6f85eb	-0.058477324
249	0xbe0e52a6	-0.13898715
250	0x3e46a19d	0.19397588
251	0x3e6ee440	0.23329258
252	0xbe2cf464	-0.16890103
253	0xbdbc0f36	-0.09182589
254	0xbde754d1	-0.11295474
255	0xbdb1b244	-0.086765796

bias f4 [32]
0	0x3bc48692	0.0059974873
1	0xbe8295d1	-0.25504926
2	0xbdb33d70	-0.08751953
3	0x3e6a2d2f	0.22868799
4	0xbe74ab29	-0.23893417
5	0x3ce19e36	0.027541261
6	0xbe8a57e5	-0.27020183
7	0xbe0792e8	-0.13239634
8	0xbeb93954	-0.3617655
9	0xbb2b0cfe	-0.0026100273
10	0xbe9d520f	-0.30726668
11	0xbe8849ea	-0.26618892
12	0xbe029759	-0.12753047
13	0x3d295a45	0.041345853
14	0xbcc1d610	-0.023661643
15	0x3c9fa92c	0.019489847
16	0xbde0a81b	-0.109695636
17	0xbc827a06	-0.015927326
18	0x3dc8b713	0.09800544
19	0x3e0f3f07	0.13988887
20	0xbe2260b5	-0.15857203
21	0xbd83d279	-0.06436629
22	0xbe3fe280	-0.18738747
23	0x3c5e4e6e	0.013568504
24	0x3d779fd9	0.060455177
25	0xbe033f53	-0.12817125
26	0x3e0f4774	0.13992101
27	0x3c82436e	0.015901294
28	0x3ddf127f	0.108922
29	0x3d1ccce6	0.038281344
30	0x3dda700a	0.10665901
31	0xbbf62d12	-0.007512697

weight f4 [32, 3, 3, 3]
0	0xbb9ce5d8	-0.0047881417
1	0xbeabb0f4	-0.33533442
2	0xbe0643a4	-0.1311174
3	0xbe35dd70	-0.17760253
4	0xbe8677e2	-0.26263338
5	0xbea57010	-0.3231206
6	0x3e35ca5b	0.17752974
7	0x3c6a984a	0.014318535
8	0xbdc73363	-0.09726598
9	0xbde72991	-0.11287225
10	0x3da729c3	0.08162262
11	0x3e565511	0.20930888
12	0x3d347ce2	0.04406441
13	0x3e2f2ab5	0.17106135
14	0x3ea0f3a8	0.31435895
15	0x3da183fb	0.078865014
16	0x3c997a64	0.018735118
17	0x3ca74a74	0.020421244
18	0xbcfb2e3d	-0.030661697
19	0x3e7bbb6e	0.24583218
20	0x3c8f8ab6	0.017522197
21	0xbd329d0b	-0.0436068
22	0x3ec0e8f4	0.3767773
23	0x3e7a0da7	0.2441927
24	0xbd8c8a40	-0.068623066
25	0xbe526e75	-0.20549949
26	0xbd1ddd57	-0.038541164
27	0x3dbb47d7	0.09144562
28	0xbd94c2d8	-0.07263726
29	0xbe1eb7d5	-0.15499814
30	0x3e929b43	0.2863408
31	0x3e9783a0	0.2959261
32	0x3dfb9cbe	0.122857556
33	0x3e03eee5	0.128841
34	0x3d29360b	0.041311305
35	0xbe0dde67	-0.13854371
36	0x3d053eff	0.03253078
37	0x3dd8bb16	0.10582559
38	0xbe216153	-0.15759782
39	0x3ddf464a	0.109020784
40	0x3ef40008	0.47656274
41	0x3b84fe44	0.004058631
42	0x3df24425	0.11829404
43	0xbd9e9a6e	-0.07744299
44	0x3d94f6d0	0.07273638
45	0xbd0f362a	-0.034963764
46	0x3ccd672c	0.02507361
47	0x3c890c06	0.016729366
48	0x3eb0c8f9	0.3452833
49	0x3e9c7ce8	0.30564046
50	0xbce4b054	-0.027916111
51	0xbcfcecdb	-0.03087466
52	0xbcf35af7	-0.029706461
53	0x3d4e6f04	0.05039884
54	0x3c12d50f	0.00896193
55	0xbd44d9f1	-0.048059408
56	0xbd9154a8	-0.07096225
57	0xbdd83e5c	-0.10558769
58	0xbe124e38	-0.1428765
59	0x3db83a99	0.089955516
60	0x3d057706	0.032584213
61	0x3de1c829	0.11024506
62	0xba3acb21	-0.00071256055
63	0xbd180f77	-0.037124123
64	0x3c23c151	0.009994821
65	0xbe446b3c	-0.19181532
66	0xbdee7ea4	-0.116452485
67	0x3eae9092	0.34094673
68	0x3e026a5c	0.12735885
69	0x3e2ee5fe	0.17079923
70	0x3e8d8561	0.27640823
71	0xbe4b4d9b	-0.19853823
72	0x3e196665	0.14980467
73	0xbdabfe36	-0.08398096
74	0xbc0068e6	-0.00783751
75	0x3cca66bd	0.024707193
76	0x3e2b8ce5	0.16752966
77	0xbc4a468c	-0.012345921
78	0xbc817795	-0.015804091
79	0xbe574d71	-0.21025635
80	0xbdada3f5	-0.08478538
81	0x3e84b95f	0.25922677
82	0x3e952458	0.2912929
83	0xbd52bb07	-0.051447894
84	0x3d9ba286	0.07599358
85	0x3ec55d0f	0.3854756
86	0x3e37c081	0.17944528
87	0x3d58c5d0	0.052923024
88	0x3e856a8d	0.26057854
89	0x3e6abca4	0.22923523
90	0xbde560a1	-0.11200071
91	0x3cd496df	0.025950847
92	0xbd91f764	-0.07127264
93	0xbdc4c998	-0.096087635
94	0x3da17fef	0.078857295
95	0xbdbf129b	-0.093297206
96	0xbda97f0f	-0.08276188
97	0xbe195b63	-0.14976268
98	0x3ce1ad9a	0.0275486
99	0x3dacb2ba	0.08432527
100	0xbe92bfa4	-0.28661835
101	0xbe27ba03	-0.16379552
102	0xbe8f8c0c	-0.28036535
103	0xbe16eb06	-0.14738092
104	0xbdc65bf4	-0.096855074
105	0xbe262f5b	-0.16229002
106	0xbde7d133	-0.113191985
107	0xbd49d73c	-0.04927753
108	0x3d0161d7	0.031587448
109	0xbde260f6	-0.1105365
110	0xbbdb4e5e	-0.0066926917
111	0xbdb20d8e	-0.086939916
112	0xbe7e5012	-0.24835232
113	0xbe30326c	-0.17206734
114	0xbd3494bb	-0.044087153
115	0xbe1a0c3b	-0.15043728
116	0xbdd0566b	-0.10172733
117	0x3dee219b	0.116275035
118	0x3dfdf5c9	0.124003954
119	0xbe031709	-0.12801756
120	0x3dacbe79	0.08434767
121	0x3ed1bacc	0.40962827
122	0x3e775ac5	0.2415572
123	0xbd1d1dbf	-0.038358446
124	0x39443364	0.00018711161
125	0x3e389f8b	0.18029611
126	0xbd4b7c9d	-0.049679387
127	0xbc29403a	-0.010330254
128	0x3cc67569	0.024225907
129	0xbe1f28b6	-0.15542874
130	0x3e9a63bd	0.3015422
131	0xbd1d8ce8	-0.038464457
132	0x3dda34bc	0.106545895
133	0xbd5b5e94	-0.053556994
134	0xbd9f1aff	-0.07768821
135	0x3d1ef572	0.038808294
136	0x3d8c12b6	0.06839506
137	0x3d8a0342	0.06738903
138	0x3aac6660	0.0013153069
139	0x3e5f8a52	0.21830109
140	0xbe866da8	-0.26255536
141	0xbe021537	-0.12703405
142	0x3c4014f2	0.011723744
143	0xbd79dece	-0.0610035
144	0x3cdaa252	0.026688728
145	0xbdb9b763	-0.09068181
146	0x3db48fa3	0.08816459
147	0x3e0a3436	0.1349648
148	0x3eb03f75	0.34423414
149	0xbe7487c7	-0.2387992
150	0x3d3a7683	0.045523178
151	0x3de59ba9	0.112113304
152	0xbc6852a0	-0.014179856
153	0xbdb3f3a5	-0.08786706
154	0xbe7da355	-0.24769337
155	0x3d16f423	0.03685392
156	0xbdc43134	-0.09579697
157	0x3e9f1033	0.31067047
158	0xbc1b2ac6	-0.009470647
159	0xbcb5d262	-0.022195045
160	0x3dea7fcb	0.11450156
161	0x3d88df4b	0.06683215
162	0xbe12b9f7	-0.14328752
163	0x3e772c57	0.24138008
164	0x3df69dc3	0.120418094
165	0x3e774ac7	0.24149619
166	0xbd727d88	-0.059201747
167	0x3e721f44	0.2364474
168	0x3e36d7be	0.17855737
169	0x3eabfc25	0.3359081
170	0x3dcdf750	0.10056937
171	0xbe7c09db	-0.24613135
172	0xbe5ff8c7	-0.21872245
173	0xbd3b6de8	-0.04575911
174	0xbe80367a	-0.25041562
175	0xbe9ae084	-0.30249417
176	0xbd2ef019	-0.042709444
177	0xbe7837e2	-0.24240068
178	0xbd3c3b2b	-0.045954864
179	0xbea75132	-0.32679135
180	0x3dc640f9	0.09680361
181	0x3e213ff5	0.15747054
182	0x3cafd7af	0.02146515
183	0x3df03357	0.11728542
184	0xbd942411	-0.072334416
185	0x3d1f2d4f	0.03886157
186	0x3df0a739	0.11750645
187	0x3c720030	0.0147705525
188	0xbcf15bc6	-0.029462706
189	0xbc532c74	-0.012889016
190	0xbd257693	-0.040396284
191	0x3e1cb166	0.15302047
192	0x3c791810	0.015203491
193	0x3eef960b	0.4679416
194	0x3de6fcbb	0.11278673
195	0x3c38da18	0.011282466
196	0x3e3f3340	0.18671894
197	0xbe0dd929	-0.13852371
198	0x3e786c8f	0.24260162
199	0x3e0fbd8f	0.14037155
200	0x3df14039	0.117798276
201	0x3e29e461	0.16591026
202	0x3f2185d8	0.63094854
203	0x3e8203e4	0.25393593
204	0xbdc5fc14	-0.09667221
205	0x3e480a67	0.19535218
206	0x3e2d28c2	0.16910079
207	0xbe2dcc99	-0.16972579
208	0x3df4629d	0.119328715
209	0xbcae1556	-0.021250408
210	0xbd3052e5	-0.043047804
211	0x3ee8848a	0.4541362
212	0xbe283eee	-0.16430256
213	0xbe05cd49	-0.13066591
214	0x3dfaf743	0.12254193
215	0xbe9d7cf6	-0.307594
216	0x3df68ba9	0.12038357
217	0x3dbd2290	0.09235108
218	0xbd93f3f6	-0.07224266
219	0x3e0a1c9f	0.1348748
220	0xbb4f4709	-0.0031628034
221	0x3e4d3cef	0.20042776
222	0x3e3998d2	0.18124703
223	0x3e6c1912	0.23056439
224	0x3d28fd66	0.041257285
225	0xbe2edcb2	-0.17076376
226	0xbea5b385	-0.32363525
227	0xbe1102b0	-0.14161181
228	0xbeabbcbc	-0.3354243
229	0xbe3e6d86	-0.18596467
230	0xbe63e58d	-0.22255535
231	0xbe48d61f	-0.1961293
232	0xbcc0f608	-0.023554817
233	0xbdbe7715	-0.09300057
234	0x3e47562e	0.19466469
235	0x3e49aaab	0.19694011
236	0xbdb103c4	-0.08643296
237	0x3df2d712	0.11857428
238	0x3e168ec2	0.14702895
239	0x3e565dcb	0.20934217
240	0xbcdcc9ac	-0.026951633
241	0x3c16b2fa	0.009197945
242	0x3e458ce9	0.19292034
243	0xbd44cb22	-0.048045285
244	0xbe066eaa	-0.13128152
245	0xbc398bc9	-0.011324831
246	0xbde8b32b	-0.113622986
247	0xbe068454	-0.13136417
248	0x3d9b1853	0.07572999
249	0xbd5a8b8b	-0.053355735
250	0xbe05e852	-0.13076904
251	0x3da2816d	0.07934842
252	0xbd950b77	-0.07277577
253	0xbea9324a	-0.3304618
254	0x3dede78b	0.11616429
255	0xbe47d635	-0.19515307

bias f4 [32]
0	0x3d1227e7	0.035682585
1	0xbf38cc7c	-0.7218702
2	0x3c9f4d4f	0.019446043
3	0xbd5094e8	-0.050923258
4	0x3caad11b	0.020851662
5	0x3c1ea323	0.0096824495
6	0x3dd69527	0.10477667
7	0xbfb4f746	-1.4137962
8	0x3c91f8df	0.017818866
9	0x3e33483f	0.17508028
10	0x3cad61dc	0.021164827
11	0x3d271afc	0.04079722
12	0xbcdab4f4	-0.026697613
13	0x3be882d1	0.0070956727
14	0xbd8fc86f	-0.070206515
15	0x3e8f9cd5	0.2804934
16	0x3ddc9df7	0.10772317
17	0x3d7b9665	0.061422724
18	0x3c3167aa	0.010827938
19	0x3be22dd4	0.006902436
20	0x3d20dfa3	0.039275777
21	0x3cb17598	0.021662518
22	0x3d772728	0.060340077
23	0x3c5bcc78	0.013415448
24	0x3d08f017	0.033432093
25	0xbe5c86d3	-0.21535806
26	0x3c2789c2	0.010225715
27	0xbfb7f96a	-1.437299
28	0x3db2406e	0.08703695
29	0x3e3ca207	0.18421184
30	0x3dbb6969	0.09150965
31	0x3a144f16	0.00056575367

weight f4 [128, 64, 3, 3]
0	0x3b912d5d	0.0044304566
1	0xbd35a773	-0.044349145
2	0x3c85009e	0.016235646
3	0x3cf11e31	0.029433342
4	0x3d006886	0.03134968
5	0x3ad46ec8	0.0016207332
6	0xbcc1015b	-0.023560217
7	0x3c132e89	0.008983263
8	0x3b17b0f5	0.0023146246
9	0xbd1fa4d9	-0.03897557
10	0x3d0ce88b	0.034401458
11	0x3cc1e72c	0.023669802
12	0xba7d4eaa	-0.0009662906
13	0xbc701189	-0.014652618
14	0xbcd88cb9	-0.02643429
15	0x3afdc485	0.0019360936
16	0xbcbbfb21	-0.022946896
17	0x3b0e2e5e	0.0021695117
18	0xbc8f8dda	-0.017523695
19	0x3bfb8858	0.0076761656
20	0x3cc712c1	0.024300935
21	0x3cc13d9b	0.023588946
22	0x3a150a80	0.00056854635
23	0xbccd3b9d	-0.02505284
24	0x3ca05695	0.019572536
25	0x3bb9e765	0.0056733363
26	0x3b00efe9	0.0019674248
27	0x3c950cff	0.018194674
28	0xbc8a9fe8	-0.016921952
29	0x3d18ebc1	0.037334207
30	0x3bd967c2	0.0066346833
31	0x3acae0dc	0.001547839
32	0xbccf1762	-0.025279704
33	0x3c57610b	0.013145695
34	0x3c133306	0.008984333
35	0x3c3ed688	0.011647828
36	0xbd47931f	-0.04872429
37	0xbce37dfa	-0.027770031
38	0x3cb3a8b6	0.021931034
39	0xbcceec56	-0.025259178
40	0xbc0022d0	-0.0078208
41	0x3d25d8e3	0.040490042
42	0x3c097de3	0.00839183
43	0xbc6ec5ac	-0.014573496
44	0xbbed9bf0	-0.007251255
45	0x3c830602	0.015994076
46	0xbcc14965	-0.023594568
47	0x3b42415c	0.0029641008
48	0x39a5c1cf	0.0003161565
49	0xbd2af0e4	-0.041733637
50	0xbca0574e	-0.01957288
51	0x3bc1f24a	0.0059187757
52	0x3cd66076	0.026169043
53	0xbbc58c79	-0.0060287085
54	0xbd20d58c	-0.039266154
55	0xbcd960cf	-0.02653542
56	0xbc810ddf	-0.015753685
57	0xbc451f27	-0.012031353
58	0xbc8a868e	-0.016909864
59	0x3ce2c262	0.02768058
60	0x3cb80860	0.022464931
61	0xbb7b9f0e	-0.0038394365
62	0x3b11e549	0.0022261909
63	0xbc15d89a	-0.00914588
64	0x3cd11388	0.025522009
65	0xbc928151	-0.017883928
66	0xbca9d2a6	-0.020730328
67	0x3be8f548	0.007109318
68	0x3cc9bcda	0.024626184
69	0x3bbb9050	0.0057239905
70	0x3be904a6	0.00711115
71	0xbcd31fe7	-0.025772048
72	0xbd10d49c	-0.03535901
73	0xbcaa597e	-0.020794626
74	0xbbd1f0d1	-0.0064068814
75	0xbba33315	-0.0049804547
76	0x3d049c84	0.032375827
77	0x3c3c6175	0.011497845
78	0x3c93a541	0.018023135
79	0x3d3954ed	0.045247007
80	0xbd2276c2	-0.039664038
81	0x3be9f818	0.007140171
82	0x3b10bfd4	0.0022086995
83	0xbc29c515	-0.010361929
84	0xbcd08684	-0.025454767
85	0x3c4886cd	0.01223917
86	0xbcae7a59	-0.021298574
87	0xbd01ad09	-0.03165916
88	0xb9bef34c	-0.00036420894
89	0x3b61f32a	0.0034477212
90	0xbbb4e9c9	-0.0055210334
91	0xbc91dbd5	-0.01780502
92	0x3ca372df	0.019952236
93	0x3cc0463d	0.023470992
94	0x3caa781a	0.020809222
95	0xbd4a5e05	-0.04940607
96	0x3bd07125	0.006361144
97	0x3b86f0e1	0.0041180705
98	0x3b982848	0.004643474
99	0x3ce69d74	0.028151251
100	0x3cf98365	0.030458162
101	0xbcdeb852	-0.0271875
102	0x3d03fea8	0.03222528
103	0x3c701b4b	0.014654945
104	0x3c87ecf4	0.01659248
105	0x3c36cc77	0.011157147
106	0x3d1a45bb	0.037664156
107	0x3ce9540b	0.028482458
108	0x3cd15df9	0.025557505
109	0x3d14f456	0.03636583
110	0x3c6bb098	0.014385365
111	0x3bcf88b8	0.006333437
112	0x3ccf1d79	0.025282608
113	0x3aa062e9	0.0012236509
114	0x3b616021	0.0034389573
115	0xbcf574d0	-0.029962927
116	0xbd0f83b8	-0.035037726
117	0xbcd55507	-0.02604152
118	0x3cd3beeb	0.025847873
119	0x3c2951b1	0.010334418
120	0xbd00290a	-0.031289138
121	0xbc71cacf	-0.014757826
122	0x3cda9ad1	0.02668515
123	0x3cf8a027	0.030349804
124	0x3bfb3341	0.007666022
125	0xbc441030	-0.01196675
126	0xbcce2de2	-0.025168363
127	0x3c9b0e85	0.018927822
128	0xbb8d9c37	-0.004321601
129	0x3ce1266c	0.027484141
130	0x3c9d07c1	0.019168736
131	0xbcbeab3b	-0.023275008
132	0x3d19520d	0.037431765
133	0x3ccf293a	0.025288213
134	0xbcc720c7	-0.024307622
135	0xbabda553	-0.0014468826
136	0x3cc3d94a	0.023907322
137	0x3c8f2493	0.017473495
138	0xbc707b5a	-0.014677847
139	0x3c822ce3	0.015890544
140	0x3b01cc98	0.0019805785
141	0x3c1dd2f6	0.009632817
142	0xbd1e9726	-0.038718365
143	0x3d04b4e6	0.03239908
144	0xbc48f451	-0.012265281
145	0x3bc6d69f	0.0060680653
146	0xbc2e1f76	-0.010627618
147	0xbb50b1d0	-0.0031844266
148	0xbc9044bf	-0.017610906
149	0x3cad9a75	0.021191815
150	0xbccb2961	-0.024800004
151	0xbd2f777f	-0.04283857
152	0xbcc3ea31	-0.023915382
153	0xbd34e0ab	-0.044159573
154	0xba89dcb2	-0.0010518043
155	0xbcf8e762	-0.03038377
156	0x3cadb65c	0.02120512
157	0x3d0a9c2f	0.033840355
158	0xbd3128ef	-0.043251928
159	0x3b94a514	0.0045362804
160	0xbc5da2d5	-0.013527592
161	0x3cb1938a	0.021676797
162	0x3bea4a9f	0.007150009
163	0xbc715303	-0.014729264
164	0x3c9bb2d3	0.019006168
165	0xbc115783	-0.008870962
166	0xb9ee4aee	-0.00045450724
167	0x3c4ae2af	0.012383147
168	0x3c5ae74f	0.013360812
169	0x3d04a215	0.032381136
170	0x3c4a5943	0.012350383
171	0xbb8e8a63	-0.004349993
172	0x3ca84e0d	0.02054503
173	0x3b35c9db	0.0027738723
174	0x3d3b14b2	0.045674033
175	0x3aa2930e	0.0012403445
176	0x3cbf5b9f	0.023359118
177	0xbd2f5c8a	-0.04281286
178	0xba8ff5d7	-0.00109833
179	0x3c91ccf4	0.017797925
180	0xbd0d3a22	-0.034479268
181	0x3d40ab66	0.04703846
182	0xbcbaccd5	-0.02280275
183	0xbd262b1a	-0.04056845
184	0xbcf91554	-0.030405678
185	0xbd2cd2b3	-0.042193126
186	0xba78816b	-0.0009479734
187	0x3b24eddb	0.0025166187
188	0x3c4f6785	0.012658958
189	0x3c8e03ca	0.017335791
190	0xbd05969e	-0.032614343
191	0xbc96a022	-0.018386904
192	0xbca3b66a	-0.019984443
193	0xbc87c4a7	-0.016573263
194	0xbc729b57	-0.014807544
195	0xbd056089	-0.032562766
196	0xbc0ee6ca	-0.008722017
197	0xbbcc31eb	-0.0062315366
198	0xbacb7de1	-0.0015525186
199	0x3cd900e9	0.026489692
200	0x3cbaf588	0.022822157
201	0xbc961e21	-0.018324913
202	0xbca1bc99	-0.01974325
203	0x3cda3565	0.026636789
204	0xb8a09721	-7.6575445e-05
205	0xbc466dda	-0.012111152
206	0x3cadc92b	0.021214088
207	0xbd5572cf	-0.052111443
208	0x3c82d47f	0.015970467
209	0x3cd19de6	0.025587987
210	0x3cc182c8	0.023621932
211	0xbd00ad22	-0.031415112
212	0x3ba87c71	0.0051417877
213	0xbc1f88fe	-0.009737251
214	0xbcaddcf4	-0.021223523
215	0xbbe022bd	-0.0068400786
216	0xbbe9e868	-0.0071383007
217	0x3d05490d	0.03254037
218	0xbd2836a9	-0.041067753
219	0xba69f1fc	-0.0008924303
220	0x3ca8a129	0.02058466
221	0xbca8c773	-0.020602917
222	0x3bbd16e1	0.0057705496
223	0x3ba92ac5	0.005162569
224	0xbd24b639	-0.040212844
225	0xbced71c2	-0.028984908
226	0x3b8d456c	0.0043112542
227	0xbcd07a33	-0.025448894
228	0x3b6b6d56	0.0035923324
229	0x3b885650	0.00416068
230	0x3cb2a24a	0.021805901
231	0x3c949f4f	0.01814237
232	0xbb5134aa	-0.003192226
233	0xbd0c345b	-0.034229618
234	0x3ae95763	0.0017802533
235	0xbcc8b6f3	-0.0245013
236	0xbc27ee6e	-0.010249717
237	0x3d2078cb	0.039177697
238	0x3d134301	0.03595257
239	0xbc3f5268	-0.011677362
240	0xbc0b6bc6	-0.008509582
241	0x3c2e785f	0.010648816
242	0x3d00a70b	0.031409305
243	0xbcb2fdf1	-0.021849604
244	0x3aedfde4	0.001815733
245	0xbd0ba9d3	-0.034097504
246	0xbba4c459	-0.0050282893
247	0x3bc5a011	0.0060310443
248	0x3cd47722	0.025935713
249	0x3c908588	0.017641798
250	0x3c28316c	0.010265689
251	0xbd0404e1	-0.032231215
252	0x3c807ef5	0.015685538
253	0x3d0423ba	0.032260634
254	0x3ccc754e	0.024958279
255	0xbb070513	-0.002060239

bias f4 [128]
0	0xbdc11652	-0.094280854
1	0x3e36a1bf	0.17835139
2	0xbe13e7b9	-0.14443864
3	0xbdf9d2da	-0.1219842
4	0xbd9c8354	-0.07642236
5	0xbddba1b6	-0.10724203
6	0xbd3bdb36	-0.045863353
7	0x3b878c6e	0.0041366136
8	0xbd166c20	-0.03672421
9	0x3e5c1c67	0.2149521
10	0xbd2ae349	-0.041720662
11	0x3d9089f2	0.07057561
12	0xbe07a518	-0.13246572
13	0x3bfcbdc6	0.0077130524
14	0x3dfcf1af	0.12350785
15	0xbd72832a	-0.05920712
16	0x3dfb3ef0	0.12267864
17	0xbea96254	-0.3308283
18	0x3e2352d6	0.15949568
19	0x3d269caf	0.04067677
20	0x3addfc8b	0.0016936226
21	0xbe2bd318	-0.16779745
22	0xbe3e788e	-0.18600675
23	0xbcf92e1f	-0.0304175
24	0xbc843b54	-0.016141571
25	0x3d2c876c	0.042121336
26	0xbe7993b3	-0.24372749
27	0x3be4f70d	0.0069874586
28	0x3d396bc1	0.045268778
29	0x3e1311bd	0.14362235
30	0x3e618380	0.2202282
31	0xbd8c084c	-0.0683752
32	0x3c82a67b	0.015948525
33	0xbed955f6	-0.42448395
34	0xbca2d3ef	-0.019876448
35	0x3e540469	0.20704807
36	0xbe0f3625	-0.13985498
37	0x3d75cc07	0.06000903
38	0xbe05be41	-0.13060857
39	0x3df801da	0.12109728
40	0xbd3911de	-0.045183055
41	0xbd2ecfd4	-0.04267867
42	0x3cc05d7a	0.023482073
43	0xbb81bf7d	-0.0039595948
44	0x3d25fc5b	0.040523868
45	0xbd932fab	-0.07186826
46	0x3e05191c	0.1299786
47	0xba67d7e9	-0.0008844124
48	0xbb6bd828	-0.0035986993
49	0xbd0b3c31	-0.03399295
50	0xbe8dfd58	-0.27732348
51	0xbc83a0d9	-0.01606791
52	0x3e3a026a	0.18164983
53	0xbe18158e	-0.14851972
54	0x3c2f66de	0.010705678
55	0xbc64759e	-0.013944058
56	0xb98a658f	-0.00026397078
57	0xbc8e0762	-0.017337505
58	0xbbc098d4	-0.0058775935
59	0x3e9ebc49	0.31003025
60	0xbd587ab1	-0.052851383
61	0xbd09eee7	-0.0336751
62	0x3d6cd6a2	0.057821877
63	0xbded5cc5	-0.1158996
64	0xbeb3ee0c	-0.35142553
65	0xbda03117	-0.07821863
66	0xbcd68505	-0.026186476
67	0x3e2101a5	0.15723284
68	0xbcc3fe5b	-0.023924997
69	0xbd074277	-0.03302237
70	0x3decc56e	0.11561094
71	0x3e0f38ad	0.13986464
72	0xbcab2d86	-0.02089573
73	0xbe0b963a	-0.13631526
74	0xbcda37de	-0.026637968
75	0xbef14600	-0.47123718
76	0xbdbb5c44	-0.09148458
77	0xbcb86860	-0.022510707
78	0x3ae10466	0.0017167449
79	0xbd2632cc	-0.040575787
80	0x3d88ce7e	0.0668001
81	0xbc4efb3d	-0.012633142
82	0x3d6775f1	0.056508962
83	0xbccab201	-0.024743082
84	0x3c8d1dfd	0.017226214
85	0x3d8ac195	0.06775204
86	0xbdc3fb43	-0.09569409
87	0xbf063a97	-0.5243315
88	0x3bee0c02	0.007264615
89	0xbef7c417	-0.48391792
90	0xbe02b79b	-0.12765352
91	0x3d42ba61	0.047541026
92	0xbc4944d4	-0.012284476
93	0xbf228e32	-0.6349822
94	0x3d212e9c	0.03935109
95	0xbe91786d	-0.2841219
96	0xbe2ce90b	-0.16885774
97	0x3e8e741c	0.2782296
98	0x3e071f10	0.13195443
99	0xbe0663c8	-0.13124001
100	0xbb2e3d5b	-0.0026586864
101	0x3e7bb9c3	0.24582581
102	0x3df33374	0.11875048
103	0xbd8ec019	-0.069702335
104	0x391feed4	0.00015252392
105	0x3d079a95	0.033106405
106	0xbe86880e	-0.26275676
107	0x3d97183b	0.073776685
108	0xbd2d350a	-0.04228691
109	0x3e00e773	0.12588291
110	0xbd7c68dd	-0.061623443
111	0x3dff7030	0.1247257
112	0xbdacbe84	-0.084347755
113	0xbef86eb3	-0.48521957
114	0xbe1a697b	-0.150793
115	0x3e5ecfb4	0.2175892
116	0xbea8b62d	-0.3295149
117	0xbd9bee41	-0.07613803
118	0x3d84da8f	0.06486999
119	0x3d1af175	0.037827928
120	0x3e0cd793	0.1375411
121	0xbe1ae146	-0.15124997
122	0x3cd132d4	0.025536932
123	0xbe417755	-0.18893178
124	0xbb67300f	-0.0035276448
125	0x3ac7fc56	0.0015257697
126	0xbeab553d	-0.3346347
127	0xbdda3753	-0.106550835

weight f4 [128, 64, 3, 3]
0	0xbd367d3b	-0.044553023
1	0xbd5d9ad9	-0.054102752
2	0x3c51b226	0.012798822
3	0x3ca76ea2	0.020438496
4	0xbd4cf7e0	-0.05004108
5	0xbd6c93e3	-0.057758223
6	0x3c9a15ba	0.018809188
7	0x3d24e411	0.040256564
8	0x3c6799ce	0.014135791
9	0xbbad43ad	-0.0052876086
10	0xbd4ab498	-0.049488634
11	0xbd0e4610	-0.034734786
12	0x3d08e952	0.033425637
13	0xbce24fdf	-0.027625976
14	0xbb482620	-0.0030540302
15	0xb97cc282	-0.00024105053
16	0xbb0c04b7	-0.0021365115
17	0x3ab5f1b4	0.0013881237
18	0xbc992b29	-0.018697338
19	0x3cff83fc	0.031190865
20	0x39ae9e12	0.00033305638
21	0xbcc9e2a0	-0.024644196
22	0x3da68a43	0.0813184
23	0x3d0f90df	0.03505027
24	0xbd79c77b	-0.060981255
25	0x3c56d7b0	0.013112947
26	0xbd344f40	-0.04402089
27	0xbd622dfc	-0.055219635
28	0x3cf7586f	0.030193536
29	0x3bf5d0c0	0.0075016916
30	0x3c8b9e53	0.017043268
31	0x3d64219c	0.055696115
32	0xbad84803	-0.0016500953
33	0x3c72b1b2	0.014812874
34	0xbccdc54e	-0.025118496
35	0x3b17a60e	0.0023139748
36	0x3d203c14	0.039119795
37	0x3d039907	0.03212836
38	0xbcb0293e	-0.02150404
39	0xbd1c8f31	-0.038222495
40	0xbd086825	-0.033302445
41	0xbc8f1daa	-0.0174702
42	0x3b3c4d14	0.0028732466
43	0xbc15f866	-0.009153461
44	0x3ce9ccfb	0.028540125
45	0x3b588941	0.0033040794
46	0x3c73da87	0.014883644
47	0xbca98095	-0.020691196
48	0xbb798b84	-0.0038077543
49	0x3da9444c	0.0826498
50	0x3c7d6fa5	0.015468513
51	0xbd06f75f	-0.032950755
52	0xbc80397a	-0.015652407
53	0x3c643e06	0.013930803
54	0x3c9baea6	0.019004177
55	0x3c40667d	0.011743185
56	0xba8b85f8	-0.0010644784
57	0x3c0ba391	0.008522884
58	0x3a934bc8	0.0011237795
59	0x3c50775f	0.012723773
60	0x3c829ac2	0.015942935
61	0xbc5bc746	-0.01341421
62	0xbccfea54	-0.025380291
63	0x3a974251	0.001154015
64	0x3cd9a608	0.026568428
65	0x3927b1f8	0.0001599266
66	0x3ab2d8a7	0.001364489
67	0x3cae66ec	0.021289311
68	0x3a03d261	0.00050286023
69	0x3bc257a0	0.005930856
70	0xbd2e8859	-0.0426105
71	0xbbac4469	-0.0052571786
72	0xbd0f13be	-0.034930937
73	0x3ced39d0	0.028958231
74	0x3be9d7fd	0.0071363435
75	0xbc4f633e	-0.0126579385
76	0xbcbe97d6	-0.02326576
77	0xbb14120e	-0.002259377
78	0x3cb3015f	0.02185124
79	0x3d20e6ff	0.039282795
80	0xbcad81c1	-0.021180036
81	0x3cd6c0d8	0.026215002
82	0x3d52ad7b	0.051434975
83	0xbc090b86	-0.008364564
84	0x3b93aeea	0.0045069354
85	0x3def3aa9	0.116811104
86	0x3cbae8b7	0.022816045
87	0x3a9e076a	0.0012056653
88	0x3bb51aac	0.005526861
89	0xbc22f09c	-0.009945061
90	0x3c39878e	0.011323823
91	0xbc3c4de8	-0.011493184
92	0x3bc8500f	0.0061130594
93	0xbd2473d2	-0.040149517
94	0xbd10341b	-0.03520594
95	0x3d1cfa56	0.038324676
96	0xbc795c10	-0.015219703
97	0xbc8e1d5f	-0.01734799
98	0xbd21020c	-0.039308593
99	0x3d10702b	0.03526322
100	0xbd0bb62c	-0.03410928
101	0x3a342d42	0.0006873199
102	0xbce81bdd	-0.028333599
103	0x3ce5bb93	0.028043544
104	0xbaab4fae	-0.0013070011
105	0xbc0874b2	-0.008328604
106	0x3d017268	0.031603247
107	0xbc60851f	-0.013703614
108	0xbd0e6492	-0.03476388
109	0xbc5b05d1	-0.013368086
110	0xbc82a93f	-0.015949843
111	0x3d3adb39	0.045619223
112	0x3db96ea5	0.09054307
113	0x3d1b9c8f	0.037991103
114	0x3ccc09b5	0.024906972
115	0x3d2e28b6	0.042519294
116	0xbcd672c2	-0.026177768
117	0xb9918e42	-0.00027762546
118	0xbca1ce29	-0.019751625
119	0xbcf15f26	-0.029464316
120	0xbcf614c6	-0.030039202
121	0x3d2848ec	0.04108517
122	0x3c3a1601	0.011357785
123	0x3ca24a33	0.019810772
124	0x3b2554fa	0.0025227652
125	0xbd1b237f	-0.03787565
126	0x3cf6d034	0.030128576
127	0xbc948fb9	-0.018134939
128	0xbcc49482	-0.023996595
129	0xbcac6a70	-0.021046847
130	0x3c3c47c4	0.01149172
131	0x3b98bf6e	0.004661492
132	0xbb8f1c34	-0.0043673757
133	0xbc54700d	-0.012966168
134	0x3c929772	0.01789448
135	0xbcb5bb54	-0.022184052
136	0xbd220899	-0.03955898
137	0x3d2809d1	0.041024987
138	0xbcaf2070	-0.021377772
139	0xbd26f9af	-0.04076546
140	0xba09edf4	-0.0005261593
141	0x3d09de0d	0.03365903
142	0xbce6aa46	-0.028157365
143	0x3d02b3a9	0.03190962
144	0xbc295dbc	-0.010337289
145	0x3ce03069	0.027366834
146	0x3d11d68a	0.03560499
147	0x3cf8f114	0.030388393
148	0xbc8886d3	-0.016665852
149	0xbd2255f2	-0.039632745
150	0xbce83695	-0.02834634
151	0xbd279138	-0.040909976
152	0x3cd9cab3	0.026585912
153	0x3cba6e03	0.022757536
154	0xbcc4fea2	-0.0240472
155	0x3cc81d15	0.02442793
156	0xbc9a9038	-0.018867597
157	0xbaa01942	-0.0012214559
158	0xbce1f0b8	-0.027580604
159	0xbc84e8db	-0.016224315
160	0x39968fb9	0.0002871731
161	0xbcf0dccd	-0.029402161
162	0x3c169d09	0.009192714
163	0x3c2fa356	0.010720095
164	0xbca15a75	-0.019696454
165	0xbc359444	-0.011082713
166	0x3d0d056b	0.034428995
167	0x3cbdbca7	0.023161246
168	0x3cd029a3	0.025410479
169	0x3cd526d0	0.026019484
170	0x3c917e7f	0.017760513
171	0xbcd50bdc	-0.026006632
172	0xbcd90900	-0.02649355
173	0xbcaf5189	-0.021401184
174	0xbcda31b2	-0.026635025
175	0x3cb6c8bd	0.022312516
176	0xbcdcd3fe	-0.026956555
177	0xbc87fbc5	-0.016599545
178	0x3b5d9d1e	0.0033815573
179	0xbd1237ae	-0.03569763
180	0xbbb71a8d	-0.005587882
181	0x3d4faedd	0.050703872
182	0xbbd4ac34	-0.006490255
183	0x3ce3005d	0.027710134
184	0x3c0f94b4	0.008763481
185	0xbb982fae	-0.0046443557
186	0x3c6e1e1c	0.014533546
187	0xbaca2aed	-0.001542417
188	0xbbc41706	-0.00598419
189	0xbc36feed	-0.0111691775
190	0xbcc04016	-0.023468059
191	0xbc4ea443	-0.012612405
192	0x3c17e7c4	0.009271566
193	0x3d11da0f	0.035608348
194	0x3d2e36bf	0.04253268
195	0x3cbf9623	0.02338702
196	0x3d3037d1	0.04302198
197	0xbc7ee95c	-0.015558567
198	0x3d0887b2	0.033332534
199	0xbd2c2c90	-0.042034686
200	0xbc516745	-0.012780969
201	0x3cd205d4	0.025637545
202	0x3d29303f	0.041305777
203	0xbc4341dd	-0.0119175585
204	0x3bf49315	0.0074638226
205	0xbc55fce7	-0.013060785
206	0xbb8449eb	-0.004037132
207	0x3c50048d	0.0126963975
208	0x3d84404c	0.06457576
209	0x3d02587f	0.031822678
210	0xbd96af25	-0.07357625
211	0x3c8dff2a	0.017333586
212	0x3b772168	0.003770912
213	0xbd235537	-0.03987619
214	0xbc936bf9	-0.017995821
215	0xbd0c2a98	-0.034220308
216	0xbc367e6b	-0.011138539
217	0xbc9de6a6	-0.01927502
218	0x3d1c3a62	0.038141616
219	0xbc3cfa95	-0.011534353
220	0x3cd88b11	0.0264335
221	0x3c55fa81	0.013060213
222	0x3c89389e	0.01675063
223	0x3b9ea609	0.0048415703
224	0xbbf9fd00	-0.007629037
225	0x3d09caba	0.0336406
226	0xbb4e8cd6	-0.003151705
227	0x3cf31e74	0.029677607
228	0xbcb368bc	-0.021900527
229	0xbd3270dd	-0.043564666
230	0x3c3799ad	0.011206073
231	0xbca82950	-0.020527512
232	0xbce8e4cd	-0.028429413
233	0x3ab8ff3e	0.0014114154
234	0x3d040080	0.03222704
235	0x3cfaee12	0.030631099
236	0xbd163025	-0.036667008
237	0xb9c34770	-0.00037246523
238	0xbd17a89f	-0.037026044
239	0xbc1c7902	-0.009550335
240	0x3d1267c9	0.03574351
241	0x3c67d668	0.0141502395
242	0x3cb4e40e	0.022081401
243	0xbc6e8899	-0.014558935
244	0xbcc800b8	-0.024414405
245	0x3cc275ed	0.023737872
246	0xbcf8c461	-0.030367078
247	0xbdb777cf	-0.089583986
248	0xbc85f364	-0.01635141
249	0xbd2ac91a	-0.04169569
250	0xbcf0e9b3	-0.029408311
251	0xbca08b46	-0.01959766
252	0x3c37df4f	0.0112226745
253	0x3d614a5f	0.055002566
254	0x3c9cf607	0.019160284
255	0xbd4ef217	-0.050523844

bias f4 [64]
0	0xbca678e2	-0.020321313
1	0x3dd85ff5	0.10565177
2	0xbcdde94e	-0.027088787
3	0xbcd6010c	-0.026123546
4	0x3d7b7f20	0.061400533
5	0x3d29b9f2	0.041437097
6	0x3d16973a	0.036765315
7	0xbd8e5e2a	-0.06951554
8	0x3e5400df	0.20703457
9	0xba7c3a9a	-0.00096217694
10	0x3d7e04fa	0.062016465
11	0x3e089076	0.13336357
12	0xbe277f32	-0.16357115
13	0xbc8595d1	-0.01630679
14	0xbe64188f	-0.22274993
15	0xbbd685d2	-0.0065467143
16	0xbcdd1e0b	-0.026991865
17	0x3db851b6	0.0899996
18	0x3cea37e1	0.028591098
19	0xbd2ebf15	-0.0426627
20	0xbe972cd3	-0.29526386
21	0x3daf5031	0.08560217
22	0x3bcaaa7c	0.006184874
23	0xbea2803e	-0.31738466
24	0xbe0b0bac	-0.13578671
25	0xbd57489e	-0.052559488
26	0x3e0da5b3	0.1383274
27	0xbe64fcdf	-0.22362088
28	0xbd339cd6	-0.043850742
29	0x3ca91729	0.020640926
30	0x3b1e92b7	0.0024196336
31	0x3c4f3c7f	0.012648701
32	0x3dbfd86d	0.09367452
33	0x3d71922a	0.058977284
34	0xbf12fb1f	-0.5741443
35	0xbce54bfd	-0.027990336
36	0xbe24f016	-0.1610721
37	0xbe24a3de	-0.16078135
38	0xbeb6287e	-0.35577768
39	0xbe25433f	-0.16138934
40	0xbd08c674	-0.033392385
41	0xbe73e320	-0.2381711
42	0x3aaaa0c2	0.001301788
43	0x3cb5c6e8	0.022189572
44	0xbdf69a77	-0.120411806
45	0xbd9f2557	-0.07770794
46	0x3caf40aa	0.021393139
47	0xbdf6426c	-0.12024388
48	0x3dfaf47d	0.12253664
49	0xbe4464f1	-0.19179131
50	0xbc954c18	-0.01822476
51	0xbe5c53d0	-0.21516347
52	0xbde0fb5d	-0.10985444
53	0xbcc614e5	-0.024179885
54	0x3d3e11ca	0.046403684
55	0x3d28e0df	0.04123008
56	0x3c0ad34c	0.008473229
57	0x3d0e3f1e	0.034728162
58	0x3e07ade4	0.13249928
59	0xbdaff1b4	-0.08591023
60	0xba792bcc	-0.00095051224
61	0xbd030332	-0.03198547
62	0x3dcad84d	0.09904537
63	0x3baca477	0.005268629

weight f4 [64, 32, 3, 3]
0	0xbd77b2b2	-0.06047315
1	0x3d87c508	0.066293776
2	0xbb4698ce	-0.003030348
3	0x3c5b7e97	0.013396881
4	0x3e1c5c53	0.15269594
5	0x3d953d9a	0.0728714
6	0xbd13dc8f	-0.036099013
7	0x3d10241e	0.035190694
8	0xbdb103f2	-0.08643331
9	0xbd1d2430	-0.03836459
10	0xbc5e2b53	-0.013560134
11	0xbd2ae405	-0.041721363
12	0x3ca06255	0.019578138
13	0x3c27b235	0.010235359
14	0x3d1e7c74	0.038692906
15	0xbbf7f205	-0.007566693
16	0x3ceb772a	0.028743345
17	0xbba8d689	-0.0051525277
18	0xbd0c62b9	-0.034273837
19	0xbc9e76bc	-0.019343726
20	0xb90dcbfe	-0.00013522801
21	0x3ca31919	0.019909428
22	0x3d9c3cff	0.076288216
23	0xbcaaf3cd	-0.020868206
24	0x3d3923d5	0.045200188
25	0x3ac942d1	0.0015354996
26	0x3b692e9c	0.003558076
27	0x3d344ae8	0.04401675
28	0x3c7aaf55	0.0153005915
29	0xbcab15d8	-0.02088444
30	0x3b6d7e9a	0.003623879
31	0x3c96bbb6	0.018400054
32	0xbbca5a5a	-0.0061753215
33	0x3c6a7b23	0.014311585
34	0x3cb4f04f	0.022087244
35	0x3c75f73d	0.0150125595
36	0xbd0ebc59	-0.03484759
37	0x3cdbc5a6	0.026827645
38	0xbc05f665	-0.008176421
39	0x3c454df9	0.012042516
40	0x3d49d686	0.04927685
41	0xbcf4cd6f	-0.029883115
42	0x3d4c1310	0.049822867
43	0xbc7bab9b	-0.015360738
44	0xbcafe2a5	-0.021470377
45	0xbcb5c636	-0.02218924
46	0xbd15bedd	-0.036558975
47	0xbd1e56bc	-0.038656935
48	0x3d121419	0.035663698
49	0x3d3c7112	0.04600627
50	0xbcfad544	-0.030619271
51	0x3d01aec1	0.0316608
52	0x3cc82788	0.024432912
53	0xbca87938	-0.020565614
54	0xbcfdf56e	-0.031000819
55	0xbd891703	-0.06693842
56	0xbd2fd782	-0.042930134
57	0x3ccdc641	0.025118949
58	0x3d84b974	0.06480685
59	0xb977f5fa	-0.00023647389
60	0x3ad1c792	0.0016004911
61	0x3d296959	0.041360233
62	0xbd8d3fae	-0.068969116
63	0x3d0fcd8a	0.035108127
64	0x3cf6eec1	0.030143144
65	0xbd1074da	-0.03526769
66	0x3cccfbf5	0.025022486
67	0xbbca5682	-0.0061748633
68	0x3d0a11d9	0.033708427
69	0x3d65146f	0.05592769
70	0xbc0473ba	-0.008084232
71	0xbd205a76	-0.03914877
72	0xbcec7fdc	-0.028869562
73	0xbd09eb71	-0.0336718
74	0xbd60b386	-0.054858707
75	0x3d25571d	0.04036628
76	0x3c8bb7bc	0.017055385
77	0xbd2d516a	-0.04231397
78	0xbba28fa9	-0.0049609733
79	0xbd3d2206	-0.046175025
80	0x3bb49122	0.0055104652
81	0x3d542a9e	0.051798455
82	0xbb957eeb	-0.004562249
83	0xbd9157bd	-0.07096813
84	0xbc90f583	-0.017695194
85	0x3d4d874b	0.050177854
86	0x3d0f458b	0.03497843
87	0x3d43bc0f	0.04778677
88	0xbc2bf960	-0.010496467
89	0xbd1b9fb3	-0.037994098
90	0xbc3252a1	-0.010883958
91	0xbc07c8c6	-0.008287614
92	0x3c34c9a2	0.011034401
93	0x3d916eea	0.07101233
94	0x3df04c98	0.11733359
95	0x3ca0b6a8	0.019618347
96	0xbb829154	-0.0039846096
97	0x3ccd1165	0.025032708
98	0x3c6d70bd	0.014492211
99	0xbcabecc7	-0.020986928
100	0xbd0bcc8c	-0.034130618
101	0xbd8f3e35	-0.06994287
102	0xbc93e461	-0.018053235
103	0x3cfd904a	0.030952591
104	0x3cef31f4	0.029198624
105	0xbbd3c377	-0.00646251
106	0x3be322af	0.006931625
107	0x3c003def	0.007827266
108	0x3c5c87f7	0.013460151
109	0x3aed2216	0.0018091823
110	0xbce539bc	-0.027981631
111	0xbd780d1a	-0.06055937
112	0x3b1fddb8	0.002439363
113	0x3c754f48	0.014972515
114	0x3d40b4fd	0.047047604
115	0xbc002d24	-0.007823262
116	0x3cc18ca7	0.023626639
117	0x3d1a8adb	0.03773008
118	0xbc6b9497	-0.014378688
119	0xbd1cb966	-0.038262747
120	0xbd91b9b3	-0.071154974
121	0xba8a7e62	-0.001056623
122	0xbd6f17aa	-0.058372177
123	0xbcb3e0c0	-0.021957755
124	0xbc807957	-0.01568286
125	0xbd05c8c4	-0.03266217
126	0x3d45e210	0.048311293
127	0x3c9949f4	0.018712021
128	0xbd7d1422	-0.06178678
129	0xbc0db87d	-0.008649942
130	0x3ddd70ca	0.108125284
131	0x3d1e75a5	0.038686413
132	0xbcf0b248	-0.029381886
133	0x3d2f1f2c	0.042754337
134	0xbd86c015	-0.065796055
135	0x3c7cf1da	0.015438521
136	0xbd36f7cd	-0.044669915
137	0x3c2b753f	0.010464965
138	0xbd08c45e	-0.033390395
139	0x3b439f9d	0.0029849776
140	0xbd159fdc	-0.036529407
141	0x3d0edb3e	0.034877054
142	0x3d7cf539	0.0617573
143	0x3c13f6bd	0.009030995
144	0x3d757306	0.059924148
145	0xbcfb870d	-0.030704046
146	0xbc419b1b	-0.011816765
147	0xbd2cdc59	-0.042202327
148	0xbd5a156f	-0.053243097
149	0x3c860e30	0.016364187
150	0xbcafc305	-0.021455297
151	0x3c8b6133	0.017014122
152	0x3c134a12	0.008989828
153	0xbbd49306	-0.006487253
154	0x3d1751d9	0.03694329
155	0xbd10d820	-0.035362363
156	0x3cfd9676	0.030955534
157	0xbbcb8dc7	-0.0062119695
158	0xbcf234d2	-0.029566202
159	0xbdac1449	-0.084023066
160	0x3b8e96e3	0.004351483
161	0x3c6dde2a	0.0145183
162	0xbd209db1	-0.039212886
163	0x3d23277b	0.039832573
164	0xbd196999	-0.03745422
165	0x3c826502	0.015917305
166	0x3d64b05d	0.055832256
167	0xbd14947e	-0.036274426
168	0x3cc7cdc2	0.024390105
169	0x3d02f948	0.031976014
170	0xbd122f92	-0.035689898
171	0x3c974df9	0.018469797
172	0xbb529290	-0.0032130815
173	0xbcc8fbc6	-0.024534117
174	0x3d38ef97	0.045150366
175	0x3e05f8d4	0.13083202
176	0x3c296718	0.010339521
177	0x3c8dfc7c	0.017332308
178	0x3cbd350d	0.023096586
179	0xbda670e8	-0.08127004
180	0x3d344e89	0.04402021
181	0x3d51271b	0.051062685
182	0x3cf2770c	0.029597782
183	0x3c24c886	0.010057574
184	0x3cb6994b	0.022289893
185	0xbc40b7b8	-0.011762552
186	0x3c989708	0.018626705
187	0xbcac369c	-0.021022134
188	0x3c8256a1	0.015910449
189	0xbc15c0fe	-0.009140251
190	0x3ca95b0a	0.020673294
191	0x3c54ced4	0.012988765
192	0x3d30e555	0.043187458
193	0x3d20ab67	0.039225962
194	0xbbe3ad58	-0.0069481544
195	0x3bb926c0	0.0056503713
196	0xbd468fb2	-0.048476882
197	0xbd8ceeae	-0.06881462
198	0xbd57078b	-0.052497428
199	0x3d499d88	0.0492225
200	0x3c88d71c	0.016704135
201	0x3d902ac6	0.070394084
202	0x3e0699d8	0.13144624
203	0x3cec6bf1	0.028860064
204	0x3d8a5d81	0.06756116
205	0x3da184ff	0.07886695
206	0x3d1635d1	0.036672417
207	0x3d40eda5	0.047101635
208	0xbd0acc19	-0.03388605
209	0xbd113b24	-0.03545679
210	0x3c02c6fd	0.007982013
211	0xbcc60b37	-0.02417527
212	0x3c0a0c16	0.008425733
213	0xbd36d396	-0.044635378
214	0x3c812093	0.015762603
215	0xbd3817f0	-0.044944704
216	0x3c9598f5	0.018261412
217	0x3d6a016e	0.05713027
218	0xbd5777f4	-0.05260463
219	0x3d2d9348	0.042376786
220	0x3ce77b37	0.028256996
221	0x3d05d34e	0.03267222
222	0x3d4b446f	0.04962581
223	0x3be229f3	0.0069019734
224	0xbc4f815d	-0.01266512
225	0xbd079a71	-0.03310627
226	0x3d1724c1	0.036900286
227	0xbcf10e3e	-0.029425737
228	0x3b370778	0.0027928036
229	0x3d3f0e38	0.04664442
230	0xbcecb14f	-0.028893141
231	0x3d375402	0.04475785
232	0xbc73ee18	-0.014888309
233	0xbd1bd118	-0.038041204
234	0x3d1814d8	0.037129253
235	0xbce8b2af	-0.028405515
236	0xbd9d2322	-0.07672717
237	0xbd0954ad	-0.03352802
238	0x3b6f327f	0.0036498604
239	0x3c957160	0.018242538
240	0x3d666efe	0.056258194
241	0x3c4f47dc	0.01265141
242	0x3b9f1658	0.0048549585
243	0x3c442fee	0.011974318
244	0xbcd67096	-0.026176732
245	0x3c4ba766	0.012430048
246	0xb9ec5916	-0.00045079802
247	0xbd256158	-0.040376037
248	0x3c156e2f	0.009120508
249	0x3c01808a	0.007904181
250	0x3c0c6de3	0.008571121
251	0x3b6a895d	0.0035787441
252	0x3c8daec2	0.017295245
253	0x3c89d94a	0.016827244
254	0x3d047f0b	0.03234772
255	0x3a13b481	0.0005634502

bias f4 [32]
0	0x3d180583	0.03711463
1	0x3c8265c3	0.015917664
2	0xbe083752	-0.13302353
3	0x3d116d98	0.035504907
4	0xbc865136	-0.016396146
5	0xbd83fc40	-0.06444597
6	0xbea56b92	-0.32308632
7	0x3cea2b72	0.02858517
8	0xbd573bb4	-0.05254717
9	0xbdcd8bb6	-0.10036413
10	0x3cc57a0a	0.024106044
11	0x3ccfa206	0.025345813
12	0xbd1a5e91	-0.03768784
13	0xbee546aa	-0.44780475
14	0x3d1ac6f8	0.037787408
15	0x3d955fb8	0.072936475
16	0x3dccb481	0.09995366
17	0x3d3405f8	0.043951005
18	0x3c98e2c3	0.018662816
19	0x3e1458bb	0.14486973
20	0xbdaaa3b3	-0.083320044
21	0x3d129fa8	0.03579679
22	0x3da83cee	0.082147464
23	0x3bca0a9c	0.0061658155
24	0xbbafbee8	-0.005363334
25	0xbf30a13e	-0.68996036
26	0x3d62c10f	0.055359896
27	0x3e315703	0.17318349
28	0xbf031d40	-0.51216507
29	0xbb471b25	-0.003038117
30	0xbdb0325f	-0.086033575
31	0x3dc48179	0.095950074

weight f4 [32, 3, 3, 3]
0	0xbe24b0e7	-0.16083108
1	0x3cd8e4df	0.026476322
2	0x3d86d4ac	0.06583533
3	0x3df6ceea	0.120511845
4	0xbe8bebbb	-0.27328286
5	0x3da82f00	0.082120895
6	0x3d0bd2bd	0.034136523
7	0x3e126e58	0.14299905
8	0xbd350ba4	-0.044200554
9	0x3e004de5	0.12529714
10	0xbc511e35	-0.01276355
11	0x3bd64785	0.0065392875
12	0xbc705e59	-0.014670932
13	0xbe94a80a	-0.29034454
14	0xbc9012de	-0.017587122
15	0x3bf009bc	0.007325379
16	0xbd8c8e01	-0.068630226
17	0x3e4e6ba3	0.20158248
18	0x3e5daa15	0.21646912
19	0xbcb11dab	-0.021620592
20	0x3d834c4e	0.06411038
21	0xbe12111c	-0.14264339
22	0xbef8774c	-0.48528516
23	0x3dbc8bdd	0.09206364
24	0x3cc49405	0.023996362
25	0xbde31ee2	-0.11089875
26	0x3e47e276	0.19519982
27	0xbd7b79f2	-0.061395593
28	0x3cae3fde	0.021270689
29	0x3d8741fc	0.066043824
30	0x3a44788c	0.00074947695
31	0xbe5b56f1	-0.21419884
32	0xbd91183c	-0.070847005
33	0xbd1ef2bd	-0.038805712
34	0x3e02b06b	0.1276261
35	0xbde6c64a	-0.112682894
36	0x3cf11690	0.029429704
37	0xbde4e89e	-0.11177181
38	0x3d6f07be	0.058356993
39	0xbd896806	-0.06709294
40	0xbe34856f	-0.17629026
41	0x3ca3f7dc	0.02001565
42	0xbd109953	-0.03530247
43	0x3d95cbbb	0.07314249
44	0xbcb4ccfc	-0.0220704
45	0x3dee332a	0.116308525
46	0xbd26f5a3	-0.0407616
47	0xbcc2e24e	-0.023789551
48	0x3d9a824e	0.07544385
49	0x3e2e0acc	0.16996306
50	0x3e1d88a6	0.15384158
51	0x3c6aabef	0.014323219
52	0x3e9155bc	0.28385723
53	0xbe3e831a	-0.18604699
54	0xbdb3945a	-0.0876853
55	0x3dabc411	0.08387006
56	0x3dfc0636	0.12305872
57	0xbd6687a8	-0.056281716
58	0x3e50f9ed	0.20407839
59	0xbd10ae5a	-0.035322525
60	0x3dd71b9c	0.10503313
61	0x3d9ebaea	0.07750495
62	0xbdb8a8c5	-0.09016565
63	0xbc767003	-0.015041354
64	0xbdf6f047	-0.12057548
65	0xbe54e642	-0.20790961
66	0x3d447119	0.04795942
67	0xbe130c01	-0.14360048
68	0xbe3cb6c9	-0.18429102
69	0x3dac0c0c	0.08400735
70	0xbd0e481a	-0.03473673
71	0xbdba59d7	-0.09099167
72	0x3d1fab13	0.03898151
73	0x3e1962ad	0.14979048
74	0xbe2bc682	-0.16774943
75	0xbe00e9ea	-0.12589231
76	0xbdad8ba1	-0.08473898
77	0xbd0a223f	-0.033724066
78	0x3e2d43bc	0.1692037
79	0x3d445a3e	0.047937624
80	0x3e18d599	0.14925231
81	0xbcd159fe	-0.025555607
82	0x3e9f3574	0.3109547
83	0x3d215663	0.039389025
84	0x3e18e046	0.14929304
85	0xbe9c3b7c	-0.30514133
86	0x3d99e51a	0.07514401
87	0xbe2d59a8	-0.16928732
88	0xbe6e8e8c	-0.23296565
89	0x3e003b61	0.12522651
90	0xbe26cdfc	-0.16289514
91	0x3dd11172	0.102084056
92	0x3c514a54	0.012774069
93	0x3d6d84c3	0.05798794
94	0xbe9137d8	-0.28362918
95	0x3dcad0cb	0.09903105
96	0x3e2a6a5a	0.16642132
97	0xbe16db47	-0.14732085
98	0x3dde67df	0.108596556
99	0xbd4881bf	-0.04895186
100	0x3ddfcbad	0.1092752
101	0xbba4eb23	-0.0050329133
102	0x3e19244c	0.14955252
103	0xbeb9abbb	-0.36263832
104	0x3e00e0db	0.12585776
105	0xbc59e7d6	-0.013299903
106	0xbe68cf37	-0.22735296
107	0x3e1706bd	0.14748664
108	0xbe4555ea	-0.19271055
109	0x3e016af9	0.12638463
110	0x3d892753	0.066969536
111	0x3c9a30a1	0.018822016
112	0x3e241d8a	0.16026893
113	0xbe49e17d	-0.19714923
114	0x3e1d58f3	0.15365963
115	0x3e10c5da	0.14137974
116	0x3d952ce3	0.07283952
117	0x3bc961ad	0.006145677
118	0x3db8abae	0.0901712
119	0x3ded6d16	0.11593072
120	0x3ddc4e2f	0.107571
121	0xbe303ead	-0.17211409
122	0x3e0235df	0.12715863
123	0xbb9506fe	-0.0045479527
124	0xbe0fca6b	-0.1404206
125	0x3cdc95aa	0.026926834
126	0xbe081a3a	-0.13291255
127	0xbdbd4c1e	-0.09243034
128	0xbc646b9e	-0.013941674
129	0xbd94249e	-0.07233547
130	0xbc172779	-0.00922572
131	0xbdddc772	-0.10829057
132	0x3d70e8d2	0.058815785
133	0x3e22bf53	0.15893297
134	0x3c4a9172	0.012363778
135	0xbe2563fc	-0.16151422
136	0xbe44ab99	-0.19206084
137	0xbd996fe2	-0.07492043
138	0x3e2d379e	0.16915748
139	0xbe41fb82	-0.18943599
140	0xbe268886	-0.16263017
141	0xbe1fb3eb	-0.15595977
142	0xbd08648c	-0.033299014
143	0xbda0adaa	-0.07845624
144	0x3e1f18c1	0.15536787
145	0xbd41d82e	-0.047325306
146	0x3d84fb25	0.064932145
147	0x3d1b3248	0.03788975
148	0xbd9aa2a7	-0.07550555
149	0x3dc64d32	0.096826926
150	0x3d129e62	0.035795577
151	0xbe1dc377	-0.15406595
152	0xbb35be9c	-0.002773202
153	0x3c782c36	0.015147259
154	0xbe16d8ab	-0.1473109
155	0xbe1a892b	-0.15091388
156	0xbe2a331c	-0.16621059
157	0x3df006e5	0.11720065
158	0xbcf3bd62	-0.02975339
159	0xbda18134	-0.07885972
160	0xbd25d6dd	-0.040488113
161	0xbe326ed6	-0.17425093
162	0x3d9ae204	0.0756264
163	0x3d873b49	0.066031046
164	0xbd9e7f55	-0.077391304
165	0xbdd04ce9	-0.101709194
166	0xbe809955	-0.25116983
167	0x3c9b452e	0.018953886
168	0xbc581e8a	-0.013190875
169	0xbe828665	-0.2549316
170	0x3dc270d5	0.09494177
171	0x3d505677	0.05086371
172	0xbcb86e49	-0.022513526
173	0x3de8a2a0	0.11359143
174	0xbe4f513e	-0.20245835
175	0xbee8df9f	-0.4548311
176	0xbdca0ccc	-0.09865722
177	0x3dc6df4e	0.09710561
178	0xbe3b9f48	-0.1832248
179	0x3db19ef5	0.08672897
180	0xbcd6277f	-0.02614188
181	0x3df3f4bf	0.11911916
182	0xbd9f2c30	-0.077721
183	0x3dbb310a	0.09140213
184	0x3d94c0bf	0.07263326
185	0x3b09cacc	0.0021025417
186	0xbd3f3e5e	-0.046690337
187	0xbdc492bf	-0.09598302
188	0x3cd3f5fc	0.02587413
189	0xbe0ec91e	-0.13943908
190	0xbd7ce6e1	-0.06174362
191	0xbd859d90	-0.06524193
192	0x3ce2f158	0.027702972
193	0xbe42c612	-0.1902087
194	0x3da1eafb	0.07906147
195	0x3d5780b5	0.05261298
196	0xbd85f4a7	-0.06540804
197	0x3e489335	0.19587405
198	0x3e076ae2	0.13224366
199	0xb9c8b788	-0.00038283714
200	0xbd347b41	-0.044062857
201	0xbd9f21ab	-0.077700935
202	0x3db217aa	0.0869592
203	0x3da0e4c3	0.07856133
204	0xbda8bebc	-0.08239505
205	0x3cd9be56	0.026580017
206	0xbcbeecbd	-0.023306245
207	0xbe88c821	-0.26715186
208	0xbe326ce5	-0.17424352
209	0x3d824e88	0.06362635
210	0x3e05cd6d	0.13066645
211	0x3e9292a0	0.2862749
212	0x3e5841cd	0.21118851
213	0xbe347c89	-0.17625631
214	0xbbc40e8a	-0.0059831785
215	0x3e572f1a	0.21014062
216	0xbdaebf99	-0.08532638
217	0x3d01fd4b	0.0317357
218	0x3e3d80c8	0.18506157
219	0xbd851831	-0.06498755
220	0xbd27fb03	-0.041010868
221	0x3e35898b	0.1772825
222	0xbccd67c1	-0.025073888
223	0xbd5629b8	-0.05228588
224	0xbe0a5343	-0.13508324
225	0x3d553608	0.05205348
226	0x3ddec8f4	0.108781725
227	0xbe1cf543	-0.15327935
228	0xbe1c5d43	-0.15269952
229	0x3dd26cc8	0.102746546
230	0x3d30f41b	0.043201547
231	0xbe1db1e9	-0.15399899
232	0xbe170818	-0.14749181
233	0xbdea6f8e	-0.114470586
234	0xbe28ed37	-0.1649674
235	0xbd1efcff	-0.038815495
236	0xbdbec614	-0.09315124
237	0x3d8e01a4	0.06933907
238	0xbe2eca45	-0.17069347
239	0x3de02213	0.10943999
240	0xbc35a5b0	-0.011086866
241	0x3dafc4d9	0.085824676
242	0xbe328f6a	-0.1743752
243	0xbc9babdb	-0.019002846
244	0xbe33716e	-0.17523739
245	0xbdaf53a4	-0.08560875
246	0xbdcafaed	-0.099111415
247	0x3e8dcbf2	0.2769466
248	0x3d94ffa2	0.072753206
249	0xbd9801be	-0.07422207
250	0x3d75a004	0.059967056
251	0xbc871b5e	-0.016492542
252	0x3b0e3cd8	0.0021703746
253	0x3c725ff9	0.0147933895
254	0xbd2fe3d0	-0.04294187
255	0xbe0097be	-0.12557885

bias f4 [3]
0	0xbd11fe3a	-0.03564284
1	0x3c982804	0.018573768
2	0x3c850ba4	0.016240902
