adbob_pretrained_weights/final_best_denoising_model_for_final_20_each_25_epochs.pth (torch, 61581 bytes, 12 tensors)

weight f4 [32, 3, 3, 3]
-0.1970111 0.17834501 0.19918646 0.05695316 0.12607601 0.13431224 -0.15002172 0.052693438
0.036374565 0.06571474 0.075194016 -0.1524555 0.16355321 0.17417493 0.082217626 -0.1489638
0.049025718 -0.17363472 0.17242715 -0.006780845 0.0015387363 -0.02611115 0.17724349 0.21197751
-0.12821816 0.08433523 -0.10299844 -0.14827977 -0.0054985723 -0.004963309 -0.14939937 0.11351313
0.17261608 0.028814834 -0.13669708 -0.13494277 0.103392586 -0.16160336 0.039764896 0.06393885
-0.11094023 -0.13123886 -0.14706753 0.0067596673 0.03309881 -0.037284143 0.1297483 -0.09284452
-0.11449122 -0.12038027 -0.041109946 0.10997431 -0.12647447 0.14562471 -0.009211963 0.13610877
0.16627477 -0.1803324 -0.16182463 -0.12346466 0.113409124 0.16608511 0.004673686 -0.12340961
-0.092405476 0.058125112 -0.07142686 0.12349676 0.06567126 0.109699585 0.032158103 0.18781157
-0.17573145 -0.16835245 -0.077203974 0.13857652 -0.18808363 -0.048175912 -0.1605097 -0.14003547
0.000820041 -0.14252779 -0.14394525 0.028860563 0.1723005 0.18277737 0.07709383 0.06666917
0.13853984 -0.07444024 -0.061906546 -0.20456557 0.02131722 0.022726713 0.04531929 0.1729474
0.14625962 0.20116758 0.13063365 -0.21766582 -0.015671415 -0.033223383 -0.012898399 0.123773605
0.019011399 -0.13895893 -0.018103758 0.042398844 0.0025526145 0.16735649 0.1938261 -0.066408254
0.1378233 0.20328774 0.10997104 0.16008578 0.19805586 0.030947618 -0.06294801 0.08551357
0.029380651 0.1152426 -0.16483471 0.15134083 0.20674285 -0.104238726 -0.11361842 -0.06079019
0.09339768 -0.119251914 -0.010242731 0.088749826 0.13771604 -0.11893604 0.05057688 -0.1515406
-0.13160732 -0.13649473 0.035642564 0.15609019 0.08871068 -0.17093891 -0.13341312 -0.021360919
0.049553778 -0.019842789 -0.10142645 -0.12451922 -0.07937667 -0.14799856 0.012693427 0.17720316
0.061421122 -0.0495765 -0.10995979 -0.06934671 -0.015316362 -0.062118635 -0.019927679 0.11926827
-0.13813215 0.01872559 -0.1023306 0.03044791 -0.049802415 0.036212757 -0.04567098 -0.12679061
0.042075977 -0.069392435 0.10380452 -0.020269658 0.055298015 0.1200736 -0.13311641 -0.11898061
-0.03397722 -0.18260685 0.020495646 -0.0320161 0.14777415 -0.060899355 0.17825143 -0.0058892756
-0.15500411 0.20756117 -0.0470598 0.1768278 0.1311797 0.045430116 -0.07030564 -0.113827184
-0.13825585 -0.14212681 -0.047985483 -0.13128805 0.0064526964 0.0071426323 0.10042572 0.032354224
0.033386886 -0.076946355 -0.03557591 0.17406939 -0.19369303 0.08911519 0.069827355 0.042260677
0.12513714 0.049452472 -0.18779813 -0.17594329 0.07144845 0.08331367 -0.0891896 0.125666
0.13908264 -0.039884195 0.1271748 0.17099044 -0.08076047 0.20689796 0.07640382 -0.05289081
0.10241455 0.06515154 -0.16990961 -0.06417451 0.012166695 0.10227253 -0.056190066 0.11306635
-0.13611585 0.07191488 -0.15822724 0.025683906 0.08093087 0.08262415 -0.08422401 -0.009570808
0.009969172 -0.14650907 0.124777965 -0.16469686 0.029378207 -0.16032451 -0.05535105 0.14232644
-0.15962142 0.18256521 -0.104627885 -0.04451854 0.086199746 0.1315342 -0.06846959 0.15273671
00000000: 47bd 49be 13a0 363e 89f7 4b3e b747 693d
00000010: 121a 013e 2689 093e 4b9f 19be 13d5 573d
00000020: 7ffd 143d 7395 863d 52ff 993d 4b1d 1cbe
00000030: 7e7a 273e ea5a 323e b761 a83d f789 18be
00000040: 31cf 483d 4dcd 31be be90 303e da31 debb
00000050: 6caf c93a 0de7 d5bc 517f 353e a210 593e
00000060: 9f4b 03be f3b7 ac3d d9f0 d2bd a7d6 17be
00000070: 5e2d b4bb 41a3 a2bb 26fc 18be 9279 e83d
00000080: 45c2 303e 160d ec3c 52fa 0bbe 702e 0abe
00000090: 7ebf d33d 5a7b 25be 84e0 223d 5ff2 823d
000000a0: a234 e3bd 7b63 06be df98 16be 3380 dd3b
000000b0: 9e92 073d 42b7 18bd bddc 043e 4525 bebd
000000c0: 5f7a eabd ee89 f6bd e762 28bd 363a e13d
000000d0: 8682 01be a51e 153e c6ed 16bc 1960 0b3e
000000e0: ef43 2a3e 0fa9 38be 5bb5 25be 0adb fcbd
000000f0: 0b43 e83d 3712 2a3e b825 993b 2dbe fcbd
00000100: 153f bdbd 9914 6e3d 3f48 92bd dfeb fc3d
00000110: a77e 863d 2daa e03d 37b8 033d ad51 403e
00000120: f2f2 33be 9664 2cbe 1e1d 9ebd 01e7 0d3e
00000130: ff98 40be 1b54 45bd a85c 24be 7565 0fbe
00000140: 05f8 563a cef2 11be 6266 13be fd6c ec3c
00000150: 8b6f 303e fe29 3b3e 5fe3 9d3d d989 883d
00000160: 63dd 0d3e 2074 98bd b891 7dbd a379 51be
00000170: 73a1 ae3c 5f2d ba3c b8a0 393d 2019 313e
00000180: 15c5 153e e0fe 4d3e d4c4 053e cae3 5ebe
00000190: 5761 80bc 3e15 08bd ce53 53bc 047d fd3d
000001a0: cbbd 9b3c 404b 0ebe 554e 94bc 69aa 2d3d
000001b0: c449 273b 805f 2b3e 597a 463e 0d01 88bd
000001c0: 8d21 0d3e a92a 503e 7f38 e13d 87ed 233e
000001d0: 28cf 4a3e dc85 fd3c e3ea 80bd bd21 af3d
000001e0: b1af f03c 5004 ec3d 6eca 28be 17f9 1a3e
000001f0: 66b4 533e 1d7b d5bd c6b0 e8bd 22ff 78bd
00000200: 4847 bf3d 593a f4bd 21d1 27bc 78c2 b53d
00000210: 6f05 0d3e bd94 f3bd b429 4f3d 762d 1bbe
00000220: 12c4 06be 46c5 0bbe f0fd 113d 1bd6 1f3e
00000230: f2ad b53d 9c0a 2fbe 739d 08be 18fd aebc
00000240: e7f8 4a3d 588d a2bc acb8 cfbd ef03 ffbd
00000250: 3c90 a2bd ef8c 17be 17f8 4f3c bf74 353e
00000260: b794 7b3d ba10 4bbd 9932 e1bd a605 8ebd
00000270: 7af1 7abc 1c70 7ebd 5f3f a3bc ec42 f43d
00000280: 8472 0dbe 6966 993c b592 d1bd e56d f93c
00000290: 9efd 4bbd d453 143d 7e11 3bbd 66d5 01be
000002a0: dc57 2c3d 9f1d 8ebd 7797 d43d 8e0c a6bc
000002b0: 2c80 623d 26e9 f53d ab4f 08be 1bac f3bd
000002c0: b32b 0bbd 4afd 3abe 7ce6 a73c 5023 03bd
000002d0: 1b52 173e 9a71 79bd 8b87 363e d3fa c0bb
000002e0: 66b9 1ebe ea8a 543e c7c1 40bd 5912 353e
000002f0: f953 063e ee14 3a3d 67fc 8fbd 3a1e e9bd
00000300: f192 0dbe b189 11be 6d8c 44bd 6070 06be
00000310: 2471 d33b be0c ea3b 00ac cd3d dd85 043d
00000320: b0c0 083d 0d96 9dbd 0cb8 11bd 3f3f 323e
00000330: 7757 46be 0682 b63d a501 8f3d 8819 2d3d
00000340: f323 003e ad8e 4a3d 274e 40be 7a2a 34be
00000350: 9153 923d 5ba0 aa3d 09a9 b6bd 97ae 003e
00000360: ae6b 0e3e 9c5d 23bd 1c3a 023e 1e18 2f3e
00000370: bf65 a5bd 0fdd 533e 9b79 9c3d 09a4 58bd
00000380: b8be d13d 2c6e 853d c9fc 2dbe ed6d 83bd
00000390: d156 473c 4374 d13d 8e27 66bd 558f e73d
000003a0: f461 0bbe 1c48 933d 5206 22be 0e67 d23c
000003b0: 15bf a53d da36 a93d a37d acbd e1ce 1cbc
000003c0: bd55 233c 7906 16be 978b ff3d 4ba6 28be
000003d0: 91aa f03c 1c2c 24be c8b7 62bd 06be 113e
000003e0: cc73 23be 60f2 3a3e 2547 d6bd 1359 36bd
000003f0: 7e89 b03d e7b0 063e c939 8cbd 0367 1c3e

bias f4 [32]
-0.021425396 -0.14849208 -0.10148152 0.10720816 -0.016095975 -0.037269514 0.20915766 -0.13522713
0.07656309 -0.037872452 -0.028967448 0.016857859 -0.15603036 -0.10544036 0.088122904 0.009700684
0.1307987 -0.042816643 -0.16552812 -0.03200265 -0.051010203 0.18967284 -0.028464975 0.016647266
0.19485344 0.18068032 0.20593028 0.057842117 0.049433738 -0.16426827 -0.08311892 0.08991009
00000000: 5084 afbc 4f0e 18be 8bd5 cfbd f48f db3d
00000010: b5db 83bc eba7 18bd 6d2d 563e fb78 0abe
00000020: 1ccd 9c3d 2520 1bbd 244d edbc 7e19 8a3c
00000030: 6cc6 1fbe 1ef1 d7bd c879 b43d 9eef 1e3c
00000040: 18f0 053e 8160 2fbd 3480 29be 3615 03bd
00000050: 13f0 50bd 9939 423e 612f e9bc d95f 883c
00000060: a987 473e 4304 393e 63df 523e dbeb 6c3d
00000070: 087b 4a3d f135 28be 413a aabd c822 b83d

weight f4 [16, 32, 3, 3]
0.03991756 0.0038279071 0.015029517 0.0017396512 -0.064827755 -0.0067317267 0.0284792 -0.06541827
0.0016958083 -0.024793567 -0.018118063 -0.012307853 -0.05230526 -0.02946071 -0.0007845737 0.02352076
-0.03215472 0.05781474 0.00624181 0.039939266 0.019183991 0.010571888 0.015906554 0.023618817
-0.03685516 0.0028077129 0.030556098 -0.007997032 -0.04546314 -0.03285284 0.041280363 0.011515344
0.022967573 -0.01368916 -0.0041385773 0.06315187 0.06359877 -0.022237001 0.028505014 0.004284757
0.025157603 0.018384581 -0.024972515 0.05469973 0.034538686 -0.005342235 0.058451496 -0.04687935
0.046551943 -0.013472333 -0.024598198 -0.0021246532 0.052953884 -0.03562793 -0.051751014 -0.049882013
0.022242928 -0.050244797 0.047942504 -0.006707568 0.022669835 0.051790252 -0.012935501 0.011262718
0.041413024 -0.03771841 -0.061367244 -0.019765813 -0.05536803 0.03141412 -0.00081291766 0.03717398
-0.0068928427 0.0780506 0.058414392 0.021905134 0.01217839 0.04979058 -0.039330572 0.058408204
0.027911443 0.040223375 -0.026249846 -0.01580932 0.03453033 0.04489192 -0.039906904 -0.015211076
0.033274036 -0.055669144 -0.006883547 0.055041146 -0.028597852 -0.007157915 -0.06930457 -0.014671954
0.0208284 -0.05469491 -0.016534401 0.08173407 0.004035212 0.044758875 0.04102107 -0.0035758414
-0.029925574 0.05365182 -0.00013515979 0.018201321 -0.061170854 -0.06259435 0.040188663 0.05369836
-0.0092485035 -0.036745712 0.05940309 -0.018919246 0.022913419 -0.01779737 -0.034855805 -0.0458528
0.016267885 0.048310053 -0.015751157 0.00036717227 0.021719852 -0.035359252 -0.0038106712 0.049742434
0.03355616 -0.06068841 -0.07036266 0.011574476 -0.047006268 -0.019898953 -0.02918113 0.008724182
0.04917455 0.0038577132 -0.006352683 0.0016716052 0.047914997 0.05660097 -0.023987187 -0.00653838
0.063151196 0.043858927 -0.017460292 0.060021378 0.080699734 0.08233945 0.082017 0.05379133
0.080458015 0.01839854 0.03951556 0.00013241696 0.04776249 0.054345258 -0.039263327 -0.0018067886
0.020752009 0.044703163 -0.03988427 -0.04233218 -0.0073407427 0.05173262 -0.010470678 -0.009757832
0.025080938 -0.022589348 0.028538764 -0.024951616 -0.051235918 0.033987533 -0.022712315 0.03025001
0.021793192 -0.032006737 0.025073769 -0.00940935 0.023074739 -0.012359766 -9.512734e-05 -0.022878155
-0.067075856 -0.029286508 -0.06298722 -0.03862307 0.019750934 -0.015278144 0.015065942 0.03405349
0.03528123 0.045482412 0.038118176 -0.04622332 0.03313105 0.0549463 -0.048464224 -0.007975724
-0.019979304 0.044352777 -0.021430755 -0.07083304 0.035313476 -0.037331752 -0.023001783 -0.03160814
0.026009377 0.022801733 -0.047912996 0.032660168 -0.030824246 -0.028204175 0.025513448 0.016049655
-0.031609334 0.024016555 0.065942 -0.022309663 -0.016777355 0.067595854 0.020962393 0.04146614
0.024718976 0.009280187 -0.02838526 -0.0076846234 0.0144874435 0.03328304 0.019315403 0.028100869
0.046379138 -0.00411817 -0.028238252 0.08363879 0.07878958 0.02657146 0.014415077 0.03472505
0.049250063 0.012040626 -0.030497463 0.0115065845 0.039189897 0.005466493 0.04815306 -0.04737726
-0.008969336 -0.038256265 0.015713623 -0.012907087 -0.025172658 0.023538442 -0.007820083 0.034231327
00000000: 9880 233d a0dd 7a3b 5d3e 763c 0205 e43a
00000010: 6ac4 84bd d195 dcbb 364d e93c 04fa 85bd
00000020: e245 de3a e11b cbbc 556c 94bc e1a6 49bc
00000030: 0a3e 56bd 9657 f1bc daab 4dba 9cae c03c
00000040: abb4 03bd 26cf 6c3d 1988 cc3b 5b97 233d
00000050: bf27 9d3c b635 2d3c 764e 823c 407c c13c
00000060: 70f5 16bd 9b01 383b c850 fa3c fc05 03bc
00000070: 8f37 3abd b390 06bd 9915 293d daaa 3c3c
00000080: 7e26 bc3c 8048 60bc e79c 87bb c555 813d
00000090: 1240 823d 5f2a b6bc 5983 e93c 2667 8c3b
000000a0: 5117 ce3c 439b 963c 2993 ccbc d30c 603d
000000b0: 7078 0d3d ea0d afbb d66a 6f3d 9004 40bd
000000c0: 40ad 3e3d 0fbb 5cbc 2982 c9bc c43d 0bbb
000000d0: 2ce6 583d 98ee 11bd dff8 53bd 1551 4cbd
000000e0: cd36 b63c 7dcd 4dbd 5c5f 443d 29cb dbbb
000000f0: 17b6 b93c 0422 543d 6cef 53bc 4387 383c
00000100: b4a0 293d 9f7e 1abd 385c 7bbd eaeb a1bc
00000110: 96c9 62bd 18ac 003d fb19 55ba be43 183d
00000120: 5bdd e1bb fed8 9f3d ee43 6f3d 6572 b33c
00000130: df87 473c 35f1 4b3d 1819 21bd 713d 6f3d
00000140: 8aa6 e43c 44c1 243d eb09 d7bc 8c82 81bc
00000150: ad6f 0d3d 97e0 373d 6c75 23bd e037 79bc
00000160: 5b4a 083d 5405 64bd 618f e1bb d372 613d
00000170: 0b46 eabc f18c eabb 8eef 8dbd a362 70bc
00000180: 52a0 aa3c c507 60bd 2773 87bc 3164 a73d
00000190: d039 843b 1555 373d b605 283d aa58 6abb
000001a0: 7a26 f5bc 03c2 5b3d aeb9 0db9 f01a 953c
000001b0: 4a8e 7abd 7731 80bd de9c 243d d0f2 5b3d
000001c0: 0987 17bc ac82 16bd a850 733d 89fc 9abc
000001d0: ecb4 bb3c cacb 91bc f6c4 0ebd 25d0 3bbd
000001e0: 3a44 853c c3e0 453d 9208 81bc 0781 c039
000001f0: d5ed b13c ddd4 10bd 74bc 79bb b9be 4b3d
00000200: 2f72 093d 6994 78bd 4c1a 90bd dfa2 3d3c
00000210: a589 40bd 2103 a3bc 440d efbc dfef 0e3c
00000220: 416b 493d b0d1 7c3b 2b2a d0bb c319 db3a
00000230: 8442 443d 6bd6 673d c780 c4bc e83f d6bb
00000240: 6a55 813d 6ba5 333d e308 8fbc fad8 753d
00000250: e745 a53d 96a1 a83d 87f8 a73d 4c54 5c3d
00000260: 2cc7 a43d 89b8 963c 11db 213d 68d9 0a39
00000270: 9aa2 433d 2299 5e3d 95d2 20bd c4d1 ecba
00000280: 1e00 aa3c aa1a 373d b05d 23bd 8264 2dbd
00000290: 9d8a f0bb 95e5 533d 358d 2bbc 50df 1fbc
000002a0: 8a76 cd3c 4c0d b9bc 20ca e93c 5567 ccbc
000002b0: c1dc 51bd 8336 0b3d 2d0f babc dece f73c
000002c0: a387 b23c 7f19 03bd 8167 cd3c ad29 1abc
000002d0: 3c07 bd3c 9e80 4abc 1a7f c7b8 f86a bbbc
000002e0: 115f 89bd 42ea efbc 72ff 80bd 3933 1ebd
000002f0: b6cc a13c 2e51 7abc 24d7 763c ac7b 0b3d
00000300: 0d83 103d c44b 3a3d ce21 1c3d aa54 3dbd
00000310: 6db4 073d 5f0f 613d 6c82 46bd 9cac 02bc
00000320: a3ab a3bc 42ab 353d 8d8f afbc ea10 91bd
00000330: dda4 103d 2ee9 18bd 3c6e bcbc 8977 01bd
00000340: 9e11 d53c b3ca ba3c 6b40 44bd abc6 053d
00000350: 2183 fcbc 710c e7bc 9401 d13c 917a 833c
00000360: ca78 01bd 5ebe c43c 990c 873d c1c2 b6bc
00000370: aa70 89bc b26f 8a3d 53b9 ab3c 66d8 293d
00000380: 737f ca3c ed0b 183c 3488 e8bc 4bcf fbbb
00000390: be5c 6d3c cc53 083d 563b 9e3c cb33 e63c
000003a0: 0df8 3d3d b7f1 86bb e853 e7bc d04a ab3d
000003b0: 6e5c a13d 64ac d93c 372d 6c3c db3b 0e3d
000003c0: 6fba 493d 0c46 453c d1d5 f9bc 1d86 3c3c
000003d0: 9685 203d 4420 b33b 253c 453d a80e 42bd
000003e0: 1ff4 12bc 9ab2 1cbd dbb9 803c 3f78 53bc
000003f0: e436 cebc b1d3 c03c ce1f 00bc 2636 0c3d

bias f4 [16]
0.07204433 0.069738835 -0.012493187 0.015946146 -0.039079215 -0.027953507 0.04756143 0.041899864
0.02651439 -0.011359414 -0.011061281 -0.035893694 -0.02948659 -0.03939436 0.033940405 0.016423393
00000000: fa8b 933d 3cd3 8e3d 39b0 4cbc 7ea1 823c
00000010: 8711 20bd c1fe e4bc c6cf 423d 319f 2b3d
00000020: b534 d93c d61c 3abc 603a 35bc 4405 13bd
00000030: dc8d f1bc fb5b 21bd 1805 0b3d 5a8a 863c

weight f4 [8, 16, 3, 3]
0.0076693706 0.0019771436 -0.07355728 0.073695295 -0.10500277 -0.009259305 -0.09291129 0.03392547
-0.023711145 -8.9768415e-05 0.066214986 -0.07064257 -0.0125556085 0.011021891 -0.012714434 -0.006606838
-0.077200614 0.043683685 -0.05481029 0.08816396 -0.052075595 -0.045914497 0.017087571 0.07833778
-0.03892203 -0.012720438 0.0464418 -0.037410043 0.04824601 -0.08558468 -0.08569513 -0.09952851
-0.024114186 -0.018412184 -0.09647179 -0.07138592 -0.040269583 0.037473574 0.029578816 0.077680014
-0.026220009 -0.0076103206 -0.07649312 0.028900152 -0.07081463 0.07806436 0.007949906 -0.03565537
-0.009202087 -0.00022718022 0.08244659 0.07826266 -0.014918438 -0.027742798 -0.04851663 0.01637807
-0.061826896 0.041444764 -0.0407609 -0.046793796 0.047118846 0.0768298 -0.048712794 0.06706962
-0.028775012 0.009328824 0.012851171 0.09427119 0.08793694 -0.030662848 -0.031667136 -0.07925858
-0.059565704 -0.07543599 0.024203911 -0.014326471 0.0039717774 0.073167354 0.0021323983 -0.00357061
0.071567975 -0.068366975 -0.046550635 0.04832038 0.037748702 -0.00029538985 -0.019074395 0.0033806579
0.047759548 0.06697335 0.039480478 -0.031071873 -0.001391479 0.08943886 0.012675151 0.06747276
-0.0018075175 0.08336994 -0.014176683 -0.0102394335 0.043486007 0.074188285 0.00067978585 -0.0019113177
0.021134894 -0.033058435 0.019206427 0.044289242 -0.018689137 -0.026012065 -0.027009463 0.06572131
0.07904326 -0.01429047 -0.03280809 -0.03897566 -0.00455814 0.049271386 -0.031960614 0.046432406
0.07427123 -0.055622075 -0.060722787 -0.061454844 0.05977558 -0.07267517 0.066558704 -0.020116545
0.048249733 0.009934465 0.079393536 -0.031804305 0.020592622 -0.053936865 -0.039303854 0.020768525
0.0019059636 0.025088286 0.017382117 -0.016708557 -0.0075414157 0.04067819 0.045627598 0.059987247
0.032561615 -0.1013371 -0.0042732814 0.0013457603 -0.09793494 -0.0702091 0.05363648 -0.034992166
-0.079233065 0.0526723 -0.02370713 0.06798783 0.09299575 -0.003728178 0.04087629 0.11233163
0.04082707 0.018647157 -0.03674602 0.038482193 -0.03927621 0.0728398 -0.037269846 -0.00815176
0.018696304 0.06711827 -0.04669762 0.004370401 0.0070078666 0.048691988 0.046065953 -0.03935774
0.011840742 0.06108068 0.109375864 -0.009104966 -0.04452807 -0.0762136 -0.040344372 0.03241163
-0.044970643 -0.07751065 -0.05372179 -0.06819854 0.081958994 0.06474307 -0.044658266 0.021163164
-0.0027350732 0.031486817 -0.06060259 0.032351557 0.030925322 -0.033093844 0.06135463 0.13926452
0.093557455 0.12676227 0.08279217 0.102527454 0.034957748 0.07015116 0.095775805 -0.059929535
-0.0025017008 -0.07291382 0.071374565 -0.023672694 0.08337941 -0.032877095 -0.048934452 0.070145205
0.020827884 0.004403991 -0.07762533 0.0031270103 0.057673518 0.076885074 -0.0039083725 -0.08168008
0.04343418 -0.033874113 0.03900539 -0.011343634 -0.074155964 0.025402857 -0.020939074 0.0074537485
-0.030108534 -0.04898473 -0.04778617 -0.027814867 -0.06326669 -0.09285382 0.03217972 -0.06520777
0.045995288 -0.050526664 0.0490406 0.078556724 -0.022985881 -0.071932636 -0.036804847 -0.05639421
-0.00053315936 -0.003308892 0.077807724 0.0076874816 0.0669329 -0.07120024 -0.020524532 0.08567867
00000000: 584f fb3b f792 013b 33a5 96bd 8fed 963d
00000010: b10b d7bd 57b4 17bc 4648 bebd 6ff5 0a3d
00000020: e03d c2bc 0d42 bcb8 b99b 873d 0dad 90bd
00000030: 0ab6 4dbc 2995 343c 3450 50bc 2d7e d8bb
00000040: 5b1b 9ebd aaed 323d c180 60bd 4e8f b43d
00000050: 384d 55bd d710 3cbd 3cfb 8b3c 8f6f a03d
00000060: b56c 1fbd 6269 50bc c239 3e3d 463b 19bd
00000070: 9c9d 453d 0547 afbd ee80 afbd 9ad5 cbbd
00000080: 1d8b c5bc 26d5 96bc 0093 c5bd c832 92bd
00000090: b8f1 24bd e47d 193d 464f f23c b316 9f3d
000000a0: 58cb d6bc ff5f f9bb 6da8 9cbd 03c0 ec3c
000000b0: 4307 91bd 35e0 9f3d 5340 023c 5e0b 12bd
000000c0: 5ac4 16bc 3a37 6eb9 c2d9 a83d 2c48 a03d
000000d0: 776c 74bc dd44 e3bc 60b9 46bd 4d2b 863c
000000e0: 333e 7dbd fcc1 293d e7f4 26bd daaa 3fbd
000000f0: b1ff 403d f158 9d3d 1187 47bd cc5b 893d
00000100: 93b9 ebbc ecd7 183c b88d 523c 4111 c13d
00000110: 4818 b43d a730 fbbc 66b5 01bd 5352 a2bd
00000120: 2bfb 73bd 2f7e 9abd 4847 c63c 93b9 6abc
00000130: af25 823b c4d8 953d b5bf 0b3b e500 6abb
00000140: 3b92 923d fc03 8cbd e1ab 3ebd 97eb 453d
00000150: 629e 1a3d 8ede 9ab9 e841 9cbc 078e 5d3b
00000160: 849f 433d 5329 893d 48b6 213d 718a febc
00000170: 4a62 b6ba b92b b73d 70ab 4f3c 292f 8a3d
00000180: 39ea ecba dcbd aa3d 5145 68bc 4cc3 27bc
00000190: 621e 323d 07f0 973d a833 323a 2e85 faba
000001a0: 1623 ad3c 4868 07bd cc56 9d3c a368 353d
000001b0: f619 99bc 4117 d5bc f342 ddbc e598 863d
000001c0: 6fe1 a13d 9322 6abc c761 06bd f1a4 1fbd
000001d0: 735c 95bb cbd0 493d 22e9 02bd e82f 3e3d
000001e0: 841b 983d f9d3 63bd 75b8 78bd 13b8 7bbd
000001f0: 3dd7 743d b8d6 94bd ee4f 883d 74cb a4bc
00000200: 83a1 453d 2bc4 223c 1499 a23d 3b45 02bd
00000210: dcb1 a83c e7ec 5cbd 14fd 20bd c122 aa3c
00000220: 87d1 f93a f385 cd3c f164 8e3c 62e0 88bc
00000230: fb1d f7bb 2c9e 263d 01e4 3a3d 30b5 753d
00000240: 545f 053d d389 cfbd e206 8cbb 3964 b03a
00000250: 1d92 c8bd cac9 8fbd edb1 5b3d f253 0fbd
00000260: f244 a2bd e9be 573d 7535 c2bc 343d 8b3d
00000270: 8e74 be3d 7354 74bb e66d 273d 200e e63d
00000280: 493a 273d ecc1 983c ff82 16bd 819f 1d3d
00000290: 17e0 20bd 082d 953d 44a8 18bd f68e 05bc
000002a0: fe28 993c 4e75 893d 0146 3fbd 9535 8f3b
000002b0: 3fa2 e53b 4071 473d a7af 3c3d 9535 21bd
000002c0: acff 413c bc2f 7a3d 7400 e03d ff2c 15bc
000002d0: 1163 36bd e015 9cbd 2440 25bd 0fc2 043d
000002e0: 2333 38bd e7bd 9ebd 610b 5cbd adab 8bbd
000002f0: 1eda a73d 0498 843d 96eb 36bd 5f5e ad3c
00000300: ea3e 33bb 52f8 003d 6c3a 78bd 1183 043d
00000310: 1a57 fd3c 698d 07bd fe4e 7b3d 5c9b 0e3e
00000320: 0d9b bf3d f8cd 013e f18e a93d eaf9 d13d
00000330: db2f 0f3d 69ab 8f3d 1b26 c43d ac78 75bd
00000340: 93f3 23bb d753 95bd d42c 923d 3ded c1bc
00000350: d3c2 aa3d 22aa 06bd 7e6f 48bd 4aa8 8f3d
00000360: 3d9f aa3c 5b4f 903b 07fa 9ebd 87ee 4c3b
00000370: 113b 6c3d ec75 9d3d ce11 80bb e347 a7bd
00000380: 0ae8 313d 95bf 0abd 1ec4 1f3d a6da 39bc
00000390: 15df 97bd a719 d03c 6c88 abbc 933e f43b
000003a0: 2ca6 f6bc 36a4 48bd 6ebb 43bd 01dc e3bc
000003b0: f791 81bd 252a bebd e2ce 033d a78b 85bd
000003c0: 8e65 3c3d 0cf5 4ebd ccde 483d 59e2 a03d
000003d0: e34c bcbc 6b51 93bd aec0 16bd 9dfd 66bd
000003e0: b8c3 0bba ffd9 58bb a859 9f3d 45e7 fb3b
000003f0: 1e14 893d 6ed1 91bd 1023 a8bc 4c78 af3d

bias f4 [8]
0.01791535 -0.048950575 -0.04676812 -0.013262564 -0.09213776 -0.07630316 0.13454148 -0.025628403
00000000: 36c3 923c 6680 48bd ee8f 3fbd 3a4b 59bc
00000010: b9b2 bcbd d544 9cbd 3ec5 093e a8f2 d1bc

weight f4 [8, 16, 3, 3]
-0.017689092 0.07630111 -0.0337315 -0.047914837 -0.04064703 -0.03294111 -0.06712619 0.049371798
-0.072138645 -0.11205106 0.005329942 0.022885611 -0.108393855 -0.013206609 -0.09817265 0.018511279
-0.009998445 -0.11257226 0.058223665 0.024313895 0.014152913 -0.04860246 -0.069807656 0.03898803
0.03940695 0.07280168 0.021984749 0.07696192 -0.023525812 -0.00917532 -0.06130199 0.04811088
0.019344518 0.025850166 -0.050168972 -0.06717811 -0.07182783 0.05557664 0.05055973 -0.069164045
0.0135764005 0.05707105 0.0717286 0.004144481 -0.03183299 -0.014352929 0.033683855 -0.020624295
0.08277667 -0.084472455 0.073183745 -0.027283125 -0.021444473 0.005325351 0.021748526 -0.060922522
-0.05163415 -0.019338606 -0.04811137 0.027257744 -0.039582264 0.08964241 0.076557375 0.100574695
0.020592077 0.021475913 0.033332624 -0.059390206 0.031495165 0.054743845 -0.004497365 0.04128707
-0.08272107 -0.06739218 -0.00089011336 -0.07753627 0.008743192 0.020610308 -0.077956356 -0.08059094
0.07404257 -0.00092045986 0.012426625 0.0010815933 0.044406004 0.019473625 0.06379 0.046138253
0.06390226 -0.046872374 -0.028656876 0.022072498 -0.011276163 0.069331326 0.031259533 0.023096984
-0.017523075 -0.036504094 -0.027063092 0.031993113 -0.05180952 -0.029855916 0.06295727 0.025905479
0.043361116 -0.02772712 0.011316167 -0.0694867 -0.081884466 0.06020954 0.057853356 0.027868921
0.026452476 0.019886645 0.0010616357 0.025302492 0.082772195 0.033982307 -0.065901265 -0.03827679
0.030717226 -0.06739861 0.013787247 0.048535652 0.0037679144 -0.00874843 0.084602274 0.021903198
0.06266777 0.024282698 -0.052964482 -0.0736806 0.04005989 -0.052501187 0.036537327 -0.02290439
0.04569673 0.07091686 -0.042595424 -0.035542693 0.02123084 -0.052159294 0.026033742 0.0044499966
-0.05695357 -0.08330039 0.043213785 0.008883561 -0.111386016 -0.09067663 -0.029004792 0.018850787
0.0071717408 -0.017411863 -0.0077605327 0.017300384 -0.015062034 0.0031823076 0.05759928 -0.02283437
-0.043101717 0.10160206 0.029221522 0.015154807 0.053302456 -0.021548409 0.07475726 0.082925044
0.060105734 -0.023098508 -0.051861197 0.036128107 -0.026008371 0.058253698 -0.051972874 -0.042556256
-0.03457342 0.008568692 -0.068699904 0.06346004 0.055863447 -0.061959945 -0.0010130722 0.05617616
0.023183811 0.047906667 0.08380227 0.018467564 -0.052403763 0.10263507 0.058073655 0.020343527
0.065819755 -0.05635801 -0.043977045 0.09802153 -0.07849125 -0.0818709 0.041104704 -0.059193958
-0.014251227 0.03823853 -0.0071500954 -0.028520577 -0.08835775 0.0152698 0.02656053 -0.064054176
0.02686154 0.03641042 0.03338733 0.047653247 0.09128425 0.03551933 0.042037375 0.031882707
-0.007904999 -5.958518e-05 0.09142202 0.105721414 0.101003826 0.022172773 -0.030401038 0.07228576
0.009011739 0.06301629 -0.0488019 -0.052733183 0.022894656 0.039877307 0.006798256 -0.00751029
0.016531104 0.03822618 0.072412945 -0.009538003 0.069727376 0.092427805 0.02051714 0.089764275
0.093877874 0.07162353 -0.04299814 0.067880705 0.0723342 -0.043653406 0.10911973 0.1218458
0.13364328 -0.031412117 0.058618076 0.118908346 -0.053782973 0.015659548 -0.06260738 0.011314656
00000000: b7e8 90bc c243 9c3d 0b2a 0abd 5942 44bd
00000010: 807d 26bd 42ed 06bd 7579 89bd 153a 4a3d
00000020: 6dbd 93bd 077b e5bd cba6 ae3b 9b7a bb3c
00000030: 99fd ddbd 8860 58bc be0e c9bd f7a4 973c
00000040: 85d0 23bc 498c e6bd f07b 6e3d ef2d c73c
00000050: 9fe1 673c 6013 47bd 51f7 8ebd eab1 1f3d
00000060: 2f69 213d 0c19 953d 5c19 b43c 369e 9d3d
00000070: 34b9 c0bc 1554 16bc cc17 7bbd ea0f 453d
00000080: 6578 9e3c bac3 d33c fb7d 4dbd ad94 89bd
00000090: 781a 93bd 55a4 633d b817 4f3d e1a5 8dbd
000000a0: 8d6f 5e3c 55c3 693d 72e6 923d 6dce 873b
000000b0: 4f63 02bd 8c28 6bbc 15f8 093d 48f4 a8bc
000000c0: d186 a93d e5ff acbd 5ce1 953d dc80 dfbc
000000d0: 52ac afbc 4880 ae3b f729 b23c e589 79bd
000000e0: 557e 53bd ff6b 9ebc 6e10 45bd a24b df3c
000000f0: 0321 22bd 7196 b73d 1dca 9c3d 1bfa cd3d
00000100: b7b0 a83c 41ee af3c ca87 083d 2543 73bd
00000110: 1301 013d 153b 603d a25e 93bb a11c 293d
00000120: aa69 a9bd e904 8abd 7f56 69ba 56cb 9ebd
00000130: 9b3f 0f3c f3d6 a83c 95a7 9fbd dd0c a5bd
00000140: a2a3 973d 044b 71ba 0b99 4b3c 40c4 8d3a
00000150: 12e3 353d 2787 9f3c 55a4 823d 77fb 3c3d
00000160: 30df 823d 3ffd 3fbd d3c1 eabc 62d1 b43c
00000170: a8bf 38bc 95fd 8d3d ff09 003d e335 bd3c
00000180: 8d8c 8fbc 5185 15bd 6bb3 ddbc 360b 033d
00000190: 3836 54bd 6594 f4bc beef 803d ba37 d43c
000001a0: 6d9b 313d fc23 e3bc 7267 393c 0b4f 8ebd
000001b0: 0bb3 a7bd 479e 763d a4f7 6c3d 5d4d e43c
000001c0: ddb2 d83c 51e9 a23c 9526 8b3a 2c47 cf3c
000001d0: 7884 a93d 0831 0b3d 3ef7 86bd 20c8 1cbd
000001e0: b1a2 fb3c 4808 8abd e8e3 613c 52cd 463d
000001f0: 1def 763b 9355 0fbc f543 ad3d 566e b33c
00000200: f657 803d 82ec c63c 49f1 58bd dbe5 96bd
00000210: d715 243d 7c0b 57bd 2aa8 153d fda1 bbbc
00000220: 7f2c 3b3d dc3c 913d 8a78 2ebd 3795 11bd
00000230: 4cec ad3c fca4 55bd b744 d53c 47d1 913b
00000240: 2648 69bd 6599 aabd f000 313d 5b8c 113c
00000250: 5a1e e4bd abb4 b9bd 759b edbc f76c 9a3c
00000260: ec00 eb3b 53a3 8ebc 114c febb 89b9 8d3c
00000270: c0c6 76bc 438e 503b 39ed 6b3d 250f bbbc
00000280: 6d8b 30bd be14 d03d f961 ef3c de4b 783c
00000290: ad53 5a3d 4a86 b0bc 561a 993d 9bd4 a93d
000002a0: 6e31 763d 1539 bdbc 686c 54bd 11fb 133d
000002b0: 820f d5bc 6e9b 6e3d 82e1 54bd 784f 2ebd
000002c0: dc9c 0dbd b363 0c3c 89b2 8cbd 56f7 813d
000002d0: 12d1 643d b6c9 7dbd 10c9 84ba f918 663d
000002e0: faeb bd3c c839 443d 86a0 ab3d 4a49 973c
000002f0: 54a5 56bd 5632 d23d a4de 6d3d 78a7 a63c
00000300: 82cc 863d a8d7 66bd 4621 34bd 83bf c83d
00000310: 05c0 a0bd eeab a7bd 685d 283d 5d75 72bd
00000320: fa7d 69bc 01a0 1c3d 594b eabb fca3 e9bc
00000330: e8f4 b4bd 2f2e 7a3c 7895 d93c d62e 83bd
00000340: bb0c dc3c 1823 153d 27c1 083d 0d30 433d
00000350: 3df3 ba3d b87c 113d 622f 2c3d 7197 023d
00000360: f883 01bc 1aeb 79b8 783b bb3d 7884 d83d
00000370: 18db ce3d ada3 b53c 990b f9bc 8e0a 943d
00000380: f9a5 133c af0e 813d 80e4 47bd c0fe 57bd
00000390: 938d bb3c 6356 233d e8c3 de3b e118 f6bb
000003a0: 3d6c 873c 0e93 1c3d 3d4d 943d 4945 1cbc
000003b0: 3acd 8e3d ca4a bd3d 9013 a83c 55d6 b73d
000003c0: 0b43 c03d 5baf 923d d11e 30bd 0a05 8b3d
000003d0: f423 943d eacd 32bd 2a7a df3d 4a8a f93d
000003e0: c9d9 083e fea9 00bd 8219 703d 3886 f33d
000003f0: 894b 5cbd 7448 803c 4c38 80bd 1b61 393c

bias f4 [16]
0.11034165 -0.06712594 0.11335223 -0.037342433 0.10206652 0.15330201 -0.0026037176 0.16427797
-0.0554215 -0.061500378 0.061284408 0.0038260438 -0.021709964 -0.026935766 0.17693047 -0.036535066
00000000: cefa e13d 5379 89bd 3725 e83d 61f4 18bd
00000010: 4008 d13d 34fb 1c3e 22a3 2abb 7c38 283e
00000020: a801 63bd d2e7 7bbd 5c05 7b3d 5dbe 7a3b
00000030: 18d9 b1bc 65a8 dcbc 432d 353e cba5 15bd

weight f4 [16, 32, 3, 3]
-0.059757438 0.006184106 0.020607414 -0.010197789 -0.05846446 -0.022414595 -0.028498491 -0.03452007
0.048297368 0.030399192 0.04264977 -0.038891096 0.01820398 0.049870808 0.021828908 0.0359215
-0.008168789 0.026472105 -0.036304004 -0.03761879 0.0094136335 0.019075535 0.019912822 0.038184725
-0.013957686 -0.059469678 -0.071848266 0.048564594 -0.06082431 -0.03521016 0.057498425 -0.04976919
-0.04922618 0.014168735 0.031465802 -0.01025618 0.05482422 -0.022360954 -0.032255817 -0.02360496
-0.009767495 0.004299986 -0.06234099 -0.07701105 0.027801227 0.043661058 0.034811385 0.040140193
0.014954304 -0.00051651 -0.04256129 0.0060919747 0.04309495 0.044148073 0.060279388 0.044635568
0.0038184407 -0.02335644 -0.021251416 -0.0042638914 0.048309047 0.045243137 -0.017825134 -0.013410504
0.044282407 0.038956303 -0.037287917 0.0047218148 -0.046313204 -0.0071827373 -0.032690287 0.003126416
0.008943269 -0.031292465 -0.012158195 -0.031761244 0.03107964 -0.033075925 -0.0154699525 -0.03528707
-0.017921286 0.027144447 0.013066962 0.02010558 0.034635995 0.07247081 0.07009517 0.05763712
0.07592906 0.028971966 -0.040893022 0.054332446 0.06268545 0.0055353106 -0.01810056 0.034956224
-0.04290422 -0.048688263 0.05265624 0.035236675 0.016011449 -0.021352258 -0.004695905 0.07596159
0.040157735 0.045921385 -0.010517151 -0.021263193 0.06382132 0.06626888 0.08543058 0.005388499
0.046680026 -0.026079984 -0.011660225 0.08407327 -0.008994139 0.051024415 0.06454117 0.059624854
0.04810601 0.020861562 0.040349033 -0.051222064 0.036778007 0.03445189 -0.023884622 -0.05244759
-0.02668332 -0.020664446 0.012209953 -0.0049882373 -0.05129742 -0.048414685 0.050564237 -0.003758389
-0.09348675 0.011444328 -0.005760783 0.044875525 -0.0047642435 -0.05439707 0.013264506 0.067721605
-0.045113016 -0.068233535 -0.023186417 -0.014366821 -0.0003130593 0.0015644556 0.023205586 0.010441642
0.046588402 0.065034024 0.043581933 0.0011273122 0.046508577 0.031145487 0.084788434 0.009641621
0.084657334 0.06061097 0.09048704 0.0335611 0.032227345 0.08646662 0.08599939 0.026857072
0.08052283 0.10988146 0.083175085 0.025229739 0.030595262 -0.019930942 0.07026523 0.024639655
0.043338325 0.04058644 0.005704448 0.009582319 0.034964565 -0.0034890317 0.031309396 -0.027640188
-0.004712191 -0.052493405 0.02804169 -0.052172277 0.055033866 -0.04650504 -0.0882506 -0.047257543
-0.013931871 -0.04538378 -0.018179348 -0.006834628 0.041851163 0.027281875 0.06981285 -0.050519772
-0.036067963 0.0057158824 0.032902215 -0.051067404 0.032967504 0.041101824 -0.016788797 0.050752994
0.101747274 0.030317517 0.054051295 0.005931566 0.025706435 0.039337024 0.10947807 0.09604649
0.09589169 0.08361748 -0.012285167 0.11148975 0.0080253165 -0.031150134 -0.01979642 0.095018394
0.0027248524 0.05913367 0.07323241 0.028216926 0.10235418 0.13284591 -0.0014703135 0.039925948
0.04431981 -0.013212118 -0.014061652 0.05151095 0.0025358782 -0.027681971 -0.054649115 -0.03722304
-0.008180807 -0.038107313 -0.01428727 -0.016045472 0.005466463 0.015567179 0.0847141 -0.034719385
-0.016771602 0.08520604 0.044023637 0.008376372 -0.044014998 0.018652141 0.07619133 -0.02284487
00000000: 37c4 74bd 0ba4 ca3b e1d0 a83c a114 27bc
00000010: 6e78 6fbd d09e b7bc ab75 e9bc eb64 0dbd
00000020: 76d3 453d ba07 f93c 86b1 2e3d 454c 1fbd
00000030: 8320 953c 5545 4c3d 8ad2 b23c 6c22 133d
00000040: 62d6 05bc 07dc d83c 82b3 14bd 2916 1abd
00000050: a43b 1a3c 4c44 9c3c 3720 a33c 9667 1c3d
00000060: c7ae 64bc 7a96 73bd 2f25 93bd abeb 463d
00000070: e922 79bd 8738 10bd 7883 6b3d c7da 4bbd
00000080: 64a1 49bd fb23 683c 49e2 003d 8909 28bc
00000090: 5c8f 603d 522e b7bc ad1e 04bd 305f c1bc
000000a0: d807 20bc e6e6 8c3b 4459 7fbd f8b7 9dbd
000000b0: 66bf e33c f0d5 323d 6296 0e3d 0b6a 243d
000000c0: e602 753c 6666 07ba bf54 2ebd 309f c73b
000000d0: 5584 303d 9cd4 343d 85e7 763d c9d3 363d
000000e0: ce3e 7a3b 0156 bfbc 7317 aebc 1db8 8bbb
000000f0: b5df 453d de50 393d 0406 92bc bbb7 5bbc
00000100: 7861 353d a590 1f3d 37bb 18bd 74b9 9a3b
00000110: eab2 3dbd 2b5d ebbb 40e6 05bd 8ee4 4c3b
00000120: ca86 123c 872c 00bd 2a33 47bc 1418 02bd
00000130: bb9a fe3c 9f7a 07bd af75 7dbc 2d89 10bd
00000140: a9cf 92bc 085e de3c d016 563c 75b4 a43c
00000150: 79de 0d3d 936b 943d 0e8e 8f3d e714 6c3d
00000160: b280 9b3d 9e56 ed3c 717f 27bd b38b 5e3d
00000170: 3b61 803d 8d61 b53b a047 94bc 422e 0f3d
00000180: 56bc 2fbd 586d 47bd 12ae 573d 5554 103d
00000190: 712a 833c eeea aebc 1be0 99bb c091 9b3d
000001a0: 707c 243d 1018 3c3d 2150 2cbc 2630 aebc
000001b0: c1b4 823d fbb7 873d 3af6 ae3d 0192 b03b
000001c0: 8e33 3f3d b1a5 d5bc 870a 3fbc 9b2e ac3d
000001d0: 275c 13bc fafe 503d 292e 843d 3139 743d
000001e0: cf0a 453d dee5 aa3c 0745 253d 3ace 51bd
000001f0: 89a4 163d 6d1d 0d3d afa9 c3bc 49d3 56bd
00000200: fa96 dabc 7c48 a9bc 410c 483c 5e74 a3bb
00000210: 3e1d 52bd 7a4e 46bd 721c 4f3d 4e4f 76bb
00000220: fb75 bfbd fe80 3b3c f3c4 bcbb 66cf 373d
00000230: 5f1d 9cbb 76cf 5ebd 5f53 593c a0b1 8a3d
00000240: 6dc8 38bd 06be 8bbd 71f1 bdbc d162 6bbc
00000250: 1c22 a4b9 6b0e cd3a a419 be3c 6c13 2b3c
00000260: 7bd3 3e3d 8f30 853d f882 323d 52c2 933a
00000270: c77f 3e3d d224 ff3c 8fa5 ad3d e4f7 1d3c
00000280: d360 ad3d 3543 783d 4551 b93d 5d77 093d
00000290: d200 043d 6915 b13d 7320 b03d 5d03 dc3c
000002a0: 27e9 a43d 8809 e13d b357 aa3d 99ae ce3c
000002b0: eaa2 fa3c 3746 a3bc 38e7 8f3d 1ad9 c93c
000002c0: 8783 313d f83d 263d 61ec ba3b 29ff 1c3c
000002d0: 0137 0f3d 3da8 64bb 483e 003d ad6d e2bc
000002e0: b968 9abb 5303 57bd b0b7 e53c 99b2 55bd
000002f0: 316b 613d 127c 3ebd bbbc b4bd 2091 41bd
00000300: 8142 64bc 58e4 39bd dbec 94bc 04f5 dfbb
00000310: 206c 2b3d 3d7e df3c 0afa 8e3d d2ed 4ebd
00000320: 00bc 13bd 4c4c bb3b 79c4 063d 0e2c 51bd
00000330: ef08 073d 635a 283d a988 89bc 5fe2 4f3d
00000340: e060 d03d 715c f83c e464 5d3d 955d c23b
00000350: 4d96 d23c dc1f 213d 0a36 e03d 06b4 c43d
00000360: dd62 c43d a43f ab3d ba47 49bc bd54 e43d
00000370: 9e7c 033c 912e ffbc 1a2c a2bc 0199 c23d
00000380: 7093 323b 2636 723d e0fa 953d 2f27 e73c
00000390: 119f d13d c208 083e 89b7 c0ba 6489 233d
000003a0: b088 353d a477 58bc d862 66bc 25fd 523d
000003b0: fa30 263b 4dc5 e2bc c0d7 5fbd 3077 18bd
000003c0: cb08 06bc 6a16 1cbd 2715 6abc cb71 83bc
000003d0: 0420 b33b 7b0d 7f3c 967e ad3d ea35 0ebd
000003e0: 9964 89bc 8180 ae3d 2152 343d 0d3d 093c
000003f0: 1249 34bd 60cc 983c 330a 9c3d 2a25 bbbc

bias f4 [32]
0.0023194803 0.027064338 0.011085376 0.024163852 -0.003802797 -0.0681615 -0.0074962443 -0.015342666
0.026708446 0.013322109 0.027549805 0.11672693 0.13540387 -0.12864542 -0.025398739 -0.062217563
-0.037478697 0.0688265 0.10427514 0.038424052 0.08313336 -0.06110275 0.034406003 0.08892847
0.100019895 0.027879324 0.0029052077 0.014386053 0.012580844 -0.013855585 0.013339826 0.10539732
00000000: 6c02 183b 08b6 dd3c 709f 353c 45f3 c53c
00000010: 5938 79bb 4298 8bbd 0ea3 f5bb ce5f 7bbc
00000020: accb da3c fa44 5a3c 21b0 e13c 870e ef3d
00000030: 50a7 0a3e a0bb 03be 0411 d0bc d8d7 7ebd
00000040: 4383 19bd e8f4 8c3d 348e d53d 8a62 1d3d
00000050: d341 aa3d e146 7abd 4fed 0c3d 2120 b63d
00000060: 3bd7 cc3d 2e63 e43c 4c65 3e3b 7bb3 6b3c
00000070: e21f 4e3c 8902 63bc 498f 5a3c 8dda d73d

weight f4 [32, 3, 3, 3]
-0.13487703 0.0068426738 -0.10791397 0.18589035 0.17033157 -0.12786715 -0.024187688 -0.028334163
0.1332953 0.16606735 0.071585454 -0.13843526 -0.02292807 -0.0013507457 -0.036344092 -0.050949592
-0.09466955 0.16782069 -0.12207309 0.1452061 0.097156875 0.10020275 -0.12775163 -0.06934633
0.06300235 -0.14556491 0.145702 0.040177457 0.016452752 0.08646127 0.1122459 -0.117921285
0.03409811 -0.08103319 -0.13587333 -0.14532319 -0.001339789 0.045230407 -0.1657539 -0.11083192
-0.1852893 0.15321584 0.104845166 -0.087356485 -0.02862972 0.03782696 -0.04088705 -0.20567939
0.012460099 -0.14426558 -0.21474369 -0.011891456 -0.03675503 0.03147934 -0.1523463 0.123775005
-0.17371804 -0.09693654 0.13685948 -0.12446431 -0.019355707 0.17058511 -0.026410861 0.017728755
-0.09498784 0.13929777 -0.04424332 -0.047856014 0.05358988 0.15741342 -0.014612099 0.020125337
0.10634003 0.08500466 0.14416286 0.09387755 0.039555542 -0.03525989 0.06498873 0.20836842
-0.09547828 0.18223123 -0.12253018 -0.026891463 0.16484228 -0.089738436 -7.050973e-05 -0.0001097314
0.0817026 0.041879628 0.05848207 -0.13396576 0.13775024 0.02421766 -0.1624636 0.16766171
0.21635382 0.1005211 0.1150891 0.11366966 -0.053970184 -0.15686513 0.024823215 0.058557734
-0.057027712 -0.024488956 -0.009684975 0.03759241 -0.17696442 -0.107406355 -0.07102466 -0.18295063
-0.19428587 -0.024840705 -0.10556959 -0.03513639 0.02123208 0.1828876 0.00030872363 -0.014917206
0.074048705 0.06455849 0.030573722 0.030866655 -0.012120104 -0.01209682 0.035636008 0.1334937
0.14101098 -0.06376218 0.16564153 0.12034264 0.11159698 0.0020291687 -0.17702553 -0.07052613
-0.17406555 0.1504916 -0.018229548 -0.121508114 -0.009096252 0.18065882 0.0615719 -0.12740937
0.18782252 -0.099461086 0.1741022 0.10662712 0.08073789 0.12224662 -0.1202573 0.18967094
0.11998567 0.01760113 0.058481257 0.07090332 0.055046663 0.1380313 -0.09977964 0.13197638
0.07423621 0.015612852 -0.07490527 0.15826434 -0.059375834 0.22310112 0.011219134 -0.14078946
-0.09989347 0.009137098 0.15915672 -0.011877209 0.14729553 -0.13115352 -0.04447698 0.14995444
0.12204489 0.14570059 -0.21050331 0.049707986 0.12659235 -0.19590193 -0.12088443 -0.08143263
-0.15949309 0.08086344 0.046695694 -0.05416191 -0.2058562 0.16129567 -0.12082878 -0.06927103
-0.084230214 0.08668632 0.07056431 -0.06857502 -0.13744839 0.17145753 0.17846331 -0.15066391
0.053046063 -0.102053255 -0.094359115 -0.038333178 -0.16771573 0.13719627 0.118067 0.13271403
0.03696409 -0.124364264 0.112025805 0.1309872 0.08745062 -0.16367313 -0.034936853 -0.15228122
-0.013335371 0.12872463 -0.1490864 -0.076078884 -0.1700437 0.12014326 -0.061769705 -0.09056902
-0.12300019 0.15783481 -0.04526273 0.071358226 0.0795067 -0.16334455 0.105481535 -0.025287943
0.01436137 -0.036276877 -0.033529896 -0.19003478 0.07209866 -0.11286044 -0.06864606 -0.14570266
0.08749426 0.05154715 0.035024244 0.17318326 -0.1898561 0.06957941 -0.19593534 -0.06945821
0.097628735 -0.041445084 0.12448126 -0.16871758 -0.10519805 -0.06506429 0.13381293 -0.22837707
00000000: 341d 0abe 8238 e03b 0002 ddbd 0a5a 3e3e
00000010: 666b 2e3e 9bef 02be 4225 c6bc 0c1d e8bc
00000020: 907e 083e 8f0d 2a3e 659b 923d f9c1 0dbe
00000030: a6d3 bbbc 810b b1ba 8bdd 14bd 85b0 50bd
00000040: 1ce2 c1bd 30d9 2b3e 7501 fabd e8b0 143e
00000050: 2ffa c63d 1937 cd3d 53d1 02be 7305 8ebd
00000060: 6007 813d f80e 15be e832 153e 1e91 243d
00000070: ecc7 863c 9b12 b13d 2ee1 e53d b780 f1bd
00000080: 76aa 0b3d bbf4 a5bd 6122 0bbe 9acf 14be
00000090: dc9b afba 8543 393d 64bb 29be d8fb e2bd
000000a0: 7abc 3dbe 9de4 1c3e 10b9 d63d f5e7 b2bd
000000b0: e088 eabc 71f0 1a3d 2e79 27bd 9e9d 52be
000000c0: 7125 4c3c 5bba 13be c5e5 5bbe 62d4 42bc
000000d0: 718c 16bd 7bf0 003d ab00 1cbe c07d fd3d
000000e0: 24e3 31be aa86 c6bd e424 0c3e 25e7 febd
000000f0: dc8f 9ebc ddad 2e3e 975b d8bc e53b 913c
00000100: fc88 c2bd 13a4 0e3e 7c38 35bd ab04 44bd
00000110: 1081 5b3d fc30 213e 9667 6fbc e4dd a43c
00000120: cdc8 d93d ec16 ae3d 6e9f 133e df42 c03d
00000130: fe04 223d ad6c 10bd d018 853d 885e 553e
00000140: 1e8a c3bd d39a 3a3e 1af1 fabd 7c4b dcbc
00000150: 6acc 283e c9c8 b7bd a0de 93b8 991f e6b8
00000160: b153 a73d f989 2b3d e58a 6f3d 522e 09be
00000170: 660e 0d3e 1d64 c63c dc5c 26be 83af 2b3e
00000180: db8b 5d3e 02de cd3d d6b3 eb3d a4cb e83d
00000190: d70f 5dbd 41a1 20be 0e5a cb3c 3cda 6f3d
000001a0: e495 69bd 109d c8bc bbad 1ebc 80fa 193d
000001b0: 2936 35be ddf7 dbbd 6075 91bd 6957 3bbe
000001c0: e0f2 46be bc7e cbbc df34 d8bd 2deb 0fbd
000001d0: e6ee ad3c e346 3b3e 2fdc a139 4c67 74bc
000001e0: d9a6 973d 3e37 843d be75 fa3c 11dc fc3c
000001f0: 6793 46bc be31 46bc 10f7 113d 93b2 083e
00000200: 2f65 103e bf95 82bd ef9d 293e 3476 f63d
00000210: f58c e43d cdfb 043b 2e46 35be 0170 90bd
00000220: 3d3e 32be 781a 1a3e 2256 95bc 3fd9 f8bd
00000230: 7208 15bc a0fe 383e d132 7c3d 9a77 02be
00000240: 8c54 403e 41b2 cbbd d947 323e 525f da3d
00000250: e859 a53d 705c fa3d 7649 f6bd 1939 423e
00000260: 0cbb f53d 3f30 903c 0b8a 6f3d c335 913d
00000270: 9c78 613d 1458 0d3e 4559 ccbd d124 073e
00000280: 2709 983d 0ccd 7f3c ef67 99bd 0c10 223e
00000290: 1334 73bd 9f74 643e 75d0 373c 1d2b 10be
000002a0: f394 ccbd c4b3 153c fbf9 223e a098 42bc
000002b0: a4d4 163e 1c4d 06be 7e2d 36bd a88d 193e
000002c0: acf2 f93d 8932 153e 2e8e 57be 9a9a 4b3d
000002d0: 6da1 013e 849a 48be 4292 f7bd 27c6 a6bd
000002e0: 2852 23be bb9b a53d fc43 3f3d e1d8 5dbd
000002f0: f8cb 52be b12a 253e 1475 f7bd f8dd 8dbd
00000300: e480 acbd 9988 b13d 0584 903d 0f71 8cbd
00000310: 45bf 0cbe 9092 2f3e 16bf 363e a447 1abe
00000320: d446 593d 4c01 d1bd 5a3f c1bd 4003 1dbd
00000330: acbd 2bbe 2e7d 0c3e 1ccd f13d 30e6 073e
00000340: a867 173d b1b2 febd c96d e53d 8221 063e
00000350: 5019 b33d ee99 27be f219 0fbd 9cef 1bbe
00000360: 9a7c 5abc 64d0 033e 1baa 18be 3fcf 9bbd
00000370: f01f 2ebe ab0d f63d 3b02 7dbd 407c b9bd
00000380: 86e7 fbbd 739f 213e 6a65 39bd 4324 923d
00000390: 69d4 a23d cb43 27be b406 d83d a928 cfbc
000003a0: f44b 6b3c 1097 14bd a556 09bd 7a98 42be
000003b0: 76a8 933d 6023 e7bd 4e96 8cbd 1433 15be
000003c0: 3130 b33d 1b23 533d 9575 0f3d f456 313e
000003d0: a369 42be a67f 8e3d 46a3 48be 1b40 8ebd
000003e0: 93f1 c73d 52c2 29bd 08f0 fe3d 4dc4 2cbe
000003f0: 1372 d7bd 6d40 85bd 4206 093e aedb 69be

bias f4 [3]
-0.12068364 0.011066635 0.12258366
00000000: fc28 f7bd d550 353c 240d fb3d
