adbob_pretrained_weights/final_adbob_lama_denoiser_20_each_model.pth (torch, 61183 bytes, 12 tensors)

weight f4 [32, 3, 3, 3]
00000000: c41a 89bc 4a1c 3bbc 40b4 25be 7cae 18be
00000010: 10f7 bcbb 7166 133e cd8b ef3c c759 273e
00000020: 08e1 c03c 01c6 e6bc d819 863d 1d39 33bd
00000030: 173e c63d c63a 17be 81fe 3e3e 7ada 78bd
00000040: eda2 4f3d e311 7fbb a89a 323e cc7c 133e
00000050: 2679 85bc dfac 563d 725a febd 6907 07be
00000060: 952b 133e ee78 ce3d 1966 2dbe edbb e0bc
00000070: 6d1d 643d e468 873d acb3 fbbd fe35 853c
00000080: ef66 35bd 5da6 2f3e 5264 5e3d a19c 84bd
00000090: 3d7c d43d f2f3 8ebd c9f5 b03d 3fd5 c4bd
000000a0: 9470 32be 417f 883d f2e4 0f3a a841 32be
000000b0: ca3e 1ebe e02d f63d 82c3 0a3e a8be 1a3e
000000c0: 866b 32be f1f0 57bd 56ef a93d b5f3 f13c
000000d0: 7d40 833d 23fe 18bd bfb1 eebd 8e2c 32be
000000e0: d353 3abe 160e a5bd 41b8 fc3d 53d4 453d
000000f0: 154a 9f3d 3f3d 41bd 4c31 7bbd 6ee0 673d
00000100: e61e 81bb b3e0 24be 5988 043e 3461 1fbd
00000110: 0f82 03be 205e 1cbe 21be e83d 3027 2cbe
00000120: a953 7bbd 3b0b 043e e509 1ebe 475e f63d
00000130: 3205 033c 7c6e eb3d 46c6 e53d 8030 38bc
00000140: ab44 1c3d 0d69 79bb 93af 9d3d 693e 7f3b
00000150: 5262 8c3d 2edd c3bd c93c 2b3e 6092 3abe
00000160: ee9e 46bd 4f79 a3bd ecbe 01bc 71a0 a73d
00000170: c256 f3bd 5a71 68bd 4542 963d 5597 fcbc
00000180: 8770 793b 2cdf 12be 0250 6dba e49c 373e
00000190: 18a6 a6bd 2064 c2bd 4027 95bd 9ce4 d7bb
000001a0: e3a5 103e 764f f53d 8368 fabb 020b a1bc
000001b0: e0e8 0e3e f167 27be 8dab 023e cf44 00be
000001c0: 6d23 d9bb 1261 e8bd 856a 133e 745b 8bbd
000001d0: f198 38be 447f 75bd 7409 11bd 6980 0c3d
000001e0: 91b8 153e fbe8 163e 3a96 d03d 3802 f63d
000001f0: 2e3a ae3d 6ed3 123d 47eb 063e 9e21 5fba
00000200: ec1f 48be c4e0 0bbe 2e7e 63bc 07eb acbd
00000210: e42b c53c b210 193e 7ef2 ca3d 8043 02be
00000220: eecc 2a3d a9c3 9c3d 99ac 2cbe 36a2 0abe
00000230: 1592 303c b65b 103e 8291 84bd 568e 89bd
00000240: 6809 223d f047 df3d 701b 063e b782 3a3d
00000250: 6f11 1ebe e104 07be f8d0 c8bc 1dee d9bb
00000260: 883a 303d 61d9 18be 6202 8c3d 7074 2fbe
00000270: dea8 a43c a535 313c ba8a 30bd 2ffb 923d
00000280: 8c27 b3bd 2596 0abe 9ee1 ef3d cd04 54bd
00000290: df7b 2f3e bf5a 41be 5cce f93d 2f93 11be
000002a0: 598a 393d 80a6 9fbd bbcf 46bd 377f 2fbe
000002b0: 8b44 01be 1119 28be f8dc 0ebe 9856 3cbc
000002c0: cb06 323e 5959 103e 808f 2bbe 084f ea3d
000002d0: da3d 153d 2f19 7b3d 7f7e f9bc 20ba a5bd
000002e0: 35d3 873d 1c64 2a3e 31aa ffbc 8bec 12bd
000002f0: de78 d7bc 3651 23bd 436a 3c3e 0446 6f3d
00000300: d459 b9bc dd35 a33d 07ca e939 2792 3bbe
00000310: 59d3 313d e1d1 583c 330d 3bbe 3a4b 84bd
00000320: c164 f43d 906f 233e 87d7 06be e4bc cd3d
00000330: 9d17 10be 3138 233d ef9a fa3c 5e02 eebd
00000340: 95eb 163e 541b ae3d 31d6 2b3e 6ea6 f03d
00000350: 4206 a0bd eaee a93d 92a5 ba3d e50c 463d
00000360: 65e8 133e c69c 033e 1618 0b3e e8f9 c6bd
00000370: 1c2d 37be d93b 113e f14f f33d e730 d43d
00000380: ab18 043e ec70 91bd 04b0 2e3c 4f1d 96bd
00000390: b2f7 fd3d 5551 f8bd 5631 bb3d 2ef5 1abe
000003a0: a7d7 d3bd 6454 c8bd 8068 1cbd c8d7 a2bd
000003b0: d512 bcbc ec1f 39be 410a 1a3d 9f73 b73d
000003c0: d9ea 46bd 580b 103d 1bc9 9f3d be9c 23bd
000003d0: b55b 353e 69b4 96bd 5995 f4bd 4aa9 29be
000003e0: 53a5 1abe 4d5e 3dbd 4f21 8a3d f16d 9e3d
000003f0: 5e82 bb3d fb33 8bbd f7cf 113e d375 a73c
-0.016736396 -0.011420319 -0.16182041 -0.1491031 -0.005766757 0.14394547 0.029241467 0.16342841
0.023544803 -0.028170587 0.06547898 -0.04375564 0.096798114 -0.14768514 0.18651773 -0.06075523
0.050692488 -0.0038920573 0.17441809 0.14403075 -0.01629312 0.052410956 -0.12419595 -0.1318642
0.14372094 0.10081659 -0.16933478 -0.02743336 0.055692125 0.06611803 -0.12290129 0.016261097
-0.04428762 0.17153306 0.05429489 -0.06475187 0.10375259 -0.069801226 0.0864063 -0.09610986
-0.17425758 0.06664897 0.00054891326 -0.17407858 -0.1545364 0.12020469 0.13551143 0.15111792
-0.1742383 -0.052720014 0.08297603 0.029535154 0.064087845 -0.03735174 -0.11654996 -0.17399809
-0.18196039 -0.08059327 0.12339831 0.04829819 0.07777802 -0.04717755 -0.06132631 0.056610517
-0.003940451 -0.16101341 0.12942638 -0.03891106 -0.12842582 -0.15270281 0.11364389 -0.16811824
-0.06135908 0.12894909 -0.15433462 0.12029701 0.007996844 0.114956826 0.11219458 -0.011242032
0.038151424 -0.0038057 0.07699504 0.0038947111 0.068546906 -0.09563671 0.16722406 -0.182199
-0.04849141 -0.07982122 -0.0079190545 0.08184899 -0.11881782 -0.056748725 0.07336859 -0.03083388
0.0038061456 -0.14342946 -0.00090527546 0.17930943 -0.081371486 -0.094917536 -0.07282877 -0.0065885317
0.14125781 0.119780466 -0.0076418533 -0.01965857 0.13956022 -0.16348244 0.12760754 -0.12526248
-0.0066265375 -0.1134664 0.14396103 -0.06804553 -0.18027093 -0.059935823 -0.035409406 0.03430215
0.14621188 0.14737312 0.101849034 0.12012142 0.08507191 0.035846166 0.13175689 -0.0008511784
-0.19543427 -0.1365996 -0.013885064 -0.084432654 0.02406878 0.14947775 0.09909533 -0.12721062
0.041699342 0.07654507 -0.16862716 -0.13538441 0.010777016 0.14097485 -0.06473066 -0.067166016
0.03955975 0.10902393 0.13096404 0.045534816 -0.15436338 -0.13185455 -0.024513707 -0.0066507
0.04302457 -0.14926673 0.06836392 -0.17134261 0.020100053 0.0108160125 -0.04310105 0.07176816
-0.08747777 -0.13533838 0.11712955 -0.05176239 0.17137097 -0.18882273 0.12197563 -0.14216302
0.045297954 -0.07795429 -0.04853795 -0.17138372 -0.12623803 -0.16415812 -0.1395148 -0.011495255
0.17385404 0.14096583 -0.1675396 0.11440855 0.03643594 0.061303314 -0.030455826 -0.08092141
0.066320814 0.16639751 -0.031209083 -0.035870116 -0.026302751 -0.03987237 0.1839991 0.05841638
-0.022625841 0.07969258 0.00044591745 -0.18317471 0.043414447 0.013233633 -0.18266754 -0.06459661
0.1193328 0.15960526 -0.13168155 0.10045794 -0.14071508 0.03984851 0.030591456 -0.11621545
0.14738305 0.08501306 0.16780926 0.11750494 -0.078136936 0.08297522 0.09113611 0.04835214
0.1444412 0.12852773 0.13583407 -0.097156346 -0.17888302 0.14182986 0.11880482 0.1036089
0.12900035 -0.07101616 0.010662083 -0.07329809 0.1240076 -0.12124888 0.091402695 -0.15132591
-0.10343867 -0.09781721 -0.038185596 -0.07951313 -0.022958199 -0.18078583 0.037607435 0.089576
-0.048563812 0.03516707 0.0780203 -0.039944403 0.17710765 -0.07358629 -0.11942548 -0.16568485
-0.15102129 -0.04623251 0.06744634 0.077358134 0.09155725 -0.06797024 0.14239489 0.020441925

bias f4 [32]
00000000: 0a19 a23d 9d8b 1a3d cddd 5f3d 4499 8e3e
00000010: 8397 d63d 9c6a 273e 57b2 b6bd fdd4 81be
00000020: 4f8e ad3d 7003 213e f33f 473d b0ca c23a
00000030: a504 92bd a556 023e 78aa 523e 63a5 4bbe
00000040: 46be efbd 8c5f 58bd 79d5 2cbb c901 06be
00000050: 94e4 363e ac1b 883e 0c10 313e 622e 27be
00000060: fcab 3abd b35a e7bd 5524 e4bd c154 293e
00000070: 866a 9ebd d819 cabd a98c ea3c b740 963c
0.07914932 0.0377308 0.054654885 0.27851307 0.10478117 0.16349262 -0.089207344 -0.2535781
0.08474409 0.15723968 0.04864497 0.0014861431 -0.07129792 0.12728365 0.20572841 -0.19887309
-0.11706214 -0.052825496 -0.0026372357 -0.13086618 0.17860633 0.26583612 0.17291278 -0.16326287
-0.045574173 -0.112965964 -0.11139742 0.16536237 -0.077351615 -0.098682106 0.028631525 0.018341405

weight f4 [16, 32, 3, 3]
00000000: e3d6 e83c 9e16 783c 1abb 6abd 865b db3c
00000010: 3fe3 9f3b d2c8 9e3c dbf0 5ebd e002 5cbd
00000020: 87d7 4cbd de71 813d dfa5 6a3c b91f 6f3c
00000030: 3cfa ec3c 6f06 483d 4374 58bd b6ad 813c
00000040: 5c31 1cbd 6ba4 36bc f142 523d 7227 4cbd
00000050: 2372 1d3b 8e23 0d3c fb67 1f3c 565c 163c
00000060: 1fc4 763d 0c7a 11bd d89c 823d 5320 643d
00000070: 5602 91bc 2538 853c 5c6c 6e3c 4f90 393d
00000080: 39e2 5f3d 272f 16bc fc98 c6ba ceb5 12bd
00000090: 0a23 083d b5b6 843c fc01 833b aba6 413d
000000a0: 94f6 133d 4b9c b13a 6714 dd3b c291 96bc
000000b0: 2bc8 01bd 9580 ddbc 1453 913d 9bd6 823c
000000c0: 335a 0f3c 4fba 39bd 423f 2fbb c063 963c
000000d0: ec1c f13c d3ed c139 93d7 dd3c 522c 443d
000000e0: 0473 f03c ec08 5fbc d15c 4c3d e967 7f3d
000000f0: 707e 513d 5275 06bd fe55 033d 6d10 adbc
00000100: 8d75 0f3d 1ce4 cf3c f442 82bc 07aa 3abb
00000110: 2a66 69bc 8656 1b3d be40 b93c b305 1fbc
00000120: dbf6 543d b31d 27bb d289 943b f546 443d
00000130: 74cb 43bd f5ae 33bb e5c1 653d f704 25bd
00000140: 955b 663c 1185 15bd e188 ebbc ae5f 61bd
00000150: 57ce 6bbc cb1a 1f3d 50c6 9f3b 3fc3 c83c
00000160: 505e 433c 22f9 c63c 28ce 993c 4980 ab3c
00000170: ad40 0cbd dd07 babb 9c65 a83c bbc5 b4bc
00000180: 4f27 503a ed35 24bd ab61 113d 9151 2fbd
00000190: 9ef6 3cbb ceeb 7e3d 63b6 11bd 5005 a73c
000001a0: c776 82bc 2b8d 6f3d 2196 1d3d 6749 893c
000001b0: 81b6 5bbc 19d7 043d fe78 5e3d 65ea f93c
000001c0: e1c4 1ebd 33a1 b73c b65e 1f3d e0be 50bd
000001d0: c981 d2bc 6ab7 abbc 9df8 4cbd cbd3 8fbc
000001e0: fabc b33c 5ccd e63c e637 803d 4b50 213d
000001f0: ff92 033d 8246 8d3c 1597 403c 728e fcbc
00000200: 6d98 243d 8cd7 163d dee2 5c3d 5e4d 3d3d
00000210: a6e1 573d b401 c53c a002 a43c 3267 44bd
00000220: 13fd 5a3d 020e b23c c3d3 113d 115c 573d
00000230: 6e37 f4bc c866 6ebd 8ac9 1d3d a5af 5dbd
00000240: 9bfd 5b3d 9d9f 533d 63a0 54bc 4767 17bd
00000250: 9030 9e3c 0383 223d 1b71 2e3d 22b6 703d
00000260: cc41 dc3b 9c46 fa3c 905d 663d 9b24 213d
00000270: e791 49bd 9346 0cbd 59ec 103d ed16 cebc
00000280: e46d 87bc 4e2a 00bd 4f28 a33d 58b4 573d
00000290: e2f6 963d 45b4 c0bb 9440 8e3d 3406 a83b
000002a0: 0c70 2d3d 791d b53c dbd5 27bc 02a4 8c3c
000002b0: 1431 6d3c 4614 7abd 2771 c43c c8fe 82bb
000002c0: 680e c1bc af04 e2bc af17 f83c 5ec6 5e3d
000002d0: 1dc5 2bbc 9e9e 0b3b 0ba0 2a3d 7dfe 66bc
000002e0: 08f2 293c fee6 443d 3a79 0d3d e675 ecbb
000002f0: f3b2 7b3d 72f9 22bd a164 253d cb3b c1bc
00000300: f55b 3c3c 0157 0d3d 4794 79bd 83ff eebc
00000310: 73bc 4fbb 1a5c e2bc 9f53 c8bc 8dda 07bd
00000320: e3f9 8a3d 167c 573d be50 b63c f9e7 543c
00000330: feaf 28bd 8563 7e3d 543e 9c3c 3dc0 0ebd
00000340: d2dd 88bc 57e1 843d b0e3 543d 3b43 01bd
00000350: 74e8 5c3d d63d 15bd 4eba 6c3d d56d 493d
00000360: 1881 68bd ed51 3b3d 85e0 a8bc d4e2 80bb
00000370: a857 4bbd 34b0 713c 846d 3b3d 5341 cdbc
00000380: 13dc 453d 679f 433c 5a44 b53c c9dc 32bd
00000390: 49a4 e0bb f930 393d db60 05bd f60e 5cbd
000003a0: c9cd 42bd c03f fdbc 0207 143d 4fa5 2fbc
000003b0: bccc 2e3d 468d 6cbd 94af e3bc 470d 51bd
000003c0: 52ee 15bd 07e8 e13c 1022 6e3b ce4b 253d
000003d0: d659 f0bc 43df 6d3d 5b30 873c 5f06 0e3c
000003e0: 99d1 cf3c 7507 233d f9e8 fc3c 3904 40bd
000003f0: fc50 63bd f540 35bd 61f3 673c 02f7 0ebd
0.028422778 0.015142111 -0.05730734 0.02677704 0.004879385 0.019382868 -0.054428916 -0.05371368
-0.05001023 0.063205466 0.014321773 0.014594966 0.028927915 0.04883426 -0.05284525 0.015829902
-0.03813301 -0.011147599 0.05133337 -0.049842305 0.002402433 0.008614434 0.009729381 0.009177288
0.06024563 -0.035516784 0.06377572 0.05569489 -0.01770131 0.016262123 0.014552202 0.04530364
0.054659102 -0.009166515 -0.0015151794 -0.035817914 0.03323654 0.016200403 0.0039980393 0.047278088
0.036123827 0.0013550607 0.006746817 -0.01838005 -0.031685036 -0.027038852 0.07095924 0.015971472
0.0087495325 -0.045343693 -0.0026740585 0.018358111 0.029432736 0.00036989021 0.027080333 0.04789383
0.029351719 -0.013612967 0.049893204 0.062354956 0.05114597 -0.03282673 0.03206443 -0.021125996
0.035024215 0.025377326 -0.015901066 -0.0028482692 -0.014245549 0.037924312 0.02261388 -0.009705949
0.051993232 -0.002549988 0.004533031 0.047919232 -0.04780145 -0.0027417515 0.056093115 -0.040287938
0.014059921 -0.036503855 -0.028751792 -0.055022888 -0.014392457 0.03884391 0.0048759356 0.024507163
0.011924341 0.024288718 0.01877506 0.020935195 -0.034241367 -0.005677207 0.020556264 -0.022066941
0.0007940428 -0.04009049 0.035493534 -0.042802397 -0.0028833519 0.0622366 -0.03557433 0.020388275
-0.015925778 0.058484238 0.038473252 0.016758634 -0.013410212 0.032431696 0.054314606 0.030507276
-0.038761977 0.022415733 0.038908683 -0.050963283 -0.025696652 -0.020961482 -0.050041784 -0.017557045
0.021940697 0.028174095 0.06260662 0.039383214 0.03212261 0.017245535 0.011754771 -0.030829642
0.040184427 0.036826655 0.053927295 0.04621636 0.05270543 0.024048664 0.020020783 -0.047949977
0.053464007 0.021735195 0.035602342 0.052578036 -0.029811587 -0.05820349 0.03852228 -0.054122586
0.053708654 0.05166589 -0.012977692 -0.036963727 0.019310266 0.039675724 0.042588335 0.058767445
0.006721711 0.030551247 0.056241572 0.03934155 -0.04921141 -0.034246992 0.03538165 -0.025157416
-0.016531892 -0.031290345 0.07966673 0.052662224 0.07371308 -0.005880865 0.06945911 0.0051276926
0.042343184 0.02210878 -0.010243858 0.017168049 0.014477033 -0.06105449 0.023979736 -0.0039976574
-0.02356644 -0.027590124 0.03028473 0.054388396 -0.010484007 0.002130426 0.041656535 -0.014098761
0.010372646 0.048071854 0.03453944 -0.007216203 0.061449956 -0.03978867 0.04037917 -0.023588082
0.011496534 0.0345068 -0.060932424 -0.029174572 -0.0031698018 -0.027631808 -0.024453936 -0.03316741
0.06785943 0.052608572 0.022255298 0.01299476 -0.041183464 0.062106628 0.01907269 -0.0348513
-0.016707335 0.06488293 0.051974952 -0.031558257 0.053932622 -0.036435924 0.05779486 0.04917701
-0.05676374 0.045732427 -0.020614872 -0.00393329 -0.049644142 0.014751483 0.04575874 -0.025055563
0.048305582 0.01193986 0.02212732 -0.04366759 -0.006855522 0.04521272 -0.03256307 -0.053725205
-0.047559533 -0.030914187 0.036139496 -0.010720565 0.04267572 -0.057751916 -0.027793683 -0.051038053
-0.036604233 0.02757646 0.003633622 0.040355496 -0.029339712 0.058074247 0.01650255 0.008668511
0.025368499 0.039802033 0.030872809 -0.046879027 -0.055497155 -0.0442514 0.014157147 -0.034903534

bias f4 [16]
00000000: 7849 98bd 2b1c 733d 1c74 cdbc 59fe f33d
00000010: 2e3b 053d e05c 1b3e dd49 06be 4eb4 7c3d
00000020: 1993 103d b176 c63d e0e2 3abd 69c8 c3bc
00000030: 8f63 2d3e f812 013d 8710 d0bd 4137 1fbd
-0.07435888 0.059353035 -0.02507978 0.11913747 0.03252714 0.15172148 -0.13114114 0.06169539
0.035296533 0.09690607 -0.04562652 -0.023899274 0.1693251 0.03151223 -0.10159402 -0.038871054

weight f4 [8, 16, 3, 3]
00000000: ef54 bc3c e4ed 413d fe9c 2fbd e963 b2bb
00000010: c075 383d b6ef 7abd 52eb 453c 207a ce3c
00000020: 1a38 483d e30d cc3c fb8a 5f3d c835 63bc
00000030: 68fd 9cbd 201d 363c bee3 57bc d308 7d3d
00000040: b212 963c e4d2 6ebd 417b 763d f29e dfbc
00000050: 2f0f 243c efed ab3c b71d 813d 59aa 833d
00000060: a0b8 20bc f97c 993d cb21 db3a 2ff3 90bd
00000070: 21bf ffbb 54c8 bdbb 8cb9 443c 5bf6 be3d
00000080: 7739 cdbc 61b0 023d 531d 6b3d 0617 563c
00000090: 5a92 29bc 4d08 61bd beaa 2ebd e6ee 123d
000000a0: 765c 53bd 6ec9 ad3b bfca 373d b74b 0a3d
000000b0: e4eb 40bd 07cc b13c d066 84bd dd43 613d
000000c0: 32e8 5abd 77ec 39bd 6082 32bd 8237 f4bc
000000d0: dbc3 833c 191c 033d adfc 17bd 8856 77bc
000000e0: 91b4 54bc ec92 2ebd e262 883d 0bc9 363c
000000f0: acd4 353d 2147 923c 9255 833b 218a ae3d
00000100: d9fa 483c 156e a93c f3bd 403d ac9d 233d
00000110: 4a45 093c ebce 573c d3dc 203d fea9 5c39
00000120: 3dd1 f33c 7d58 603d 058f 35bc 061e 0dbd
00000130: a270 94bd 1a9d 6ebd 3a85 4e3d 0214 9cbd
00000140: 897b 7fbd 1075 7bbd 87f8 2ebd 6d87 48bd
00000150: a9f2 44bd e25a b2bc 7b63 6fbd 58f6 3b3c
00000160: f03d 6f3d 4a4f c63c 178d 4cbd 4492 15bd
00000170: 9db9 6dbd afd4 94bd 71d6 23bc 8149 8c3d
00000180: fe23 96bc 89a3 28bc 867a 9dbd 7a9f 8a3d
00000190: 3e8a a2bc 4693 1bb9 3a23 6a3d cee5 c53c
000001a0: e745 a83c fcfa 503d 4bcd a23d fe44 83bd
000001b0: 2082 b33c 44ee 58bc 1ee0 92bc 481d 4dbd
000001c0: 8c65 773d 0a6d 3abd e2e9 a13b 40d8 103d
000001d0: 0c62 75bc 75aa 52bd f835 0cbd 0685 70bd
000001e0: ca4b ab3d 9610 1ebd ab4f 5f3d 1a42 a13d
000001f0: 4cb9 de3b 8a0d a03d cb37 04bc 3bac 133c
00000200: 54dd 95bd 35aa 15bd 7785 56bc d55e 1fbc
00000210: ae88 8fbd 43d0 693d b89b 5ebd f18b 40bd
00000220: efb8 7b3d de4a ff3c 9c19 a5bd dc5f 95bd
00000230: 5cd3 09bd 84a0 53bd 3200 abbd afc5 8fbd
00000240: f654 58bd f6b2 16bc 773d 54bd e127 7c3c
00000250: 78ef 8b3d adf5 983c 5297 a7ba 63fa 40bd
00000260: bdb4 343d 78ba ac3d 7dfe af3d 59fa 3fbd
00000270: cf9a 91bd 028a cbbc f79f aaba b624 353d
00000280: b728 c3bc f5e5 0cbd ff9f f23c f390 96bd
00000290: 9fc7 95bd f23e 97bd 5e07 61bd 9255 62bd
000002a0: a0b8 a73d 385b 2c3b 8dfd 78bd 9226 0c3c
000002b0: 33f9 b63c 3a08 c53c c77c a73d 43b9 c73c
000002c0: b5be 803d 6c8e 323b 0d3a be3d 6a53 0dbd
000002d0: 45d3 94bc 26df 353d 297a 15bd 0864 5f3d
000002e0: d976 c7ba 17ed 3abd 878e bd3c d3a7 34bc
000002f0: 6b38 663d 7b76 9b3d 4992 c7bc 4fda 8a3d
00000300: 1850 963d 1240 463d fece 98bc ceab a83c
00000310: 2a24 13bd cb15 51bc c8ea a33d fb3e e43c
00000320: bd50 59bd c146 12bd d1e6 fdbc 47da 51bd
00000330: 0f0c a3bc 4fa5 4bb9 b3d3 b9bc 009f a3bb
00000340: c051 233d 66e6 e1bc a402 8ebc d67d 4bba
00000350: 5d32 103d d9ec 283d f97e 05bd 577a 4bbd
00000360: 3f05 a0bd 94dd 17bc 376c 4fbd 1cbe 67ba
00000370: 096d 81bd 8e32 3dbd 0969 c73b f6ca abbd
00000380: d508 df3c cc02 cf3c 5804 1a3d b340 073d
00000390: 7046 ffbc 1175 d23b a98b 9a3d 25af 76bd
000003a0: 0461 5b3d 7ae2 abbd cbc2 de3b 1606 7cbd
000003b0: f0a4 63bc 23fd b43c 947f 953d 8470 6ebd
000003c0: 0a6f 9d3d 3caa eb3c 5b57 52bd 37c1 72bd
000003d0: 1428 c9bc ab0c 413d f2d3 81bd e652 ab3c
000003e0: 04a4 3bbc 38fc 1f3d 40d6 15bd edef 383d
000003f0: 1b64 4a3d cda2 983d d1db cd3c 9b2b 05bd
0.022989718 0.04734601 -0.04287433 -0.005444039 0.04503417 -0.061263762 0.0120800305 0.025204718
0.048881628 0.024908965 0.0545759 -0.013867803 -0.07665521 0.011115342 -0.013176857 0.061775994
0.018319461 -0.05830659 0.060176138 -0.02729747 0.010013386 0.020987479 0.06304496 0.064289756
-0.009809643 0.0749454 0.0016718445 -0.070776336 -0.0078047668 -0.0057917032 0.012007128 0.09324332
-0.025051815 0.03190649 0.057401013 0.013067013 -0.010349834 -0.054939557 -0.0426433 0.035872363
-0.05160185 0.0053035533 0.044871088 0.033763614 -0.047099963 0.021703733 -0.064649224 0.05499636
-0.053444095 -0.045391526 -0.043581367 -0.029811624 0.016084602 0.032009218 -0.037106205 -0.015096314
-0.0129825035 -0.042620584 0.066594854 0.011156331 0.044392273 0.017856183 0.0040080035 0.0852244
0.012266838 0.020682374 0.04705615 0.03994529 0.008378336 0.013171892 0.039273094 0.00021044162
0.029762859 0.05477189 -0.011081462 -0.03445246 -0.072480455 -0.058255292 0.050420024 -0.07621004
-0.06237367 -0.061390936 -0.042717483 -0.048957277 -0.04808298 -0.021771852 -0.05844448 0.011472307
0.058408678 0.02420773 -0.04993924 -0.036516443 -0.058038343 -0.07267129 -0.009999857 0.06849957
-0.01832771 -0.010292896 -0.07689385 0.06768699 -0.01984131 -0.00014836816 0.0571625 0.024157431
0.020541145 0.051020607 0.07949313 -0.064096436 0.021912634 -0.013240401 -0.017929133 -0.050076753
0.060399577 -0.045514144 0.004941211 0.035362482 -0.0149769895 -0.05143209 -0.034231156 -0.05872061
0.08364065 -0.038590036 0.054519337 0.07873936 0.0067969915 0.07815082 -0.008069943 0.009013231
-0.073176056 -0.036539275 -0.013093344 -0.0097272 -0.070084915 0.05708338 -0.054347724 -0.04700846
0.061455663 0.03116363 -0.08061525 -0.07293674 -0.033648834 -0.05166675 -0.08349647 -0.07020127
-0.0528154 -0.009197941 -0.05181643 0.015390367 0.068327844 0.018671835 -0.0012786186 -0.047113787
0.044117678 0.084340036 0.08593462 -0.04686961 -0.071096055 -0.02484608 -0.0013017644 0.044224463
-0.023823125 -0.03439899 0.029617308 -0.073518656 -0.07313465 -0.07385053 -0.054938667 -0.055257387
0.08189511 0.0026299488 -0.06078868 0.008554118 0.022335624 0.024051774 0.08178096 0.024380332
0.062863745 0.0027245535 0.09288416 -0.034503378 -0.018167147 0.044402264 -0.036493454 0.054538757
-0.0015217914 -0.045636263 0.023139251 -0.011026341 0.056206148 0.07590958 -0.024361746 0.0677992
0.073394954 0.048400946 -0.018653389 0.020589735 -0.03592316 -0.0127615435 0.08003765 0.027862063
-0.053055514 -0.035712007 -0.03099385 -0.051233556 -0.01990321 -0.00019421171 -0.022683954 -0.0049933195
0.039872885 -0.027575683 -0.017335244 -0.00077625865 0.03520428 0.0412415 -0.032591794 -0.04967722
-0.078135006 -0.009269137 -0.05064031 -0.0008840279 -0.06319625 -0.04619079 0.006085519 -0.08388321
0.027225891 0.025269888 0.0376018 0.033020686 -0.031161517 0.006422647 0.07546169 -0.060225625
0.05355932 -0.08392806 0.0067981235 -0.06152924 -0.013894305 0.022093361 0.07299724 -0.058212772
0.07687195 0.028767698 -0.05135284 -0.059266295 -0.024555244 0.04713122 -0.063392535 0.020913552
-0.011452679 0.039058894 -0.036581278 0.045150686 0.049411874 0.07452927 0.02512923 -0.03251229

bias f4 [8]
00000000: 49f6 0fbd b01d 653e f613 053e 78a4 8dbd
00000010: b4cb 993d 2ab0 003e 30ce 1dbe 3991 cfbd
-0.035146985 0.22374606 0.12995896 -0.069161355 0.075095564 0.12567201 -0.15410686 -0.10135121

weight f4 [8, 16, 3, 3]
00000000: c253 533c a1d8 8a3b ed8b 533d e53e 263b
00000010: 3794 57bd a0a2 98bd c202 4c3d 44c9 0cbd
00000020: 2496 1c3b fcb6 4e3c 1001 733a f338 a03d
00000030: fbd9 80bd c036 29bb 6dce 05bd df8a cabc
00000040: 43f9 5b3d a5f6 1fbd ba1c 30b9 0b09 573d
00000050: aef3 fdbc 5ac4 04bd 7c97 8b3d 7e26 013d
00000060: 9941 f4bc f177 86bd 7644 d33b 6faa a2bb
00000070: 6d8a 533c 0593 25bd 912f 0c3a ed41 6abd
00000080: 1cff a63c 9e48 853d fe4b 8f3d bc2d c23c
00000090: 5276 a63c 3a78 d6bc 17d7 56bd 88e1 323d
000000a0: 993e 4b3d dcaa a5bc 9052 0c3d fa1a a1bd
000000b0: 7bb7 f9bc 36b3 693d 36a2 83bc 47c6 dd3c
000000c0: 3b6a 6bbb dc02 8abb b3ec 9a3c 004b 7b3b
000000d0: b7ba 9bbd cdb2 653d 5371 1abd 13fc 82bd
000000e0: be55 9bbd 1d20 bdbc 91f7 a8bd 9ec8 b53b
000000f0: 0492 d3bc cedc 5cbc 9898 5cbd 3bd5 033d
00000100: d7f9 9bbc 5e4e 09bd a2d1 46bd c4f1 293d
00000110: eb4f 4a3d 7a5e 043d ebd0 59bd 228e aabd
00000120: 66ea f0bc eaaa f13c 57b4 3ebc ffbd 8dbd
00000130: 0e4a d0bc 0d6d 60bd 6769 7bbc 254a 93bb
00000140: f2d9 e8bc 48df 0ebd 95da 253a aea0 4fbd
00000150: b4f2 383d 1f13 b4bd b5e2 13bd 082c 263d
00000160: 3fe5 11bd 5d3b 583d 5d4f 72bc 8041 283d
00000170: 2d55 2cbd 96af b43d 9be2 953c f6b0 19bd
00000180: 9275 ad3d 7eb2 953d d5d9 903d 9194 11bb
00000190: 5773 b8bc e3dc aabc 4a44 5d3d ed1d 5e3d
000001a0: 5ea3 bcbc a4bf 22bd 2696 693d c155 afbc
000001b0: 6f06 d6bc a674 81bd e145 8c3d 7e17 57bd
000001c0: 7595 023d 6cf8 87bd 6294 663d 8bf7 a1bd
000001d0: 6300 173d 7284 e73b d009 8e3d 7a39 7c3d
000001e0: 3ee1 88bd f3e2 7f3d d675 07bd f7c0 163d
000001f0: f6b3 343c aeb6 b0bc 5f80 9cbc 7ff6 47bd
00000200: a1dd 90bd 8a19 7ebb b33e 7abc b6f4 243d
00000210: 82f2 1ebd 199a 84bd 3649 16bb ef21 3bbd
00000220: 2d4b 9cbc 946f 203d b31c 12bd d953 a83c
00000230: c89f 083d c125 22bc ea32 1a3d f242 7abd
00000240: 7638 9f3d e79c d5bc 85aa 723d a27b 2d3d
00000250: d9a0 133d d55f 72bd e34c 05bd f3a2 013b
00000260: 5874 7abd f2c2 fcbc 2248 cd3d cdec 673d
00000270: e1bc bf3b 796a 21bb 20b0 963c 3f1e a53d
00000280: 76c5 0abd cfaa bf3c 4c53 81bd 7379 82bd
00000290: 6e94 1d3d a1d6 363d f553 a83c daa0 8d3d
000002a0: 9ce9 96bd 5513 093d e886 7bbd e1e2 9c3d
000002b0: e931 7a3c b5a9 8e3d b7e1 55bd f63e 273d
000002c0: 228c 2cbd 2a8e 743c 1263 a13d f5b9 953d
000002d0: da84 5c3d 053f 48bd 58ec 9cbc 33b4 8f3d
000002e0: fcd1 873d 7c57 623d e26c 2e3d 00cb 383d
000002f0: 2a93 d03c 9656 983a 9780 21bd afed 6fbd
00000300: 4480 8a3d 8b01 b73d 6b75 3d3d 8b39 9b3d
00000310: 0609 b43d b73b 82bd eac0 39bc 88d9 e13d
00000320: de3f cd3c 9ba2 d4bc dc30 d33d 19b6 983d
00000330: 29c7 d43d 685a 683d e547 e23d 184b 933d
00000340: 4938 d4bc 8c08 83bc f25e 623c 8a4b 2a3d
00000350: 3f87 9b3d 3105 ea3b 52b1 7d3d feb5 943d
00000360: e83c 133d 9092 d3bc 3637 a83d 4d4a b8bc
00000370: 2dbe 6c3c 737b 323b 2a4d f7bc 4738 873b
00000380: 87c9 5d3d a85d 95bd 3623 8b3d f6c2 3fbd
00000390: 0888 73bc 2ba2 80bd d93d a43c f8b0 15bd
000003a0: f18e 59bd 1156 6a3d 79bf f7bc 3e06 26bd
000003b0: ffdc a93c 49f7 b0bb e847 58bd fb63 6d3d
000003c0: 579e 33bb c697 87bb 291d c33a 9120 b33d
000003d0: e4be 12bd 9408 863d 328d 5fbd 536f 5a3d
000003e0: 35b1 d3bc 8cdc 133d 660c 49bc b4e2 703d
000003f0: 8b7b 4ebd 2cc5 54bd 4b6d ddbc 6a80 513d
0.012898387 0.00423725 0.051647115 0.0025367078 -0.052631583 -0.07452893 0.049807318 -0.03437163
0.0023893202 0.012616869 0.00092698727 0.07823362 -0.062915765 -0.0025819987 -0.032667566 -0.024724422
0.05370451 -0.039053578 -0.0001679537 0.05249886 -0.030999985 -0.032413818 0.06816003 0.03153085
-0.029816436 -0.06565846 0.00644737 -0.004964165 0.012911421 -0.040423412 0.0005347664 -0.057191778
0.020385318 0.06507991 0.06996916 0.023703448 0.020320091 -0.026180375 -0.05245122 0.043672115
0.049620245 -0.020223074 0.034258425 -0.078664735 -0.030482998 0.057055674 -0.01606856 0.027072085
-0.0035921473 -0.0042117666 0.018911695 0.0038344264 -0.076039724 0.05607872 -0.03770573 -0.063957356
-0.075847134 -0.023086602 -0.082503445 0.005547597 -0.025826462 -0.013480378 -0.053856462 0.032185774
-0.019040031 -0.033522002 -0.048539765 0.04149033 0.049392622 0.032316662 -0.053177755 -0.08327891
-0.029408645 0.029500443 -0.011639676 -0.069210045 -0.025425937 -0.0547915 -0.015344954 -0.0044949227
-0.028424237 -0.034880906 0.0006326822 -0.050690345 0.045153335 -0.087927096 -0.036104877 0.040569335
-0.035619017 0.05279099 -0.0147894295 0.04107809 -0.042073417 0.08822553 0.01829653 -0.03752228
0.084696904 0.07309435 0.07072798 -0.0022213797 -0.022515936 -0.02085728 0.054020204 0.05422776
-0.023027118 -0.039733544 0.05702796 -0.021403195 -0.026126115 -0.06321077 0.06849266 -0.05251264
0.031880815 -0.066391796 0.056293853 -0.07908543 0.036865603 0.0070653493 0.06935465 0.06157825
-0.066835865 0.062472295 -0.03307136 0.03680512 0.011029234 -0.021571483 -0.01910418 -0.04881906
-0.07073522 -0.0038772547 -0.015273738 0.040272437 -0.038805492 -0.06474704 -0.002293182 -0.04568666
-0.019078815 0.03916891 -0.0356719 0.020547794 0.033355504 -0.009896697 0.03764621 -0.061099
0.07774441 -0.026075793 0.05924465 0.042354234 0.03604207 -0.059173424 -0.032544028 0.0019780963
-0.06114611 -0.030854676 0.10023524 0.056622315 0.0058513735 -0.0024630113 0.01839453 0.080624096
-0.03387972 0.023396878 -0.06314716 -0.06370821 0.03847163 0.04463828 0.020547846 0.069154456
-0.07368776 0.033465702 -0.061407954 0.07660461 0.015270689 0.06965963 -0.05221721 0.04083153
-0.04212583 0.014926473 0.07880224 0.07310859 0.053837635 -0.048888225 -0.019155666 0.07016792
0.06631848 0.055259213 0.042584307 0.04511547 0.025460798 0.0011622484 -0.039429273 -0.058576282
0.06762746 0.08935841 0.046254557 0.07579335 0.087907836 -0.06359046 -0.011337498 0.11027819
0.025054868 -0.025956443 0.103120536 0.07456607 0.10389549 0.056726843 0.11048869 0.07192057
-0.025905745 -0.015995286 0.013816582 0.041575946 0.075941555 0.007141732 0.061936684 0.07261275
0.035946757 -0.025826722 0.08213656 -0.022496367 0.014449638 0.0027234226 -0.030188162 0.004126582
0.05414727 -0.07293254 0.06793825 -0.04681679 -0.014863975 -0.06280931 0.020049023 -0.036545724
-0.053114835 0.057210986 -0.030242668 -0.040533297 0.020735262 -0.0054005724 -0.05280295 0.057956677
-0.002740761 -0.004137966 0.001488601 0.08746446 -0.03582658 0.06544605 -0.054578014 0.053328823
-0.025841335 0.036099 -0.012271022 0.05880995 -0.05041079 -0.05194585 -0.027029654 0.051147856

bias f4 [16]
00000000: 2d13 8b3d 03a0 aa3d 7a80 853e ea8a 733e
00000010: 7291 a43c 52fa 1d3e d270 2e3e aed5 fabd
00000020: b303 a33d 9e88 d73d 0182 10bc 6dda 5f3e
00000030: 5342 193c f823 d7bc 61f9 2b3d 49aa 533e
0.06790767 0.08331301 0.26074582 0.2378346 0.020088885 0.15427521 0.17035225 -0.122477874
0.0795969 0.105241045 -0.008820058 0.21860667 0.009354192 -0.026262268 0.041985873 0.20670427

weight f4 [16, 32, 3, 3]
00000000: 2f7f 6ebd ef53 3c3d eb52 4b3d 5dca 72bc
00000010: 5cfc 213d 9240 a3bc ceb3 033d 1282 db3c
00000020: 6298 daba aaaa 48bd 990b d1bc f484 f0bc
00000030: 17d1 31bc cf28 f7bc 5a11 fd3b a013 4cbc
00000040: 3442 34bd 88a9 993c b9c5 0e3d ff6e 33bd
00000050: d122 e33b fc59 19bd 8954 02bd 6770 503b
00000060: 76e7 81b9 9cf6 1b3d 183a 253d 73b4 2f3c
00000070: 6c94 7dbd fbf3 5abd e1cc 1f3b d62c 15bd
00000080: 3a92 11bd 2f58 c33c 3191 183d a7f3 633c
00000090: 3f35 77bd 86b8 56bd 3afb 273d 62fa bc3a
000000a0: d2f3 443d a7a1 173d a587 4dbd 5c5b 44bd
000000b0: bb0b 423b 1740 66bd b81b b33c ec20 dabc
000000c0: 9698 a5bc 8574 b13c 6a0f 10bd cc28 333d
000000d0: bc4c 683c e370 0b3d 06b1 ec3b bbbc 19bc
000000e0: c9ed bfbc 3f9a 803d 45ea 58bd 4438 02bd
000000f0: aaa8 6dbc 7fac 2ebc 86fb 35bd acf5 9cbc
00000100: 59ec 483d d9a9 dd3c 198e ebbc 405a 78bd
00000110: 88cf 25bd bd0e 5b3c a7fc cf3c 4bdf 1fbd
00000120: e48f 63bd 0502 1dbd 9b3f 2f3d bf71 e33c
00000130: dd7b 09bd 32da e6bc fe3e 203a b8c1 3e3d
00000140: 1e9c 133d 7239 44bd 65ea aa3c c1be 7bbc
00000150: 2d82 543d 7081 a33b 79bb 7a3d 4576 06bd
00000160: 0b79 e03c c550 4bbc 7f00 b23c 0524 143c
00000170: b325 173c 24cb 06bd 8298 3d3d 180d b13c
00000180: 763e 4f3b 3f91 8dbd 04e5 e4bb 0db9 f6bc
00000190: 5e7b 0dbd 129b 913c 921a 23bd afa5 30bd
000001a0: f13e c83c 9175 1d3d 3dc3 e8bc 7d5a 43bd
000001b0: cb81 e83c 816e e43c e0ca 353d d4a4 6cbd
000001c0: 7dbf 2b3d 76b7 5fbd 7ec2 773c e0f5 0c3d
000001d0: 17f9 03bc a0eb ff3c 5a28 31bb 1d88 2b3d
000001e0: 224d 4a3c dc0c 303d 70bd 4abd 1014 453d
000001f0: bf75 013d c83a 2c3d 3457 dfbc 5a51 35bd
00000200: f554 183d c95e 22bc ab5c 543c ca5f 34bc
00000210: 5ca2 033d ca72 fb3a a631 513d e694 4cbb
00000220: 54cc 32bd 19cd 85bc 012f 11bd 80bc bdbb
00000230: 4f21 42bd 0d88 163d 9216 4f3c a5c5 663c
00000240: 5267 1dbc 0828 743d 4e9e 423c 4912 a43c
00000250: 674e 593d dce7 c4bb 6942 d1bc 8ea6 253d
00000260: ac71 203d 32dd 43bc ed16 5dbd 8105 cf3c
00000270: a127 58bc 6f82 15bd 2bb7 e8bb 8cde 58bd
00000280: 9489 083d f2c9 3a3d d379 743c 0dbd 403d
00000290: acdb 293d 4e62 193d 6727 903a b91c 083d
000002a0: 1f31 573d ff1f 64bc 018b ff3b 955f 19bd
000002b0: 3895 f83c b564 c3bc 59d8 113d 1801 62bd
000002c0: 5840 25bc 8bda f6bb bddb 503d dfa4 a3bc
000002d0: d59c 02bc c861 c8bc 5b00 e43c de45 373d
000002e0: d84e 44bd 3dc6 9d3c 56dd f53c 0fb8 f4bc
000002f0: 786d 8a3b ad4c 31bc ff54 f7bc fdaf 7eba
00000300: 8f1a 453d cfa7 e1bc abc8 29bc 767a fcbc
00000310: 57bc ac3c a7d6 e03c d8c3 203c 2717 463d
00000320: 548c 423c 5c03 aebc b153 243d 3d5e 2d3d
00000330: e259 0abd d718 383d 88f9 5a3d 5d75 973c
00000340: 19c5 45bd 57ee e73c d812 f73c 8f6b 803c
00000350: 9a7a 3b3d dd27 b43c 351d 053c 39f7 1c3c
00000360: 140b 543c 7836 45bd 5378 113d 8dc6 923b
00000370: 263b b9bb 1ce8 5abd dac0 b03c 0211 c03b
00000380: 27cc 21bd f620 e6bb 530f 4c3c 6fa5 d23c
00000390: 191f 4dbd 239f 3abd 32d5 58bd 80ea 573d
000003a0: 4662 0b3d 13e3 ef3c 3c0a 893c c7b8 583c
000003b0: 0f6f 9b3c b6cb 5abd aa87 2a3d 730f 59bd
000003c0: eeab 213d cfdf 7e3d 8cd1 263d 0f73 dbbc
000003d0: fc6b a9bc a63b c6bc 3733 313d d01c 09bd
000003e0: 4ecb edbc f878 c4bc f5db 383d 0434 833c
000003f0: ff93 1fbd ef71 2e3d f281 923c c87b a8bc
-0.05822676 0.045978483 0.049639624 -0.014818755 0.03954731 -0.01992825 0.032153897 0.02679542
-0.0016677494 -0.048990883 -0.025518226 -0.029360272 -0.010853074 -0.030170826 0.0077230157 -0.012455851
-0.04400845 0.018757597 0.03485653 -0.043807026 0.0069316407 -0.03743933 -0.0318189 0.0031805278
-0.0002477725 0.038076982 0.040338606 0.010724175 -0.061909124 -0.053455334 0.0024383592 -0.036419712
-0.035539843 0.02384576 0.03724784 0.013913072 -0.060353514 -0.05242207 0.041011073 0.0014417882
0.048084088 0.037019398 -0.05017819 -0.04793869 0.0029609043 -0.056213465 0.021863803 -0.026627026
-0.02021436 0.021662006 -0.03517095 0.04374008 0.014178451 0.034043204 0.0072232513 -0.009383376
-0.023428814 0.0627942 -0.05295779 -0.03179194 -0.014505545 -0.010661243 -0.044429325 -0.019160114
0.049053524 0.027058529 -0.02875428 -0.060632944 -0.04048112 0.013370213 0.025389029 -0.03903131
-0.055557147 -0.038332004 0.04278527 0.0277642 -0.03356539 -0.028180216 0.0006112902 0.046571463
0.036037557 -0.047906347 0.020863721 -0.0153653035 0.051881958 0.0049897954 0.061213944 -0.032827634
0.027401468 -0.012409394 0.021728752 0.009041791 0.009225297 -0.032908574 0.04628802 0.021612689
0.0031622923 -0.06912469 -0.0069853086 -0.030117536 -0.03454148 0.017774139 -0.03982026 -0.04312676
0.024444075 0.0384422 -0.02841341 -0.04769372 0.028382203 0.027884724 0.04438293 -0.05777438
0.041930664 -0.05461832 0.015122054 0.034414172 -0.008054993 0.031240284 -0.0027032108 0.041877855
0.012347491 0.042981014 -0.049497068 0.048114836 0.031606432 0.042048246 -0.027263261 -0.044267036
0.037190396 -0.009910294 0.012961547 -0.011009166 0.03213726 0.001918399 0.05107274 -0.003121668
-0.043651894 -0.01633315 -0.035445217 -0.005790293 -0.047395047 0.036750842 0.0126396585 0.014085208
-0.009607153 0.05960849 0.011878563 0.02002825 0.053053286 -0.006009085 -0.025544362 0.040442042
0.039170906 -0.011954593 -0.05397694 0.02527118 -0.013193042 -0.036501344 -0.0071019134 -0.052946612
0.03333433 0.045602746 0.014921623 0.047055293 0.04146926 0.037447266 0.0010998071 0.033230517
0.05253708 -0.013923644 0.007798553 -0.03744467 0.03034459 -0.023851732 0.035606716 -0.055176824
-0.0100861415 -0.0075333766 0.05099081 -0.019976078 -0.007971962 -0.024460688 0.0278322 0.044744365
-0.047926754 0.019259566 0.030012768 -0.029872922 0.0042244755 -0.010821504 -0.030191896 -0.00097155554
0.04812103 -0.027545838 -0.010362784 -0.030820113 0.021085901 0.027446104 0.009812318 0.048361924
0.011874277 -0.021241836 0.040118877 0.0423262 -0.033777125 0.044945564 0.053460628 0.01848858
-0.04828367 0.028311891 0.030160353 0.015676288 0.04577122 0.021991665 0.008124639 0.009580427
0.012942094 -0.04814765 0.03551514 0.0044792355 -0.005652803 -0.053444013 0.021576334 0.0058614025
-0.039501335 -0.007022972 0.012454825 0.02571365 -0.050078485 -0.04556192 -0.052937694 0.05271387
0.034029268 0.029283082 0.016728513 0.013227648 0.018973855 -0.05341693 0.041633286 -0.05299325
0.039470606 0.06222516 0.040727183 -0.026788263 -0.020681374 -0.024198364 0.043261733 -0.033474743
-0.029027607 -0.023983464 0.045131642 0.016016014 -0.0389595 0.042589124 0.017884228 -0.020566836

bias f4 [32]
00000000: 6d61 f3bc 1295 e53d ebc6 9fbd f9fb 1f3e
00000010: e27f 8ebd 1fb3 e93c c0dc bf3d 013a e2bd
00000020: 4a27 d83b bba4 293d 6f1a 9a3d 7718 9dbc
00000030: eae5 61bc 51e5 a7bc c496 24bd c972 763d
00000040: 1e66 e33d 0e5c 95bd 5799 fc3d a5d5 01bc
00000050: 3224 443e 2e9e c5bc bca4 d03c 1ff7 543c
00000060: c9ff 39bd 5129 fe3d a385 e23d 4ecc 013e
00000070: 74ba 9c3c 90d7 863d 8ee6 7bbd d7b4 4cbb
-0.029709542 0.112100735 -0.078016125 0.15623464 -0.069579855 0.028527794 0.093682766 -0.110462196
0.0065964805 0.041416865 0.07524573 -0.019176705 -0.013787726 -0.020495089 -0.040182844 0.06016806
0.11103462 -0.07292949 0.12333935 -0.007924472 0.19154432 -0.024123278 0.025469176 0.012998371
-0.04540995 0.12410224 0.110606454 0.12675592 0.019131877 0.06584084 -0.06149917 -0.0031235719

weight f4 [32, 3, 3, 3]
00000000: c4aa 0b3c 7b49 ea3d 06a5 383e 13cf 3ebe
00000010: 2541 0c3e 4979 90bd 1de9 293d 20bc be3d
00000020: 445a 023e 6653 3a3e 8b5b 25bd 381b 26be
00000030: e283 d1bd 13c3 1a3e 4c6f 2b3d c558 34be
00000040: 4376 5a3c abc7 27be d1e1 3abd b096 8a3d
00000050: 3933 443d c9d6 14be ee32 ae3d 3270 22be
00000060: 0772 07be 3307 233a ae2b 2f3e 900c bbbd
00000070: 5903 683c ed80 1b3e 6854 d73b 385d 75bd
00000080: 1eed 49be 6d2a 2ebe 8c51 8ebd 9a27 213e
00000090: e5b3 f1bc 08f8 52be 681b 9a3d 74f1 343c
000000a0: ef5c 78bc fd96 88bd fe4c 44bd b759 e43d
000000b0: c909 883d 5b36 66bb 8ac4 b6bb 8e4c d5bd
000000c0: 3f9c ecbd 5091 8d3c 2347 52be 4129 083e
000000d0: a8ff 663d 9d08 ddbb 073d 1f3e ec49 a7bc
000000e0: 6ff5 a43d 1f4f 233e ce3e 0ebe b825 0bbd
000000f0: 38a2 923c 59b1 133c 75ce 0b3e fdec 2d3e
00000100: 00b2 f4bb faca 35be b3c6 623c 008f 4d3e
00000110: 4e78 873a 38f0 073d 3e93 ec3d b2d1 02be
00000120: 3e33 40be 2b47 bfbd b3b1 153e 579d bebc
00000130: 3228 d03d 539b 1cbe 2a3f 093e baea c13d
00000140: e527 993c 20f6 0bbe 76fa 6dbc c02c cbbd
00000150: 3723 033e 9c78 6cbe 691a df3d c0d4 3ebe
00000160: 7016 cc3d 8239 e3bd 4753 fabc 60fc 0d3e
00000170: 1112 b0bd c8dc 91bb 1146 edbb 591b 33be
00000180: 068d bfbc 850c 85bd d308 d1bd db94 1e3e
00000190: d5a3 d7b9 b9f3 09bd a462 d0bd b26b 21be
000001a0: 03dc 47be b2d1 58bd 93ca 663d 8bca 42be
000001b0: 2ad8 a73d 5bff 9b3d 147e 013d 6002 ad3d
000001c0: 619f 853d 9f85 553c d051 c23d d162 be3d
000001d0: 259e 85bd 42ba 18bc fdb4 04be d1f7 c9bd
000001e0: 9679 3e3e 6fba 6cbd 3b76 163d be8f d3bd
000001f0: 75ad 0cbe e02d 7cbd 720e 14bc 70bb 0a3e
00000200: 4def 933d 9fff b1bb 477b 203e def7 f73d
00000210: d3fb eabd 1016 833d 1a79 4f3d 64a7 edbd
00000220: 41eb 10be 2b98 da3d 40c7 7ebd 4796 253e
00000230: d46b 9ebc 63e8 73ba 9204 593d 87d3 203e
00000240: 0446 c7bd eaca 193e 633b 21be 9e34 42be
00000250: dc97 afbd 48e1 8d3d da0e 46be bc01 5dbc
00000260: accd c9bd 9005 ce3d 489f 223e d0ab babd
00000270: b083 0b3e fba0 65bb d175 c5bc 9f1a bdbd
00000280: 4c95 dc3d 6b1b 1b3e a848 03bd 9e1f fbbc
00000290: 7034 1fbe 9bd9 43be dcdf 28be def6 c0bc
000002a0: 886d b93d 593d 4b3d 83a8 1f3e 3d97 323e
000002b0: aeac 44be 9c78 223e 9c5b 2bbe 2866 fd3d
000002c0: 38c7 293d 09cf cb3c cd3f 49be 7170 90bd
000002d0: fac0 a53c b789 3cbe 4f03 42bd ef93 bd3d
000002e0: 5b2d 273e 7f30 e7bd 0f11 283d b298 edbc
000002f0: 3a31 3ebe 492a a8bd f054 0c3e ee53 aebd
00000300: 8808 9a3d dd93 153c 5477 02be 3aee 443e
00000310: 7b4e 503e cd5e 4f3e 2e23 15bc f2e6 223e
00000320: 4b16 d8bd f458 293d 4f6c 223e 2e4c ee3c
00000330: 3c0e 953d b74a 35be 80f7 063e f22c 203d
00000340: be16 cc3d bda4 2c3e 4422 d63d afa0 c43b
00000350: 0084 8f3d 47ba 943b 8d4f c4bc e9d5 ba3d
00000360: ecfa 0d3e d683 453e 8b82 133b efd7 8b3d
00000370: d6b9 343e cfa5 003e 9d0f d6bd 380a 07be
00000380: 2146 ffbd 659c bc3c 2c1e 29bb c08d 013e
00000390: 2816 2fbe 2e3f 1ebd 47fb 2cbd 32d2 77bd
000003a0: feba f23d dbb0 19be 5e8b 6c3d 2024 52bc
000003b0: 0bbd e23d 4164 953c 554a 8a3d fff6 1d3e
000003c0: 60ff 13be 83c2 efbd d624 013e 4ebb 96bd
000003d0: f433 283e cefd 583d 8e44 a63d b09b 0ebe
000003e0: 4940 e1bc bc00 46be a932 2d3e aa35 edbc
000003f0: 687a 133e ca24 283d d9e2 76bd d99f 12be
0.0085246 0.114397965 0.18031701 -0.1863368 0.13696726 -0.07054383 0.04148208 0.09313226
0.12729746 0.18195876 -0.040370505 -0.1622132 -0.10230233 0.15113477 0.041854188 -0.17611988
0.01333386 -0.16384761 -0.04562551 0.067670226 0.047900412 -0.14535059 0.08505808 -0.15863112
-0.13227092 0.00062190293 0.17106506 -0.091332555 0.014160954 0.151859 0.0065713413 -0.059903353
-0.1971936 -0.17008372 -0.069491476 0.15737763 -0.029504726 -0.20602429 0.075247586 0.011043895
-0.015158876 -0.06669424 -0.047924988 0.11149924 0.06642491 -0.0035127613 -0.0055776285 -0.10414992
-0.11553239 0.017281204 -0.20534949 0.13296987 0.056396157 -0.0067454115 0.15550624 -0.02042099
0.08054625 0.15948151 -0.13891146 -0.03397152 0.017899618 0.009014451 0.13652976 0.16984935
-0.0074675083 -0.1775321 0.013841319 0.20074081 0.0010335536 0.033188075 0.11551522 -0.12775305
-0.18769547 -0.09339746 0.14618568 -0.023268385 0.10163917 -0.15293626 0.13403001 0.09468599
0.018695781 -0.13668108 -0.014525047 -0.09920645 0.12806402 -0.23092884 0.10893709 -0.18635845
0.09965217 -0.11094953 -0.030557288 0.13865805 -0.08597196 -0.004451368 -0.0072410186 -0.17490901
-0.023382675 -0.064965285 -0.10206761 0.15486471 -0.0004113006 -0.033679698 -0.10175064 -0.15763739
-0.19517522 -0.052934356 0.056345534 -0.19022577 0.08195527 0.076170646 0.031614378 0.084477186
0.0652454 0.013032346 0.09488261 0.092961915 -0.06524304 -0.009321751 -0.12959667 -0.0986172
0.18601069 -0.057794984 0.036733847 -0.10330151 -0.13738044 -0.061567187 -0.009036647 0.13548064
0.072233774 -0.0054320837 0.15672027 0.12107824 -0.11473813 0.064006925 0.0506526 -0.11604193
-0.14152242 0.10673555 -0.06220174 0.16170608 -0.019338526 -0.00093043427 0.052982874 0.15705691
-0.09730151 0.15018812 -0.1574531 -0.18965384 -0.08573887 0.069277346 -0.19341603 -0.013489183
-0.09853682 0.10059655 0.15881073 -0.09114802 0.13624454 -0.0035038579 -0.02410403 -0.09233593
0.107706636 0.15147178 -0.032051712 -0.030654725 -0.15547347 -0.19125979 -0.16491646 -0.023555215
0.090540946 0.049619053 0.15591626 0.17440505 -0.19206497 0.15866321 -0.16734165 0.123730004
0.041449755 0.024878995 -0.19653244 -0.070526965 0.02023362 -0.18411909 -0.047366437 0.09256732
0.16325895 -0.11288547 0.041031893 -0.029003475 -0.18573466 -0.0821119 0.13704276 -0.08512102
0.075211585 0.009129492 -0.12740833 0.19231501 0.20342438 0.20251007 -0.009102626 0.15908411
-0.10551127 0.041344598 0.15861629 0.02908906 0.072781056 -0.17704283 0.13180351 0.039105363
0.09965275 0.16859718 0.104557544 0.0060006003 0.07007599 0.0045388076 -0.023963714 0.091228314
0.1386525 0.19288573 0.002250823 0.068282954 0.17649016 0.12563251 -0.10452197 -0.13187492
-0.12464548 0.023023793 -0.0025805337 0.1265173 -0.17098296 -0.03863447 -0.042231824 -0.060503192
0.11852072 -0.15008871 0.0577501 -0.012825996 0.11071213 0.018236281 0.06752459 0.15426253
-0.14452887 -0.11707022 0.12611708 -0.07359944 0.16426069 0.052976422 0.081185445 -0.13926578
-0.027496474 -0.19336218 0.16913857 -0.028956253 0.14402163 0.04105071 -0.060274933 -0.1431879

bias f4 [3]
00000000: f102 933d 2f25 73be 7096 853d
0.071782954 -0.23744653 0.06522834
