adbob_pretrained_weights/final_best_denoising_model_for_final_20_each_35_epochs.pth (torch, 61581 bytes, 12 tensors)

weight f4 [32, 3, 3, 3]
000000 41 f1 4b be 87 54 39 3e e0 b7 48 3e 92 c5 63 3d
       -0.1991625 0.18098651 0.19601393 0.05560834
000010 22 84 06 3e d2 7b 08 3e 0a e4 1b be c2 16 5a 3d
       0.13136342 0.13328484 -0.15223709 0.05324436
000020 2c da 06 3d 99 71 79 3d 3e 00 9d 3d a9 1e 20 be
       0.03292291 0.06089935 0.07666062 -0.15636696
000030 c1 48 23 3e bb c0 36 3e e9 d3 a4 3d e4 9e 1d be
       0.15945722 0.17846958 0.08048231 -0.15392643
000040 c7 e8 44 3d a0 5f 36 be 80 62 2d 3e 5f fe ab bb
       0.048073556 -0.17809916 0.16932106 -0.0052488293
000050 41 79 29 bb fb 2d e4 bc 25 73 3a 3e 33 9c 57 3e
       -0.0025859626 -0.027853956 0.18207987 0.21055679
000060 84 df 04 be 7d 21 af 3d 57 b0 d8 bd 9c cb 16 be
       -0.1297589 0.08551309 -0.10580509 -0.14726108
000070 ce 25 94 bb 15 db 83 bb 4a fe 17 be 5d 6b ea 3d
       -0.004521108 -0.0040239193 -0.14843097 0.11446259
000080 79 b7 31 3e d3 43 f4 3c 11 f9 0a be 31 38 09 be
       0.17355146 0.029817497 -0.13571574 -0.13400342
000090 06 db d5 3d 20 75 24 be 35 df 26 3d d5 f1 84 3d
       0.10442166 -0.16060305 0.04074021 0.06491438
0000a0 be 36 e1 bd 48 64 05 be 8d 8e 15 be 03 91 fe 3b
       -0.10996769 -0.13026536 -0.1460516 0.0077687516
0000b0 d6 92 0b 3d 1b fa 13 bd bd 06 06 3e f7 e1 bb bd
       0.03407558 -0.03612719 0.13088508 -0.09173959
0000c0 c2 2e e8 bd 4a 3c f4 bd 57 d0 23 bd d6 98 e3 3d
       -0.11337043 -0.11925562 -0.03999361 0.111131355
0000d0 d6 52 00 be 4f 44 16 3e 8e 66 d6 bb 69 6f 0e 3e
       -0.125316 0.14674495 -0.006542987 0.13909687
0000e0 20 9a 2d 3e b9 f2 35 be b8 a6 22 be 72 13 f6 bd
       0.16953325 -0.17768373 -0.1588391 -0.12015428
0000f0 10 3d ed 3d ae d9 2c 3e 8b 79 fd 3b c2 39 f7 bd
       0.115839124 0.16879913 0.0077354363 -0.12071563
000100 f0 25 b7 bd de 75 7b 3d 6a cc 8c bd 49 83 01 3e
       -0.08942783 0.061391704 -0.068749264 0.12647738
000110 b5 51 8d 3d cc b4 e5 3d c2 cd 0e 3d 28 7a 43 3e
       0.0690035 0.11216125 0.034864195 0.19089568
000120 96 cb 34 be 8e 14 2d be c6 00 9f bd 68 fe 0c 3e
       -0.17655787 -0.16902372 -0.077638194 0.13768923
000130 0d 54 41 be 9e 08 47 bd 2e 76 25 be 61 5e 10 be
       -0.18879719 -0.048592202 -0.16158363 -0.14098503
000140 35 3e 51 39 3b 1a 14 be df a5 14 be 2e f8 f3 3c
       0.00019954967 -0.14463131 -0.145164 0.029781427
000150 79 7f 2e 3e 50 cd 3d 3e 71 26 99 3d 87 6c 89 3d
       0.17040814 0.18535352 0.07478035 0.06710153
000160 6c 5b 12 3e 60 54 a1 bd d4 dc 81 bd 3e ee 51 be
       0.14292687 -0.078774214 -0.06340948 -0.20501038
000170 10 84 c9 3c 7c 23 b4 3c f0 49 4b 3d 87 4b 31 3e
       0.024599105 0.021989577 0.04963106 0.17313968
000180 6d c5 17 3e 4e 6e 54 3e f3 5c 03 3e ee 9b 61 be
       0.14821406 0.20745203 0.12828426 -0.22032139
000190 aa cb 98 bc 94 68 0a bd 9d 50 87 bc ac 6d fc 3d
       -0.018651802 -0.03379114 -0.016517932 0.12325606
0001a0 a3 b4 71 3c ff cd 0e be 1b d0 82 bc cb 54 18 3d
       0.01475254 -0.13945769 -0.015968373 0.03719024
0001b0 49 e9 85 3a ce f6 2c 3e 99 95 47 3e 7d 7f 8b bd
       0.0010216619 0.16891024 0.1949066 -0.06811426
0001c0 8c 4a 0e 3e f3 26 4f 3e cb 64 df 3d d0 9d 24 3e
       0.13895625 0.20229702 0.109078966 0.16075826
0001d0 2d dd 47 3e 17 f7 e4 3c 55 b1 7f bd f4 fc b0 3d
       0.19517966 0.027949853 -0.062424976 0.08641997
0001e0 01 0e d3 3c 04 48 eb 3d 82 ce 2a be eb 54 18 3e
       0.025763514 0.11488345 -0.16680339 0.14876144
0001f0 56 de 52 3e b6 0a de bd e9 0f ec bd f7 d1 75 bd
       0.20592627 -0.10841887 -0.11526472 -0.06001469
000200 8c c2 c0 3d b4 87 f8 bd 65 9f 24 bc af aa b2 3d
       0.09412107 -0.12135258 -0.010047768 0.087239616
000210 84 7e 0c 3e d4 79 f2 bd f1 5a 44 3d 95 35 1b be
       0.13720137 -0.11839643 0.04793829 -0.15157159
000220 92 d2 06 be 8f c5 0b be 12 e3 11 3d 24 be 1f 3e
       -0.13166264 -0.13649581 0.03561694 0.15599877
000230 eb 8e b5 3d 8f 05 2f be 3c af 08 be 87 7d af bc
       0.0886515 -0.17091964 -0.13348097 -0.02142216
000240 06 ee 4a 3d aa e6 a2 bc a3 b3 cf bd b1 03 ff bd
       0.049543403 -0.01988538 -0.10141685 -0.12451876
000250 ae ba a2 bd d0 9a 17 be 49 e3 50 3c 7e 67 35 3e
       -0.079457626 -0.1480515 0.0127495015 0.1771526
000260 9f 5e 7b 3d 51 54 4b bd ee 61 e1 bd 64 14 8e bd
       0.061369535 -0.049640957 -0.11005007 -0.06937483
000270 49 d9 7b bc ed f1 7e bd a5 f0 a3 bc 15 3f f4 3d
       -0.015371629 -0.062242437 -0.02001221 0.119260944
000280 82 8c 0d be 03 b3 98 3c 91 a2 c8 bd 27 8a 05 3d
       -0.1382313 0.018640047 -0.09796632 0.032602455
000290 34 6e 45 bd 77 54 15 3d 45 cb 3e bd e4 28 00 be
       -0.0482008 0.036457505 -0.04658057 -0.12515599
0002a0 c8 3a 38 3d f5 86 8a bd a8 24 d9 3d c0 38 8e bc
       0.044977933 -0.06764022 0.10602695 -0.017361045
0002b0 bc 5a 66 3d f1 c1 f7 3d 38 90 09 be 77 cc f7 bd
       0.056238875 0.12097538 -0.13433921 -0.120995454
0002c0 1d 61 05 bd 2d 2e 39 be 41 ab b0 3c 87 20 f4 bc
       -0.032563318 -0.18084021 0.021566035 -0.029800666
0002d0 40 c3 19 3e 0e 08 74 bd 6c fa 36 3e 18 26 d8 bb
       0.15015888 -0.059577994 0.17868966 -0.006596338
0002e0 94 97 1f be 00 b0 55 3e e2 28 3e bd 6b 98 35 3e
       -0.15585166 0.2086792 -0.046425708 0.17733924
0002f0 fe ff 06 3e a9 ea 37 3d fd f2 90 bd 74 80 ea bd
       0.13183591 0.044901524 -0.07077596 -0.11450282
000300 e7 12 0e be 4e 0d 12 be ad 87 47 bd 68 ff 06 be
       -0.13874398 -0.14262888 -0.048713375 -0.13183367
000310 2c 64 b9 3b ba 1f c6 3b a6 8b ca 3d 2d 78 fc 3c
       0.0056576934 0.0060462626 0.09889917 0.030819023
000320 f9 63 01 3d be 87 a0 bd 7e 06 18 bd 30 54 30 3e
       0.031589482 -0.07838391 -0.037115566 0.17219615
000330 09 d4 47 be 87 b9 b2 3d c4 6b 8a 3d 33 f2 25 3d
       -0.19514479 0.08726793 0.06758836 0.040514182
000340 27 8f fc 3d a6 17 42 3d a0 ff 41 be 1b 04 36 be
       0.12331992 0.047385834 -0.1894517 -0.17775004
000350 39 fc 8d 3d c8 40 a7 3d d8 e5 ba bd 83 66 fc 3d
       0.06932873 0.08166653 -0.091258705 0.1232424
000360 8b c7 10 3e 34 19 1d bd b0 67 03 3e 90 1a 30 3e
       0.1413862 -0.038354114 0.12832522 0.17197633
000370 4e c2 a4 bd 11 4a 54 3e b4 07 9b 3d d3 ce 57 bd
       -0.08044873 0.20731379 0.07569829 -0.052687477
000380 fd 32 d0 3d 57 6b 8a 3d bb c1 2c be 5d bb 80 bd
       0.10165975 0.06758755 -0.16870777 -0.06285737
000390 11 80 54 3c ae b2 d0 3d 46 b6 64 bd 24 73 e6 3d
       0.012969987 0.101903304 -0.055837892 0.1125243
0003a0 05 42 0b be 52 2d 92 3d ba 10 1e be c4 bc e9 3c
       -0.13599403 0.071375504 -0.15436068 0.028532393
0003b0 bd 0e ab 3d 56 a3 ac 3d 07 f5 aa bd c1 63 0b bc
       0.083524205 0.08429591 -0.083475165 -0.00850767
0003c0 d5 76 22 3c 2a 48 15 be 2e 88 ff 3d bc 75 29 be
       0.009916027 -0.1457831 0.12477146 -0.16548818
0003d0 19 3b e8 3c f2 10 23 be 6a f6 59 bd 67 b2 12 3e
       0.028348492 -0.15924433 -0.053213514 0.14325868
0003e0 ba f0 23 be a1 c2 3d 3e c0 ef ce bd 97 62 2e bd
       -0.16009799 0.18531276 -0.101043224 -0.04257449
0003f0 90 e4 af 3d 23 02 06 3e 40 d8 8b bd 63 03 20 3e
       0.08588517 0.13086753 -0.06828356 0.15626292

bias f4 [32]
000000 a7 b1 8e bc bd 3e 17 be f3 75 c2 bd 95 de e3 3d
       -0.017418696 -0.14770027 -0.09495153 0.111264385
000010 03 d4 6e bc 40 56 16 bd 17 00 58 3e 66 34 0d be
       -0.014576915 -0.03670335 0.21093784 -0.1378952
000020 02 c1 a0 3d ce 49 07 bd 9c 5f cb bc ef 33 99 3c
       0.07849313 -0.03302937 -0.024825864 0.018701522
000030 8e 38 2f be 78 82 d6 bd 4f fa ad 3d 1b be 1e 3c
       -0.17111418 -0.10474104 0.08495008 0.009688879
000040 53 5d 0c 3e fd 61 32 bd 24 68 3e be 57 bd 14 3a
       0.13707475 -0.04355048 -0.18594414 0.0005673966
000050 f2 5a 2b bd b1 4b 44 3e 1b 5b d4 bc 56 7a 96 3c
       -0.04183478 0.19169499 -0.025922349 0.018368881
000060 5e f5 46 3e 8a 25 3a 3e e9 d7 53 3e 0e 3f 6d 3d
       0.19429538 0.18178383 0.20687832 0.05792146
000070 00 7c 5e 3d 7f 21 1f be e6 02 c2 bd 81 76 b5 3d
       0.054317474 -0.15540121 -0.09473209 0.088604935

weight f4 [16, 32, 3, 3]
000000 58 4b 26 3d 31 e9 56 3b 5b 1d 93 3c b4 0e 11 3b
       0.040599197 0.0032792802 0.017958334 0.0022134008
000010 05 d2 89 bd b6 d0 6f bb ad b5 00 3d 56 f8 85 bd
       -0.06729511 -0.0036592907 0.03142326 -0.06541507
000020 c4 29 86 3b 37 3d c2 bc 48 f6 8a bc d7 66 38 bc
       0.0040943343 -0.02371083 -0.01696314 -0.011254988
000030 07 f5 51 bd ff 08 e8 bc 91 f7 8c 39 d4 77 c9 3c
       -0.051259067 -0.028324602 0.00026887332 0.024593271
000040 8d 90 fe bc 59 17 71 3d d9 65 f9 3b fa fc 28 3d
       -0.031074787 0.058860157 0.007611018 0.041256882
000050 33 8d a6 3c 61 0f 44 3c f7 be 8e 3c d0 50 cc 3c
       0.020331 0.011966557 0.017425044 0.024940878
000060 96 ad 11 bd 85 2c 8c 3b 84 a4 02 3d 7a b0 d1 bb
       -0.035565935 0.004277768 0.031895176 -0.0063992115
000070 93 00 40 bd e4 1f 0c bd 27 21 29 3d f0 58 40 3c
       -0.046875548 -0.0342101 0.041291382 0.011739954
000080 49 52 bc 3c 9d 65 84 bc 41 27 3f bb 57 90 7c 3d
       0.022988455 -0.016161734 -0.0029167684 0.06166109
000090 fe 6c 86 3d 18 f2 bb bc 44 0e c8 3c 47 76 65 3b
       0.06563757 -0.022942588 0.024420865 0.0035013126
0000a0 77 7c cd 3c 7a 1d 8e 3c ea 5c ed bc bb eb 5d 3d
       0.025083764 0.01734804 -0.028974969 0.05417989
0000b0 bf d5 06 3d 60 6c 8c bb e6 92 73 3d 97 c3 3b bd
       0.032918688 -0.0042853802 0.059466265 -0.045840826
0000c0 bd 41 43 3d e2 7e 4b bc 9f 36 c1 bc f7 47 81 ba
       0.047670115 -0.012420388 -0.023585616 -0.0009863366
0000d0 40 25 5d 3d a4 f7 0d bd 57 45 55 bd 38 0d 44 bd
       0.053990602 -0.034659997 -0.05206808 -0.04786417
0000e0 2b ed b2 3c bd fe 4f bd 84 54 53 3d 38 73 ee bb
       0.021841606 -0.050780047 0.051594272 -0.0072769187
0000f0 ce 3e b5 3c 86 1f 5e 3d 8f 3d 76 bc d3 1c 40 3c
       0.022124674 0.05422928 -0.015029325 0.011725622
000100 ca ee 2e 3d a3 56 14 bd ef 62 79 bd 08 d9 96 bc
       0.042708196 -0.036215436 -0.060885366 -0.018414035
000110 d2 30 5d bd 79 c8 03 3d 34 2b 92 39 fe 1d 1c 3d
       -0.054001637 0.032173607 0.0002787948 0.03811454
000120 fd 58 04 bc 8b d6 a5 3d c0 ad 5b 3d 9d 11 aa 3c
       -0.008077857 0.080975614 0.053632498 0.020760352
000130 dc 53 80 3c e0 65 35 3d 78 33 2a bd 6d 05 79 3d
       0.015664987 0.04428661 -0.04155299 0.06079619
000140 ed 0b ba 3c 77 17 23 3d 32 e0 d7 bc f6 b2 67 bc
       0.022710765 0.0398173 -0.026352022 -0.014141789
000150 1c 9b 0d 3d f5 df 33 3d e9 37 1f bd 55 72 8c bc
       0.034571752 0.043914754 -0.03887168 -0.017144362
000160 a7 2a fd 3c 3b 4f 63 bd 67 f3 bd bb cd 7a 6a 3d
       0.030904127 -0.055495482 -0.005796838 0.05724602
000170 0b de df bc d4 b3 05 bc 04 47 90 bd 11 94 48 bc
       -0.027327558 -0.00816055 -0.07044795 -0.012242333
000180 95 35 a7 3c 6a eb 69 bd 3e f9 77 bc 43 ff a5 3d
       0.020411292 -0.057109274 -0.015135108 0.08105328
000190 2d 0d ce 3b cf af 31 3d cd a1 29 3d a4 5e f9 ba
       0.006288192 0.043380555 0.04141407 -0.0019025397
0001a0 31 fc 06 bd 3c db 5f 3d f7 d6 22 3b 17 3b 86 3c
       -0.032955352 0.054652438 0.0024847367 0.016385598
0001b0 4b 17 90 bd 42 f5 8f bd d9 40 12 3d b4 43 37 3d
       -0.07035693 -0.07029201 0.035706375 0.0447423
0001c0 de 6a a0 bc 95 6c 37 bd 3c 07 53 3d 29 0b e9 bc
       -0.019582208 -0.044781286 0.05152057 -0.028447704
0001d0 60 3b 57 3c 7e 8a 87 bc 8e 45 0a bd 68 ed 37 bd
       0.013136715 -0.01654553 -0.03375774 -0.044904143
0001e0 62 80 8e 3c 09 2c 4a 3d d1 c1 71 bc 6f 6e b9 3a
       0.017395202 0.0493584 -0.014755682 0.0014147292
0001f0 fd 0f ba 3c f5 6a 0c bd 8a 0f 8b bb 2f 20 57 3d
       0.022712702 -0.03428169 -0.0042437958 0.052520927
000200 5b fe 0c 3d f1 71 7a bd 51 2e 90 bd cc e9 54 3c
       0.03442226 -0.06114382 -0.07040084 0.012995195
000210 0f 8b 3b bd 22 68 ad bc c8 d8 e8 bc 86 57 32 3c
       -0.045786913 -0.021167818 -0.028423682 0.010885125
000220 0d b6 4e 3d 44 56 6a 3b 80 17 63 bb b0 21 7a 3b
       0.050466586 0.0035756985 -0.0034651458 0.0038167052
000230 06 89 44 3d e4 61 71 3d 83 17 b2 bc b9 e3 b9 bb
       0.04798224 0.058931246 -0.021739727 -0.0056728986
000240 a1 17 88 3d 44 c2 46 3d f4 04 5e bc c8 49 84 3d
       0.06645132 0.04852511 -0.013550986 0.06459385
000250 9d f9 b0 3d 06 0a b2 3d 45 17 b0 3d af 69 71 3d
       0.0864136 0.08693318 0.08598188 0.05893868
000260 0d 8f ac 3d 3a d5 a0 3c d6 2b 26 3d 32 8c a2 3a
       0.08425722 0.019632924 0.04056915 0.0012401401
000270 3f b5 48 3d 03 d2 62 3d 4e 45 1c bd df ae 1c ba
       0.049000975 0.055376064 -0.03815203 -0.00059769856
000280 c7 2d b2 3c e7 b0 3b 3d 04 74 38 bd 6c e7 48 bd
       0.021750344 0.045823004 -0.045032516 -0.049048826
000290 64 ab ee bb 04 0a 3d 3d 82 1b 94 bc 57 51 25 bc
       -0.007283615 0.04615213 -0.018079523 -0.010090194
0002a0 6e 1e a2 3c 77 47 fa bc ea 91 d9 3c ed 03 c7 bc
       0.0197899 -0.030551655 0.026558835 -0.024293864
0002b0 c6 68 45 bd 64 29 14 3d 55 50 bf bc 01 78 06 3d
       -0.048195623 0.036172286 -0.023353735 0.03282929
0002c0 39 d3 c6 3c 89 4b 03 bd 06 5f e4 3c b9 f2 05 bc
       0.02427064 -0.032054458 0.027877342 -0.008175545
0002d0 38 df c6 3c 03 05 27 bc 0d 26 ec ba 85 dc c4 bc
       0.02427636 -0.010194066 -0.0018016711 -0.024030933
0002e0 be 06 88 bd 4e 49 f1 bc 74 6a 82 bd f0 47 17 bd
       -0.06641911 -0.0294539 -0.063679606 -0.03693384
0002f0 a9 17 a5 3c b6 ee 84 bc 5b 2e 64 3c 50 37 0a 3d
       0.020152884 -0.016227107 0.013927068 0.033744156
000300 85 74 0e 3d f4 c2 3e 3d 34 fb 1d 3d b7 a5 3f bd
       0.03477909 0.04657264 0.038569644 -0.046788897
000310 64 33 0a 3d 38 05 54 3d bb 1e 4f bd 13 4a e8 bb
       0.033740416 0.05176279 -0.050566416 -0.0070889085
000320 68 72 9f bc e4 40 3c 3d 17 5c ab bc 50 34 97 bd
       -0.019463733 0.045960322 -0.020917935 -0.07383025
000330 7e be 15 3d 73 0a 16 bd 71 a1 cd bc 97 94 08 bd
       0.03655862 -0.03663106 -0.025101395 -0.03334483
000340 76 59 f2 3c 8d 1d b1 3c 35 a9 4b bd db 09 08 3d
       0.029583674 0.021620536 -0.049721915 0.033212524
000350 c3 05 02 bd 37 d6 dc bc ea 2c d0 3c 5d cd 7b 3c
       -0.031743776 -0.026957614 0.025412042 0.015368787
000360 f7 17 00 bd 01 2e cb 3c 48 63 8b 3d 39 ba ba bc
       -0.031272855 0.02480221 0.06806046 -0.022793876
000370 ad ef 72 bc 09 f3 91 3d ab fc ad 3c 44 54 2b 3d
       -0.014827651 0.071264334 0.021238646 0.04182841
000380 fe 7d d0 3c e1 41 b0 3b 4a d1 cc bc 00 ed 34 bc
       0.025450703 0.005378947 -0.02500214 -0.011042833
000390 c9 77 4b 3c 03 d3 14 3d 7d 5f 6c 3c aa da d8 3c
       0.012418696 0.03633405 0.014427063 0.026471455
0003a0 25 86 3e 3d 15 61 3b bc bd 63 e2 bc ea 81 ae 3d
       0.04651465 -0.01143672 -0.02763545 0.08520873
0003b0 75 9d a0 3d d9 0e d9 3c 24 f5 7a 3c 40 bf 11 3d
       0.078425325 0.026496338 0.015317235 0.03558278
0003c0 4b 7c 45 3d fe 97 32 3c 86 b2 fb bc 86 87 2e 3c
       0.048214238 0.010900496 -0.030724775 0.0106524285
0003d0 47 2d 22 3d 6f 08 3d 3b 01 98 40 3d c7 3a 3b bd
       0.03959396 0.0028844138 0.047019962 -0.04571035
0003e0 4c 32 35 bc f5 ab 22 bd 6d 0e 88 3c 07 e4 86 bc
       -0.011059355 -0.039714772 0.016608441 -0.016466154
0003f0 94 06 df bc e4 18 c0 3c 91 2e d3 bb 55 35 07 3d
       -0.027224816 0.023449369 -0.00644476 0.033009846

bias f4 [16]
000000 d5 2f 9a 3d e7 35 8f 3d 4d 56 67 bc 52 c6 b0 3c
       0.075286545 0.06992703 -0.014119697 0.021578941
000010 cf 05 20 bd 00 4a c1 bc 1c 8f 62 3d 7b 03 2c 3d
       -0.03906804 -0.023594856 0.05531226 0.041995507
000020 b7 6a cd 3c 22 91 30 bc d4 1d 24 bc 4d ff 0e bd
       0.0250753 -0.01077679 -0.010016877 -0.034911443
000030 51 ef dd bc 4a 34 24 bd de 0a 09 3d 7f 27 52 3c
       -0.027091654 -0.04008893 0.03345763 0.012826799

weight f4 [8, 16, 3, 3]
000000 e9 4b 29 3c 6e 48 da 3a 60 a1 94 bd 2d d2 92 3d
       0.01033304 0.0016653666 -0.07257342 0.07168994
000010 8a 1f de bd 66 3b 02 bc 50 ec c0 bd 49 0f 04 3d
       -0.10845859 -0.007948732 -0.09420073 0.03224114
000020 fb c5 a0 bc ed 20 b2 3a a9 ec 8a 3d 70 48 8e bd
       -0.019625654 0.0013590135 0.067834206 -0.0694741
000030 fa 55 4f bc 1b 7d 0e 3c 96 04 5f bc 15 d2 96 bb
       -0.012654776 0.00869682 -0.013611933 -0.0046026804
000040 74 a3 9f bd 26 c5 3b 3d c9 28 69 bd c1 e8 bd 3d
       -0.07794848 0.045842312 -0.05692366 0.0927291
000050 3a 4b 5c bd 8d 9b 3e bd d6 97 b1 3c 19 c8 98 3d
       -0.05378268 -0.046535064 0.021678846 0.074600406
000060 bf a9 1b bd 8c 6b 14 bc 18 78 33 3d 9d e2 26 bd
       -0.03800368 -0.009058844 0.043815702 -0.04074346
000070 a0 e7 42 3d e9 da ad bd 51 aa b9 bd 35 de d3 bd
       0.047584176 -0.084890194 -0.090656884 -0.10345117
000080 6d 54 d6 bc 2e 1f bd bc 96 5d cd bd 0a 9f 92 bd
       -0.026163304 -0.023086157 -0.10027616 -0.071592405
000090 f1 39 26 bd 1d 8c 17 3d 5e 70 ed 3c 55 5d 9e 3d
       -0.0405826 0.036998857 0.028984245 0.077326454
0000a0 fe 99 da bc f1 5c 05 bc 5b 56 9d bd 4d 64 e9 3c
       -0.026684757 -0.008139835 -0.076824866 0.02849021
0000b0 b5 01 92 bd 21 f9 9c 3d 58 27 c8 3b 0c d8 1a bd
       -0.07129232 0.07664705 0.0061082058 -0.037803695
0000c0 ac e0 34 bc c9 20 14 bb ac df a4 3d 1b 9c 9d 3d
       -0.011039894 -0.002260255 0.080504745 0.076957904
0000d0 3b 7c 86 bc 35 4d ef bc e2 b0 33 bd 97 27 a3 3c
       -0.01641666 -0.02921162 -0.04386986 0.019916339
0000e0 79 1f 77 bd 71 b2 36 3d 94 41 20 bd 06 43 3f bd
       -0.06033275 0.04460377 -0.03912504 -0.046694778
0000f0 1d 0c 49 3d f3 05 a0 3d 92 68 47 bd 5c f6 87 3d
       0.049083818 0.07813635 -0.04868371 0.06638786
000100 3f 2a e5 bc ce 1d 73 3c 8e 9a 66 3c 0a a2 c4 3d
       -0.027974246 0.014838649 0.014074935 0.09601219
000110 a0 4b ba 3d 22 7c f3 bc c6 ba ee bc d8 38 99 bd
       0.090964556 -0.029722277 -0.029141795 -0.07481545
000120 f4 99 72 bd ee cf 99 bd 2f e9 c7 3c 3d ea 65 bc
       -0.059228852 -0.075103626 0.024403183 -0.014032898
000130 8d c5 8c 3b 9f 37 96 3d 03 45 22 3b f0 48 53 bb
       0.004296011 0.07334828 0.0024760372 -0.003223952
000140 49 e5 92 3d 49 3a 8d bd 8d 35 41 bd d1 31 43 3d
       0.07172639 -0.06895883 -0.04717021 0.04765493
000150 ab 33 18 3d 4a 53 53 ba 46 58 a0 bc cb 42 3a 3b
       0.03715865 -0.0008061422 -0.019573342 0.002842116
000160 16 d6 41 3d e8 48 88 3d 3b 95 26 3d e6 03 f9 bc
       0.04732331 0.06654531 0.04066966 -0.030397367
000170 a3 c0 0d b7 63 eb b9 3d bb fc 65 3c d4 8b 8a 3d
       -8.449107e-06 0.090780996 0.014037306 0.06764951
000180 03 36 1a ba 37 0c af 3d ef 43 4e bc 76 a2 37 bc
       -0.0005882682 0.08547252 -0.012589439 -0.011208167
000190 d8 23 2d 3d f0 34 95 3d c7 19 69 b9 4b 1f 3a bb
       0.04227051 0.07285488 -0.00022230214 -0.00284
0001a0 c1 cc a4 3c d6 86 0b bd 99 69 95 3c 07 4f 31 3d
       0.020117166 -0.034064136 0.01823883 0.043288257
0001b0 d8 f7 ba bc 13 9c f2 bc a5 44 e6 bc 46 76 8e 3d
       -0.02282326 -0.029615438 -0.028108904 0.069561526
0001c0 68 6c a8 3d bc cd 65 bc 52 a5 12 bd c8 7b 2b bd
       0.08223802 -0.014026102 -0.035802193 -0.041866094
0001d0 31 c1 0b bc e1 ca 46 3d c3 5e 06 bd cc 8d 3a 3d
       -0.008529947 0.048533324 -0.032805216 0.045545384
0001e0 36 cb 96 3d 5d 10 67 bd 5b 41 7c bd c3 dc 7e bd
       0.07362978 -0.05641209 -0.061585765 -0.062222254
0001f0 50 4b 71 3d 5a a4 96 bd f3 9d 8e 3d c4 db 8d bc
       0.058909714 -0.07355566 0.0696372 -0.017316706
000200 aa bf 50 3d 5d 5f 24 3c 32 87 9b 3d 23 58 09 bd
       0.050964035 0.010032502 0.07594146 -0.03353132
000210 7e 04 99 3c 15 42 71 bd 4a f2 1e bd eb bf ae 3c
       0.0186789 -0.05890091 -0.038805284 0.021331748
000220 fa 2a 0e 3b 50 18 dd 3c 42 a7 9b 3c df d3 6d bc
       0.0021693096 0.026989132 0.019000653 -0.014515846
000230 7a 47 f5 bb 35 cd 2b 3d b8 8a 43 3d a9 d6 69 3d
       -0.0074853273 0.041943748 0.047739714 0.05708948
000240 e7 3c 03 3d 75 4d cd bd 04 79 b5 3a 15 75 97 3a
       0.032040503 -0.100245394 0.001384527 0.0011555279
000250 74 86 ce bd 63 be 8d bd 73 60 6b 3d 96 b1 19 bd
       -0.10084239 -0.06921079 0.057465028 -0.037522875
000260 6e 83 a8 bd 58 69 45 3d d1 c3 d6 bc 17 4e 92 3d
       -0.08228193 0.048196167 -0.02621642 0.07143801
000270 a4 3e bf 3d 50 e2 a4 bb 7e c7 2d 3d a4 f0 ea 3d
       0.093381196 -0.0050318614 0.04242658 0.1147168
000280 f2 9f 26 3d 00 2c 8c 3c 90 1c 10 bd 84 44 1d 3d
       0.04067988 0.017110825 -0.03518349 0.03839542
000290 30 1a 2f bd 3a 91 92 3d e4 c8 0e bd f4 3e 2a bc
       -0.042749584 0.07156606 -0.034859553 -0.010390986
0002a0 05 f5 72 3c 99 fe 90 3d 2f ff 44 bd 55 34 ac 3b
       0.014828925 0.07079811 -0.048094925 0.005255262
0002b0 76 96 14 3c 51 2f 5c 3d 37 1c 44 3d f6 74 15 bd
       0.009069076 0.053756062 0.04787847 -0.036488496
0002c0 5d 5c 7a 3c 01 51 7f 3d ee eb e6 3d ad 30 ef bb
       0.01528081 0.06233311 0.11275469 -0.007299504
0002d0 97 76 38 bd c0 f6 9c bd 61 e6 26 bd 12 a2 02 3d
       -0.04503497 -0.07664251 -0.04074705 0.031892844
0002e0 07 16 3a bd a3 8c 9f bd 5a 04 5e bd 39 b2 8c bd
       -0.045431163 -0.07790496 -0.05420337 -0.06869931
0002f0 0b 12 a7 3d 64 e6 7a 3d fd e6 44 bd b1 0d 97 3c
       0.08157738 0.061254874 -0.04807185 0.018439146
000300 54 46 d4 bb a8 bc e0 3c e8 03 83 bd a8 fc ef 3c
       -0.0064781103 0.027433708 -0.063972294 0.02929528
000310 25 f9 de 3c de 80 15 bd 9a 52 72 3d 89 65 10 3e
       0.02721841 -0.03649985 0.059160806 0.14101233
000320 90 f5 bc 3d 8a bd fc 3d d4 cd ac 3d 1d 87 d0 3d
       0.09226525 0.12340839 0.08437696 0.10182021
000330 fb 97 f4 3c de 21 8d 3d ab 67 c0 3d 14 e4 67 bd
       0.029857626 0.06891225 0.09394773 -0.056613997
000340 66 ff 7b 38 2c ea 91 bd be 3a 98 3d 9a b2 87 bc
       6.008092e-05 -0.07124743 0.07433079 -0.016564656
000350 41 6e ba 3d 91 19 18 bd fe 81 43 bd 44 c0 9b 3d
       0.091030605 -0.037133757 -0.047731392 0.07605031
000360 36 e9 a2 3c 12 e4 62 3b 1e e4 a0 bd 71 dd 13 3b
       0.019886594 0.0034620804 -0.0785601 0.002256241
000370 20 80 68 3d 0b 9e 9b 3d 6d 7e 9a bb e2 f2 a8 bd
       0.056762815 0.07598504 -0.004714778 -0.08249451
000380 6c 7e 2e 3d 6f f2 0e bd 27 be 1b 3d 90 64 4a bc
       0.042601034 -0.03489917 0.03802314 -0.0123530775
000390 b0 d5 99 bd 44 4d c8 3c e6 de b3 bc 75 c2 d4 3b
       -0.07511461 0.024450906 -0.021956872 0.0064929076
0003a0 49 80 fe bc 76 99 4c bd 60 e9 3d bd 5a 52 df bc
       -0.03106703 -0.04995104 -0.046365142 -0.027260948
0003b0 b3 db 81 bd 1f 68 bc bd 0d 5a 0e 3d 97 a1 7a bd
       -0.063407324 -0.09199547 0.034753848 -0.06118926
0003c0 a9 9c 39 3d 45 38 4f bd 7e f4 54 3d 4e 46 9f 3d
       0.04531542 -0.050590772 0.05199098 0.077770814
0003d0 e7 c2 c0 bc 4d c6 94 bd 60 46 1b bd 0e 68 6a bd
       -0.023530437 -0.07264385 -0.03790891 -0.05722814
0003e0 1d a2 a1 ba dc 24 90 bb a9 12 9d 3d fa dc df 3b
       -0.0012331639 -0.004398925 0.07669575 0.0068317624
0003f0 5d 78 8e 3d a7 9f 92 bd f9 4d ba bc f0 d9 b2 3d
       0.06956551 -0.071593575 -0.022742258 0.087329745

bias f4 [8]
000000 66 29 a7 3c e9 0e 50 bd 5d 15 4a bd ed d3 66 bc
       0.020405483 -0.05079547 -0.04933678 -0.014088613
000010 8c 7b c7 bd 52 c8 99 bd c2 5a 11 3e 74 de d0 bc
       -0.097403616 -0.07508911 0.14194778 -0.025496699

weight f4 [8, 16, 3, 3]
000000 b9 bb 8c bc cc 2f a4 3d ac a7 08 bd 06 ff 4d bd
       -0.017179357 0.08016929 -0.03336303 -0.050292037
000010 f7 54 2d bd 76 03 17 bd fe d0 8b bd 86 77 48 3d
       -0.042317357 -0.036868535 -0.068269715 0.04894211
000020 1e 0d 95 bd cd 0f e5 bd 4a 7a 3a 3b 71 0c a9 3c
       -0.072778925 -0.111846544 0.0028454238 0.020635815
000030 61 1f db bd 8c bb 68 bc 18 60 cd bd 65 f4 98 3c
       -0.106993444 -0.014204871 -0.10028094 0.018671224
000040 21 2d 4a bc 14 bc ee bd 5d 56 74 3d 9d a1 e5 3c
       -0.012339861 -0.11656967 0.059652675 0.028031165
000050 f4 ec 85 3c 72 c2 4f bd b9 2b 93 bd 60 96 14 3d
       0.01634834 -0.050722547 -0.07186074 0.03627622
000060 74 f5 1d 3d 3a f6 95 3d 59 f8 bd 3c c1 c9 9e 3d
       0.03856416 0.073223546 0.02318971 0.07753325
000070 a9 a3 c1 bc 68 4e 1a bc 9e de 78 bd af ba 44 3d
       -0.02363761 -0.009418108 -0.06075918 0.048029598
000080 56 4b 9d 3c b4 ce d7 3c f7 98 4d bd 6c dd 89 bd
       0.019200962 0.02634368 -0.050194707 -0.06731686
000090 b6 26 98 bd 25 d3 65 3d 51 9a 5d 3d 20 1c 99 bd
       -0.074292585 0.056109566 0.054102246 -0.074760675
0000a0 0d 05 34 3c dd 6b 6f 3d 53 8e 8b 3d ba 00 84 3b
       0.010987532 0.058452476 0.068142556 0.004028407
0000b0 da c9 ee bc ff 99 5a bc 77 d5 08 3d f8 9c a3 bc
       -0.029148985 -0.01334238 0.0334067 -0.01997231
0000c0 2e f7 ab 3d 61 f5 ad bd 88 0f 96 3d fc f4 d4 bc
       0.08396755 -0.08494068 0.07327181 -0.025995724
0000d0 28 bb b3 bc 69 20 a8 3b 18 57 ab 3c e0 6b 80 bd
       -0.021939829 0.0051308167 0.020915553 -0.062705755
0000e0 77 a2 4a bd 93 f3 99 bc b3 17 3a bd ad 74 03 3d
       -0.049471345 -0.018792903 -0.045432758 0.032093693
0000f0 6e 4b 1e bd 3c 3e bb 3d 62 1e 9f 3d c2 c6 d1 3d
       -0.038646154 0.0914273 0.07769467 0.10242988
000100 d3 7a aa 3c 4f 5d b2 3c 52 1c 11 3d e5 48 81 bd
       0.02081052 0.021773009 0.0354274 -0.06312732
000110 e4 50 f4 3c b9 9e 5f 3d 8a ca 09 bc d3 30 2e 3d
       0.029823728 0.05459473 -0.0084101055 0.04252703
000120 bd 36 a3 bd a0 84 8d bd 7b 47 6a bb 50 15 98 bd
       -0.07969425 -0.06910062 -0.0035748172 -0.0742594
000130 95 47 0d 3c 8d bd a7 3c cd 4e 9b bd af 5d a5 bd
       0.0086230235 0.020476127 -0.075833894 -0.08074509
000140 6d 37 97 3d 66 96 06 ba 6b a2 75 3c 00 63 91 3b
       0.073836185 -0.00051341054 0.014992337 0.0044368505
000150 59 c1 37 3d e6 90 b4 3c 97 40 89 3d 91 7a 3e 3d
       0.044862125 0.02204175 0.06701773 0.046503607
000160 2e d5 87 3d fa 59 33 bd b2 7c 01 bd c4 ab 9e 3c
       0.06632458 -0.04378698 -0.03161306 0.019369014
000170 a5 c1 57 bc 40 01 8c 3d af 57 f6 3c 20 d1 c2 3c
       -0.013168727 0.06836176 0.030071108 0.02378136
000180 04 4d a8 bc 96 d1 23 bd 0a 51 e8 bc 7e 1e 01 3d
       -0.020544536 -0.0399948 -0.028358955 0.03152322
000190 31 3d 5d bd 8f 91 f2 bc 56 12 82 3d eb 1e d3 3c
       -0.054013435 -0.029610423 0.063511536 0.025771579
0001a0 39 03 3b 3d 43 ff ec bc 79 61 35 3c af 6b 8c bd
       0.04565737 -0.028930312 0.011070603 -0.068564765
0001b0 52 35 ad bd 69 e5 76 3d c4 f8 6a 3d d8 cd e3 3c
       -0.08457436 0.060277376 0.057366148 0.027808115
0001c0 cb 57 f3 3c 56 af aa 3c ad f8 87 3a af 68 dd 3c
       0.029704949 0.02083556 0.0010373794 0.027027456
0001d0 7b 59 a6 3d ec 46 0d 3d 04 1a 86 bd d9 0f 1b bd
       0.08122536 0.034491464 -0.06547931 -0.03785691
0001e0 7c 00 fd 3c 61 dd 89 bd 7d d0 63 3c c5 e7 47 3d
       0.03088402 -0.06731678 0.013904688 0.048805017
0001f0 6a 5f 83 3b cd de 0a bc 27 65 ab 3d c3 5f c4 3c
       0.004009177 -0.008475971 0.08368903 0.023971444
000200 2a 7d 83 3d f4 e9 b5 3c 21 42 5c bd 94 58 97 bd
       0.064203575 0.022206284 -0.053774003 -0.07389942
000210 e7 67 1e 3d f9 68 54 bd 1c 4d 20 3d f6 e0 d3 bc
       0.038673308 -0.051857922 0.039136037 -0.025864106
000220 40 30 37 3d ee 8a 94 3d a3 d7 35 bd 41 83 0e bd
       0.04472375 0.07253061 -0.0443951 -0.034793142
000230 00 c2 ba 3c bf 0c 5d bd 3f 73 ca 3c 0f 8d 2e 3b
       0.022797585 -0.053967234 0.024713157 0.002663437
000240 ef 67 67 bd 92 91 aa bd 3b 63 4c 3d 9d b7 0a 3c
       -0.056495603 -0.083285466 0.04989932 0.008466628
000250 88 ad ed bd 0b ac be bd f2 9f b7 bc e6 64 c1 3c
       -0.11605364 -0.09310158 -0.022415135 0.023607682
000260 9c 51 07 3c 84 2d a6 bc 31 a9 f2 bb 70 fb 83 3c
       0.008259203 -0.020285375 -0.007405423 0.016111106
000270 26 56 7f bc f6 6d a0 3b 1b f6 72 3d c3 02 ca bc
       -0.015584504 0.004895921 0.059316736 -0.02465952
000280 15 35 33 bd e9 ce d0 3d 9f b1 db 3c 5e b8 2a 3c
       -0.043751795 0.10195715 0.026818095 0.010419933
000290 6e 0a 60 3d 02 da aa bc 27 31 91 3d 89 21 a5 3d
       0.054697447 -0.020855907 0.07089453 0.08063037
0002a0 6e 8d 85 3d 33 85 a9 bc a9 28 55 bd ba 34 1b 3d
       0.06521116 -0.020693397 -0.05204073 0.03789208
0002b0 c5 e5 cb bc 97 b6 70 3d b9 1a 4d bd 21 2d 29 bd
       -0.024889836 0.05876788 -0.050074313 -0.041302804
0002c0 3a 4f 0b bd 7c d2 28 3c a0 42 8a bd c0 15 83 3d
       -0.034011103 0.01030409 -0.06750989 0.06400633
0002d0 cd 2b 53 3d ca 5f 82 bd ae d0 ff ba 3b 28 64 3d
       0.051555444 -0.063659266 -0.0019517147 0.05570243
0002e0 93 96 be 3c 6b eb 3a 3d 4f 2b ac 3d fe 10 ae 3c
       0.023265159 0.04563467 0.08406698 0.021248337
0002f0 ed 32 58 bd bc a6 d1 3d 68 bc 5c 3d 5e cc 43 3c
       -0.05278294 0.1023688 0.053890616 0.01195058
000300 0f cd 89 3d b7 4f 73 bd c1 cb 53 bd 13 9a cd 3d
       0.06728565 -0.059402194 -0.051707987 0.10039153
000310 41 a2 a5 bd 1c f2 b6 bd 19 ed 2f 3d b9 9e 69 bd
       -0.08087588 -0.089328974 0.042950723 -0.057036135
000320 cf 5b 65 bc 01 e0 19 3d 76 9e b4 bb db 2f d5 bc
       -0.01399894 0.037567142 -0.005512054 -0.026023796
000330 30 61 bd bd 2a 2f 53 3c 38 f0 dc 3c f5 d7 86 bd
       -0.09247053 0.012889663 0.026970014 -0.06584159
000340 97 8e be 3c 63 eb 25 3d d2 0c 0d 3d 9d fd 2d 3d
       0.023261352 0.040507685 0.034436055 0.042478193
000350 5c 7f bc 3d 24 1b 32 3d a2 ca 29 3d 7e 31 ff 3c
       0.092039794 0.043482915 0.04145301 0.03115153
000360 d2 d3 9b bb ab 6b f8 3a 62 71 ba 3d 99 26 e2 3d
       -0.0047554756 0.0018952986 0.09103657 0.11042518
000370 ed 2f db 3d 12 99 de 3c 4f 34 03 bd d6 cf 92 3d
       0.107025005 0.027172599 -0.032032307 0.07168548
000380 2f 62 30 3c d4 1a 81 3d f6 4b 3c bd a9 2f 43 bd
       0.010765596 0.06303945 -0.04597088 -0.047652874
000390 39 e8 bb 3c 05 e0 2e 3d 76 1f 42 3c 66 10 f3 bb
       0.02293788 0.04269411 0.011848321 -0.0074177263
0003a0 f8 38 9e 3c 0d e7 30 3d 4e 83 92 3d b8 ad 2a bc
       0.019314274 0.043189097 0.07153951 -0.010417394
0003b0 be 20 8d 3d 1b d7 bb 3d 7b fc 9e 3c d0 3a b6 3d
       0.06891011 0.091718875 0.019407501 0.08897936
0003c0 6f 42 c1 3d 78 57 91 3d bf 1b 3e bd e0 8b 87 3d
       0.09436499 0.070967615 -0.04641318 0.06618476
0003d0 1e 92 96 3d 0f 1f 48 bd 12 af e4 3d 08 7a 03 3e
       0.073520884 -0.048857745 0.111662045 0.1283952
0003e0 88 fc 09 3e d6 d9 0b bd 81 e6 6f 3d 24 e5 f2 3d
       0.1347524 -0.03414329 0.058569435 0.11860111
0003f0 b5 1a 5f bd 93 23 67 3c 3c 74 83 bd 10 32 53 3c
       -0.05446883 0.014107603 -0.06418654 0.012890354

bias f4 [16]
000000 14 52 ef 3d 84 f1 89 bd d1 6c f0 3d 75 f4 13 bd
       0.11685577 -0.067355186 0.11739505 -0.036121804
000010 11 f1 d5 3d 14 9b 2d 3e df 1b b5 bb 69 a5 2d 3e
       0.104463704 0.16953689 -0.005527004 0.1695763
000020 5c a6 70 bd 46 83 73 bd 9b 1e 86 3d 5c a3 a4 3b
       -0.058752403 -0.059451364 0.06548806 0.005024357
000030 99 d3 ce bc 22 d2 d3 bc ef fd 3b 3e 2a 62 26 bd
       -0.025247382 -0.025857035 0.18358587 -0.04062096

weight f4 [16, 32, 3, 3]
000000 68 bd 73 bd c9 46 db 3b 9e 96 ac 3c d7 43 1f bc
       -0.059506804 0.006691788 0.021067914 -0.009720764
000010 e4 9f 6d bd fb 34 b4 bc a3 cf e5 bc fe cf 0b bd
       -0.05801381 -0.02199792 -0.02805311 -0.034133904
000020 b8 af 47 3d d1 fd fa 3c c5 6c 30 3d 23 a8 26 bd
       0.048751563 0.030638607 0.04307248 -0.04068769
000030 61 44 9e 3c f1 3f 4e 3d 3a c3 a3 3c 64 b1 1a 3d
       0.019319715 0.050353948 0.019990552 0.03776683
000040 5a 47 0a bc 26 c3 d7 3c 34 b4 11 bd 81 f3 25 bd
       -0.008439863 0.026338171 -0.035572246 -0.040515427
000050 d7 24 13 3c 32 be b3 3c 7f ca af 3c d8 0a 2a 3d
       0.008980951 0.021941278 0.021458862 0.041514248
000060 d0 76 6e bc 3b cb 6f bd 08 0e 8f bd a2 e1 3f 3d
       -0.014554694 -0.058543425 -0.06985098 0.04684604
000070 2a e1 7a bd df 46 18 bd df f1 7b 3d ae a7 3c bd
       -0.06124989 -0.037176963 0.061509963 -0.04605835
000080 88 34 54 bd 50 d9 a4 3c 22 1a 15 3d 61 08 5d bc
       -0.05180791 0.020123154 0.036401875 -0.013490767
000090 b4 7f 6f 3d 6a f1 b4 bc 4f a9 04 bd 83 84 bd bc
       0.058471397 -0.022087771 -0.032388028 -0.023134476
0000a0 0d d4 22 bc 8c 26 bb 3b d8 e1 81 bd a9 86 a1 bd
       -0.009938252 0.0057113823 -0.063419044 -0.078870125
0000b0 48 e7 e1 3c 36 6d 32 3d 4e d1 0e 3d d6 9f 25 3d
       0.027576104 0.043561183 0.034867577 0.040435635
0000c0 3b 5e 75 3c 99 08 31 b9 70 70 2c bd f4 4c c9 3b
       0.01497608 -0.00016883238 -0.042099416 0.0061432067
0000d0 4d b9 32 3d c2 20 37 3d 45 80 7c 3d 83 02 3c 3d
       0.043633748 0.044708975 0.061645765 0.045900833
0000e0 95 50 3a 3b e5 04 c2 bc 9a 5d c0 bc e3 1d d0 bb
       0.0028429378 -0.023683975 -0.023482133 -0.006351219
0000f0 d3 38 4f 3d 7f 91 34 3d 9d dd 8f bc c7 10 a8 bc
       0.0505913 0.04408407 -0.017561728 -0.020515813
000100 bb f1 6a 3d 30 c4 6d 3d 15 0f 27 bd 8c 55 b0 3b
       0.05735944 0.058048427 -0.040785868 0.0053812917
000110 8e 73 35 bd 4d 86 fa 3a 15 a2 1c bd 51 dc 64 bc
       -0.044299655 0.0019113511 -0.03824051 -0.013968543
000120 b6 c8 2a 3c e7 f5 f6 bc 7f 15 40 bc 19 20 f1 bc
       0.01042383 -0.030146552 -0.011723875 -0.02943425
000130 e7 d9 07 3d 60 76 02 bd 02 56 54 bc e6 58 07 bd
       0.033166792 -0.031851172 -0.012959959 -0.033043765
000140 ed 8e 86 bc 54 7e ae 3c 1b d4 1f 3c ec 45 b3 3c
       -0.016425574 0.021300472 0.00975516 0.021883927
000150 cd 8d f9 3c 0a 3a 95 3d 2e 36 98 3d a9 dc 5c 3d
       0.030463124 0.07286461 0.07432209 0.053921375
000160 98 8a 97 3d 74 67 e5 3c 2f 45 27 bd e1 c7 5d 3d
       0.073994815 0.028003432 -0.040837463 0.054145698
000170 aa dc 82 3d b5 2a 5d 3b 72 97 9d bc fc ed 20 3d
       0.063897446 0.003374738 -0.019237254 0.03928946
000180 22 62 48 bd 9d b5 57 bd a6 42 63 3d 4d 2e 07 3d
       -0.04892171 -0.052663434 0.055483483 0.03300314
000190 eb 67 8e 3c 52 d9 b7 bc 59 ea 33 bb 56 ae a5 3d
       0.017383536 -0.022442494 -0.0027452915 0.080898926
0001a0 bb 57 2a 3d ab c1 31 3d 86 71 17 bc 0a d2 ae bc
       0.041587573 0.043397587 -0.009243375 -0.021340389
0001b0 9b dc 80 3d fc 7f 8d 3d 51 90 b2 3d 03 b5 d4 3a
       0.06292077 0.06909177 0.087189324 0.0016228262
0001c0 b8 68 38 3d d9 d5 e5 bc 5a 42 50 bc f6 4c a8 3d
       0.045021743 -0.028056072 -0.012711132 0.08217804
0001d0 bc 70 25 bc 85 31 51 3d 60 06 8b 3d 63 e9 68 3d
       -0.010097679 0.051072616 0.06788325 0.0568632
0001e0 f7 ef 42 3d a2 d9 db 3c 0e b0 2c 3d a9 71 61 bd
       0.04759213 0.026837174 0.042160086 -0.055040035
0001f0 6d 7d 20 3d 10 ce 0b 3d b1 5d ec bc b8 2c 55 bd
       0.039182115 0.034132063 -0.02885327 -0.0520446
000200 29 1b c9 bc e5 b8 a1 bc 6a 1a 78 3c 6f f9 42 ba
       -0.024549084 -0.019741485 0.015143016 -0.0007437681
000210 78 2c 57 bd 63 6d 53 bd 96 65 43 3d 71 a1 4e bc
       -0.052532643 -0.05161799 0.0477043 -0.012611733
000220 d6 06 d5 bd ad 58 62 3c 78 5d 2d bc 0c 75 2c 3d
       -0.104016945 0.013815087 -0.010581367 0.042103812
000230 28 68 88 3b 4b 45 64 bd 75 01 89 3c 5b 9f 9d 3d
       0.004162807 -0.055730145 0.016724328 0.0769641
000240 34 2c 47 bd b6 53 92 bd 6a 88 ba bc 97 84 38 bc
       -0.04862614 -0.07144873 -0.022770125 -0.011262081
000250 74 25 36 3b 0e 69 b9 3b 22 32 b5 3c d9 9b 23 3c
       0.002779332 0.0056582754 0.022118632 0.009985887
000260 60 85 3d 3d 20 df 79 3d 40 11 21 3d 80 e8 51 bb
       0.046269774 0.061003804 0.03932309 -0.003202945
000270 03 f8 31 3d ab 25 f7 3c f4 bb aa 3d 67 85 02 3c
       0.043449413 0.030169329 0.083366305 0.007966376
000280 f1 7f af 3d 53 7c 7d 3d 0f 9e b8 3d ca 51 08 3d
       0.08569325 0.061886143 0.09014522 0.033281125
000290 94 f4 f4 3c c3 8d af 3d 75 36 af 3d ba d4 bb 3c
       0.02990178 0.08571961 0.08555309 0.022928584
0002a0 3b fc a4 3d d3 93 e3 3d 8f dd a6 3d 70 b8 9d 3c
       0.08055922 0.111121796 0.08147728 0.019252986
0002b0 11 2f da 3c 23 2d a8 bc 54 9f 8f 3d 3c 95 e4 3c
       0.026633771 -0.020529335 0.07012811 0.027903192
0002c0 4e 6d 3f 3d 90 68 1b 3d 6b 96 9d 3b b2 29 11 3c
       0.0467351 0.037941515 0.004809191 0.008860039
0002d0 57 5f 23 3d 92 fd 4c bb 5a a7 1b 3d 08 d6 c8 bc
       0.039885845 -0.003127907 0.038001396 -0.02451612
0002e0 e3 b6 05 bc fd a0 46 bd 73 d6 08 3d 9b 8d 55 bd
       -0.008161279 -0.048493374 0.03340764 -0.052137
0002f0 86 47 72 3d 41 cf 21 bd 40 62 c0 bd 3c cc 44 bd
       0.05915024 -0.039504293 -0.0939374 -0.048046336
000300 78 80 5d bb b7 0c 39 bd c0 63 8a bc dd 10 cb ba
       -0.0033798497 -0.04517814 -0.016893268 -0.0015492697
000310 24 0a 3e 3d 24 34 02 3d 4e 2e 91 3d e5 e8 4d bd
       0.04639639 0.031788006 0.0708891 -0.050270934
000320 69 06 0b bd 87 bb 2a 3c 3a 9c 07 3d a7 04 4c bd
       -0.03394166 0.010420687 0.033107974 -0.049809124
000330 b5 7c 0c 3d 69 0a 21 3d a5 77 8c bc af 8d 55 3d
       0.034298617 0.03931657 -0.017146895 0.052137073
000340 f3 b5 d8 3d 08 84 06 3d 12 95 6b 3d 88 d0 40 3c
       0.10581579 0.03284076 0.05751521 0.011768468
000350 5b c8 ef 3c 9e 9a 2d 3d 58 6f ea 3d 9e 93 cb 3d
       0.029270342 0.042383783 0.114470184 0.09940265
000360 38 f1 bd 3d 0f 03 9f 3d ec 63 82 bc f5 f3 e5 3d
       0.092745245 0.07764255 -0.015916787 0.11228172
000370 eb 2e f1 3b 53 bb f4 bc 67 1a cf bc 08 ee b9 3d
       0.0073603294 -0.02987448 -0.025281144 0.09078604
000380 5a eb 97 3b 76 e2 5d 3d 83 03 92 3d 78 59 d3 3c
       0.0046362104 0.054171048 0.07129576 0.025799498
000390 27 da ce 3d a2 7a 0b 3e 59 87 73 ba 24 77 22 3d
       0.10100203 0.13621 -0.0009289883 0.039664403
0003a0 c9 38 3c 3d 33 bb 6f bc 8c d3 57 bc 51 74 58 3d
       0.045952592 -0.014632034 -0.013172995 0.052845303
0003b0 fb f7 05 3c 0a 9b e2 bc 06 5f 63 bd 1a 28 07 bd
       0.008176799 -0.027661819 -0.055510543 -0.03299723
0003c0 a5 bd e3 bb fe 5a 1c bd 72 1b 4e bc d9 fa 8c bc
       -0.0069500976 -0.038172714 -0.012579786 -0.017209457
0003d0 16 18 18 3a 63 25 84 3c 21 b1 a5 3d 64 c6 2d bd
       0.0005801929 0.016131109 0.08090425 -0.04242553
0003e0 32 fa 98 bc ab 51 b1 3d e7 4d 38 3d e7 1d 6a 3c
       -0.01867399 0.08658155 0.04499617 0.014289356
0003f0 44 da 48 bd c5 74 a5 3c 70 23 98 3d d7 56 dc bc
       -0.04903628 0.020197282 0.07428634 -0.026896877

bias f4 [32]
000000 dd 1e 21 3b af c9 f9 3c e6 76 32 3c 59 95 c5 3c
       0.0024585046 0.030491678 0.010892605 0.024119066
000010 4b 31 7e bb a7 13 8f bd 37 1a 21 bc 68 58 2f bc
       -0.0038786705 -0.0698617 -0.00983291 -0.01070223
000020 39 1e 09 3d fb a5 77 3c 8e a6 c9 3c ab 1e 04 3e
       0.03347609 0.015115256 0.024615552 0.12902324
000030 4c ad 08 3e 79 19 01 be d2 5f d9 bc 78 9b 78 bd
       0.13347358 -0.12607373 -0.026534948 -0.06069514
000040 4e df 11 bd 4a 42 8e 3d f1 5d d9 3d 25 c5 2f 3d
       -0.03561335 0.069462374 0.10613621 0.04291262
000050 c0 a2 a9 3d 8c 37 72 bd 3f b0 10 3d 66 3f d0 3d
       0.08282995 -0.059135005 0.03532433 0.10168342
000060 66 45 d1 3d c3 12 03 3d 24 a5 17 3a 3a dd 6c 3c
       0.10218315 0.032000314 0.0005784801 0.014457041
000070 15 19 0f 3c 01 0b 63 bc e0 c2 40 3c 0a 75 ee 3d
       0.008734007 -0.013857604 0.011765212 0.11643417

weight f4 [32, 3, 3, 3]
000000 1a a2 08 be c6 27 07 3c 3e 64 da bd 77 c7 3f 3e
       -0.13343087 0.008249229 -0.10663651 0.18728434
000010 d1 e0 2f 3e f0 95 01 be 83 86 bb bc 31 32 dd bc
       0.17175604 -0.12654853 -0.022891289 -0.027001472
000020 a8 cd 09 3e 6f 77 29 3e b3 84 91 3d 86 61 0e be
       0.13457358 0.16549467 0.071053885 -0.1390439
000030 23 5c c0 bc 67 3e ea ba ef f3 16 bd 6f 90 53 bd
       -0.023481434 -0.001787138 -0.036853727 -0.051651414
000040 12 0f c3 bd 08 3f 2b 3e 2e 6a fc bd d9 75 13 3e
       -0.09524359 0.16723263 -0.1232494 0.14400424
000050 6b 4d c4 3d 9a c4 ca 3d 06 fc 03 be 13 8a 90 bd
       0.09585079 0.0990078 -0.12889108 -0.070575856
000060 0d d2 7c 3d ef 49 16 be 54 ef 13 3e 4e c8 28 3d
       0.061723758 -0.14676641 0.14446765 0.04120665
000070 52 62 8d 3c 1b ec b3 3d 4b 36 e7 3d e1 9c f4 bd
       0.017258797 0.08785268 0.112896524 -0.11943985
000080 6d fe 06 3d 59 a0 a2 bd c1 01 0a be 7e e8 13 be
       0.032957483 -0.0794074 -0.13477232 -0.14444157
000090 1f c2 8a 3b 2e 0f 3a 3d 8b 1b 28 be 4a 45 de bd
       0.004234567 0.045424633 -0.16416757 -0.108530596
0000a0 92 e6 42 be 36 5a 1a 3e 42 f3 dc 3d 3b 2a b6 bd
       -0.19033268 0.15073475 0.10788585 -0.088947736
0000b0 6d 9e e4 bc 4d 78 2a 3d aa ae 22 bd 0b c9 50 be
       -0.027907575 0.041618634 -0.039717354 -0.20389192
0000c0 e8 5a 6e 3c e0 5c 15 be e1 14 5c be 20 9d 28 bc
       0.014548041 -0.1458621 -0.2149234 -0.010291368
0000d0 18 19 17 bd 90 9b 03 3d b4 0d 1d be 0b 58 fb 3d
       -0.036889166 0.032130778 -0.15337259 0.12272652
0000e0 f0 df 32 be 8a f4 c9 bd bc 2b 0b 3e b0 dc 00 be
       -0.17468238 -0.09861095 0.13590902 -0.12584186
0000f0 57 80 a1 bc f2 e5 2e 3e c6 76 dc bc 8e 16 7f 3c
       -0.019714518 0.17079905 -0.026912104 0.015569342
000100 0d c9 c4 bd 7d ed 0d 3e 42 e6 3e bd c2 ff 46 bd
       -0.0960866 0.13860126 -0.04660631 -0.048583753
000110 64 98 54 3d 4c 14 22 3e 06 f4 50 bc 53 dc a5 3c
       0.051903144 0.15828055 -0.012753492 0.02024666
000120 81 e8 d5 3d 89 40 ae 3d 99 65 13 3e 1a 90 be 3d
       0.10444737 0.08508403 0.14394225 0.09304829
000130 74 4f 26 3d 86 24 13 bd a9 ee 85 3d 52 a4 56 3e
       0.040603116 -0.035923503 0.065396614 0.2096112
000140 a4 86 c5 bd 36 a2 38 3e b2 df 01 be 43 a9 ed bc
       -0.09644821 0.18030629 -0.12682989 -0.029011374
000150 08 6d 29 3e 11 7c b9 bd d4 a4 0c 39 a2 d6 5c ba
       0.16545498 -0.09056867 0.00013412844 -0.0008424317
000160 0a 06 a9 3d d6 0f 34 3d d7 b8 77 3d a5 19 0d be
       0.08253105 0.043960415 0.06047901 -0.13779314
000170 48 0b 0b 3e 29 c6 d9 3c 1f 56 29 be 07 1a 29 3e
       0.13578522 0.026583748 -0.16536759 0.16513835
000180 af bf 61 3e 8a af d1 3d 4b b4 ee 3d b4 e4 ea 3d
       0.22045778 0.102385595 0.11655482 0.11469403
000190 fa d7 68 bd 9d 61 21 be 85 63 d8 3c cd 70 66 3d
       -0.056846596 -0.15759893 0.026414642 0.05625992
0001a0 29 f5 6f bd 57 54 b4 bc 44 26 08 bc e6 a5 21 3d
       -0.058583412 -0.022012873 -0.0083099045 0.039464854
0001b0 9b 97 35 be 01 2c dc bd a0 b3 92 bd 92 71 3c be
       -0.17733614 -0.107505806 -0.07163167 -0.18402699
0001c0 77 e0 48 be f2 46 d6 bc c8 19 d8 bd b1 e4 16 bd
       -0.19616877 -0.026156876 -0.105517924 -0.03683919
0001d0 a7 59 a5 3c 04 09 3a 3e a4 bc 07 ba 75 25 61 bc
       0.020184351 0.18167502 -0.0005177951 -0.013741841
0001e0 b2 65 98 3d 8b 0a 82 3d bd 45 03 3d 52 56 06 3d
       0.07441272 0.06349667 0.03204893 0.032797165
0001f0 97 e0 51 bc bc b3 22 bc 08 e0 08 3d cf 51 07 3e
       -0.012809894 -0.009930547 0.033416778 0.13214801
000200 35 d0 0e 3e 4a 94 81 bd 91 72 29 3e 6e 37 f7 3d
       0.13946612 -0.06327112 0.1654761 0.12071119
000210 dc 1e e5 3d a9 56 2d 3a 7b bb 35 be c9 0b 8e bd
       0.111875266 0.00066123396 -0.177473 -0.069358416
000220 d5 f1 30 be 5d 67 1b 3e 17 5e 8c bc 5e c1 f6 bd
       -0.17279752 0.15176149 -0.01713471 -0.120486006
000230 5a 2d 04 bc 48 f8 39 3e 28 8c 7f 3d ee 99 01 be
       -0.008067453 0.18161118 0.062389523 -0.12656376
000240 0e d4 3f 3e c3 5c cc bd 13 d3 31 3e fd 78 d9 3d
       0.18733236 -0.099786304 0.17365675 0.1061878
000250 9a 63 a4 3d 83 30 f9 3d e6 ab f7 bd 6d 70 41 3e
       0.0802681 0.12167456 -0.12093334 0.18890543
000260 3a 19 f4 3d b9 e7 85 3c bc 0c 6b 3d 1b bc 8e 3d
       0.11918874 0.016345846 0.05738519 0.06969472
000270 29 aa 5c 3d e9 23 0c 3e 58 ef ce bd fb c4 05 3e
       0.053873215 0.13685574 -0.10104245 0.13063423
000280 a9 30 95 3d 20 4e 68 3c 09 85 99 bd f4 9f 21 3e
       0.07284672 0.014178783 -0.074960776 0.15783674
000290 42 e3 76 bd 25 f8 64 3e e6 89 30 3c 0b b0 10 be
       -0.060275324 0.22360285 0.010775065 -0.14129655
0002a0 b6 9e d0 bd 7c 00 ea 3b 9f 0c 22 3e 36 c1 0d bc
       -0.10186522 0.007141171 0.15825127 -0.008652022
0002b0 54 b8 16 3e c1 a4 06 be b4 46 26 bd 1c 4c 19 3e
       0.14718753 -0.13148786 -0.04059477 0.1497044
0002c0 61 12 fa 3d 03 89 16 3e 4a 07 59 be a7 1c 4d 3d
       0.12210537 0.14700703 -0.21194187 0.050076153
0002d0 9d c0 03 3e bc d8 48 be e3 83 f8 bd a9 dd a0 bd
       0.12866445 -0.19613928 -0.121345304 -0.07854778
0002e0 22 33 23 be f7 d5 a6 3d 6b 57 41 3d ac 82 61 bd
       -0.15937474 0.08146279 0.04720251 -0.05505626
0002f0 00 e6 51 be 3d 67 29 3e b2 df f2 bd 85 fb 91 bd
       -0.20497894 0.16543289 -0.11859073 -0.07128052
000300 3c 4c b2 bd 20 b6 b3 3d ba 12 95 3d 52 89 a4 bd
       -0.08705947 0.08774972 0.072789624 -0.08034004
000310 b5 f3 12 be 4e 0e 2e 3e 40 cd 3c 3e 0e 54 16 be
       -0.1435078 0.16997644 0.18437672 -0.14680502
000320 40 e6 57 3d b0 d9 da bd 12 d9 bd bd d5 f2 09 bd
       0.052709818 -0.10686052 -0.092699185 -0.03367885
000330 f7 3a 3c be fe 33 08 3e e6 f8 fb 3d 74 85 08 3e
       -0.18381868 0.13301083 0.12303333 0.13332158
000340 23 77 13 3d 02 06 03 be 6f 3f e1 3d b1 6c 0a 3e
       0.03600229 -0.1279526 0.10998427 0.13518025
000350 9e 49 c1 3d 42 9f 32 be 61 66 12 bd 1a 89 16 be
       0.094378695 -0.17443565 -0.035742167 -0.14700738
000360 05 4a 3e bc f6 02 05 3e a1 13 17 be 03 05 9a bd
       -0.011614327 0.12989411 -0.14753582 -0.07520487
000370 e8 bf 2d be 5f a8 f7 3d 6d a4 76 bd 9d 39 b7 bd
       -0.16967738 0.12092661 -0.060215402 -0.08946536
000380 7c bf f8 bd 9d 66 20 3e fa eb 42 bd 99 93 8e 3d
       -0.12145898 0.15664144 -0.047588326 0.06961746
000390 58 72 9c 3d 58 93 2b be 7d b7 d0 3d d5 1e dc bc
       0.07638997 -0.16755426 0.101912476 -0.02687017
0003a0 e9 0c 41 3c fb 76 1c bd cc 53 0e bd e7 f6 43 be
       0.011782863 -0.038199406 -0.034747884 -0.19137155
0003b0 6e 5a 91 3d ef 3e ec bd d3 e1 91 bd af 94 17 be
       0.07097326 -0.11535441 -0.07123151 -0.14802812
0003c0 91 37 af 3d f1 26 4b 3d eb ad 08 3d d8 b9 32 3e
       0.0855552 0.049597684 0.033368986 0.17453706
0003d0 f7 a0 40 be 91 d9 8d 3d ad 6f 4a be cd 94 8f bd
       -0.18811403 0.06926263 -0.19769163 -0.07010803
0003e0 e7 55 c5 3d 66 36 28 bd 43 29 02 3e fb 30 2b be
       0.09635525 -0.041067503 0.12711053 -0.16717903
0003f0 45 d2 d1 bd 9e 90 84 bd d1 eb 08 3e 55 42 6c be
       -0.10245184 -0.06472896 0.13371207 -0.23072179

bias f4 [3]
000000 f7 2f fa bd 6e d1 f1 3a 01 2f fa 3d
       -0.1221618 0.0018449256 0.122159965
