adbob_pretrained_weights/final_best_denoising_model_for_final_20_each_15_epochs.pth (torch, 61581 bytes, 12 tensors)

weight f4 [32, 3, 3, 3]
-0.19531298 0.17086855 0.19778503 0.057523075 0.11574174 0.13030788 -0.14818256 0.04893807
0.036994305 0.07425159 0.07249693 -0.14976908 0.17144689 0.16886382 0.08264982 -0.13952838
0.051290043 -0.16778445 0.17531587 -0.013148579 0.00090176816 -0.024426876 0.16780126 0.20856874
-0.12610033 0.08081878 -0.10243916 -0.14827809 -0.005484265 -0.004950363 -0.14937796 0.1135364
0.17262825 0.02882726 -0.13668175 -0.13492969 0.10340405 -0.16158158 0.0397836 0.06397102
-0.11091011 -0.13122255 -0.14704403 0.0067824936 0.033118922 -0.037289735 0.12974973 -0.09284539
-0.11448052 -0.120374516 -0.041115753 0.109978065 -0.12647459 0.1456233 -0.011165087 0.13406977
0.16416842 -0.1822945 -0.16387254 -0.12559406 0.111460716 0.16406547 0.0025709595 -0.12544101
-0.09451746 0.055932898 -0.07347045 0.121371694 0.06344932 0.10766486 0.03005835 0.18561304
-0.17593673 -0.16858874 -0.077495106 0.1383777 -0.18831483 -0.04847753 -0.16070253 -0.14024734
0.0005320861 -0.13549784 -0.13864796 0.033188146 0.17498378 0.180847 0.0783084 0.06591897
0.13276953 -0.07416116 -0.06206669 -0.20692794 0.016501455 0.018449586 0.035666376 0.16542166
0.13827059 0.18743403 0.122378394 -0.21229887 -0.01125834 -0.030121686 -0.010378785 0.122415125
0.02019377 -0.13989994 -0.023386413 0.04248394 0.0025699819 0.1633154 0.19128284 -0.06610939
0.13434139 0.20333801 0.10977341 0.1579056 0.20122132 0.03200847 -0.06699529 0.08139482
0.031449866 0.112469554 -0.16525924 0.15266143 0.20530327 -0.101113625 -0.114395164 -0.0650321
0.08985856 -0.11903585 -0.013342731 0.08842843 0.13649574 -0.121697344 0.05250927 -0.1515733
-0.13162506 -0.13652517 0.03561396 0.15609649 0.088713825 -0.17098436 -0.13341746 -0.021360174
0.049549367 -0.019829096 -0.10142514 -0.12452405 -0.07933988 -0.14796324 0.012665716 0.17722408
0.061450835 -0.04959594 -0.10996548 -0.069368295 -0.0153369075 -0.062104546 -0.019919056 0.11922788
-0.13813151 0.018729405 -0.1114507 0.020656902 -0.060910873 0.031978987 -0.052110493 -0.13764714
0.034255385 -0.078790285 0.09175365 -0.013762472 0.061335944 0.12497478 -0.121607356 -0.109692596
-0.029441828 -0.17498231 0.026525248 -0.028717073 0.1411269 -0.06915664 0.1692945 -0.008119173
-0.16039571 0.19821712 -0.05153867 0.16985327 0.12202466 0.045445904 -0.07034879 -0.11385163
-0.13822584 -0.14212254 -0.04798971 -0.13123943 0.0065745865 0.007305811 0.10101138 0.032879844
0.033906642 -0.0763302 -0.034989096 0.17462443 -0.19307922 0.08982296 0.07055249 0.04296067
0.12580316 0.050118677 -0.18708307 -0.17523211 0.07213741 0.08401554 -0.08837621 0.12649545
0.12967293 -0.04769054 0.12061808 0.16579017 -0.08484718 0.2032726 0.071739145 -0.05871159
0.09858872 0.064960726 -0.168186 -0.061692923 0.016566925 0.108050995 -0.050585132 0.11719299
-0.13318591 0.076544985 -0.17191705 0.013698019 0.07025057 0.074152455 -0.09151234 -0.016445342
0.0019821706 -0.1557588 0.11740906 -0.16467474 0.030586584 -0.16011062 -0.060932204 0.13967447
-0.15850121 0.175268 -0.11150114 -0.047348324 0.08319109 0.13015658 -0.06881279 0.1427728
00000000: 2000 48be 2af8 2e3e 2988 4a3e 519d 6b3d
00000010: 010a ed3d 6e6f 053e 2bbd 17be 4973 483d
00000020: 5787 173d 3811 983d 4579 943d 115d 19be
00000030: c68f 2f3e a3ea 2c3e 4f44 a93d 87e0 0ebe
00000040: 8215 523d b0cf 2bbe 0186 333e 236d 57bc
00000050: a364 6c3a df1a c8bc 18d4 2b3e 0b93 553e
00000060: 7220 01be 5184 a53d 9fcb d1bd 36d6 17be
00000070: 59b5 b3bb a836 a2bb 89f6 18be c685 e83d
00000080: 76c5 303e 2527 ec3c 4df6 0bbe 022b 0abe
00000090: 81c5 d33d a475 25be 21f4 223d 3d03 833d
000000a0: d724 e3bd 345f 06be b692 16be ae3f de3b
000000b0: b5a7 073d 1fbd 18bd 1ddd 043e b925 bebd
000000c0: c374 eabd ea86 f6bd fe68 28bd 2e3c e13d
000000d0: 8e82 01be 461e 153e c5ed 36bc 9649 093e
000000e0: c41b 283e 69ab 3abe 34ce 27be bb9b 00be
000000f0: 8445 e43d c700 283e 8b7d 283b 9c73 00be
00000100: 5f92 c1bd e519 653d ad77 96bd b991 f83d
00000110: b8f1 813d 657f dc3d ee3c f63c 5811 3e3e
00000120: c228 34be 87a2 2cbe c1b5 9ebd e2b2 0d3e
00000130: 9ad5 40be 6090 46bd 348f 24be 009d 0fbe
00000140: b27b 0b3a f2bf 0abe bbf9 0dbe 4bf0 073d
00000150: f32e 333e f52f 393e 2860 a03d 8600 873d
00000160: bcf4 073e cee1 97bd a439 7ebd ebe4 53be
00000170: 0f2e 873c 9623 973c e816 123d 4c64 293e
00000180: ce96 0d3e b5ee 3f3e 86a1 fa3d e064 59be
00000190: e774 38bc c1c1 f6bc c80b 2abc c8b4 fa3d
000001a0: 686d a53c ee41 0fbe dd94 bfbc a403 2e3d
000001b0: 246d 283b 273c 273e a6df 433e 5c64 87bd
000001c0: ca90 093e d737 503e e2d0 e03d 01b2 213e
000001d0: f60c 4e3e 501b 033d d434 89bd 54b2 a63d
000001e0: 93d1 003d 7056 e63d b839 29be 4753 1c3e
000001f0: 053b 523e a914 cfbd 0348 eabd 8d2f 85bd
00000200: c407 b83d 11c9 f3bd 789b 5abc f719 b53d
00000210: 8ac5 0b3e 753c f9bd f613 573d 0836 1bbe
00000220: b8c8 06be 41cd 0bbe f2df 113d c2d7 1f3e
00000230: 98af b53d 8616 2fbe 969e 08be 88fb aebc
00000240: 47f4 4a3d a170 a2bc fcb7 cfbd 7706 ffbd
00000250: f27c a2bd ad83 17be dd83 4f3c 3b7a 353e
00000260: dfb3 7b3d 1d25 4bbd 9535 e1bd f710 8ebd
00000270: a747 7bbc 5661 7ebd 4a2d a3bc bf2d f43d
00000280: 5972 0dbe 696e 993c 4440 e4bd aa38 a93c
00000290: ae7d 79bd 66fc 023d d071 55bd 5ff3 0cbe
000002a0: 604f 0c3d cd5c a1bd 56e9 bb3d fe7b 61bc
000002b0: 663b 7b3d c7f2 ff3d 470d f9bd 83a6 e0bd
000002c0: fd2f f1bc 902e 33be 7a4b d93c 1140 ebbc
000002d0: 9283 103e ffa1 8dbd 8a5b 2d3e 4806 05bc
000002e0: c63e 24be 6ef9 4a3e 361a 53bd 04ee 2d3e
000002f0: 11e8 f93d 7c25 3a3d 0713 90bd 0b2b e9bd
00000300: 138b 0dbe 9288 11be dc90 44bd a163 06be
00000310: a16f d73b 9665 ef3b 0edf ce3d 04ad 063d
00000320: b1e1 0a3d 0253 9cbd ba50 0fbd bfd0 323e
00000330: 8fb6 45be 1af5 b73d d37d 903d 87f7 2f3d
00000340: 8bd2 003e 3e49 4d3d b492 3fbe 0c70 33be
00000350: c7bc 933d 5710 ac3d 96fe b4bd 0688 013e
00000360: fbc8 043e 2857 43bd 9d06 f73d e6c4 293e
00000370: 5cc4 adbd b126 503e f9eb 923d 907b 70bd
00000380: e2e8 c93d 210a 853d f338 2cbe b8b1 7cbd
00000390: 5cb7 873c d749 dd3d 5b32 4fbd e102 f03d
000003a0: e361 08be 9ec3 9c3d 060b 30be a86d 603c
000003b0: 88df 8f3d 3edd 973d d26a bbbd 62b8 86bc
000003c0: 4ee7 013b 3c7f 1fbe 2974 f03d 7fa0 28be
000003d0: b790 fa3c 0af4 23be 0c94 79bd d306 0f3e
000003e0: 244e 22be 7479 333e b65a e4bd 51f0 41bd
000003f0: 1760 aa3d c447 053e b8ed 8cbd 0833 123e

bias f4 [32]
-0.027348958 -0.14848523 -0.10530879 0.09295535 -0.02281491 -0.03726141 0.21063533 -0.13439634
0.07659308 -0.059495784 -0.04645346 0.015155221 -0.15391003 -0.10543048 0.08913661 0.009835072
0.12841135 -0.0427777 -0.1462586 -0.03718265 -0.08100824 0.18983243 -0.045841422 0.0040752874
0.19967207 0.17862642 0.21394943 0.054680254 0.04649651 -0.16794156 -0.07736995 0.090539165
00000000: ec0a e0bc 830c 18be 23ac d7bd 605f be3d
00000010: 56e6 babc 6c9f 18bd cab0 573e 329f 09be
00000020: d5dc 9c3d dab1 73bd fc45 3ebd 9b4d 783c
00000030: 979a 1dbe efeb d7bd 418d b63d 4823 213c
00000040: 447e 033e ab37 2fbd d0c4 15be d64c 18bd
00000050: a6e7 a5bd 6f63 423e 37c4 3bbd fd89 853b
00000060: d676 4c3e d8e9 363e 8f15 5b3e 67f8 5f3d
00000070: 2073 3e3d dff8 2bbe 2374 9ebd 996c b93d

weight f4 [16, 32, 3, 3]
0.03756696 0.002096771 0.007258546 0.0013713216 -0.061460983 -0.012104193 0.022220252 -0.066805564
-0.004184684 -0.024812207 -0.01816186 -0.012327235 -0.052315235 -0.029508403 -0.0008162654 0.02349061
-0.03218537 0.05778475 0.006193757 0.039939273 0.01924918 0.010530295 0.01583666 0.023615345
-0.036843706 0.002763493 0.030552918 -0.004639716 -0.03777978 -0.02567068 0.046024967 0.015918847
0.027142398 -0.0071048015 -0.003104941 0.06683933 0.05812154 -0.023922278 0.03048458 0.003352081
0.023240864 0.016665775 -0.02054736 0.053545877 0.033293504 -0.0052870666 0.058523964 -0.04684925
0.046566237 -0.01343949 -0.024579426 -0.002132177 0.052977856 -0.035604227 -0.053034134 -0.055805754
0.019087063 -0.05073031 0.040640388 -0.009835321 0.022519067 0.046476286 -0.013437123 0.011513006
0.04130781 -0.037864927 -0.061132066 -0.01989361 -0.055458236 0.0314957 -0.0008396013 0.037273478
-0.007420558 0.071837425 0.062403988 0.021519616 0.0054128254 0.05481656 -0.038529918 0.052610733
0.03242393 0.043099407 -0.02208066 -0.014550685 0.035259437 0.049196597 -0.038086798 -0.01192827
0.038203403 -0.054119986 -0.014014331 0.046153903 -0.03861706 -0.01045999 -0.072931215 -0.025279442
0.015078919 -0.058584407 -0.027161991 0.07773758 -0.004260826 0.041592777 0.036901616 -0.008144092
-0.027855314 0.04749986 -0.006428445 0.018415364 -0.05991255 -0.06266533 0.037385784 0.05446188
-0.0075451927 -0.036859885 0.057972375 -0.01904797 0.02288283 -0.017990157 -0.03499675 -0.045961615
0.016122878 0.048184413 -0.015883248 0.0002491496 0.021617036 -0.035524383 0.0007887839 0.04945739
0.034179762 -0.054589238 -0.06437131 0.014306108 -0.04420955 -0.013271141 -0.026183546 0.008170748
0.04895471 0.0042262087 -0.007208452 0.0010665519 0.04810669 0.056014426 -0.024652746 -0.006715802
0.061905183 0.041674446 -0.019551978 0.058083896 0.07792852 0.079857565 0.080258876 0.05120007
0.078280434 0.01832941 0.03952755 8.200168e-05 0.047673497 0.054338556 -0.039339032 -0.0018968382
0.020748906 0.044615615 -0.045321394 -0.046732195 -0.018356176 0.04623542 -0.014136413 -0.020274187
0.019369908 -0.02630973 0.019051407 -0.024808945 -0.05137226 0.03390884 -0.022448331 0.030153418
0.021698348 -0.03181275 0.02495286 -0.009418338 0.023850204 -0.013983369 0.0019744465 -0.01714301
-0.06437027 -0.027336866 -0.059916154 -0.03880363 0.019545676 -0.01417205 0.015973648 0.03348882
0.035772633 0.04400783 0.03707728 -0.04491798 0.03263176 0.05872061 -0.04176856 -0.005075311
-0.01647715 0.04654074 -0.016354952 -0.06103824 0.037275814 -0.032572243 -0.013925028 -0.025158647
0.024829313 0.026488755 -0.039725155 0.037088066 -0.02535282 -0.024920505 0.030204276 0.021163728
-0.032161277 0.021641353 0.061634112 -0.021468472 -0.020364763 0.061144363 0.021240555 0.03973
0.021779647 0.02027076 -0.027789695 0.00043654937 0.022992155 0.035597388 0.031329945 0.03561103
0.05143644 0.010794267 -0.03652564 0.07427121 0.07199671 0.0194467 0.0064230356 0.027170839
0.04482726 0.0073390678 -0.036297537 0.015502282 0.040446457 0.009725387 0.05310134 -0.046880644
-0.0048810826 -0.033063516 0.016730966 -0.0070747277 -0.02817138 0.017846582 -0.015585296 0.029004425
00000000: d0df 193d fb69 093b 19d9 ed3b ebbd b33a
00000010: 83be 7bbd aa50 46bc 3f07 b63c 5bd1 88bd
00000020: ac1f 89bb f842 cbbc 2ec8 94bc 2cf8 49bc
00000030: 8048 56bd 9bbb f1bc a5fa 55ba 616f c03c
00000040: ced4 03bd b4af 6c3d 00f5 ca3b 5d97 233d
00000050: 75b0 9d3c 4287 2c3c e2bb 813c f874 c13c
00000060: 6de9 16bd b81b 353b 1d4a fa3c c208 98bb
00000070: f8be 1abd 514b d2bc ad84 3c3d 3e68 823c
00000080: bc59 de3c 65cf e8bb 447c 4bbb 0fe3 883d
00000090: da10 6e3d a7f8 c3bc ccba f93c 96ae 5b3b
000000a0: a063 be3c aa86 883c f052 a8bc ec52 5b3d
000000b0: c55e 083d 213f adbb d3b6 6f3d 00e5 3fbd
000000c0: 3dbc 3e3d 4f31 5cbc cb5a c9bc febb 0bbb
000000d0: 4fff 583d bdd5 11bd 523a 59bd 9394 64bd
000000e0: 795c 9c3c 96ca 4fbd 8976 263d 5424 21bc
000000f0: e879 b83c eb5d 3e3d 6127 5cbc 0ca1 3c3c
00000100: 6132 293d 4118 1bbd 9e65 7abd edf7 a2bc
00000110: 2d28 63bd a301 013d b118 5cba 13ac 183d
00000120: 2728 f3bb 801f 933d 539b 7f3d e849 b03c
00000130: 125e b13b 5487 603d 8cd1 1dbd 5a7e 573d
00000140: f4ce 043d 0189 303d 80e2 b4bc ff65 6ebc
00000150: 336c 103d 5f82 493d e700 1cbd ca6e 43bc
00000160: 2c7b 1c3d ebac 5dbd 5d9c 65bc e00b 3d3d
00000170: ec2c 1ebd 6160 2bbc f65c 95bd d516 cfbc
00000180: 920d 773c 34f6 6fbd d382 debc e134 9f3d
00000190: 669e 8bbb 305d 2a3d 2626 173d cc6e 05bc
000001a0: d430 e4bc 378f 423d b5a5 d2bb d1db 963c
000001b0: dd66 75bd ae56 80bd d621 193d 6c13 5f3d
000001c0: aa3d f7bb 64fa 16bd 7174 6d3d 7d0a 9cbc
000001d0: c674 bb3c 1860 93bc c158 0fbd 3f42 3cbd
000001e0: 2014 843c 055d 453d 961d 82bc 4ba0 8239
000001f0: 3616 b13c 0482 11bd 64c6 4e3a d593 4a3d
00000200: 1400 0c3d f798 5fbd 1bd5 83bd 2a64 6a3c
00000210: 1315 35bd 336f 59bc e07e d6bc 9ade 053c
00000220: bc84 483d 027c 8a3b e134 ecbb 8bcb 8b3a
00000230: 850b 453d 626f 653d 8ef4 c9bc 3b10 dcbb
00000240: 4a90 7d3d d3b2 2a3d 782b a0bc 61e9 6d3d
00000250: fd98 9f3d 5d8c a33d c45e a43d 2ab7 513d
00000260: 7e51 a03d 8f27 963c a4e7 213d 51f8 ab38
00000270: 4945 433d 1b92 5e3d f721 21bd 549f f8ba
00000280: 9cf9 a93c ddbe 363d eda2 39bd 426a 3fbd
00000290: b15f 96bc 5a61 3d3d 6a9c 67bc 0d16 a6bc
000002a0: a4ad 9e3c 8187 d7bc b211 9c3c 213c cbbc
000002b0: b86b 52bd ffe3 0a3d 90e5 b7bc 4d04 f73c
000002c0: bcc0 b13c 164e 02bd f169 cc3c 5f4f 1abc
000002d0: 8161 c33c 801a 65bc b765 013b 7f6f 8cbc
000002e0: 8fd4 83bd 90f1 dfbc a46a 75bd 8ef0 1ebd
000002f0: 411e a03c e331 68bc 2bdb 823c 932b 093d
00000300: 5386 123d 8e41 343d 59de 173d eafb 37bd
00000310: e1a8 053d 0685 703d 8215 2bbd cb4e a6bb
00000320: 17fb 86bc 81a1 3e3d d2fa 85bc 3c03 7abd
00000330: 86ae 183d 796a 05bd cd25 64bc 8219 cebc
00000340: d866 cb3c f2fe d83c d8b6 22bd a8e9 173d
00000350: b8b0 cfbc 1626 ccbc f56e f73c 8e5f ad3c
00000360: 8bbb 03bd 3549 b13c 0d74 7c3d a6de afbc
00000370: 01d4 a6bc 8372 7a3d ac00 ae3c edbb 223d
00000380: 3b6b b23c dd0e a63c 37a7 e3bc aae0 e439
00000390: 0b5a bc3c 91ce 113d d453 003d dfdc 113d
000003a0: 04af 523d 70da 303c e99b 15bd 811b 983d
000003b0: 0373 933d b04e 9f3c 5478 d23b 6195 de3c
000003c0: ca9c 373d 907c f03b baac 14bd 49fd 7d3c
000003d0: 2fab 253d 3b57 1f3c ca80 593d eb05 40bd
000003e0: 7df1 9fbb 9c6d 07bd 610f 893c 1ed3 e7bb
000003f0: aac7 e6bc ff32 923c 7859 7fbc b09a ed3c

bias f4 [16]
0.07497333 0.07330404 -0.02077872 0.02404622 -0.03915291 -0.029469354 0.048104525 0.04416254
0.027360484 -0.011348304 -0.016557842 -0.03597405 -0.035405897 -0.039354168 0.03641211 0.023877108
00000000: 9e8b 993d 6e20 963d 2238 aabc 94fc c43c
00000010: cd5e 20bd b769 f1bc 4009 453d c8e3 343d
00000020: 1823 e03c 3dee 39bc 50a4 87bc 8759 13bd
00000030: c605 11bd d631 21bd dd24 153d ed99 c33c

weight f4 [8, 16, 3, 3]
0.0011698409 0.00078259734 -0.07408843 0.07506329 -0.100288786 -0.00804611 -0.088346034 0.040007833
-0.02352084 -0.0010174211 0.06509681 -0.06803125 -0.01093881 0.01567521 -0.00586751 -0.0063544996
-0.07255186 0.048647843 -0.057048976 0.076703735 -0.057764765 -0.05126414 0.0033642692 0.073218934
-0.044231236 -0.023355616 0.043980725 -0.016329069 0.06614601 -0.06817998 -0.06262653 -0.0777375
-0.002918803 0.0065936446 -0.07184686 -0.04926294 -0.04033424 0.037434787 0.029529108 0.077639654
-0.026252538 -0.0076746265 -0.076559804 0.0288315 -0.07091506 0.07792545 0.007880951 -0.035729174
-0.009122167 -0.00012111979 0.082483366 0.07837378 -0.014783779 -0.027676372 -0.048213758 0.015874349
-0.062171537 0.042834867 -0.03984151 -0.046047732 0.04938052 0.07816071 -0.047656342 0.065709926
-0.027753405 0.0055609825 0.0055889534 0.090449944 0.08424886 -0.03527438 -0.03483311 -0.08144995
-0.05950325 -0.07540357 0.024249673 -0.014251916 0.0040033315 0.07321485 0.0021690398 -0.0035637177
0.0716091 -0.06833771 -0.04652613 0.04834702 0.037784666 -0.000297863 -0.019094663 0.0034034285
0.047734812 0.066925794 0.028063567 -0.03982579 -0.011354193 0.07506292 -0.00010799849 0.056434378
-0.0142731555 0.07090678 -0.024546918 -0.010257426 0.04350589 0.07421483 0.0006718988 -0.0019480812
0.021091655 -0.033012066 0.019194933 0.044246946 -0.017258815 -0.024312558 -0.028048927 0.053972263
0.06911257 -0.020119542 -0.03911948 -0.044272278 -0.0060153566 0.049297366 -0.031929202 0.0464263
0.07426391 -0.05560394 -0.060732998 -0.061434142 0.05980471 -0.07269506 0.062458668 -0.022814887
0.04998376 0.0072593368 0.082413554 -0.025232598 0.024539161 -0.044169653 -0.030582298 0.021329857
0.0067319344 0.026008526 0.012653633 -0.019098984 -0.0095245065 0.033417694 0.03970537 0.060160115
0.034480847 -0.10215474 -0.015397481 0.0020405813 -0.09338276 -0.074582696 0.04752363 -0.030892637
-0.077598095 0.056085307 -0.022269337 0.05926552 0.08857674 -0.0055969204 0.03379272 0.10498771
0.037083503 0.014899518 -0.036524996 0.041925266 -0.028779743 0.077957444 -0.037821557 -0.0015904205
0.029814648 0.06598174 -0.042807683 -0.010070787 -0.009489147 0.02525804 0.029850269 -0.057628687
-0.010631616 0.044270042 0.0897238 -0.029994942 -0.04448086 -0.07618323 -0.040291354 0.032461103
-0.044926714 -0.07745636 -0.053676985 -0.06812911 0.08201879 0.06476479 -0.044634033 0.021086669
-0.0026433286 0.031651694 -0.060533814 0.032304034 0.03101209 -0.033045653 0.055993408 0.13220008
0.090875655 0.12255493 0.076160885 0.09984584 0.03257224 0.0659941 0.09433733 -0.06493568
-0.0077492786 -0.077461265 0.07030458 -0.034562934 0.068661846 -0.020345027 -0.050349396 0.05635416
0.020781677 0.004377704 -0.077628896 0.0030661216 0.05764711 0.076880544 -0.003981101 -0.08173261
0.043412283 -0.033830445 0.039038297 -0.011286854 -0.07414035 0.025421888 -0.02087506 0.007464969
-0.030099299 -0.048946828 -0.041581016 -0.021357855 -0.05471733 -0.08337488 0.036706656 -0.06298896
0.059831545 -0.041991457 0.051332228 0.07851694 -0.02308354 -0.07195916 -0.03675113 -0.056400165
-0.0005511918 -0.0032672437 0.07788099 0.0077115963 0.0655843 -0.06820412 -0.015201876 0.08791051
00000000: 5955 993a 3827 4d3a adbb 97bd c8ba 993d
00000010: 3564 cdbd d5d3 03bc c4ee b4bd 41df 233d
00000020: c7ae c0bc fd5a 85ba 7a51 853d f853 8bbd
00000030: b238 33bc 4c69 803c 3e44 c0bb 6839 d0bb
00000040: 1296 94bd f642 473d 30ac 69bd d916 9d3d
00000050: bf9a 6cbd 59fa 51bd 127b 5c3b cff3 953d
00000060: d02b 35bd 4754 bfbc 2225 343d 8ac4 85bc
00000070: 8f77 873d f2a1 8bbd 5742 80bd d734 9fbd
00000080: 6349 3fbb 800f d83b 7224 93bd f0c7 49bd
00000090: 8435 25bd 3855 193d 07e7 f13c 8a01 9f3d
000000a0: 900f d7bc 6f7b fbbb 63cb 9cbd 0a30 ec3c
000000b0: ea3b 91bd 6197 9f3d 1b1f 013c c158 12bd
000000c0: 2475 15bc b101 feb8 0aed a83d 6f82 a03d
000000d0: aa37 72bc 8fb9 e2bc ca7b 45bd ec0a 823c
000000e0: 95a7 7ebd 9d73 2f3d da30 23bd 8c9c 3cbd
000000f0: 3a43 4a3d b912 a03d 4c33 43bd ed92 863d
00000100: 1c5b e3bc e738 b63b 8a23 b73b d23d b93d
00000110: ab8a ac3d de7b 10bd 2aad 0ebd 3bcf a6bd
00000120: aeb9 73bd 306d 9abd 40a7 c63c de80 69bc
00000130: 612e 833b abf1 953d 7326 0e3b 438d 69bb
00000140: cba7 923d a4f4 8bbd 2f92 3ebd 8607 463d
00000150: 18c4 1a3d 7f2a 9cb9 696c 9cbc 0e0c 5f3b
00000160: 9485 433d 6410 893d 91e5 e53c 5e20 23bd
00000170: f006 3abc 97ba 993d 3f7d e2b8 bc27 673d
00000180: f4d9 69bc 9337 913d 9e16 c9bc c30e 28bc
00000190: 3b33 323d f2fd 973d 5d22 303a c256 ffba
000001a0: 68c8 ac3c a937 07bd b13e 9d3c 493c 353d
000001b0: 5c62 8dbc 212b c7bc ddc6 e5bc 0512 5d3d
000001c0: e48a 8d3d bdd1 a4bc bf3b 20bd d956 35bd
000001d0: 781c c5bb 09ec 493d 32c8 02bd 8129 3e3d
000001e0: ad17 983d f5c0 63bd 2ac3 78bd 5ea2 7bbd
000001f0: c9f5 743d 26e1 94bd a9d4 7f3d 49e6 babc
00000200: c5bb 4c3d bbdf ed3b 70c8 a83d 98b4 cebc
00000210: 5a06 c93c 3deb 34bd ba87 fabc f4bb ae3c
00000220: 8f97 dc3b d50f d53c 2f51 4f3c 7975 9cbc
00000230: ad0c 1cbc fee0 083d 19a2 223d 746a 763d
00000240: ca3b 0d3d 8136 d1bd b745 7cbc 46bb 053b
00000250: 763f bfbd d0be 98bd 23a8 423d 8e12 fdbc
00000260: c0eb 9ebd b5b9 653d 2f6e b6bc 67c0 723d
00000270: b967 b53d 5f66 b7bb 3c6a 0a3d cc03 d73d
00000280: dfe4 173d 1c1d 743c 3c9b 15bd d4b9 2b3d
00000290: 7fc3 ebbc 27a8 9f3d c7ea 1abd a875 d0ba
000002a0: d93d f43c 6f21 873d 1c57 2fbd f1ff 24bc
000002b0: 5e78 1bbc f3e9 ce3c 8d88 f43c 0f0c 6cbd
000002c0: 3b30 2ebc 8154 353d 1dc1 b73d f4b7 f5bc
000002d0: 9031 36bd f405 9cbd 8c08 25bd eff5 043d
000002e0: 1305 38bd 71a1 9ebd 66dc 5bbd 4687 8bbd
000002f0: 78f9 a73d 67a3 843d 2dd2 36bd f3bd ac3c
00000300: b23b 2dbb 35a5 013d 4ef2 77bd 3c51 043d
00000310: 110d fe3c e15a 07bd 5859 653d 755f 073e
00000320: 041d ba3d 14fe fa3d 3dfa 9b3d fa7b cc3d
00000330: 786a 053d ea27 873d ee33 c13d fffc 84bd
00000340: a9ed fdbb 03a4 9ebd d9fb 8f3d dd91 0dbd
00000350: 959e 8c3d 9daa a6bc 2b3b 4ebd 9fd3 663d
00000360: 563e aa3c d872 8f3b e6fb 9ebd fcf0 483b
00000370: 601f 6c3d 8c73 9d3d e573 82bb 6d63 a7bd
00000380: 14d1 313d cb91 0abd 9fe6 1f3d 7fec 38bc
00000390: e5d6 97bd 9041 d03c 2d02 abbc b39c f43b
000003a0: ce92 f6bc 787c 48bd db50 2abd abf6 aebc
000003b0: 471f 60bd 73c0 aabd b859 163d 5b00 81bd
000003c0: ec11 753d 3cff 2bbd be41 523d 7dcd a03d
000003d0: b119 bdbc 535f 93bd 5a88 16bd dc03 67bd
000003e0: db7d 10ba 411f 56bb 1280 9f3d 8fb1 fc3b
000003f0: 1051 863d 9aae 8bbd 4a11 79bc 6d0a b43d

bias f4 [8]
-0.0054976456 -0.03178755 -0.067804046 0.012241546 -0.06837354 -0.07618385 0.1147648 -0.025657197
00000000: 9825 b4bb a933 02bd d9dc 8abd c490 483c
00000010: 6d07 8cbd 4706 9cbd cf09 eb3d 0b2f d2bc

weight f4 [8, 16, 3, 3]
-0.022497602 0.06703981 -0.03632971 -0.045924958 -0.03802629 -0.023085745 -0.066277735 0.05036674
-0.0659918 -0.097024925 0.025060067 0.042163532 -0.096390545 0.0032761511 -0.0801475 0.030957993
0.007310396 -0.092998594 0.052510757 0.0165139 0.010372275 -0.046738427 -0.06644145 0.046322126
0.039290845 0.07216031 0.02367051 0.077024244 -0.023386834 -0.009058599 -0.061238512 0.048229773
0.019419447 0.025928829 -0.050069097 -0.0671035 -0.07387863 0.049906306 0.041727148 -0.06643266
0.012735494 0.05226645 0.07252045 0.00014010096 -0.038865667 -0.015398285 0.032962754 -0.02193875
0.081651144 -0.08507601 0.0722215 -0.028398342 -0.02192919 0.004653639 0.019445578 -0.063761875
-0.061555862 -0.02524738 -0.058294088 0.011695918 -0.046412755 0.080621205 0.06540369 0.088470675
0.010940337 0.014171641 0.024986 -0.05892215 0.032435875 0.050942145 -0.0019422591 0.040860176
-0.0744005 -0.053051714 0.013898696 -0.07219242 0.017207135 0.02735237 -0.073173195 -0.07394239
0.07881776 -0.00086601655 0.012361117 0.0009693966 0.044446692 0.0194059 0.063710235 0.0462027
0.063862845 -0.046929296 -0.024616688 0.02619246 -0.006281282 0.07538311 0.03922892 0.03073696
-0.007236764 -0.02370807 -0.0142930485 0.036327362 -0.0432939 -0.025578484 0.06439154 0.02883457
0.041227236 -0.0239758 0.014611332 -0.069866784 -0.077492975 0.06099297 0.05750508 0.026551057
0.020474302 0.015545482 -0.000531455 0.02048353 0.08037701 0.03398396 -0.06585779 -0.038218405
0.030878922 -0.067197055 0.013988488 0.048685838 0.003938132 -0.008580654 0.07470402 0.008494354
0.052573167 0.01915365 -0.05846414 -0.07679256 0.03689267 -0.056808278 0.0331679 -0.017518777
0.048254423 0.068828866 -0.03891888 -0.036321037 0.017207323 -0.04926008 0.026825426 0.0033173908
-0.054706503 -0.079792365 0.03793454 0.010628578 -0.10141716 -0.08308192 -0.03917961 0.01437716
0.008430717 -0.0316268 -0.022689747 0.006572211 -0.03340431 -0.014869695 0.041654333 -0.042325877
-0.06056812 0.08522374 0.031608287 0.019369356 0.050049424 -0.023710057 0.07809862 0.084612206
0.04808324 -0.031965595 -0.056826413 0.03604211 -0.026060993 0.05820759 -0.05211696 -0.042662896
-0.034647424 0.008471866 -0.06879175 0.06338757 0.06571998 -0.05885607 -0.0002425934 0.06306119
0.026152084 0.052748736 0.089223325 0.017419381 -0.049650937 0.102978036 0.061421834 0.027260728
0.06436317 -0.054284185 -0.037986822 0.09593638 -0.07679571 -0.07584655 0.04788967 -0.056251563
-0.010378894 0.050599832 -0.0017494053 -0.025583101 -0.06935449 0.028606134 0.035196 -0.056387965
0.033864487 0.03297956 0.037183408 0.057606895 0.09232425 0.029826643 0.04557593 0.03417465
-0.022220567 -0.010639035 0.08588632 0.08986202 0.084441684 0.008253314 -0.03863417 0.06307128
-0.0026004852 0.063028805 -0.048978224 -0.05302624 0.022894863 0.039704293 0.006507487 -0.007543334
0.016350409 0.037936144 0.06533512 -0.017666968 0.06218355 0.08280859 0.011058538 0.08016345
0.08081244 0.06043435 -0.050144717 0.06786827 0.068952724 -0.042868305 0.10454376 0.11232651
0.12612592 -0.02899158 0.057643346 0.11459926 -0.05228122 0.01882447 -0.05960656 0.009921859
00000000: e44c b8bc 2b4c 893d 76ce 14bd cf1b 3cbd
00000010: 74c1 1bbd 511e bdbc 9fbc 87bd 5b4d 4e3d
00000020: b526 87bd 01b5 c6bd c54a cd3c abb3 2c3d
00000030: 6868 c5bd b2b4 563b 5f24 a4bd 9e9b fd3c
00000040: 0c8c ef3b 0c76 bebd 8515 573d 2948 873c
00000050: 79f0 293c cb70 3fbd 7412 88bd 45bc 3d3d
00000060: 70ef 203d c9c8 933d a8e8 c13c e3be 9d3d
00000070: bf95 bfbc 856a 14bc 3cd5 7abd 958c 453d
00000080: 8815 9f3c b268 d43c 4115 4dbd 8f6d 89bd
00000090: ae4d 97bd 8e6a 4c3d 16ea 2a3d d90d 88bd
000000a0: 89a8 503c 5815 563d 9a85 943d 11e8 1239
000000b0: 9b31 1fbd 1749 7cbc f403 073d e5b8 b3bc
000000c0: b738 a73d 553c aebd dee8 933d a4a3 e8bc
000000d0: d8a4 b3bc 8e7d 983b 554c 9f3c 9695 82bd
000000e0: 0022 7cbd 98d3 cebc c8c5 6ebd 3ca0 3f3c
000000f0: 4d1b 3ebd bb1c a53d 5ff2 853d 1d30 b53d
00000100: 193f 333c 2c30 683c 71af cc3c 5a58 71bd
00000110: 7bdb 043d b6a8 503d 6793 feba 005d 273d
00000120: 4a5f 98bd c14c 59bd 5bb7 633c 9fd9 93bd
00000130: faf5 8c3c 1412 e03c d4db 95bd 1c6f 97bd
00000140: 356b a13d 6305 63ba 4886 4a3c 1b1f 7e3a
00000150: bc0d 363d 1ff9 9e3c 837a 823d 0b3f 3d3d
00000160: 86ca 823d ef38 40bd f0a8 c9bc 9291 d63c
00000170: 36d3 cdbb 7662 9a3d 81ae 203d 14cc fb3c
00000180: 6022 edbb 6d37 c2bc 642d 6abc 00cc 143d
00000190: f254 31bd f889 d1bc b6df 833d 7a36 ec3c
000001a0: e4dd 283d e668 c4bc 5e64 6f3c 5116 8fbd
000001b0: a3b4 9ebd c4d3 793d 728a 6b3d 9a81 d93c
000001c0: b9b9 a73c 7ab2 7e3c 5751 0bba 13cd a73c
000001d0: b49c a43d c432 0b3d 73e0 86bd e78a 1cbd
000001e0: cbf5 fc3c 9c9e 89bd f92f 653c cd6a 473d
000001f0: 720b 813b df95 0cbc 6cfe 983d e72b 0b3c
00000200: f656 573d 1ee8 9c3c 1878 6fbd 6b45 9dbd
00000210: c51c 173d ccaf 68bd 10db 073d 8a83 8fbc
00000220: 6ea6 453d 26f6 8c3d 6769 1fbd 5ec5 14bd
00000230: 5ff6 8c3c f0c4 49bd ffc0 db3c 9568 593b
00000240: ed13 60bd 2e6a a3bd 4061 1b3d 7d23 2e3c
00000250: cdb3 cfbd db26 aabd cc7a 20bd 2e8e 6b3c
00000260: fd20 0a3c 1a8b 01bd d9df b9bc b45b d73b
00000270: f5d2 08bd 05a0 73bc bc9d 2a3d e65d 2dbd
00000280: 4716 78bd c989 ae3d b177 013d 7cac 9e3c
00000290: a000 4d3d 983b c2bc 2bf2 9f3d 2a49 ad3d
000002a0: eef2 443d 5bee 02bd d0c2 68bd e4a0 133d
000002b0: dd7d d5bc 156b 6e3d 9878 55bd 4abf 2ebd
000002c0: 75ea 0dbd 95cd 0a3c b0e2 8cbd 58d1 813d
000002d0: 3298 863d 1013 71bd ac60 7eb9 3a26 813d
000002e0: e53c d63c 0f0f 583d b8ba b63d 17b3 8e3c
000002f0: c85e 4bbd 26e6 d23d 7695 7b3d e451 df3c
00000300: d6d0 833d 1859 5ebd 1298 1bbd 4b7a c43d
00000310: 1247 9dbd 7055 9bbd f527 443d 0a68 66bd
00000320: 3d0c 2abc c541 4f3d 4d4c e5ba a793 d1bc
00000330: ba09 8ebd 6957 ea3c ae29 103d 11f7 66bd
00000340: 7db5 0a3d 9315 073d a14d 183d 35f5 6b3d
00000350: 7f14 bd3d 0157 f43c d4ad 3a3d b8fa 0b3d
00000360: e807 b6bc 594f 2ebc 2be5 af3d 9409 b83d
00000370: c3ef ac3d e838 073c dd3e 1ebd 842b 813d
00000380: e76c 2abb 3f15 813d 649d 48bd 0b32 59bd
00000390: 028e bb3c f8a0 223d c23c d53b 122e f7bb
000003a0: 4bf1 853c ee62 1b3d 6bce 853d 51ba 90bc
000003b0: 2eb4 7e3d 8d97 a93d df2e 353c bc2c a43d
000003c0: fe80 a53d 028a 773d 8c64 4dbd 85fe 8a3d
000003d0: 1637 8d3d ad96 2fbd 0a1b d63d 710b e63d
000003e0: 2727 013e c07f edbc 6e1b 6c3d 04b3 ea3d
000003f0: d524 56bd c635 9a3c 0226 74bd 4b8f 223c

bias f4 [16]
0.094024785 -0.03435149 0.09828696 -0.037171572 0.08419409 0.13541378 -0.008595101 0.13734505
-0.027135044 -0.061518468 0.06409123 0.0060191047 -0.015273921 -0.026790336 0.14319405 -0.030419206
00000000: 1190 c03d 26b4 0cbd ac4a c93d 3841 18bd
00000010: f36d ac3d e9a9 0a3e 77d2 0cbc 2ea4 0c3e
00000020: 504a debc cafa 7bbd 4342 833d e93b c53b
00000030: 783f 7abc 6877 dbbc 76a1 123e b331 f9bc

weight f4 [16, 32, 3, 3]
-0.059747208 0.006148671 0.020593561 -0.010259014 -0.05846664 -0.02239567 -0.028541869 -0.034489714
0.048316423 0.02798233 0.040700503 -0.032027736 0.013200565 0.04677789 0.027642949 0.031779796
-0.00895515 0.030530987 -0.03729571 -0.031229448 0.01120851 0.015262091 0.02031349 0.034661397
-0.014579628 -0.05953438 -0.07443555 0.051166523 -0.05879449 -0.030757153 0.052767698 -0.05296958
-0.04514716 0.0055870544 0.025639595 -0.006498241 0.046189245 -0.025387717 -0.03362663 -0.025907043
-0.009554214 0.0035190568 -0.06106069 -0.07322489 0.030040702 0.04369902 0.03486336 0.040137015
0.014994918 -0.0004966619 -0.042561635 0.006126318 0.043071657 0.04413812 0.056813266 0.042511936
0.005809703 -0.02484884 -0.01927692 -0.0005827955 0.04407962 0.045587905 -0.017208701 -0.011470133
0.033681758 0.0257421 -0.036321323 0.0027468847 -0.047111895 -0.010502013 -0.028656831 0.0143753495
0.008156027 -0.031930048 -0.012556388 -0.03301768 0.029948177 -0.03392294 -0.016871005 -0.036555104
-0.018951746 0.03589897 0.015053514 0.016565535 0.03987637 0.06898329 0.06315851 0.06358825
0.07681063 0.02935259 -0.04175638 0.051661555 0.052304473 0.0119302245 -0.015946217 0.023895338
-0.031980902 -0.043050103 0.04454954 0.036243927 0.014067978 -0.020533064 -0.0076408368 0.07052225
0.038253758 0.046475884 -0.01292042 -0.021788513 0.06401705 0.05972456 0.08255897 0.010314636
0.047529828 -0.021872992 -0.008040332 0.087465994 -0.00404962 0.050332565 0.05729948 0.054852773
0.051401995 0.0129274465 0.031029657 -0.044280823 0.032819103 0.028043529 -0.018347777 -0.054911867
-0.03679728 -0.019843653 0.009710918 -0.014422328 -0.047073547 -0.041968465 0.05207594 0.008225696
-0.081695035 0.012705935 -0.0016164304 0.046660043 -0.012018019 -0.055456717 0.009005677 0.058504086
-0.03889733 -0.0631941 -0.024797324 -0.018844869 -0.0053230072 -0.0060472167 0.026106915 0.012738649
0.047620706 0.073555835 0.051299624 0.010133706 0.04840692 0.029034622 0.084769405 0.0093310755
0.07965582 0.05662233 0.092231534 0.03267603 0.035933558 0.08599139 0.0827147 0.030146746
0.07983419 0.10567529 0.08421213 0.03321676 0.034792252 -0.015504888 0.06741563 0.017015096
0.040487107 0.043660883 0.006383011 0.013705489 0.02399759 -0.0043003075 0.022155797 -0.031094095
0.004234465 -0.053827442 0.02199173 -0.047871444 0.053026896 -0.052173264 -0.07965758 -0.0405165
-0.023389203 -0.042641804 -0.015085857 -0.013951739 0.039749973 0.026286859 0.06444286 -0.050853238
-0.038567834 -0.0015807095 0.03479355 -0.050925426 0.029756842 0.044806037 -0.0153415995 0.04834572
0.0967424 0.027761154 0.049029496 -0.0013581538 0.021508245 0.034915473 0.10313814 0.09202847
0.0968061 0.08908639 -0.003029265 0.1053764 0.004588318 -0.030593073 -0.014106766 0.09941243
0.004142031 0.07085822 0.07855191 0.03625006 0.10246029 0.12496949 -0.002580266 0.038267344
0.038659424 -0.011917245 -0.015241146 0.05030958 -0.0070231473 -0.024303101 -0.0501838 -0.041962612
-0.0066328607 -0.034896854 -0.015938623 -0.010534013 0.017763032 0.026722176 0.0870122 -0.025735069
-0.008411972 0.08004175 0.040955205 0.0048030317 -0.033687014 0.016680406 0.07092869 -0.013212109
00000000: 7db9 74bd ca7a c93b d4b3 a83c 6c15 28bc
00000010: b77a 6fbd 2077 b7bc a3d0 e9bc 1645 0dbd
00000020: 71e7 453d 333b e53c 92b5 263d 842f 03bd
00000030: 2f47 583c 2c9a 3f3d 7773 e23c 882b 023d
00000040: 9fb8 12bc 1f1c fa3c 63c3 18bd e6d4 ffbc
00000050: e6a3 373c d90d 7a3c 7a68 a63c 1cf9 0d3d
00000060: 64df 6ebc 52da 73bd aa71 98bd fd93 513d
00000070: 7ed2 70bd 6df6 fbbc f122 583d a1f6 58bd
00000080: 3aec 38bd 9c13 b73b 210a d23c 32ef d4bb
00000090: ef30 3d3d e7f9 cfbc 14bc 09bd 023b d4bc
000000a0: 4789 1cbc fa9f 663b c61a 7abd eef6 95bd
000000b0: eb17 f63c befd 323d e2cc 0e3d b666 243d
000000c0: 3fad 753c 6a32 02ba 1c55 2ebd 48bf c83b
000000d0: e86b 303d 2cca 343d 07b5 683d ff20 2e3d
000000e0: 525f be3b cb8f cbbc a2ea 9dbc bec6 18ba
000000f0: d58c 343d 62ba 3a3d 43f9 8cbc 3aed 3bbc
00000100: e2f5 093d 19e1 d23c abc5 14bd 1405 343b
00000110: 67f8 40bd a310 2cbc bbc1 eabc 9686 6b3c
00000120: dba0 053c 15c9 02bd 4fb9 4dbc 8c3d 07bd
00000130: e155 f53c c8f2 0abd 1035 8abc ceba 15bd
00000140: b140 9bbc cc0a 133d 04a3 763c 72b4 873c
00000150: 6855 233d 1c47 8d3d 4059 813d 8e3a 823d
00000160: e44e 9d3d d874 f03c bd08 2bbd 119b 533d
00000170: 373d 563d fd76 433c a4a1 82bc 28c0 c33c
00000180: 68fe 02bd 4e55 30bd 9479 363d 8374 143d
00000190: 607d 663c f534 a8bc fc5f fabb f86d 903d
000001a0: f9af 1c3d 7f5d 3e3d 2bb0 53bc d37d b2bc
000001b0: 5f1b 833d bda1 743d ad14 a93d b8fe 283c
000001c0: a3ae 423d fd2e b3bc 99bb 03bc 5f21 b33d
000001d0: adb2 84bb 8529 4e3d dcb2 6a3d 4dad 603d
000001e0: e68a 523d a4cd 533c e831 fe3c cf5f 35bd
000001f0: 536d 063d 8bbb e53c 144e 96bc 44eb 60bd
00000200: bfb8 16bd 288f a2bc 8b1a 1f3c a14b 6cbc
00000210: 31d0 40bd 20e7 2bbd 954d 553d 12c5 063c
00000220: ba4f a7bd 8e2c 503c 67de d3ba 9a1e 3f3d
00000230: 3ae7 44bc 9526 63bd 8c8c 133c fba1 6f3d
00000240: cf52 1fbd e96b 81bd c223 cbbc 8e60 9abc
00000250: 9f6c aebb bb27 c6bb 2bde d53c c4b5 503c
00000260: ee0d 433d 71a4 963d 8e1f 523d d807 263c
00000270: 5646 463d 04da ed3c 959b ad3d 5ee1 183c
00000280: 9722 a33d d1ec 673d e3e3 bc3d 4dd7 053d
00000290: 112f 133d 411c b03d 5366 a93d 4ff6 f63c
000002a0: 1c80 a33d 496c d83d 6977 ac3d 4c0e 083d
000002b0: 5282 0e3d 3708 7ebc 3511 8a3d 3e63 8b3c
000002c0: cfd5 253d c1d5 323d 9428 d13b fd8c 603c
000002d0: 9896 c43c 98e9 8cbb 1380 b53c 0bb9 febc
000002e0: 44c1 8a3b 2a7a 5cbd 0028 b43c d914 44bd
000002f0: bb32 593d a2b3 55bd 8323 a3bd a1f4 25bd
00000300: b79a bfbc 2ca9 2ebd ac2a 77bc d695 64bc
00000310: ded0 223d 8a57 d73c 9efa 833d 7c4b 50bd
00000320: 4ef9 1dbd cf2f cfba ae83 0e3d 2e97 50bd
00000330: 9fc4 f33c 8986 373d 555b 7bbc 2906 463d
00000340: e120 c63d 5c6b e33c 27d3 483d 1404 b2ba
00000350: 0f32 b03c 8703 0f3d 173a d33d 6c79 bc3d
00000360: 4742 c63d ed72 b63d a286 46bb 95cf d73d
00000370: 9a59 963b 539e fabc 1120 67bc be98 cb3d
00000380: e0b9 873b 1d1e 913d d3df a03d f17a 143d
00000390: b3d6 d13d 01f0 ff3d ae19 29bb 38be 1c3d
000003a0: 5859 1e3d 8c40 43bc 00b6 79bc 6b11 4e3d
000003b0: 6e22 e6bb 4c17 c7bc 878d 4dbd fde0 2bbd
000003c0: 7858 d9bb 01f0 0ebd b791 82bc da96 2cbc
000003d0: c783 913c 77e8 da3c 7433 b23d 5ad2 d2bc
000003e0: 5ed2 09bc eeec a33d a5c0 273d c062 9d3b
000003f0: 65fb 09bd 59a5 883c 1043 913d 9a77 58bc

bias f4 [32]
0.0023371384 0.018841222 0.014207043 0.016739603 -0.015277621 -0.06823049 -0.01701165 -0.013921352
0.021891119 0.014258279 0.03783581 0.10348226 0.10756784 -0.0945348 -0.016031306 -0.052957293
-0.03831564 0.06593105 0.09623143 0.042848855 0.05729536 -0.04748306 0.042071443 0.07656179
0.08248146 0.034942906 0.0042584767 0.00014097404 0.021174472 -0.01806351 0.0137238605 0.09700081
00000000: ad2a 193b e858 9a3c a8c4 683c 7e21 893c
00000010: fd4e 7abc 6dbc 8bbd 045c 8bbc 6216 64bc
00000020: 0155 b33c 8f9b 693c b9f9 1a3d 82ee d33d
00000030: 874c dc3d 769b c1bd 1654 83bc bfe9 58bd
00000040: dcf0 1cbd dc06 873d fc14 c53d 4882 2f3d
00000050: 8aae 6a3d 997d 42bd 1b53 2c3d 6ecc 9c3d
00000060: 0aec a83d 4b20 0f3d b18a 8b3b 6ed2 1339
00000070: 1676 ad3c edf9 93bc 0bda 603c 5ca8 c63d

weight f4 [32, 3, 3, 3]
-0.13490835 0.006793057 -0.10794606 0.18587944 0.17027253 -0.12792037 -0.02416337 -0.028364798
0.13324909 0.1661512 0.071633115 -0.13835913 -0.0228718 -0.001360492 -0.036329012 -0.050843444
-0.09463573 0.16785592 -0.1220754 0.14518288 0.09715178 0.10020674 -0.12780397 -0.069390595
0.06304294 -0.1455941 0.1456562 0.040202837 0.017912108 0.08485241 0.11461518 -0.11196959
0.037365094 -0.08126117 -0.13433743 -0.1450265 -0.011367047 0.04224755 -0.17107745 -0.115039475
-0.18057859 0.1548598 0.09854894 -0.087566525 -0.03108656 0.03534931 -0.039097853 -0.20551637
0.013755299 -0.13710605 -0.2096109 -0.011273498 -0.03244855 0.03511136 -0.15534343 0.12145576
-0.17280637 -0.09963951 0.13361937 -0.12370423 -0.021522531 0.16805968 -0.025603594 0.022696042
-0.093000084 0.14023052 -0.037685618 -0.04527737 0.056614634 0.16301271 -0.012052096 0.023097713
0.106319025 0.08202146 0.14120838 0.09092877 0.033448566 -0.0396459 0.062039644 0.20345557
-0.098920465 0.18245766 -0.1177373 -0.021766648 0.15997477 -0.09067519 0.0020830557 -0.002509294
0.07953086 0.04213733 0.055337284 -0.12936816 0.14269067 0.020913644 -0.1586791 0.17429134
0.21239431 0.09983764 0.11714145 0.111673 -0.0524853 -0.15490788 0.02060953 0.05839102
-0.05378903 -0.030090174 -0.014426726 0.035859954 -0.17721252 -0.10660627 -0.06726141 -0.18070856
-0.19009313 -0.019653676 -0.10286697 -0.029686218 0.026276438 0.1803607 -0.0050006155 -0.024362018
0.07245116 0.061965358 0.022623029 0.03044268 -0.012161241 -0.018767115 0.037768673 0.13501194
0.1426849 -0.065526746 0.16477685 0.118328325 0.11130993 0.0037110911 -0.17790656 -0.070570976
-0.17413414 0.15043607 -0.018259406 -0.12152799 -0.00911654 0.18066405 0.061603483 -0.12739457
0.18782544 -0.09949451 0.17411003 0.1066129 0.080731176 0.1222678 -0.12019903 0.18975389
0.12006642 0.017560856 0.058414143 0.07087184 0.05499202 0.13798021 -0.099815056 0.13197915
0.07425537 0.015623313 -0.07648267 0.15777364 -0.060439724 0.22256319 0.012622799 -0.14015086
-0.097569294 0.011745845 0.15982239 -0.019044343 0.14510389 -0.1341435 -0.049901046 0.15044951
0.12136112 0.1433964 -0.20905949 0.0484696 0.12449289 -0.19490397 -0.12004831 -0.08346088
-0.15753269 0.08225721 0.047533643 -0.051286813 -0.20490928 0.15691547 -0.12419278 -0.07025101
-0.0840842 0.08436346 0.067944735 -0.06105851 -0.13391349 0.17237455 0.17658915 -0.15371178
0.05044875 -0.0978505 -0.09452156 -0.0405613 -0.15585154 0.14259572 0.1186687 0.13044706
0.03429086 -0.12648593 0.111559354 0.12645383 0.08117539 -0.15692702 -0.034187395 -0.15574165
-0.013082988 0.1292232 -0.14872098 -0.07548678 -0.16921954 0.120819665 -0.061564848 -0.09015255
-0.122735456 0.1581606 -0.044590447 0.07193555 0.08046212 -0.1620536 0.10665779 -0.024950946
0.014998867 -0.035757046 -0.033410482 -0.18985167 0.07220866 -0.11227437 -0.06800614 -0.14515467
0.087796904 0.05187201 0.03524667 0.17333344 -0.18903548 0.070111655 -0.18922998 -0.063439146
0.100822024 -0.040005367 0.123064525 -0.17225358 -0.1138656 -0.06877034 0.12832089 -0.22659224
00000000: 6a25 0abe 4b98 de3b d312 ddbd 2e57 3e3e
00000010: ec5b 2e3e 8ffd 02be 42f2 c5bc 4b5d e8bc
00000020: 7372 083e 8a23 2a3e 62b4 923d 04ae 0dbe
00000030: a45d bbbc 8952 b2ba bbcd 14bd 3741 50bd
00000040: 61d0 c1bd 6ce2 2b3e ab02 fabd d2aa 143e
00000050: 83f7 c63d 3139 cd3d 0bdf 02be a81c 8ebd
00000060: a81c 813d 9f16 15be e626 153e bbab 243d
00000070: 6abc 923c 1ac7 ad3d 5dbb ea3d 5050 e5bd
00000080: 240c 193d 426c a6bd c08f 09be d481 14be
00000090: da3c 3abc c40b 2d3d ed2e 2fbe d199 ebbd
000000a0: 98e9 38be 9193 1e3e 07d4 c93d 1456 b3bd
000000b0: 3ea9 febc 70ca 103d 1225 20bd e272 52be
000000c0: e85d 613c 8765 0cbe 3da4 56be 7ab4 38bc
000000d0: c5e8 04bd eed0 0f3d 5912 1fbe ccbd f83d
000000e0: 27f4 30be cd0f ccbd 84d3 083e a558 fdbd
000000f0: 0550 b0bc d617 2c3e a1be d1bc 0ded b93c
00000100: d476 bebd 9798 0f3e 3c5c 1abd c374 39bd
00000110: bfe4 673d ceec 263e 2876 45bc 6a37 bd3c
00000120: cabd d93d defa a73d ee98 103e dd38 ba3d
00000130: 5d01 093d bd63 22bd 481d 7e3d a856 503e
00000140: d096 cabd 2ed6 3a3e 4120 f1bd f84f b2bc
00000150: 6dd0 233e eab3 b9bd e083 083b f872 24bb
00000160: 13e1 a23d 3198 2c3d 59a9 623d 1679 04be
00000170: 811d 123e 1753 ab3c c67c 22be 6e79 323e
00000180: e57d 593e ad77 cc3d dbe7 ef3d d0b4 e43d
00000190: d3fa 56bd 2ca0 1ebe 51d5 a83c 6c2b 6f3d
000001a0: e351 5cbd ab7f f6bc 135e 6cbc e3e1 123d
000001b0: 3377 35be 6354 dabd 5ac0 89bd aa0b 39be
000001c0: c6a7 42be bf00 a1bc ebab d2bd 8330 f3bc
000001d0: af41 d73c 7ab0 383e 34dc a3bb db92 c7bc
000001e0: 4661 943d 63cf 7d3d ee53 b93c ed62 f93c
000001f0: f13f 47bc 7ebd 99bc 53b3 1a3d 9240 0a3e
00000200: fe1b 123e e332 86bd 43bb 283e 1f56 f23d
00000210: 76f6 e33d c735 733b 232d 36be 8487 90bd
00000220: 3850 32be ea0b 1a3e c094 95bc abe3 f8bd
00000230: 8a5d 15bc ffff 383e ef53 7c3d b973 02be
00000240: 5055 403e c7c3 cbbd e649 323e dd57 da3d
00000250: 6356 a53d 8a67 fa3d e92a f6bd d84e 423e
00000260: 62e5 f53d c9db 8f3c ab43 6f3d 4125 913d
00000270: 503f 613d af4a 0d3e d66b ccbd 8b25 073e
00000280: 3313 983d edf8 7f3c f2a2 9cbd 6a8f 213e
00000290: a58f 77bd 9be7 633e dbcf 4e3c b583 0fbe
000002a0: 69d2 c7bd a571 403c 7ba8 233e e202 9cbc
000002b0: 1d96 143e ea5c 09be 0a65 4cbd 700f 1a3e
000002c0: 2e8c f83d 82d6 123e b113 56be 0f88 463d
000002d0: 21f6 fe3d e894 47be e3db f5bd 8aed aabd
000002e0: 4050 21be 7876 a83d a3b2 423d 1f12 52bd
000002f0: bdd3 51be 73ae 203e c958 febd c3df 8fbd
00000300: 5634 acbd c0c6 ac3d 9c26 8b3d 7d18 7abd
00000310: 9e20 09be f482 303e c9d3 343e 9f66 1dbe
00000320: 59a3 4e3d d865 c8bd 8594 c1bd 9b23 26bd
00000330: 8c97 1fbe 9d04 123e 9308 f33d ea93 053e
00000340: 9374 0c3d 8785 01be 3b79 e43d 1d7d 013e
00000350: 483f a63d 7ab1 20be 1508 0cbd bd7a 1fbe
00000360: 075a 56bc 1653 043e 504a 18be d098 9abd
00000370: e347 2dbe 4d70 f73d 6c2b 7cbd e6a1 b8bd
00000380: ba5c fbbd daf4 213e 79a4 36bd f252 933d
00000390: 53c9 a43d 61f1 25be 666f da3d ed65 ccbc
000003a0: cfbd 753c fb75 12bd 6ed9 08bd 7a68 42be
000003b0: 22e2 933d 1bf0 e5bd ce46 8bbd 6da3 14be
000003c0: ddce b33d bf77 543d d05e 103d 527e 313e
000003d0: 8492 41be b396 8f3d 81c5 41be 62ec 81bd
000003e0: c77b ce3d abdc 23bd 4109 fc3d 3e63 30be
000003f0: 5e32 e9bd 77d7 8cbd 8d66 033e cc07 68be

bias f4 [3]
-0.10656338 -0.0015906012 0.13679303
00000000: e73d dabd b87b d0ba 7913 0c3e
