adbob_pretrained_weights/final_best_denoising_model_for_final_20_each.pth (torch, 61337 bytes, 12 tensors)

weight f4 [32, 3, 3, 3]
00000000: 1d68 43be 44d3 2a3e abaf 4a3e f9c6 773d
00000010: ce4f df3d b60e 033e 89f7 13be 3f8e 3f3d
00000020: db23 1d3d 004f a33d 7a06 8b3d c5ec 1abe
00000030: 4477 343e 3759 263e 23ec a23d a9d1 08be
00000040: abf5 4d3d d91e 2abe 98e5 3a3e dcaf 78bc
00000050: 5d40 e23a 616f 8dbc 89b6 283e 2190 553e
00000060: 0bf5 f0bd 3cf1 a93d 17ac c8bd 941c 18be
00000070: 9acf bdbb 1027 afbb e738 19be 02e3 e73d
00000080: ba56 303e 53a0 ea3c 8d37 0cbe 248b 0abe
00000090: b79a d23d 5313 26be 392e 203d 94dc 813d
000000a0: 5365 e4bd ae19 07be 8113 17be 4c63 cc3b
000000b0: cbfe 043d 8d8b 1bbd cb1c 043e 25d1 bfbd
000000c0: 6fd8 ebbd 690d f8bd 15e5 2bbd 0401 e03d
000000d0: 5232 02be 8251 143e 2f54 65bc 8b3f 063e
000000e0: b1e4 243e cd95 3dbe 71dc 2abe 70dc 03be
000000f0: 1a89 de3d ff07 253e ebc3 07ba 8eef 02be
00000100: 45d6 c6bd 43ad 593d e772 9bbd 5d49 f33d
00000110: a955 783d 159a d73d 47c7 e13c 3c45 3b3e
00000120: f430 34be 06c3 2cbe 4e59 9fbd f0b2 0d3e
00000130: 37ee 40be 8ccf 47bd cc7f 24be 999c 0fbe
00000140: 2f45 a939 1790 02be 611f 07be 0a7c 163d
00000150: c34c 323e 1101 343e 52c2 953d cc55 7a3d
00000160: 2444 fb3d acc2 a5bd fd13 66bd a6ef 4fbe
00000170: 9076 7f3c 6686 8d3c 9f11 f23c 3e1d 213e
00000180: 0a01 093e 882a 353e 9bdc e73d 43db 57be
00000190: f33e 37bc e73a 0bbd 320f 71bc 3091 e93d
000001a0: 7d80 283c 04c6 15be a182 0ebd 3e71 043d
000001b0: f337 043a 028d 233e a6aa 413e 923f 8abd
000001c0: f299 063e 7c1c 503e 84e4 e03d f54b 213e
000001d0: 7da3 513e 6f3c 063d 0f2c 8dbd 3fcd a13d
000001e0: 7d71 0a3d 4897 e53d eb97 28be cd57 203e
000001f0: 0ba9 543e c9a2 c5bd aca5 eebd ea33 8dbd
00000200: 90b3 af3d b01d f4bd 18e4 7abc 4161 b33d
00000210: cd21 0d3e 6d1f f8bd 248a 623d 7fa3 1bbe
00000220: ef13 07be 7305 0cbe 0976 103d 1caf 1f3e
00000230: 6a94 b53d 4f82 2fbe 47d6 08be b5b9 afbc
00000240: 2e0b 493d 7d1f a5bc eb33 d0bd 8de2 ffbd
00000250: 98ee a2bd 169c 17be 9224 473c 992b 353e
00000260: 640f 7b3d 4d94 4dbd fa20 e2bd 56cb 8ebd
00000270: 9952 82bc 5fe0 7fbd a923 a5bc f9c7 f23d
00000280: 91ed 0dbe ddc1 963c 5d03 e1bd 05cc 963c
00000290: 3e24 87bd ad11 0f3d 95d2 5cbd 20be 13be
000002a0: 8601 0b3d a4a5 aabd 9dc3 a93d c6af 1ebc
000002b0: c370 803d 0eb7 ff3d 7c83 efbd 2094 debd
000002c0: 2d65 03bd 613b 32be 2674 c73c 7c1d 0bbd
000002d0: 54c2 133e 372a 8ebd 4aaa 2b3e 52e4 9dbb
000002e0: 8743 25be 247a 463e 67fb 52bd 2d29 2a3e
000002f0: 5c7b ec3d b1de 363d b713 91bd 6e56 e8bd
00000300: a045 0ebe f0bf 11be f494 40bd 4ed7 06be
00000310: 4669 e53b d9b8 143c 3c68 d03d 094d 0a3d
00000320: 8a83 113d 2265 9abd aefd 09bd a42b 353e
00000330: 9d6b 44be d11c bc3d fae0 963d 273f 343d
00000340: 981a 023e 6647 553d ac55 3ebe 34c2 31be
00000350: 3b0d 993d 6025 af3d 4a3f b0bd 06f6 043e
00000360: 4a88 fd3d ac91 57bd da4a e93d 6194 273e
00000370: 29c9 b0bd 744b 4c3e 2641 8d3d 5f8e 7dbd
00000380: c5e9 c03d d0de 803d 46d3 2cbe 800d 83bd
00000390: cd3a 923c 942f e23d 39d6 4ebd 568a ef3d
000003a0: 9bce 08be 1599 993d e8fc 38be f08b e33b
000003b0: f600 803d 9740 8b3d 88a5 c4bd c65f b8bc
000003c0: e852 cabb 8873 27be d179 df3d 4eb5 2cbe
000003d0: dae6 e03c 3029 25be ac4f 92bd 71ed 063e
000003e0: 7dcf 24be 9de2 253e 586c fcbd fcc3 59bd
000003f0: 226e a03d c3a5 013e 0bee 8cbd d83f 063e
-0.19082685 0.16682154 0.19793575 0.06049249 0.109038934 0.1279858 -0.14449896 0.046766516
0.038364273 0.079740524 0.06788345 -0.15129383 0.17623621 0.1624497 0.07955196 -0.13361229
0.050283115 -0.1661333 0.18251646 -0.015178647 0.0017261613 -0.017265024 0.16475882 0.20855762
-0.11765488 0.08297965 -0.097984485 -0.14854652 -0.0057925703 -0.005345233 -0.14963113 0.11322595
0.17220584 0.028640902 -0.13693066 -0.1352964 0.10283416 -0.16218309 0.03910658 0.063409
-0.111521386 -0.1319339 -0.14753534 0.006237423 0.032469552 -0.037974883 0.12901609 -0.09366063
-0.11515891 -0.12111933 -0.041966517 0.10937694 -0.12714508 0.14484218 -0.013997122 0.13110177
0.16102864 -0.18514176 -0.16685654 -0.12877059 0.10865994 0.16116332 -0.00051790354 -0.12786695
-0.097088374 0.05314375 -0.07590275 0.11879227 0.060628567 0.10527436 0.027560843 0.1828813
-0.17596799 -0.1687127 -0.077807054 0.1383779 -0.18840872 -0.048781916 -0.16064376 -0.14024581
0.00032285738 -0.12750278 -0.13195564 0.036739387 0.17412095 0.17578532 0.07312454 0.06111698
0.12268856 -0.08093771 -0.056171406 -0.20306262 0.015592232 0.017276 0.029549418 0.15733811
0.13379303 0.17692006 0.11321374 -0.21079735 -0.011184442 -0.03399172 -0.0147130955 0.114046454
0.01028454 -0.14626318 -0.034792546 0.03233456 0.00050437375 0.15971759 0.18912753 -0.06750406
0.13144663 0.20323366 0.10981086 0.15751632 0.20472522 0.032772478 -0.06893169 0.07900476
0.033799637 0.11210495 -0.16464202 0.15658493 0.2076761 -0.096501894 -0.11652693 -0.068946674
0.08579171 -0.11919725 -0.015313171 0.08758784 0.13782425 -0.12115369 0.055307522 -0.15199088
-0.13191198 -0.13673954 0.035268817 0.15594143 0.08866198 -0.17139553 -0.1336299 -0.021450857
0.049082927 -0.020156616 -0.101661526 -0.12494383 -0.079556644 -0.14805636 0.012154715 0.17692412
0.061293975 -0.05019026 -0.11041446 -0.06972377 -0.015908526 -0.062469836 -0.020158606 0.11854548
-0.13860156 0.018402988 -0.109869696 0.018407831 -0.065987095 0.034928966 -0.053911764 -0.14427996
0.033937 -0.08332375 0.082892634 -0.009685462 0.062715076 0.12486087 -0.116950005 -0.10868096
-0.03207891 -0.17405464 0.024347376 -0.033963665 0.14429599 -0.069416456 0.16764179 -0.0048184777
-0.16139041 0.1938253 -0.051509287 0.1661727 0.115469664 0.04464597 -0.070838384 -0.1134461
-0.13893747 -0.14233375 -0.047017053 -0.1316807 0.007001075 0.009077274 0.10176131 0.033764873
0.035525836 -0.07538821 -0.033689193 0.17692429 -0.19181676 0.09185184 0.073671296 0.04400554
0.12705457 0.052070044 -0.18587369 -0.17359239 0.07473227 0.085520506 -0.086058214 0.12984475
0.12379511 -0.052629158 0.1139123 0.16365196 -0.08632118 0.19950658 0.06897192 -0.061903354
0.09419588 0.06292498 -0.1687747 -0.06399059 0.017850304 0.11044231 -0.050497267 0.11696307
-0.13360064 0.07499901 -0.18065226 0.006944172 0.06250183 0.06799429 -0.09601885 -0.022506606
-0.006174434 -0.16352665 0.109119065 -0.16866037 0.027453829 -0.16128993 -0.071441025 0.13176514
-0.16094775 0.16199727 -0.123253524 -0.05316542 0.07833506 0.1266089 -0.068813406 0.13110292

bias f4 [32]
00000000: df42 27bd 0def 19be 11f5 debd 4994 ab3d
00000010: 2555 f8bc ca4b 1ebd 3cc0 473e 2f62 06be
00000020: f24b 9e3d 801a bfbd 119b abbd c2d8 5c3c
00000030: abc6 2abe da42 dcbd c2e5 b43d 7755 a93b
00000040: 573b 063e 1e71 30bd 2b31 0cbe cb94 32bd
00000050: 7bac eabd 70a1 3e3e 9dd8 78bd 6fb5 75bb
00000060: 37ac 433e 304f 363e 43c4 573e 9d23 633d
00000070: e076 033d 89cb 31be 6386 9dbd f16e b43d
-0.040835258 -0.15032597 -0.108865865 0.083778925 -0.030314038 -0.038646497 0.19506925 -0.13123392
0.07729329 -0.09331226 -0.08379186 0.013479413 -0.16677348 -0.107549384 0.08832885 0.005167659
0.13108574 -0.043076627 -0.13690631 -0.04359893 -0.11458679 0.18616271 -0.060753454 -0.0037492176
0.19108663 0.17803645 0.21070962 0.055453885 0.03209579 -0.17362799 -0.07691648 0.08810223

weight f4 [16, 32, 3, 3]
00000000: 1b07 163d b475 203a 2b65 a8b9 9139 d43a
00000010: 449b 70bd 140f 87bc d914 8f3c 361c 8abd
00000020: e8b8 19bc e43e d1bc 73d7 9bbc 7665 58bc
00000030: 7f35 59bd 3218 f9bc da67 e8ba 7730 ba3c
00000040: b57d 07bd 69b0 683d 3c88 bc3b cd90 213d
00000050: 5127 993c b56d 263c 8cb3 793c 2399 bb3c
00000060: 89b7 17bd 80f7 143b 38b3 f43c e469 1cba
00000070: bb23 02bd 79cd b2bc 659d 483d 6f02 973c
00000080: 51c4 e03c 86fb 12bb d31b 0dbb e4ae 873d
00000090: 31a6 623d ba9e d7bc 7a34 da3c 65b8 833b
000000a0: 3bc8 b73c a781 473c 0e05 78bc 7287 613d
000000b0: 4e23 f93c 4527 c4bb 91bf 6c3d 19f4 42bd
000000c0: b816 3b3d 3cf5 6bbc 3411 d1bc c6ac 49bb
000000d0: 31c1 543d 67f5 15bd ab35 54bd 2fc3 76bd
000000e0: dfe6 6a3c 7f36 46bd 580d 123d 380e 7cbc
000000f0: b8fa d03c 4cdb 303d 7435 8abc 8870 453c
00000100: 739c 263d fcc3 21bd bf91 77bd 04f8 a6bc
00000110: d418 69bd 6163 023d 93c8 a0ba ce46 143d
00000120: f637 9ebb 7bc0 8b3d 4250 7f3d 6f89 c73c
00000130: b41c ba3a b545 623d b5fe 0bbd 6852 4c3d
00000140: edfa 083d e596 293d 7129 a5bc 42e5 4cbc
00000150: 5072 f13c 5fdd 473d 42d9 16bd b2b3 8dbc
00000160: d2fa 163d 1faa 5dbd b608 8abc 0bb8 2a3d
00000170: 8fbb 43bd eb91 47bc b89b 98bd 42e3 0cbd
00000180: 1b71 2f3c 4ea9 7abd 9c20 17bd 3654 9a3d
00000190: 5cea 2cbc 82ab 163d 8a44 0f3d a6bb 33bc
000001a0: 5cbd e1bc 88e0 303d 3f06 2dbc 25ef 943c
000001b0: af57 66bd 9d16 70bd f97e 223d 902c 603d
000001c0: 3eba 9fbb a89d 0cbd d4e6 553d 148a b5bc
000001d0: 082d af3c 567c 9dbc 7544 14bd 4864 40bd
000001e0: dd7b 753c 6484 403d ffd2 8abc 0c4f 62ba
000001f0: 39b0 a73c 9422 16bd 102d 343b 47cd 413d
00000200: d2be f33c a36d 54bd fc1d 7dbd ce55 593c
00000210: b4d9 34bd 33e4 2bbc 0684 d8bc b7b6 973b
00000220: 9ba0 3c3d cf82 573b 7d83 3bbc 0ddf 40bb
00000230: e0ca 3d3d f23c 573d 736a eabc 4c34 15bc
00000240: baf0 603d ea46 023d bd98 efbc d53b 463d
00000250: 360f 863d f289 8b3d f8ab 903d 7be0 1e3d
00000260: 6816 893d 65c1 8e3c 0291 1e3d 67ad 36ba
00000270: b726 3f3d ce9b 5a3d 11f9 24bd 14b8 3ebb
00000280: 95e7 a13c bead 323d eca6 55bd d1c8 4abd
00000290: e892 cdbc f017 163d 289b 93bc 4e47 e0bc
000002a0: f88a 003c 3c2c 04bd eba8 323c eb90 cdbc
000002b0: 1d33 56bd bb92 053d f132 b9bc 54c4 ef3c
000002c0: cdaf a63c bd7a 03bd 3b9f c43c c3d5 2fbc
000002d0: bdf6 c13c 3ec3 8ebc 0d32 6dbb 6c44 6bbc
000002e0: b012 83bd b237 01bd 4faf 75bd 7ec9 25bd
000002f0: 5330 613c 1d60 4cbc 8f7b 843c 2ce3 fd3c
00000300: 7657 1b3d cc5d 353d 309d 113d ee5b 25bd
00000310: 4fae 0f3d c00e 7b3d 5a02 27bd 815d c4bb
00000320: 5c16 8dbc 6129 3b3d 89c9 74bc dadc 66bd
00000330: 264e 103d 52f7 01bd a02c 12bc 1baf adbc
00000340: 3042 b63c 6524 c03c e244 0bbd 3b92 203d
00000350: 1e31 d1bc 33c9 bebc 5d4a 033d 6d08 ad3c
00000360: 44cf f2bc 4ef5 aa3c 73c6 673d 63a1 8ebc
00000370: cf53 b1bc cf11 5b3d 0e65 d63c 1048 273d
00000380: 418b 8e3c 3d72 db3c 7d5a f5bc 3f1d 1fbb
00000390: 9930 e43c bcf8 0f3d 2333 043d 6537 273d
000003a0: 206a 5a3d 5007 7b3c e1dc 26bd 87a5 8c3d
000003b0: 52dc 8a3d b986 803c 3edb f73a 19f1 be3c
000003c0: e269 323d 1f27 b63b 0626 1cbd e09c 933c
000003d0: 0386 203d 35b3 d63b 5def 683d 79b7 41bd
000003e0: eda8 edbb 1f6c e7bc 0e23 8f3c 131b f8bb
000003f0: 26dc eebc 1748 683c d9ea b9bc e726 c03c
0.03662787 0.0006121055 -0.00032118833 0.0016191473 -0.058741823 -0.016486682 0.017465996 -0.06743662
-0.009382464 -0.025542684 -0.019023633 -0.013207784 -0.053029533 -0.030407045 -0.0017731145 0.022728188
-0.033078868 0.056808863 0.005753545 0.039444733 0.018695505 0.010157992 0.015240561 0.02290017
-0.037040267 0.002273053 0.029870614 -0.00059667067 -0.031772356 -0.021826493 0.048978228 0.018433778
0.027437361 -0.0022427752 -0.0021531477 0.066251546 0.055334274 -0.026320804 0.02663635 0.0040197843
0.022434345 0.012176908 -0.015137924 0.05506081 0.030412342 -0.0059861266 0.05779988 -0.04759607
0.045675963 -0.01440173 -0.025520898 -0.0030773147 0.051942054 -0.036610987 -0.051808994 -0.060244735
0.0143372705 -0.048391815 0.035657257 -0.015384249 0.025510177 0.043177888 -0.016871192 0.012050755
0.040676545 -0.039493546 -0.06044173 -0.020381935 -0.056908444 0.031833056 -0.0012266807 0.036200337
-0.0048284484 0.06823822 0.0623324 0.024357526 0.0014199228 0.05524226 -0.034178454 0.049883276
0.033442426 0.04140367 -0.020161362 -0.012505831 0.029473454 0.0487951 -0.036828287 -0.0172976
0.036860295 -0.05411732 -0.016849857 0.041679423 -0.04778629 -0.012180786 -0.07451576 -0.034396417
0.010708119 -0.061196618 -0.036896333 0.07535593 -0.0105539225 0.036784656 0.034977473 -0.010970032
-0.027556114 0.04318288 -0.010560571 0.01818044 -0.056235965 -0.058615316 0.03967187 0.054729998
-0.0048744967 -0.03433004 0.052222088 -0.022160567 0.021383777 -0.019224327 -0.0361981 -0.046970636
0.014983145 0.047001258 -0.016946314 -0.0008632995 0.020469772 -0.03665407 0.002749268 0.04731491
0.029754076 -0.05186237 -0.061796173 0.013265086 -0.04415293 -0.010491419 -0.026430141 0.0046299356
0.046051603 0.0032884364 -0.0114449235 -0.0029429824 0.046336055 0.052548356 -0.028615212 -0.009106707
0.054917075 0.03180591 -0.029247636 0.048396904 0.0654587 0.0681342 0.070640504 0.0387883
0.06693727 0.017426202 0.03871251 -0.0006968588 0.04666778 0.053371243 -0.04027659 -0.0029101418
0.019763747 0.043622725 -0.052161142 -0.04950792 -0.025094464 0.036643922 -0.01801832 -0.02737775
0.007845633 -0.032268748 0.010904531 -0.025093516 -0.05229484 0.032610636 -0.022607299 0.029268421
0.0203475 -0.032099474 0.024001708 -0.010732117 0.023677224 -0.017427083 -0.0036193163 -0.014359575
-0.06400049 -0.031547256 -0.05998164 -0.04047536 0.013744432 -0.012474087 0.016172199 0.030992113
0.037925206 0.044278905 0.035550296 -0.040370874 0.035078343 0.061293364 -0.040773727 -0.005992592
-0.017222576 0.04569376 -0.014940628 -0.056362964 0.03523078 -0.031730004 -0.008921772 -0.02120166
0.022248358 0.023454854 -0.03400124 0.039201956 -0.025536116 -0.023289299 0.03205334 0.021122182
-0.029639848 0.020868924 0.05658574 -0.01741094 -0.021646408 0.05348378 0.026171234 0.04084021
0.017400386 0.026787871 -0.029950375 -0.0024278907 0.027855204 0.03514932 0.03227533 0.040824313
0.053323865 0.015321568 -0.04073799 0.06867509 0.06780304 0.01568924 0.0018909944 0.023308324
0.04355801 0.005558863 -0.0381222 0.01801914 0.039190304 0.006552125 0.0568689 -0.047294114
-0.0072528035 -0.028249798 0.01747277 -0.007571587 -0.02915771 0.014177344 -0.022694992 0.02345605

bias f4 [16]
00000000: 3d49 953d 944f 883d c143 b6bc 6250 ab3c
00000010: 9f03 22bd 06c4 07bd 571b 253d 22e4 303d
00000020: c2f8 fe3c b393 26bc 6177 8cbc e950 18bd
00000030: 37f4 24bd d42b 1fbd ab35 053d 2e5a c73c
0.0728936 0.06655803 -0.022249104 0.020912353 -0.039554235 -0.033145927 0.040309276 0.043186314
0.031124476 -0.01016705 -0.017146768 -0.037186537 -0.040271964 -0.038860157 0.032521885 0.024334993

weight f4 [8, 16, 3, 3]
00000000: cfa0 dfbb 3193 83ba 78ec 90bd 1ea3 933d
00000010: d3ec c8bd bb03 16bb 163b b0bd d876 3c3d
00000020: 0c65 80bc 2a97 cdba 448e 883d b545 70bd
00000030: e234 39bc a8e5 993c 607c 803b af90 b6bb
00000040: 0fa5 8abd 62e3 703d 66bb 61bd a2cc 8f3d
00000050: 6b25 7cbd 52d8 53bd 0c98 afbb bda2 8a3d
00000060: 02ff 31bd a296 eabc a2f0 2e3d 9735 54bc
00000070: b7fc 8b3d 213e 7bbd a7df 70bd fb42 98bd
00000080: ab1e ab3b 9aaa 5e3c 850e 84bd 5d3e 1bbd
00000090: 9b97 27bd 802c 173d eb7a ed3c c504 9e3d
000000a0: 72ba dabc 4898 05bc bdd0 9dbd 7641 e83c
000000b0: 704d 92bd ac0e 9d3d 7fbb dd3b 1d08 17bd
000000c0: 1678 25bc 870b 85ba fbfa a63d e7bf 9e3d
000000d0: 3cf3 7ebc 649a e9bc fea3 3ebd aa3d 8a3c
000000e0: 2acc 80bd 3436 3a3d fa8e 19bd 4e00 3bbd
000000f0: e0e0 573d 614a a53d f5a1 40bd 02bf 7a3d
00000100: 1dc7 fbbc a468 f53b e2f7 a5bb 5bfe a53d
00000110: 2892 a53d c9da 28bd b79e 26bd e821 a4bd
00000120: aaac 7abd 0cff 9dbd 9bd4 b83c f68b 82bc
00000130: c6d6 123b 736f 923d 5dad ce39 e914 b1bb
00000140: dc02 8f3d 20d0 8cbd 7fe8 40bd 7262 433d
00000150: f7a3 183d 0321 8aba 3c94 a3bc e0b9 3c3b
00000160: 6646 403d fa22 873d be7f cd3c 9954 30bd
00000170: 0640 74bc 964f 8d3d b321 f6bb bde6 4a3d
00000180: add4 9bbc c3e4 833d 7f66 f1bc 3ff3 30bc
00000190: f55b 303d 5a0f 973d ca95 3c39 9856 1fbb
000001a0: 2fe7 a83c f8cd 08bd 2bc8 993c d369 333d
000001b0: 0b67 83bc 75e2 c0bc 9c7c d7bc 5113 413d
000001c0: b8f5 7d3d 0093 c5bc 6fa4 39bd 7800 50bd
000001d0: 8764 0ebc 70c0 4a3d 51c2 01bd 5719 3f3d
000001e0: 2070 983d e9a9 62bd 08a7 77bd 99c1 7abd
000001f0: 801b 763d f05b 94bd dd77 723d 041a c1bc
00000200: 993d 6e3d 43c4 3d3b 3809 a93d a26e 85bc
00000210: 4f05 d33c ecef 1abd 8254 8cbc dd79 d13c
00000220: e4ad 423c f1e9 e73c b967 293c 14ec b3bc
00000230: 1b69 75bc b921 e43c c29b 083d e9b7 5f3d
00000240: f976 363d dc94 c2bd b773 c4bc 7aed 153c
00000250: ed47 aabd cb1d 9fbd 0123 463d ac65 a6bc
00000260: 4b16 99bd 8a4c 793d f062 85bc 279b 723d
00000270: e4f3 af3d 8352 96bb bb3c 053d 97a8 cb3d
00000280: d51b 123d 6d04 653c bd07 2abd 05e8 233d
00000290: 1502 99bc e6b2 9a3d 68ad 35bd a98c 163b
000002a0: d67e fa3c 6c6d 653d ea70 3bbd 6151 43bc
000002b0: 140d 32bc a3fd 743c 2fa1 d03c 2cc4 7cbd
000002c0: c348 b0bc f939 143d 48a9 a83d 3453 26bd
000002d0: 3ff6 37bd 73f5 9cbd 0ce2 26bd e264 033d
000002e0: c56b 39bd 5b50 9fbd f632 5dbd 73f0 8bbd
000002f0: 768e a73d 0df5 823d 63d1 39bd dc2a a53c
00000300: 70dd 5cbb fd08 ff3c afcc 7abd 9cdb 003d
00000310: bae5 f93c a8b5 09bd 678f 343d f105 e33d
00000320: 1469 a33d e98f e83d 0497 643d 25dc b43d
00000330: b9f4 e73c c7a5 553d 9f37 b03d 5cc5 81bd
00000340: c6e8 10bc 35e8 96bd ebdd 953d c7d9 2bbd
00000350: 7ac5 7b3d 7759 37bc d820 67bd 1b51 2f3d
00000360: b209 a33c b492 733b 6631 a0bd 5dca 103b
00000370: 6fb5 693d 3d73 9c3d ec6b 9dbb bc9a a8bd
00000380: feee 2f3d 2e4d 09bd a647 213d 279c 31bc
00000390: 644f 97bd 0a0e d33c 1caa a6bc dbe0 f93b
000003a0: add6 f4bc aae7 46bd 643e 1ebd 0fa2 a8bc
000003b0: 8e91 49bd a703 a1bd 4db3 0e3d 5cee 82bd
000003c0: 34a0 883d 3fbf 35bd 766a 3a3d 89b6 a03d
000003d0: 292e bfbc e8e2 93bd e3d9 15bd d60a 67bd
000003e0: ed7f 35ba 8b5b 4bbb e3db 9f3d 6b2c fc3b
000003f0: fe12 833d 6f34 87bd ce3e 0bbc 4f5e b43d
-0.00682459 -0.0010038373 -0.07076353 0.072088465 -0.09810796 -0.0022890407 -0.0860502 0.046011776
-0.015673183 -0.0015685309 0.0666776 -0.058660228 -0.011304112 0.018786266 0.0039210767 -0.005571447
-0.06769764 0.0588106 -0.055110358 0.070214525 -0.061559122 -0.05171997 -0.0053587016 0.06769321
-0.043456085 -0.02863628 0.042709954 -0.01295223 0.06835311 -0.061338548 -0.05880704 -0.074346505
0.0052221618 0.013590479 -0.06448082 -0.03790127 -0.040916067 0.036907673 0.028989276 0.077157535
-0.026700232 -0.008153982 -0.07705829 0.028351527 -0.07143676 0.07668814 0.006766736 -0.03687297
-0.0100994315 -0.001015053 0.081533395 0.07751446 -0.015560921 -0.028516002 -0.046543114 0.016875107
-0.06288941 0.04546185 -0.03748987 -0.045654587 0.052704692 0.08070827 -0.047029454 0.061217315
-0.030734593 0.007489281 -0.0050649503 0.08105155 0.08084518 -0.041224275 -0.040678706 -0.080142796
-0.06119982 -0.07714662 0.022562316 -0.01593588 0.0022405847 0.071501635 0.00039420548 -0.005404104
0.06982967 -0.06875634 -0.047096726 0.047701307 0.037265744 -0.0010538403 -0.019968145 0.0028797314
0.046942137 0.06598468 0.025085326 -0.04304943 -0.0149078425 0.068999454 -0.0075113415 0.049536455
-0.01902231 0.06440117 -0.02946782 -0.010800182 0.043056447 0.07375975 0.00017984878 -0.0024313089
0.02061805 -0.033399552 0.018772205 0.043802094 -0.016040346 -0.023545483 -0.026304536 0.047137562
0.062001914 -0.024117947 -0.04532283 -0.050781697 -0.00869096 0.04949993 -0.031679455 0.046655025
0.07443261 -0.05533782 -0.060462028 -0.061219785 0.06008482 -0.07244098 0.05919634 -0.023571976
0.058164213 0.0028956092 0.082537115 -0.016288105 0.025759367 -0.037826464 -0.01713014 0.025570804
0.011882279 0.028309794 0.010339671 -0.021963157 -0.014978672 0.027848111 0.033351667 0.05461875
0.044547055 -0.09501049 -0.023980958 0.009150857 -0.083145 -0.077693544 0.048373226 -0.020312153
-0.07474955 0.06086401 -0.016282529 0.059229996 0.0859144 -0.004587473 0.03252862 0.09944265
0.035671074 0.013978106 -0.041511286 0.040016193 -0.01867775 0.075536534 -0.044354826 0.0022972024
0.030578058 0.056012556 -0.04576198 -0.011921258 -0.010867376 0.01495305 0.025467483 -0.06171052
-0.02151907 0.0361881 0.08235413 -0.040606692 -0.044912573 -0.07664003 -0.04074292 0.03207863
-0.045268793 -0.077789985 -0.05400368 -0.068329714 0.08181469 0.06394396 -0.045365702 0.020162039
-0.0033701323 0.031132216 -0.061230358 0.031459436 0.03050505 -0.033620507 0.04408207 0.110851176
0.079790264 0.11355574 0.055808082 0.08831052 0.028314935 0.05216005 0.08604359 -0.063364714
-0.00884456 -0.07368509 0.07317718 -0.041955736 0.061467625 -0.011190764 -0.056427807 0.042801958
0.019902084 0.00371663 -0.07821922 0.0022093274 0.057057794 0.076391675 -0.004804125 -0.08232638
0.04295253 -0.03352087 0.03937497 -0.010840452 -0.073881894 0.02576353 -0.020344786 0.007625682
-0.029887522 -0.048560776 -0.03863372 -0.020585088 -0.049211077 -0.07862025 0.034838963 -0.0639312
0.06671181 -0.04437184 0.045511685 0.07847316 -0.02333744 -0.07221013 -0.036584746 -0.05640682
-0.00069236645 -0.0031029906 0.07805612 0.0076957247 0.06400107 -0.06601798 -0.0084988605 0.088070504

bias f4 [8]
00000000: c3b5 3fbc 72f6 0bbd 3bef 93bd a920 b43c
00000010: 7869 67bd 4493 9dbd 893b bc3d b1af d2bc
-0.01170105 -0.034170575 -0.07223364 0.02198823 -0.056497067 -0.07694104 0.09191043 -0.025718542

weight f4 [8, 16, 3, 3]
00000000: d22f f3bc bc04 713d 0f64 23bd 1651 42bd
00000010: 2ce3 19bd 13e9 81bc 8837 89bd 0fdd 4c3d
00000020: 361d 78bd 87e3 afbd 2789 1e3d ac86 513d
00000030: d0a7 b8bd 0676 4f3c bda0 96bd be7c 0d3d
00000040: e703 843c 5961 afbd 5bfb 403d 7675 463c
00000050: b69d 193c 7fe5 3dbd d87a 81bd 3fb6 5c3d
00000060: 3258 1e3d 7688 933d 6d2c dc3c eda6 9d3d
00000070: 2f9a bdbc 55d0 10bc 3f39 7bbd 2f2c 463d
00000080: 2bde 9f3c 71d9 d33c 5098 4cbd b23c 89bd
00000090: a8d2 99bd 9c4b 433d 9db6 233d 6886 84bd
000000a0: ec78 553c 6e8e 573d 21be 983d 014f a1ba
000000b0: 8501 27bd 3572 88bc ced0 083d 284a a2bc
000000c0: 977c a73d 9b33 aabd 50c6 9b3d 2eea e1bc
000000d0: 249d 9ebc e15c 193c 19b2 b33c 2948 82bd
000000e0: 6c34 88bd 3ba3 d5bc c917 81bd 7616 163b
000000f0: 490e 43bd d742 9f3d 0d66 743d bba0 9e3d
00000100: 1353 523b bc21 213c 3477 a23c 04f0 69bd
00000110: da38 193d ad22 4d3d f8e1 f83a 9eda 3c3d
00000120: e232 8bbd 93a6 35bd f5db ac3c 46cb 8fbd
00000130: 2807 a03c 9558 d43c f843 96bd eb75 96bd
00000140: c51d 9b3d 3c58 a9ba c2b3 423c b44c fd39
00000150: 7246 343d a42f 9b3c 5aaa 813d 026c 3b3d
00000160: d8ce 813d 47f0 41bd 4e9d f0bc 12b6 b63c
00000170: d26d 11bc e83e 9b3d 691c 2e3d 1f60 113d
00000180: 08d3 2ebb 2774 86bc 3bd3 97bb 05f1 2a3d
00000190: f461 06bd 2ca5 a6bc 4690 813d 216b ef3c
000001a0: 49e7 0c3d fc71 bcbc 956c 863c 335b 96bd
000001b0: d653 92bd 384c 833d 58e7 733d 69fe d83c
000001c0: 1d2e 853c 86f7 463c ab9e 9eb9 1b08 8e3c
000001d0: 9c88 9f3d a36b 0a3d ba26 87bd 6e07 1dbd
000001e0: 841b fc3c b4be 89bd 69e4 633c 12f7 463d
000001f0: 6b0c 7b3b 76dd 0ebc a0e0 883d 59c1 cbb7
00000200: b928 433d 7fcc 883c b022 75bd af58 98bd
00000210: 5036 193d 18b2 66bd 1686 163d c093 ccbb
00000220: 7603 623d de07 903d df3d 01bd 3bd7 12bd
00000230: a858 453c cf00 36bd fb0f e03c f30b 56ba
00000240: c9bb 4cbd 7e0d 96bd 7e3a 243d 2109 853c
00000250: 2023 b6bd 1a91 92bd 8952 19bd 97f2 af3c
00000260: f5c0 9a3c b1a0 06bd 8c14 c5bc 899d a93b
00000270: aa3b 12bd a7ec 8abc ddb4 1c3d fc2e 42bd
00000280: 88c8 81bd 94c0 a53d 1666 f73c 108f 963c
00000290: 6f05 3b3d 2b43 c4bc bba3 a43d e1a4 af3d
000002a0: 2181 333d ab89 11bd 6093 70bd caf9 0f3d
000002b0: c510 d7bc d6d7 6e3d 52b7 59bd 3709 30bd
000002c0: cec6 0dbd 7a28 f43b ca9c 8dbd e6d6 813d
000002d0: 4c24 8f3d b94a 78bd 679e 15bb 575c 8a3d
000002e0: 5cb5 d33c 2aa5 5d3d 32db c13d 01b6 7d3c
000002f0: 7c0f 47bd 79c1 c43d c961 813d f624 1e3d
00000300: 396d 6a3d 067b 55bd 66f0 d3bc e2b6 bd3d
00000310: 10c5 90bd 5192 72bd 125d 543d 61b2 6abd
00000320: 0146 21bc 0be4 633d 1631 66bb 0acc debc
00000330: 575b 7dbd 8305 fe3c 5c9a 163d 7da7 65bd
00000340: 2eae 023d 5f90 d43c e5eb 1d3d d433 793d
00000350: a88f b83d 5099 003d f359 4a3d d237 133d
00000360: f0b5 e9bc c2c2 5ebc e114 ae3d bc2a a83d
00000370: c554 9d3d a2fa 8e3a e36b 3cbd 3b8a 653d
00000380: cc18 41bc 6d67 7e3d 8393 4cbd 70ff 5cbd
00000390: 50b2 b33c 72db 1e3d 9d7f b93b ee1f 0dbc
000003a0: 1ffa 7b3c ccbf 173d 24c7 7a3d 6ed2 c2bc
000003b0: c4fc 5f3d bda0 a03d c39d ca3b 7625 963d
000003c0: 9128 9e3d 801a 6b3d 67a2 57bd 0285 8e3d
000003d0: ac31 8a3d a9fc 3fbd 0fac d53d 3ce2 db3d
000003e0: b869 ef3d 294f d7bc a026 683d 92c9 dc3d
000003f0: d22d 4ebd 59b6 b23c c7e8 62bd f316 0c3c
-0.029685888 0.058842406 -0.039890345 -0.04744061 -0.037570164 -0.015858209 -0.06700045 0.050015505
-0.060574733 -0.08588319 0.038705017 0.051153824 -0.09016383 0.012662416 -0.07354877 0.03454279
0.016115142 -0.085634895 0.04711471 0.012112966 0.00937598 -0.046361443 -0.06322259 0.05388474
0.03865833 0.07203762 0.026876653 0.07697854 -0.02314481 -0.008838733 -0.06133389 0.04838198
0.019515118 0.02586052 -0.049949944 -0.0670103 -0.075108826 0.04767953 0.039969075 -0.064709485
0.013029318 0.052626066 0.07458139 -0.001230687 -0.040772934 -0.01665602 0.033402257 -0.019810751
0.081780605 -0.08310624 0.076061845 -0.027577486 -0.01936204 0.009360523 0.02193551 -0.0636142
-0.06650624 -0.02607881 -0.06303365 0.0022901571 -0.047621045 0.077764206 0.059667636 0.07745501
0.0032092973 0.009834703 0.019832231 -0.057113662 0.037407734 0.050081898 0.0018988242 0.046106927
-0.067968145 -0.04434831 0.021100977 -0.07021193 0.019534662 0.025921145 -0.07337183 -0.0734671
0.075740375 -0.0012919973 0.011883678 0.0004831307 0.044012494 0.018943615 0.0633132 0.0457573
0.063382804 -0.047348287 -0.029371884 0.022303615 -0.008876281 0.07580358 0.042507563 0.03549206
-0.0026676077 -0.016412808 -0.004633335 0.04173376 -0.03280826 -0.020342432 0.06326346 0.029225888
0.03440026 -0.02300357 0.016409198 -0.073416136 -0.07144897 0.06411022 0.0595468 0.0264885
0.01625734 0.012143975 -0.00030254325 0.01733785 0.07789728 0.033794057 -0.065991834 -0.038337164
0.03077484 -0.06725827 0.013909438 0.04857547 0.0038306962 -0.008719793 0.06683469 -2.428952e-05
0.047646258 0.016699074 -0.059847534 -0.0743879 0.037405312 -0.056322187 0.036748968 -0.006243199
0.05517908 0.070327505 -0.031553145 -0.03584979 0.012045063 -0.044434365 0.02735137 -0.0008165233
-0.049983773 -0.07326792 0.040094845 0.016239705 -0.08893418 -0.07156582 -0.037432227 0.02147798
0.018890837 -0.03286809 -0.02405765 0.0051762504 -0.03570143 -0.016958548 0.038258422 -0.04740809
-0.063370764 0.08093372 0.030200046 0.018378764 0.04565948 -0.02395781 0.080390416 0.0857637
0.04382432 -0.03553168 -0.058734298 0.035150327 -0.026253114 0.058311306 -0.053153343 -0.042977538
-0.034613423 0.0074511142 -0.06914671 0.06339817 0.06989345 -0.060618136 -0.002283001 0.06755894
0.025843315 0.05411259 0.09465636 0.015485288 -0.04859875 0.096072145 0.06317479 0.038609467
0.05723307 -0.052119277 -0.025871467 0.09263398 -0.07068837 -0.05922157 0.05184657 -0.05729902
-0.00984335 0.0556374 -0.0035124472 -0.027196903 -0.061854687 0.031008488 0.036768302 -0.056067932
0.031904392 0.025947748 0.038555045 0.060840443 0.09011775 0.03139621 0.04940219 0.035941906
-0.028529137 -0.013596239 0.08500076 0.08211276 0.07682184 0.0010908435 -0.046001326 0.05604003
-0.011785697 0.062110353 -0.049945366 -0.05395454 0.021935612 0.038783498 0.0056609646 -0.00861357
0.015379458 0.037048146 0.06122507 -0.023781981 0.054684415 0.078431584 0.0061833574 0.07331364
0.07722581 0.05739832 -0.052645113 0.06958963 0.067477554 -0.046871815 0.10433208 0.1073651
0.11690086 -0.026282864 0.05667746 0.10780634 -0.050336666 0.021815466 -0.055397775 0.008550393

bias f4 [16]
00000000: d2d1 8f3d eb6a a0bc 2893 9f3d 5082 17bd
00000010: 732e 8c3d 1a12 e43d 3561 fcbb b7b7 e23d
00000020: f1d0 23bc adaa 7abd 65d4 683d 81e8 4f3a
00000030: 8e72 22bc af1a e5bc 5c13 e43d 48cc c2bc
0.07022442 -0.019582232 0.0779174 -0.03698951 0.06844797 0.11136265 -0.0077020177 0.11070197
-0.009998546 -0.061197925 0.05684318 0.0007931069 -0.009915007 -0.027966825 0.11136505 -0.02377905

weight f4 [16, 32, 3, 3]
00000000: 0e6e 76bd f0a1 bb3b ba4d a53c 2520 30bc
00000010: 52e3 70bd ce32 babc 25b9 edbc d98a 0ebd
00000020: 4b85 443d 8dcc bc3c 02f9 1a3d 2fdf c8bc
00000030: 6f5e a43b dc3e 2c3d 1595 083d b032 d73c
00000040: aadc 32bc 88d2 123d 614b 12bd 3ec4 b0bc
00000050: cab2 7b3c 5345 823c ecab d93c 4776 123d
00000060: 269d 65bc 9a16 64bd 76b3 97bd e587 563d
00000070: 6ea4 64bd b04a d8bc da17 453d 5810 5dbd
00000080: 5c09 2bbd 7017 5fbb c696 b23c 0686 83bb
00000090: 81a9 1b3d 579c f9bc e193 18bd 94a9 e6bc
000000a0: 4ace 2abc c16c 293b db32 75bd 8b4c 91bd
000000b0: c9c5 013d a2be 353d 7d9a 113d 77de 253d
000000c0: 74eb 7e3c 3037 bc37 f953 2dbd f635 d33b
000000d0: a48e 313d f359 353d c882 513d 752a 293d
000000e0: 0dbe 353c b60e f8bc c5bb 96bc bf9a a63b
000000f0: d792 183d 9209 3a3d d322 65bc 0ee7 83bc
00000100: 3ef7 8b3c 31c4 183c 919a 20bd 781f 11bb
00000110: 6218 43bd b74d 63bc 6e2b c7bc a6f6 d93c
00000120: d61a b23b 5592 0bbd 28b6 52bc 922f 19bd
00000130: 2558 d63c 2da4 12bd 27ed b1bc cb12 27bd
00000140: de5d afbc 0254 2a3d 9df3 4f3c 848d 4a3c
00000150: 0f4a 2b3d a638 803d 346f 683d 7cd7 883d
00000160: 2313 983d 8513 e53c a99b 2ebd 4b8a 3d3d
00000170: 10ae 123d 5d3b 9f3c e7a0 80bc 846a 1e3c
00000180: ab53 b2bc 146a 27bd f6fd 053d 8aa9 4f3d
00000190: 427d c73c def6 16bb 8ce7 9839 134e 9a3d
000001a0: a7ac 553d 331b 763d d6fd 32bb cc28 98bb
000001b0: 2038 853d 92f0 613d c604 aa3d a36c 4a3c
000001c0: cafd 3c3d 13e0 91bc 6ac0 9ebb f2f3 b63d
000001d0: af22 fe3a 5a65 3a3d 9614 4a3d c4c7 303d
000001e0: 1461 533d 6e5a eb3b d589 9c3c c8b7 2dbd
000001f0: e54f e93c cfd1 8e3c 07d8 94bc bb00 7abd
00000200: a71d 56bd 7d9e 98bc ac0a ef3b 4f92 d2bc
00000210: ca8a 31bd 2363 1dbd 9367 453d f649 093d
00000220: 920c 78bd fed7 893c f92a 1a3c 07cd 503d
00000230: 752f b2bc 90a0 66bd 6120 fb3a 6754 333d
00000240: 7ef3 15bd 40e2 85bd d94d 0cbd 50a3 cdbc
00000250: 3093 6fbc c105 96bc 3374 e33c 35bc 4b3c
00000260: 33d1 393d 1a98 a83d 3a99 683d fc46 913c
00000270: 7fe7 453d efa0 c73c a5e9 aa3d 73ba 073c
00000280: 1764 973d 6928 5c3d 3e37 c43d 211a 023d
00000290: 01c6 203d 211b ae3d 1dec 9e3d ae7b fb3c
000002a0: 6077 a13d a7fa cd3d c9d3 ab3d 89e0 0d3d
000002b0: d28e 073d 1082 48bc bcfe 793d 0333 043c
000002c0: 2249 203d 86d3 2d3d ae22 783b ec96 8b3c
000002d0: 5604 823c 7b2a 7dbb 0fda 8d3c 9518 07bd
000002e0: 5874 3b3c 7c55 5abd 7c14 9b3c 57a9 30bd
000002f0: 4862 583d 97e2 6ebd b938 90bd ce87 00bd
00000300: b286 fbbc 4e4c 16bd d524 11bc 58a6 b2bc
00000310: 55f7 243d da5d e23c fcfb 663d 45ed 50bd
00000320: bef8 24bd 8213 fdbb 6117 1c3d a236 4cbd
00000330: 88fb cc3c 5e37 433d 2d01 79bc fec9 0c3d
00000340: 8f42 a43d c8ae 933c 285c fd3c 8ec6 aebc
00000350: 7ca1 113c 5993 973c 9f3a ae3d 031a a43d
00000360: f296 c63d 3aff b93d 48a2 eb3b 4167 ca3d
00000370: 1640 4bba d527 dcbc 36a1 4cbc af44 cc3d
00000380: 0997 103c cf79 9f3d 76ca a43d 0867 2c3d
00000390: 7e73 c93d 1067 ed3d ebec 9cbb beeb 063d
000003a0: b73b fb3c 2fd4 55bc 29a6 8cbc 08e4 493d
000003b0: c32a 82bc e9bb a4bc 5789 38bd 99df 39bd
000003c0: c0fe 57bb aa12 f8bc 229f 8dbc 871d 5bbb
000003d0: 0a8d eb3c 6ce5 2d3d 8ebd b13d ac87 b4bc
000003e0: 7374 803a a310 9b3d d228 1e3d 3780 053c
000003f0: 21ab b9bc f672 573c 3ec7 673d 548f 64bb
-0.06016355 0.0057260916 0.020178664 -0.010749851 -0.05881054 -0.022729304 -0.029018948 -0.034800384
0.04797868 0.023046756 0.03783513 -0.024520485 0.00501614 0.042052135 0.0333453 0.026269287
-0.010916868 0.03584531 -0.03571642 -0.02157795 0.015362451 0.015902197 0.026571237 0.03575733
-0.014014518 -0.055685617 -0.07407276 0.052375693 -0.055820875 -0.026402801 0.04811845 -0.053970665
-0.041756973 -0.003404107 0.02180041 -0.0040137796 0.03800345 -0.030470056 -0.037250403 -0.028157033
-0.01042516 0.0025852176 -0.059862953 -0.070946775 0.031682763 0.044371255 0.035547722 0.040495362
0.015559066 2.2437045e-05 -0.04231641 0.0064456416 0.043348923 0.044275235 0.051150113 0.041300256
0.011092675 -0.030280452 -0.018400082 0.005084365 0.037249412 0.045419283 -0.0139853535 -0.016101386
0.017085668 0.009324119 -0.039209906 -0.0022144 -0.047630675 -0.013873509 -0.024312701 0.026606869
0.005435328 -0.0340751 -0.012860812 -0.037398882 0.026165077 -0.0358011 -0.021719528 -0.040789407
-0.021407064 0.041584022 0.012692359 0.0123628415 0.041818675 0.06260805 0.056746677 0.066817254
0.07425525 0.02796341 -0.042628918 0.046274465 0.03581053 0.019437486 -0.015701724 0.00966895
-0.021768412 -0.04087265 0.0327129 0.050698794 0.02435172 -0.0023035328 0.00029164215 0.07534423
0.052166607 0.060084533 -0.0027311943 -0.0046435352 0.065048456 0.055161066 0.08301692 0.012355003
0.04614047 -0.017807042 -0.004844715 0.089332476 0.0019388999 0.045506813 0.04933604 0.04315926
0.051606253 0.007182411 0.019108692 -0.042411596 0.02848048 0.017434029 -0.018169416 -0.061035853
-0.052274372 -0.01863026 0.0072949734 -0.025704531 -0.04334525 -0.038424622 0.04819448 0.0335178
-0.060558863 0.016826626 0.00940966 0.05097678 -0.021751145 -0.056305468 0.001915943 0.043781664
-0.036609165 -0.065372944 -0.03425393 -0.025102288 -0.014622495 -0.01831329 0.027765369 0.012435009
0.045365524 0.08232136 0.056786753 0.017734043 0.048316475 0.024368731 0.083453454 0.008284199
0.073921375 0.053749476 0.09580849 0.0317632 0.03925133 0.08501268 0.07759879 0.030698624
0.07884097 0.10057574 0.08390004 0.03463796 0.03309519 -0.012238041 0.06103395 0.008068803
0.039132245 0.042438053 0.0037862468 0.017039739 0.015871208 -0.0038630057 0.017315893 -0.032982428
0.011441313 -0.05330418 0.018930666 -0.043130245 0.052828103 -0.05832156 -0.07042069 -0.031379513
-0.030703876 -0.036693864 -0.008858879 -0.021807835 0.040274937 0.027632643 0.056392655 -0.051007528
-0.04027628 -0.007723273 0.038108233 -0.04985679 0.025022283 0.047660224 -0.015198034 0.034372322
0.080205075 0.018027678 0.030927733 -0.021334913 0.0088885985 0.018502878 0.08507275 0.08012774
0.09696759 0.09081884 0.0071909763 0.09882975 -0.0007753385 -0.026874462 -0.012489608 0.09974038
0.008825072 0.07786905 0.08046429 0.042090446 0.098364815 0.11591923 -0.004788985 0.032939665
0.030668123 -0.013051077 -0.017169075 0.049289733 -0.015889531 -0.020109134 -0.045052852 -0.045379255
-0.003295824 -0.030282337 -0.017287795 -0.0033434348 0.028753776 0.042455122 0.08678733 -0.02203735
0.000980033 0.075715326 0.038613148 0.008148245 -0.022664608 0.013149967 0.056586497 -0.003487547

bias f4 [32]
00000000: 5825 243b abc7 f73b d66d a43c fa02 493c
00000010: 2aec f5bc 8d2e 86bd 4bdb 03bd ba52 92bc
00000020: d635 953b 0f95 363c c8d5 383d 5529 b33d
00000030: 5cae a03d 028a 86bd 22ac 21bc 7c86 25bd
00000040: a2a4 30bd 4aed 783d b2d4 b23d b46f 2a3d
00000050: 337e 133d f9e4 05bd a938 483d f8bf 613d
00000060: 3cba 7c3d 0a3c 153d 78ad eb3b 965b 85bc
00000070: edb1 e43c 22af abbc fa69 733c 9cb8 b53d
0.0025046673 0.007561644 0.020071905 0.012268776 -0.030019838 -0.065518476 -0.032191556 -0.017861713
0.004553537 0.011143937 0.045125753 0.08748118 0.078457564 -0.06569292 -0.0098677 -0.040411457
-0.043125756 0.06077317 0.08731975 0.041610435 0.036009025 -0.03268907 0.04888216 0.055114716
0.061701044 0.03643421 0.00719231 -0.016279023 0.027916873 -0.020957533 0.01485681 0.08873102

weight f4 [32, 3, 3, 3]
00000000: 9fd8 0abe 04f9 c63b 0589 debd c7b7 3d3e
00000010: 8ba3 2d3e 63ba 03be f0a8 c9bc 1d32 edbc
00000020: 95c3 073e 7e5e 2c3e 7813 973d 8a78 0bbe
00000030: 8ef8 a9bc ff74 2e3a 9973 0cbd 7c62 47bd
00000040: 5ca5 bdbd 33ec 2d3e a601 f8bd ee9e 153e
00000050: 72e3 c83d aa2f cf3d 2500 02be 3864 8cbd
00000060: 2e42 833d 232c 14be 0dff 153e 4b36 153d
00000070: 991a 903c 24ad a13d d8f8 e93d ab94 dcbd
00000080: f993 163d c872 aebd dffd 09be 64f2 17be
00000090: d0ba 62bc 6d31 343d 99ef 31be 5bb6 e6bd
000000a0: 04dc 30be 84b3 223e 4dc5 c73d 0dc4 acbd
000000b0: ce07 f5bc d8f6 0b3d e0ba 16bd 2a2e 54be
000000c0: 6f33 903c 08d4 03be 04c2 51be e89b 21bc
000000d0: 713c e1bc 80bc 1c3d adf0 20be 696f f33d
000000e0: 30a2 30be eb3c cfbd cff9 053e 8e40 fcbd
000000f0: 6ada b3bc 93e6 2a3e 801b c7bc ec0a b53c
00000100: 31a6 c7bd 0602 0c3e 687f 14bd a879 47bd
00000110: 2c33 5e3d 977f 2c3e 436b 36bc dc06 c33c
00000120: aa6c d53d 414e 9f3d 8c8d 0c3e 6ad4 b13d
00000130: 1860 dc3c 5a5d 39bd b5f3 753d 1467 4c3e
00000140: d57d d2bd 21a4 383e b242 efbd da00 98bc
00000150: aa03 1f3e c738 bdbd 14e7 9d3b b2e8 96bb
00000160: 6661 a13d d04a 3a3d a6ca 503d b965 04be
00000170: 4cc5 153e 5c71 7f3c bcee 23be ca9e 363e
00000180: 13d0 563e 126e ca3d 47a4 f73d 4488 e13d
00000190: 8163 55bd faa0 1cbe 9392 8f3c 3f52 6c3d
000001a0: eae7 4ebd fcba 0abd d6d2 8cbc e12f 173d
000001b0: 64cb 36be 9a2f dbbd c05f 87bd ded7 38be
000001c0: dbfc 40be 313c 90bc cc58 d3bd a9be e3bc
000001d0: 615e e03c 50fb 383e f64d 16bc a971 f8bc
000001e0: a2b6 9a3d ef63 793d 7c2c 953c 7a52 173d
000001f0: 170a 14bc 7f4f a8bc 8d65 0e3d 30a6 063e
00000200: 5985 0e3e c0fc 90bd 6851 233e 1312 e53d
00000210: 557d dd3d 26b1 a03a e08b 3bbe 3f19 90bd
00000220: 480e 32be 8951 1a3e 63b4 92bc 15e9 f7bd
00000230: 7acd 0dbc d66e 393e 589a 7e3d abee 01be
00000240: f6be 413e 3109 c9bd 909a 333e 8d75 dd3d
00000250: c199 a83d c481 fd3d b0f4 f2bd 1404 443e
00000260: 6a16 f93d e52b 963c 1414 723d 889e 923d
00000270: 5ed3 643d 5831 0e3e a6a1 cabd 221d 083e
00000280: 7a0c 9a3d c097 873c 41a9 a8bd 265f 1d3e
00000290: 3b2c 8abd 7f49 603e c71c 413c 19ef 12be
000002a0: c846 cdbd c296 2c3c e6ba 1f3e 8810 b4bc
000002b0: 06d2 143e 2146 0bbe bff6 4abd d080 1e3e
000002c0: 24df fd3d 2ef0 143e 836b 51be e104 513d
000002d0: a752 f93d 9234 48be 5b73 fbbd 1ca7 abbd
000002e0: 8e80 1ebe 7360 aa3d c1d3 473d b560 45bd
000002f0: 28b8 50be 13c5 193e 6dd4 06be a20b 98bd
00000300: d2cf b2bd 7dbc 9b3d 6eb2 7a3d ffe8 59bd
00000310: f6a8 08be 963c 2f3e f96d 2e3e 2b7f 27be
00000320: 6063 2c3d fa21 ccbd b498 d6bd ae13 53bd
00000330: e2b8 12be e30c 133e 6e0c eb3d b199 023e
00000340: edb4 f33c 5ba3 04be 16be df3d dc8d f23d
00000350: 9532 963d b47a 19be f3b2 11bd 3142 24be
00000360: a90e 56bc 1326 053e c2df 17be 56e4 98bd
00000370: 41b2 2bbe 73b5 f93d db7d 7cbd ec7c b7bd
00000380: a32a fbbd 321e 253e ae7f 26bd 9b84 9a3d
00000390: 5669 ad3d 24d3 20be 06b5 e33d e6ab b4bc
000003a0: 314b 983c 7cc0 05bd 0346 08bd 91bf 41be
000003b0: a596 943d 0dc2 e3bd 1630 88bd df73 13be
000003c0: 7e4c b43d 1be9 563d 4e39 113d 08c3 2e3e
000003d0: a847 41be e2ac 8a3d cde4 3ebe b705 71bd
000003e0: 84e6 ce3d 11d0 2cbd c526 f83d d575 36be
000003f0: ff07 eebd 9f8a 8bbd bad1 003e 5cce 61be
-0.13559197 0.0060721654 -0.10865978 0.18527137 0.16956918 -0.1286407 -0.024616688 -0.02895456
0.13258202 0.16832921 0.0737676 -0.13620201 -0.020748403 0.0006655007 -0.03428993 -0.048677906
-0.092600554 0.16984634 -0.121096894 0.14611408 0.09809007 0.10116513 -0.12695368 -0.06855053
0.06409107 -0.14469962 0.14648075 0.03642873 0.017590808 0.07894352 0.11424416 -0.10770544
0.03676221 -0.085179865 -0.1347575 -0.14838558 -0.013838485 0.04399245 -0.17376556 -0.1126525
-0.1727143 0.15888792 0.09754429 -0.08435831 -0.029910948 0.034170955 -0.03679931 -0.20720735
0.01760265 -0.12873852 -0.20484167 -0.009863831 -0.027494641 0.038265705 -0.1571681 0.11886484
-0.1724937 -0.10119041 0.13083576 -0.12317 -0.021954734 0.1668952 -0.024305105 0.022099935
-0.09748495 0.13672647 -0.036254317 -0.048700005 0.05424802 0.16845547 -0.011133972 0.023806982
0.10421117 0.077785976 0.13725871 0.08683093 0.02690129 -0.045255043 0.06004687 0.19961196
-0.10277907 0.1803136 -0.11682643 -0.018555094 0.15528741 -0.09239345 0.0048188064 -0.004605376
0.078799054 0.045481503 0.05097451 -0.12929429 0.14626044 0.015590992 -0.16009039 0.1783401
0.20977812 0.098842755 0.1209188 0.11012319 -0.052096847 -0.15295783 0.017525947 0.057695623
-0.05051414 -0.03386973 -0.017190378 0.036910895 -0.17851025 -0.10702439 -0.0661006 -0.18051097
-0.18846457 -0.017606826 -0.10319671 -0.027800875 0.027388753 0.18064618 -0.009173861 -0.030327635
0.07554366 0.06088632 0.018209688 0.03694389 -0.009035609 -0.02054572 0.034764815 0.13149333
0.13918056 -0.07079458 0.15949023 0.11185088 0.10814921 0.0012259826 -0.18315077 -0.07036065
-0.1738826 0.15070166 -0.01790828 -0.12105004 -0.008654946 0.18108687 0.062158912 -0.12688701
0.18920502 -0.09816206 0.1753943 0.10813437 0.08232451 0.123782665 -0.11863077 0.1914218
0.12162478 0.018331477 0.05910118 0.07159144 0.055865638 0.1388601 -0.09894113 0.13292363
0.07521911 0.016551852 -0.082354076 0.15368327 -0.067467175 0.21903037 0.011786646 -0.14349021
-0.10023266 0.01053399 0.1559864 -0.021980539 0.14533243 -0.13600971 -0.04955172 0.15478826
0.12396076 0.14544746 -0.20451169 0.051030044 0.12173968 -0.19551304 -0.12277862 -0.08381483
-0.15478727 0.083191775 0.04878593 -0.04818793 -0.2038275 0.15016584 -0.13166972 -0.07424094
-0.08731045 0.07604311 0.06120532 -0.053200718 -0.13345703 0.17112955 0.17034139 -0.16357104
0.04208696 -0.09967418 -0.104783446 -0.05153244 -0.1432834 0.14360385 0.1147698 0.12753941
0.029749358 -0.1295294 0.10924928 0.11843464 0.073338665 -0.14988214 -0.03557105 -0.16040875
-0.013065019 0.13002805 -0.1483145 -0.074654266 -0.16767217 0.12192812 -0.061643463 -0.08959374
-0.12263992 0.161248 -0.04064911 0.07544824 0.08467357 -0.15705544 0.11118512 -0.022054624
0.018590542 -0.03265427 -0.033269893 -0.18920733 0.07255296 -0.111209966 -0.06649797 -0.1439967
0.08803652 0.0524684 0.03545504 0.17066586 -0.18874991 0.06771256 -0.18641968 -0.05884334
0.10102561 -0.042190615 0.1211677 -0.17818387 -0.11622619 -0.06813549 0.12580004 -0.22051376

bias f4 [3]
00000000: f1bf b8bd 636b 54bc 3160 1e3e
-0.09020985 -0.012965056 0.15466382
