inpatinign diagrams/best_unet_with_denois_1500.pth (torch, 684578 bytes, 12 tensors)

weight f4 [32, 3, 3, 3]
000000 d7 af 6f bd bc 54 f9 3d 3c fb ec bd d1 24 81 3d
       -0.058517303 0.12174365 -0.11571357 0.0630585
000010 27 f3 22 3e f1 f6 d2 bd 28 b3 1d be 3e 9b 96 3d
       0.15913068 -0.103010066 -0.15400374 0.07353829
000020 55 4f 67 3d 92 b8 92 bc 1f 62 c4 3c f1 c7 28 be
       0.05647214 -0.017910276 0.023972569 -0.16482522
000030 7a 28 1f be 89 76 37 3e 33 32 02 3e 17 6f cd 3c
       -0.15542784 0.17916311 0.12714462 0.025077386
000040 bb 0f d3 3c 08 46 64 3d 06 42 78 bd a1 ae 27 be
       0.025764337 0.05573085 -0.06060984 -0.1637521
000050 ba 59 14 3d 31 54 a2 bd d1 c5 a9 3d b4 23 06 3e
       0.036218382 -0.079262145 0.082896836 0.13099557
000060 d5 1a d3 bd 46 fe 3b 3e c2 d6 fa 3c 1e 3b 9d 3d
       -0.10307852 0.18358716 0.030619983 0.07677291
000070 69 ca 80 3c 2b 6f 26 3c 61 47 aa 3d 4c 68 1d be
       0.015721517 0.01015834 0.08314396 -0.15371817
000080 62 51 16 bd f6 e8 a6 bd 95 09 f7 3d fe e4 ad 3d
       -0.036698706 -0.081499025 0.120623745 0.084909424
000090 80 58 0f be ee 2a 13 be 39 f1 46 3e d0 b3 e6 3d
       -0.13998604 -0.14371845 0.19427957 0.11264765
0000a0 b4 48 f9 39 8c 39 d8 bd 15 42 f6 bd e1 03 1f 3d
       0.0004754715 -0.10557851 -0.12024323 0.03882206
0000b0 cc 86 20 be b8 e6 46 3e 8c e5 35 be 25 69 20 be
       -0.15676421 0.1942395 -0.17763346 -0.1566511
0000c0 c7 3c f1 bd 8c ee ad bd 7d 24 fe bd 2e 97 22 3d
       -0.117791705 -0.08492765 -0.12409303 0.039694957
0000d0 c1 c0 13 3e 6b 4d c5 bd c2 37 d3 bd 83 21 87 bd
       0.14428999 -0.09633907 -0.10313369 -0.06598189
0000e0 ea 13 34 3e 94 84 dc bd d5 e4 15 3d 65 03 80 bd
       0.17585722 -0.10767475 0.036595184 -0.062506475
0000f0 8a e9 0d 3d c4 32 43 3e 6e 33 ad bc a4 23 d3 3c
       0.03464655 0.19062334 -0.021142688 0.02577383
000100 14 04 82 bb 33 0e 02 3e 78 3e 9a 3d b4 33 60 3d
       -0.0039677713 0.12700729 0.07531446 0.054736808
000110 5b ed 31 3e b2 ae 7b 3d 36 88 25 bc 60 fc 9d bd
       0.173757 0.0614459 -0.010103276 -0.07714152
000120 e3 88 1b bd e6 d9 83 3d 79 ec 1d be 40 5f 22 3e
       -0.037972342 0.06438045 -0.15422238 0.15856647
000130 66 0e 1b 3c 4c cb a2 3d 85 42 a8 bd 83 a3 f3 bd
       0.009463882 0.07948932 -0.082158126 -0.11896422
000140 20 77 98 bd 1a 48 e2 bd d4 e1 c2 bd e8 72 2f be
       -0.07444596 -0.110489085 -0.095157295 -0.17133677
000150 fe ee be bd f2 37 ba bd b3 9e 28 3e 71 57 3e 3d
       -0.09322928 -0.09092702 0.16466789 0.04647011
000160 d3 e9 40 be 6d 9c 17 be 7b d6 09 be 67 2f 4d 3d
       -0.18839197 -0.14805765 -0.13460724 0.050094035
000170 74 84 d0 3d 96 b6 c2 3d 7b 62 a9 3d 40 bb 0b 3d
       0.101815134 0.09507482 0.08270737 0.034114122
000180 57 e4 2d be ec 04 8a 3d 62 54 43 3e b9 2b 45 bd
       -0.16981636 0.0673922 0.19075158 -0.0481374
000190 2a 17 c4 bd b6 0a 37 3e 5a 03 4a 3d a3 14 44 3e
       -0.09574731 0.1787518 0.049319603 0.19148497
0001a0 26 1d 0a 3e d6 a4 f4 bd e6 7a 3e be b3 f7 dc 3d
       0.13487682 -0.119455025 -0.1860157 0.107894324
0001b0 c3 4b 81 3d 77 1a ab 3d 64 5d 82 bd 50 f0 85 bd
       0.063132785 0.08354657 -0.06365469 -0.065399766
0001c0 ce c9 27 3e 87 ff 18 bd d6 b9 f7 bb 6e 56 0f be
       0.16385576 -0.037353065 -0.007559995 -0.13997814
0001d0 e6 7b 0c 3d fa 56 1f 3c 0b c7 d8 3d a3 a3 c6 3d
       0.034297846 0.009725327 0.105848394 0.0969918
0001e0 33 31 31 3e e9 5b 0d 3e 49 1d 2a 3e e1 ba 07 be
       0.17303924 0.13804592 0.16612734 -0.13254882
0001f0 2a 26 2a be 50 32 66 3b c9 a4 60 bc 5d 9b b4 3d
       -0.16616121 0.0035125203 -0.013711163 0.08818696
000200 a0 8d 29 be 25 eb 8a bd dc 84 ea bb 16 96 ff bd
       -0.16557932 -0.067831315 -0.0071569514 -0.124797985
000210 8c f5 62 3c 52 bb b1 3d 5b 19 41 3e 97 8d 2d be
       0.013852488 0.08678307 0.18857329 -0.16948543
000220 5d b1 2c be 1d 40 05 3e 5e 68 04 3e 17 3f 89 bd
       -0.16864534 0.13012739 0.12930438 -0.067014866
000230 a4 aa 77 bd be 1e ce 3d c6 da da bd c9 1f 16 3e
       -0.06046547 0.10064457 -0.10686259 0.14660563
000240 57 fa 0a be 2f ab 94 bb dc f2 80 3d 94 fe 32 be
       -0.1357206 -0.0045370082 0.06296322 -0.17479926
000250 8e f8 56 bc 69 96 29 3c 47 c7 0f 3e 0f cc a2 3d
       -0.0131207835 0.010350802 0.14040862 0.07949077
000260 84 21 e6 3d fe 02 c4 bd ac 93 15 be 10 fe 6f bd
       0.11236861 -0.09570883 -0.14607114 -0.058591902
000270 fb ab 90 bd 97 ca 82 bd 9f a1 fd 3d e0 38 02 3e
       -0.07064053 -0.06386297 0.123843424 0.12717009
000280 0f 5f 77 bc 4f f6 c3 bd f7 11 c7 bc cf 33 d9 3b
       -0.015098347 -0.09568464 -0.024300558 0.0066284905
000290 38 31 93 bd ce 8b ef bd 02 9a 10 3d f8 56 fe 3b
       -0.07187122 -0.116965875 0.035303123 0.0077618323
0002a0 6b d8 cb bd 73 23 ff bd 67 3a 8f bd cb 11 18 3e
       -0.09953388 -0.12457933 -0.06993561 0.14850537
0002b0 3a b9 2e 3e 03 49 36 3e b3 52 bc bd 59 c1 2b be
       0.17062846 0.1780129 -0.09195461 -0.16772975
0002c0 23 0a dc 3d 00 8b e7 3d 47 11 f3 3d cb df 3c be
       0.10744121 0.11305809 0.1186853 -0.18444745
0002d0 7d 6e ee 3d 13 ff 24 3e 8f 6e 06 3e d9 94 14 bd
       0.11642168 0.16112928 0.13128112 -0.036274765
0002e0 a9 9d 52 bc 4c 56 2a 3e 81 f0 3d 3e 87 a3 52 3d
       -0.012854972 0.16634482 0.18548776 0.051425483
0002f0 1e 65 c0 bc 14 91 ff bd 9b 5f e1 3b bd 2e ae 3d
       -0.023485716 -0.12478843 0.006877852 0.08505008
000300 a4 77 38 3e e3 c6 21 3e 6e b7 26 3e cc 85 0a 3e
       0.1801439 0.15798526 0.1628091 0.13527602
000310 ab 55 8a bd ce bf c9 3d bb 6c 81 bd 96 8d 35 3d
       -0.06754621 0.09851037 -0.06319567 0.04432448
000320 e1 cf 68 3d 75 2d 2a 3e 25 56 c4 3a 3b 24 d1 bd
       0.056838874 0.16618903 0.0014979286 -0.102119885
000330 f5 00 df 3d d3 d7 c1 bd 98 f2 7d bc d3 d0 18 3e
       0.108888544 -0.09464993 -0.015499733 0.1492341
000340 6a a7 37 3e 12 95 3a 3d 46 58 af 3d 91 af 21 be
       0.17934957 0.04555232 0.08561759 -0.1578963
000350 05 04 31 3e d9 ba 2c 3e 1f 09 03 be 31 c7 24 3e
       0.1728669 0.16868152 -0.12796448 0.1609161
000360 51 93 1a 3e 35 17 fc bc 07 2a b5 bd 85 f2 f1 bc
       0.15095259 -0.030772785 -0.08845907 -0.029534588
000370 fd d0 9a bd df 24 94 bd 09 58 83 3d ed 82 31 3e
       -0.075593926 -0.07233595 0.06413276 0.173351
000380 b9 2e 15 bd 31 ef ce bd f0 62 18 bd 6d b4 08 be
       -0.03642151 -0.10104216 -0.03720373 -0.13350077
000390 f7 2c 17 be b0 cf 68 3d 04 e5 1a 3d 7c 8c 15 3e
       -0.14763246 0.05683869 0.037816063 0.14604372
0003a0 5a e8 db bd e2 54 e7 3d 1e fb b9 3d 49 62 18 3d
       -0.10737677 0.11295487 0.090811 0.037203107
0003b0 14 8e 2d 3e 64 4a 22 3d 00 ca 2d be 18 9d 01 3d
       0.1694873 0.039621726 -0.16971588 0.031643957
0003c0 be f6 22 be 5b e8 4d 3e 36 38 ab bd 0f 70 4f bd
       -0.15914437 0.20108168 -0.08360331 -0.050643977
0003d0 43 71 36 be cf a9 10 be e0 50 5e bd 33 62 cf 3d
       -0.17816643 -0.14127277 -0.054276347 0.10126152
0003e0 8d b1 1e 3d bc b3 ee 3d 23 8f 8e 3d 60 1d 3f be
       0.038743544 0.11655375 0.06960895 -0.1866355
0003f0 72 f2 db 3b 4b 32 87 bd a6 c6 3d 3e 70 51 aa 3c
       0.0067122513 -0.066013895 0.1853281 0.020790786

bias f4 [32]
000000 43 0e a4 bd 22 e8 30 3e 08 7a 17 be 23 2c 1c 3e
       -0.08010533 0.17276052 -0.14792645 0.15251212
000010 44 fc 48 3d bc 70 f6 3d 74 fe 44 3d 3e c7 e8 3d
       0.049068704 0.12033221 0.048094228 0.113661274
000020 ef 5c 1b 3d 5c de 96 3d 9e 28 25 3e ef 3f 03 be
       0.037930425 0.073666304 0.16128775 -0.12817357
000030 ed 4b d8 bd 0c 87 45 bd e7 12 cc bc ce 1d a3 3d
       -0.10561357 -0.048224494 -0.024911357 0.07964669
000040 ef 51 44 bd 8c c5 94 bd 75 29 ff bd bb 43 f4 bd
       -0.0479297 -0.072642416 -0.12459079 -0.11926981
000050 86 10 b1 3c 26 b6 28 3e aa b4 0e 3d 89 a9 fe 3d
       0.021614324 0.16475734 0.034840263 0.1243468
000060 7b a0 12 3d 5e 2b b7 3d 85 94 cd 3d 24 59 eb bd
       0.035797577 0.089438185 0.100380935 -0.114916116
000070 b4 0d 15 3e 06 c3 1c be bd db 2f be 1d c4 9d bd
       0.14556009 -0.1530877 -0.17173667 -0.07703421

weight f4 [32, 3, 3, 3]
000000 67 90 10 be 4f 54 0d 3e df 82 c3 bc aa 5a 8a bc
       -0.14117585 0.13801692 -0.023866115 -0.016888935
000010 19 02 18 be 40 34 3a 3e b4 85 f4 3d 47 22 0c 3e
       -0.1484455 0.18183994 0.11939564 0.13684951
000020 92 5a 99 3d 99 14 b7 3d 7b 82 71 3d 77 1a 31 3e
       0.07487978 0.089394756 0.058962326 0.17295252
000030 87 45 3c be 5b b9 f9 bd dd 95 08 3e f0 2c 9f 3c
       -0.18385898 -0.12193557 0.13338418 0.019430608
000040 79 eb 91 bd 5f 5b 26 be 5a 40 07 bd d7 ce 9d 3d
       -0.07124991 -0.16245793 -0.033020355 0.07705467
000050 e8 73 11 be b1 3a 9b 3d c3 2e 01 be bd f4 16 be
       -0.14204371 0.07579554 -0.12615494 -0.14741798
000060 70 8e 0e 3e ec ea 02 bd fb c8 92 3d 7f 00 7e bd
       0.13921523 -0.03196232 0.0716724 -0.06201219
000070 4b 84 2a 3d 1c e8 27 3c a3 fb dc bd 46 d9 0d 3e
       0.04163007 0.01024821 -0.107901834 0.13852414
000080 f8 73 51 3e bd c4 1a be e9 ad b0 3d 2f 0d a5 3d
       0.20454395 -0.15114112 0.08626921 0.08059155
000090 6b b7 bf bd 1b 70 f3 3c 6f 6d 33 3c 9a 15 90 bd
       -0.09361156 0.029716542 0.010951384 -0.0703537
0000a0 cd 9f 41 3c ab 0e 1c be a4 fe b0 bd f6 57 a7 bd
       0.011817885 -0.1523997 -0.08642319 -0.08171074
0000b0 91 bc 8f bd 7c ad 17 bc 2c 5f d7 3d c4 7b 3e 3e
       -0.07018388 -0.0092576705 0.105161995 0.186019
0000c0 8d 17 10 be 46 b0 01 3b 72 8b 49 3e f6 16 40 be
       -0.14071484 0.0019788905 0.196821 -0.18758759
0000d0 9c 62 0c 3e 12 54 f8 bd c7 20 0e 3e d9 e5 1c be
       0.13709491 -0.1212541 0.13879691 -0.15322055
0000e0 bf f9 3d 3e e3 54 bd 3d 32 16 01 3e 06 9a 35 be
       0.18552302 0.092447065 0.12606123 -0.17734537
0000f0 ca 1d 67 bd 59 62 41 3e 0d 20 1f be 1a 66 ae 3d
       -0.056424893 0.18885173 -0.1553957 0.08515568
000100 10 cc b6 bd 14 99 0f 3e 06 84 b4 3c 3a 62 fb bd
       -0.089256406 0.14023238 0.02203561 -0.122745946
000110 aa 74 96 3d cf 90 04 3e 61 34 22 3e 75 8a 1e be
       0.07346471 0.12945865 0.15840293 -0.15482505
000120 0b c6 a5 bd 4a b1 f6 bd c9 45 01 be fd 41 28 3e
       -0.08094414 -0.12045534 -0.12624277 0.16431423
000130 24 ae 44 be 25 3c 8f bd 66 0a 87 3d a4 2e 30 3e
       -0.19207054 -0.069938935 0.0659378 0.17205292
000140 59 1b 03 be de 9f 53 3d cb b2 37 be 9a e9 0c 3e
       -0.12803401 0.051666133 -0.17939298 0.13760987
000150 90 1e 09 bd 5e 58 41 3d 47 81 09 3e 13 c4 24 3b
       -0.033476412 0.047203414 0.13428222 0.0025141283
000160 62 fe ea bd 69 fd 0f 3d 66 a0 a8 3d 9a 71 f8 3d
       -0.11474301 0.03515378 0.082337186 0.12131043
000170 f6 1b d6 3d 1c 47 f0 3d 16 3d 84 bd 95 03 29 be
       0.10454552 0.11732313 -0.06456964 -0.16505273
000180 a1 c1 8b 3d 8f 32 e0 3c 24 24 98 3d ea d9 f2 3d
       0.06824041 0.027367858 0.07428768 0.1185797
000190 18 16 da bd 2d 6e 7d 3c c7 5f 1d 3d 66 df 9e 3d
       -0.10648745 0.0154681625 0.03842142 0.077574536
0001a0 00 55 bb bc 1d 08 ac bd bd 04 30 bc f4 c6 4e bd
       -0.02286768 -0.08399985 -0.010743317 -0.050482705
0001b0 2a 4f 39 3e 82 75 28 be 51 02 91 bd 09 ad e2 bd
       0.18096605 -0.16451076 -0.0708052 -0.1106816
0001c0 bd 14 d2 bd b1 ba 22 3e 4c df 39 be dd 8d 8c 3d
       -0.10257862 0.1589153 -0.18151587 0.06862996
0001d0 0d 45 09 3e ef 5a 93 3d 5b 51 68 bc 5a 5a 16 be
       0.13405247 0.071950786 -0.014179553 -0.14682904
0001e0 bb 23 95 bd 95 8e 28 be c3 e4 22 be 46 83 38 bd
       -0.07282206 -0.1646064 -0.15907578 -0.045047067
0001f0 08 11 c2 bc 79 6d 45 bc 48 1a c6 bc 7a 06 a0 3d
       -0.023689762 -0.012050026 -0.024182454 0.07813735
000200 9c d4 11 3e 19 fd d9 bd ae fb dc 3d 17 9e 3a be
       0.1424126 -0.10643978 0.107901916 -0.18224369
000210 7a 1e cc bd 10 20 0e 3e 93 97 34 be 85 49 0f 3e
       -0.099667504 0.13879418 -0.17635946 0.13992889
000220 eb 0b a1 3d 63 be ac bd 6d b0 a2 bd b6 78 b6 3d
       0.07863601 -0.08434751 -0.07943807 0.089097425
000230 01 36 c7 bd 45 bf 6f bd 6f 0d 40 3e 4d 38 03 3e
       -0.09727097 -0.05853202 0.18755125 0.12814446
000240 5b 0b 03 3e 5e aa 37 3e 41 b8 22 be 1a 2b f0 ba
       0.127973 0.17936084 -0.158906 -0.0018323392
000250 e9 3a 3f bd 0f c3 4b 3d 91 0e ae bb 23 bb 17 be
       -0.04668704 0.04974657 -0.005311795 -0.1481748
000260 f1 6b 0b be 89 2a f9 3d ed 53 07 3e 09 3f 2c be
       -0.13615395 0.12166316 0.13215609 -0.16820921
000270 06 28 fb bd f0 ef b9 bc db ae e3 3d 0a d1 8b 3d
       -0.12263493 -0.022697419 0.111173354 0.068269804
000280 d9 9c 31 3e 8c f0 d6 3d 73 b1 0d be 89 13 00 bd
       0.17344989 0.104950994 -0.13837223 -0.03126863
000290 5b eb 1d be 1c 8f ff bc 78 73 3d 3e ac 01 12 be
       -0.15421812 -0.03119617 0.18501079 -0.1425845
0002a0 e0 29 42 3e ee 9d b2 3d 5a 64 7a 3d c4 1c d2 bd
       0.18961287 0.08721529 0.06113086 -0.10259393
0002b0 c8 d2 8b 3d 17 8b f0 3d f7 6a 06 3e 25 86 f2 bd
       0.06827313 0.11745279 0.13126741 -0.11841992
0002c0 fb 9f e0 bd d8 66 94 bd b4 35 19 3e d8 df dc bd
       -0.10968014 -0.072461784 0.14961892 -0.10784882
0002d0 76 8d 33 3e 2f f9 3c bd d0 4a dc bd d2 a2 a9 bb
       0.17534432 -0.046136077 -0.10756457 -0.0051768804
0002e0 3c e4 13 be 5d 61 98 3d 4d 61 05 be 28 64 0c 3e
       -0.14442533 0.074404456 -0.13025399 0.13710082
0002f0 3d 58 e2 3d a5 44 1b 3e bb 88 63 3d ab 4e 8f bd
       0.11051986 0.15162905 0.05555032 -0.069974266
000300 f8 4e 42 3e 7d 5f 91 3b eb 0e 0d 3e 56 6a 1d be
       0.18975437 0.004436432 0.13775222 -0.15372595
000310 0b f5 a2 bd d9 22 3f bd f1 3a 03 be 45 0b 06 be
       -0.079568945 -0.046664093 -0.12815453 -0.13090236
000320 08 21 83 3d 4e f5 2e be 2d e6 92 bd 4b 7b b2 3d
       0.064027846 -0.17085764 -0.07172809 0.087149225
000330 2f 70 8b 3d 58 b4 eb 3d 2c cd d7 bb 86 bd 9f bd
       0.06808507 0.11509007 -0.0065857377 -0.077998206
000340 65 a4 38 3e 0c e8 82 bc a8 8f 34 be 52 eb 0e 3e
       0.18031462 -0.01597979 -0.17632926 0.13956955
000350 db a9 83 3a 63 69 d6 ba 67 97 1d 3d 7c 88 c5 3c
       0.0010045128 -0.0016358312 0.038474467 0.024112932
000360 a1 03 1b be 40 86 2b be 4d fd dc bd 41 95 3c be
       -0.15138103 -0.16750431 -0.10790501 -0.18416311
000370 60 d9 ea bc b0 2e 68 3d b6 59 c3 3c 18 4d 9f bd
       -0.028668106 0.05668515 0.023846488 -0.07778376
000380 3a a9 7e 3d 37 21 39 bd 54 29 a9 3d 12 ef 01 3e
       0.062173106 -0.04519769 0.08259836 0.12688854
000390 6e 17 9e bd e6 17 66 3d 08 2b b2 bb 40 ad 20 3b
       -0.077193126 0.056175135 -0.0054372586 0.0024517328
0003a0 ed 03 2d 3e 46 57 ab bb 4c 68 96 3d a3 77 0b 3e
       0.16896029 -0.0052289097 0.07344112 0.13619857
0003b0 9e aa ae 3d 6e 97 17 b8 a6 19 16 3e 8a 09 8f 3c
       0.085286364 -3.6142235e-05 0.14658222 0.017460603
0003c0 7b f9 4c bd 05 10 3e be f9 8a c7 bd 5f fb 11 3e
       -0.05004261 -0.18560798 -0.09743304 0.14256047
0003d0 74 ba 9b bd 7f c1 6b bd 5a 7a ca bd d1 c1 af 3d
       -0.076039225 -0.05755758 -0.09886618 0.085818894
0003e0 e4 4c 01 bc 24 a5 2f be 4c 69 36 bc 2a 2a 30 bd
       -0.007891867 -0.1715284 -0.011133503 -0.04300896
0003f0 79 dc 91 3d 75 66 d9 3d f6 2a dc bd a0 ef 42 3b
       0.0712213 0.10615245 -0.10750382 0.0029744878

bias f4 [32]
000000 ba 84 17 3e 49 d7 f7 bd 3a 34 99 bd 5a 5b 67 bb
       0.14796725 -0.12101609 -0.074806646 -0.0035302253
000010 c6 74 1a 3e 7b 2e a3 3d 7d 31 ac bd ba 7d 9e bd
       0.15083608 0.0796785 -0.08407877 -0.07738824
000020 61 29 8a ba f3 96 fa bd bc 6e 32 3e fb f6 cd 3c
       -0.0010540896 -0.122358225 0.17425054 0.025142184
000030 93 43 7a 3d 2b 85 18 3e b7 13 de 3d 0b 55 3c bd
       0.0610996 0.1489455 0.10843604 -0.04597954
000040 41 9d 15 be 08 50 d1 bd 7a 83 8b bd 53 5c 9b bc
       -0.14610769 -0.10220343 -0.068121865 -0.018964922
000050 e6 dd ad 3d b6 e7 30 3e 2b 8f fc bd e9 38 11 3e
       0.084895894 0.1727589 -0.123319946 0.14181866
000060 c5 17 ae 3d 2b 14 54 3d 5a f2 31 3d 83 d1 f6 bd
       0.085006274 0.051777046 0.043444015 -0.1205168
000070 7c 2d 6d bd 40 49 a4 bd e7 7e 0b be d5 8c 89 3d
       -0.057904705 -0.08021784 -0.13622628 0.06716315

weight f4 [128, 64, 3, 3]
000000 95 20 a8 3c 61 67 e8 3c 42 15 1f bd 70 4b 5d 3d
       0.020523349 0.028369607 -0.038838632 0.05402702
000010 3c d7 bd bc 98 14 01 3c 32 f8 b8 bc 0f 9e 13 bd
       -0.02317392 0.007878445 -0.022579286 -0.03603941
000020 bf 55 b2 3c 56 2d 5b bb 41 be 2a bd 8e 57 ab bb
       0.021769403 -0.003344377 -0.041685347 -0.005228943
000030 ed 84 cd 3c 4a 15 3e bd 34 c2 09 bd 95 37 c1 bc
       0.025087798 -0.04640702 -0.033632472 -0.023586074
000040 dd 55 8c bc 33 fc 05 bd 77 8b 04 bd 84 df f9 bc
       -0.017130787 -0.03271122 -0.032359567 -0.030502088
000050 bf 01 32 bc 00 40 06 bd 8c fc f8 bc 1f 55 b4 bb
       -0.010864674 -0.03277588 -0.030393861 -0.0055033113
000060 bc 85 50 3a 61 cb 78 3c 01 48 3a bb 05 02 d7 3c
       0.0007954498 0.015185208 -0.0028424265 0.02624608
000070 ee 5a 0d bd 82 10 0c bd 8d e1 dd 3c 50 b7 11 3d
       -0.034510545 -0.03419543 0.02708509 0.03557521
000080 13 18 04 bc c4 bc c0 bb 25 47 16 39 f1 60 40 bc
       -0.00806238 -0.0058818776 0.00014331618 -0.011741863
000090 d7 0b 00 bd 74 c2 fb bb 22 ea a1 3c 9b b7 a9 bc
       -0.03126129 -0.0076830927 0.019764964 -0.020717433
0000a0 df 79 81 bc 4a 37 ae bc 5d db 8a bc e0 10 14 3d
       -0.015805183 -0.021266598 -0.016950304 0.036148906
0000b0 7b 05 4b 3c bc e6 50 3c 98 42 8f 3c 77 3f a5 bc
       0.012391443 0.012750324 0.017487809 -0.020171864
0000c0 e9 f2 e4 3b e7 c8 e2 bc 9b f0 78 bc 3f 88 f9 bc
       0.006986965 -0.027683688 -0.015194084 -0.030460475
0000d0 a8 35 b0 bb ea b4 29 bd 87 3e 58 3c 56 25 d2 3a
       -0.00537749 -0.0414323 0.013198501 0.0016032855
0000e0 2f da e8 bc 92 3e 13 bd 21 dc b2 3a 1f 99 2c 3b
       -0.02842435 -0.035948344 0.0013645926 0.0026336384
0000f0 bb 7a 85 3c 5a aa 48 ba af 17 c0 3c a5 12 12 bd
       0.016293874 -0.0007654779 0.023448793 -0.035662312
000100 92 c0 1e 3d eb 36 6c 3c 4e 9f 37 3a af 95 83 3c
       0.038757868 0.01441739 0.0007004634 0.016062586
000110 b4 f8 ab 3a fa 20 0e 3c 94 18 f2 3c 2a 8a 0f 3c
       0.0013120384 0.008674854 0.029552735 0.008760968
000120 7b 8e 30 3b 82 26 d1 bb 91 73 1e ba 3c b1 46 bd
       0.0026940394 -0.0063827643 -0.00060444424 -0.048508868
000130 b3 d8 ff 3c 76 73 37 bd 78 70 1c bd 06 5e 8e 3c
       0.03123126 -0.044787847 -0.038193196 0.017378818
000140 b7 3a 42 bd 7d c9 f6 3b f8 da 1a 3c 7d 8b 83 3c
       -0.047419276 0.0075313435 0.00945162 0.016057724
000150 fa 13 64 3c 95 93 d7 bc 0b e2 4f bc f8 82 ad bc
       0.013920778 -0.02631549 -0.01268817 -0.021180615
000160 67 86 c6 3c 61 6b 63 3c 20 9e 17 bd f5 16 1f bd
       0.02423401 0.013880582 -0.037016034 -0.038840253
000170 03 59 a6 3c 4d 0d 90 39 27 d5 15 bd 1e f2 e9 3b
       0.020306116 0.0002747573 -0.03658023 0.0071394583
000180 42 22 4b bc 93 f2 7f bc 29 98 d9 3b b6 e7 70 3c
       -0.012398304 -0.015621799 0.0066404534 0.014703682
000190 f2 7c fb 3c 4c 8d d2 bb 1f c7 5f bc a5 e5 f4 3c
       0.030699227 -0.0064255353 -0.013658314 0.02989466
0001a0 63 f2 2c bc 1b 8f aa bc 03 3c 4a 3c ba f2 a6 bc
       -0.010555836 -0.020820191 0.0123434095 -0.020379413
0001b0 fe 92 05 3d 3c 11 8b bc fa 77 e4 bc 95 aa 1c 3d
       0.032610886 -0.016975991 -0.02788924 0.038248617
0001c0 4d 46 a4 bc 19 05 d6 3c 20 cf 93 3c 21 5b 51 bc
       -0.020053053 0.026125478 0.0180431 -0.0127780745
0001d0 d4 01 27 3d fd 88 72 bc 5f 1f 0c 3d c3 fb 89 bc
       0.040773228 -0.014803168 0.034209605 -0.016843682
0001e0 59 b3 fd bb 79 0f 42 39 08 e2 0d bc 46 4c 20 3c
       -0.007742327 0.00018507046 -0.008659847 0.00978381
0001f0 49 d8 c9 bc 0a bd 13 bd 49 ae 24 bd 43 c7 f0 bc
       -0.024639266 -0.036068954 -0.040205274 -0.02939189
000200 64 1d f6 bc 21 5e 66 bc 28 a1 10 bd 2d 4d d4 3c
       -0.030043311 -0.014060528 -0.03530994 0.025915707
000210 19 3f 22 bc 80 ec 0a bd 22 81 e2 3b fd 10 6e bb
       -0.009902739 -0.03391695 0.0069123665 -0.0036326044
000220 6b 81 97 3c 82 7c bb 3b de bd cf 3b cc 73 d6 bc
       0.018494328 0.0057216296 0.0063397726 -0.026178263
000230 6b 56 c0 bb 32 58 30 bd cc ed 12 bc 09 6a df 3c
       -0.005869677 -0.04305286 -0.008967828 0.027272241
000240 bb aa d3 3b 65 f2 0a 3d e9 3d c3 bc 21 1b 4b bc
       0.0064595616 0.03392257 -0.023833232 -0.012396605
000250 a0 81 11 bd 2e 24 93 bc 29 db 1f 3d 35 41 22 bd
       -0.03552401 -0.017961588 0.039027367 -0.039612968
000260 2e ff 3b 3c 4d bd 6c 3b e3 ef 11 bd b0 f0 26 3c
       0.011474414 0.0036123574 -0.035629164 0.01018922
000270 3c ca 4c bc 6a a7 6a 3d 41 93 40 3d d7 10 60 bd
       -0.012499388 0.057288565 0.047015432 -0.05470356
000280 cd d6 89 3c f5 67 8f bc a2 71 b8 bc f9 3a f2 3c
       0.016826058 -0.017505625 -0.022515122 0.029569136
000290 8a 06 0d bd f4 a6 96 bc b1 94 17 3d 96 d1 d1 3c
       -0.034430064 -0.018390156 0.037007038 0.025612634
0002a0 e6 67 fc 3a ce 52 ff bc 5b 6f c3 3c 1a 55 02 3d
       0.0019257038 -0.031167414 0.02385681 0.03181944
0002b0 98 1e 06 bd bf e9 e4 bc 48 cd b8 3c e6 fa 84 ba
       -0.03274402 -0.02794349 0.022558823 -0.0010145574
0002c0 76 21 a6 bc 39 92 24 bd b6 80 c1 bc 74 ba 09 bd
       -0.020279627 -0.04017851 -0.023620944 -0.03362508
0002d0 ef 6c 03 bc 0e 70 ac bc 42 c4 48 3c cd 4c 0d bd
       -0.008021577 -0.021049526 0.012253823 -0.03449707
0002e0 bb ed f3 3c 04 11 89 bc 71 21 e5 3c f4 4e 07 bc
       0.029776445 -0.016731746 0.027970048 -0.00825857
0002f0 23 ee 67 3c 3a cd 90 3c 29 7f d3 3b e2 83 2f 3c
       0.014155897 0.017675985 0.0064543677 0.010712596
000300 7c ca 60 bc ee 70 18 3d 37 2c 20 3c f6 88 1c bd
       -0.013720151 0.037217073 0.009776167 -0.038216554
000310 d9 94 32 bd 78 96 8e 3c 14 50 84 bb 7f 96 f8 bc
       -0.043598983 0.017405733 -0.0040378664 -0.0303452
000320 de 4d 38 3c b8 f0 19 3d ca c1 b4 3c 33 1d db bc
       0.011249034 0.037583083 0.022065062 -0.026747322
000330 6c 2a 8e 3c 86 ab 08 bd 2a 3e ee 3c 14 7e 12 bd
       0.017354213 -0.033366702 0.029082377 -0.03576477
000340 e6 01 b6 bb 74 18 a1 bc 8b f7 92 3c 76 28 0b 3d
       -0.0055544255 -0.01966498 0.017940303 0.033974133
000350 ca 4f 8a bb ab d4 12 3c 34 1a 9b bc e5 da f6 bc
       -0.0042209374 0.008961837 -0.018933393 -0.030133674
000360 a4 23 98 3c 5f e0 90 bc 11 fc 23 bd 17 a8 b0 bc
       0.018571682 -0.017685113 -0.04003531 -0.021564526
000370 c8 91 20 bd cf 6a 09 bd 07 bf 24 bd 25 1d fa 3c
       -0.039201528 -0.033549126 -0.04022124 0.030531475
000380 34 99 03 bd 43 ae ec bc ea 04 f8 3b 12 1b 06 bd
       -0.032128528 -0.028891688 0.007568945 -0.03274066
000390 de af 4b bc f4 28 e2 bb 30 b1 ec bc ca ce 42 bd
       -0.012432067 -0.0069018546 -0.028893083 -0.04756049
0003a0 b7 01 a7 bc 45 8d 6d bb 54 e3 66 3c 12 fb 1a 3c
       -0.02038656 -0.0036247533 0.014092285 0.009459274
0003b0 a4 4f b5 3c a5 42 1f bb cb 88 ab 3c 6d 0e ae 3a
       0.022132702 -0.0024301198 0.020939251 0.0013279446
0003c0 e6 64 06 3d 8d 7d 21 3d 02 64 eb bc b2 8d 87 bc
       0.032811068 0.039426375 -0.02873421 -0.016547058
0003d0 88 35 ea 3c 12 d4 de 3b 7f 58 1f 3d 5e e1 af 3c
       0.028589979 0.006800183 0.038902756 0.021469768
0003e0 ac 26 f0 3b 86 ca a8 bc 2e 03 1b bd 7c b4 06 3d
       0.007328829 -0.020604383 -0.03784483 0.032886967
0003f0 4e d7 1d bc 68 a8 d7 bc d4 41 09 bd cd 53 03 3d
       -0.009633852 -0.02632542 -0.033510044 0.03206234

bias f4 [128]
000000 a8 4a f4 bc 86 a6 16 3d 9a 47 03 bd 0a bb c4 bc
       -0.029820755 0.036779903 -0.032050706 -0.024014968
000010 ef 93 55 bc 48 14 11 bd 5b 2a 27 3d 9c 18 04 bd
       -0.013035758 -0.035419732 0.040811878 -0.03225003
000020 0d 22 86 3c 25 d9 ec bb 9e 69 a3 3b d8 b7 0a 3d
       0.016373659 -0.007228034 0.004986956 0.033866733
000030 f2 5a c4 bc ec a9 3c 3c ac 02 2a ba f1 e8 8b bc
       -0.023969147 0.011515122 -0.00064853835 -0.017078849
000040 23 e6 be ba a2 0d f7 bc e1 5a d1 b9 47 0f fc bc
       -0.0014564436 -0.030157868 -0.00039931296 -0.030769004
000050 aa 50 88 bc 45 e3 ed 3c b0 0d ac 3c 23 fc df bc
       -0.016640026 0.029039035 0.02100262 -0.027341908
000060 29 a0 15 bd 1e e0 72 3c 44 ba 1b bd c7 2d d1 bc
       -0.036529694 0.0148239415 -0.038019434 -0.025534524
000070 51 b2 25 bd cf 12 14 3d 1e 5b 93 3c d9 14 a8 bc
       -0.04045326 0.03615075 0.017987784 -0.020517753
000080 7d 11 78 bb 0b e0 d0 bc 0f e6 0e bd 30 5c 08 bd
       -0.003785222 -0.025497457 -0.03488737 -0.03329104
000090 3b c9 21 bc 48 2b 18 bd 20 76 14 3d 24 23 d6 bb
       -0.009874637 -0.03715065 0.036245465 -0.006534951
0000a0 e8 c6 16 3a 22 52 2c bc a7 dc 06 3c b8 92 98 bc
       0.0005751685 -0.010517629 0.008231319 -0.018624648
0000b0 35 ee d9 3a b4 2b 2b bc 6a 8d ae bc 51 d5 16 3d
       0.0016626777 -0.010447431 -0.021307666 0.036824528
0000c0 55 ed 16 3d 2c 44 fd bc c2 9a 12 3d 2c 23 e3 bb
       0.03684743 -0.030916296 0.03579212 -0.006931683
0000d0 65 74 03 bd d6 03 04 3d 56 df d9 3c 2e c8 ac bb
       -0.032093424 0.03223022 0.026595753 -0.0052728867
0000e0 a5 68 3b bb a5 ee 96 bc 72 da 53 3b b6 23 26 bd
       -0.0028596309 -0.018424341 0.0032326248 -0.0405614
0000f0 cd a2 01 3c bf 34 ce 3b 64 c4 28 3d b2 23 95 3b
       0.00791235 0.006292909 0.041202918 0.0045513744
000100 d5 28 c3 3c e5 6e 10 bd cd 47 e4 bb eb fd 0e 3d
       0.023823181 -0.035262007 -0.006966567 0.034910124
000110 bd 43 89 3c db cd fd bc 2c 5e 45 3d 9b 7d 9c 3c
       0.016755933 -0.030981949 0.048185512 0.019102862
000120 5f ba 0e bd 9d ca 31 3d 7b 0f 00 3d 79 85 0f bc
       -0.034845706 0.043406118 0.031264763 -0.00875985
000130 09 43 16 bd 36 fa 0a 3d a4 a1 4e bc 80 75 4e 3d
       -0.036685023 0.033930026 -0.01261178 0.050405025
000140 56 be f3 bc 8f 53 0b bc ba 89 f2 3c bf 7e 38 3d
       -0.029753845 -0.008503809 0.029606689 0.04504275
000150 99 9a 8a bc 4b e6 b9 3a 55 5d ac bc 17 c2 bc 3c
       -0.016919421 0.0014183013 -0.021040598 0.023041768
000160 09 bd f4 3c ba a3 d2 3a 7c ba ec bc 4b aa 82 3c
       0.029875295 0.0016070523 -0.028897516 0.015950343
000170 9b 94 1f 3d ab 36 83 bb 72 f1 bb 3c be 47 7f 3c
       0.03896008 -0.0040043197 0.022942279 0.0155810695
000180 a3 3b cd 3c 14 b1 04 bd 56 46 ed bc ab c2 ad bc
       0.025052851 -0.032395437 -0.028964203 -0.021210989
000190 e0 5c c1 3b b9 38 98 3c 5f 15 70 bb 36 e6 c0 3c
       0.005900964 0.018581735 -0.0036633832 0.023547273
0001a0 ef d5 c6 bc 75 26 f7 bc c9 ae b1 3c 8a ff 46 3d
       -0.024271933 -0.030169705 0.02168979 0.048583545
0001b0 5d f0 90 3c c1 1d d7 3b 52 87 40 3c f4 0d e5 3a
       0.01769274 0.0065648262 0.011751013 0.0017475472
0001c0 03 31 82 bc 0b 85 df 3c 0b 2f c1 bc e6 8b bb 3c
       -0.015892511 0.02728512 -0.023582002 0.022893857
0001d0 74 70 cd 3c 85 3d 31 bb 7b 5f 8b 3c 17 f3 00 3d
       0.025078036 -0.0027044725 0.017013302 0.03148183
0001e0 d2 a8 f0 3b f0 b7 a6 bc 6c 01 13 bd 0e 5b 2d 3d
       0.0073443437 -0.02035138 -0.035890028 0.042323165
0001f0 76 5f 07 3d 20 36 db 3c 7e e2 d6 bc 67 24 02 3d
       0.033050023 0.026759207 -0.026231047 0.031772997

weight f4 [128, 64, 3, 3]
000000 2b b8 31 3d 5b 9c 43 3d e0 1a 61 bc b3 19 c2 3c
       0.043388527 0.047756534 -0.013739318 0.023693895
000010 16 4d cf 3c 51 53 c0 3c 48 88 10 bd 35 a0 1a 3d
       0.025305312 0.023477228 -0.035286218 0.03775044
000020 88 db a2 3b ff ec c6 3c 84 46 ee 39 4f ba ce 3c
       0.004970018 0.02428293 0.00045447436 0.025235323
000030 53 89 82 3c 61 68 ec 3c 0e bb 49 bc 38 14 37 3d
       0.015934622 0.028858365 -0.012312664 0.044697016
000040 d4 04 f4 3b d4 d7 61 3c 98 e7 2e bd 87 05 b6 3b
       0.0074468646 0.013784368 -0.042701334 0.005554858
000050 fd 2b 16 bd 15 4b c2 3b 22 21 3d 3c 0b 05 76 3c
       -0.036663044 0.0059293606 0.011543544 0.015015851
000060 48 49 05 bc 28 bc 47 3c e3 01 90 3c 4e 9e ac bc
       -0.008135147 0.012190856 0.017579025 -0.02107158
000070 fd 0e 2f 3c ed a6 f7 bc e7 3e 96 3b e5 95 50 bc
       0.010684726 -0.030230964 0.0045851353 -0.01273105
000080 fb 76 ea bc 2b 59 38 3c 88 19 31 bd cf 4d 97 bc
       -0.028621187 0.011251728 -0.04323724 -0.01846972
000090 d8 a5 05 3d b6 0b 13 bd 85 80 7a 3c ab 24 fe bc
       0.032628864 -0.03589984 0.0152894305 -0.031023344
0000a0 74 ab f3 bc bf 8e 12 3d e1 d0 c7 bc 8c f3 0f bc
       -0.029744841 0.035780665 -0.024391593 -0.008786093
0000b0 c3 1a 30 3d b0 e9 16 3d e4 7a db 3c d6 fe 80 bc
       0.042994272 0.036843956 0.026791997 -0.015746515
0000c0 3b 4f 39 3c 39 03 f9 3c 8f fa ed 3a 7a ea 60 bc
       0.011310394 0.030397044 0.0018156337 -0.013727779
0000d0 a6 cf 18 bd 10 4c e6 3b 3c 67 4b 3c de f3 a9 bc
       -0.037307404 0.0070281103 0.01241475 -0.020746168
0000e0 47 bf 1f 3d 40 bf 12 3d 96 7a f3 bb 9b 6a 24 3d
       0.039000776 0.03582692 -0.007430385 0.04014073
0000f0 a6 39 1f 3d d1 de ee 3b a0 03 09 bd 33 9f a8 3b
       0.038873337 0.0072897454 -0.033450723 0.005145931
000100 af 9a c5 3c 62 46 12 3d 3f c0 f4 3c a9 f1 20 bc
       0.02412161 0.035711654 0.029876826 -0.009823241
000110 5e 3a a9 bb 26 76 1f 3c d0 fe 09 3d 7e b7 65 bc
       -0.0051644286 0.009732759 0.033690274 -0.014020799
000120 35 f1 a9 3c 08 23 eb bc fa 8b 91 bc 82 96 3f bc
       0.0207449 -0.028703228 -0.017766941 -0.011693599
000130 17 61 5c bb 3f f7 b2 bc 23 df 60 bc 73 1d b5 3c
       -0.0033627206 -0.021846412 -0.013725075 0.022108769
000140 04 31 95 3c 5c 8b 6c bb 26 92 75 bc 14 b1 1e bd
       0.018211849 -0.0036093807 -0.014988458 -0.038743094
000150 00 ab 82 bc ae a6 17 3d fb d9 d5 3c 1f 2e b6 3c
       -0.01595068 0.037024193 0.026104918 0.02223879
000160 05 6a 07 bc 60 2a bd 3c 5b 1f 96 bc 9d dc d9 bc
       -0.008265023 0.023091495 -0.018325498 -0.026594454
000170 b4 85 3a bc 51 e9 e5 3b 1a 6d 2c 3c 87 b3 da bc
       -0.011384416 0.007016339 0.010524059 -0.026696933
000180 8e e3 ad bc a5 26 17 3d bc ef f7 3c 2f 50 27 bd
       -0.02122667 0.03690209 0.030265681 -0.040847953
000190 15 00 8a 3c 6c 82 9b 3b 38 b5 e8 3c 5a 11 82 3c
       0.016845742 0.004745772 0.028406724 0.015877414
0001a0 e8 a8 e7 3c e9 a4 30 bc 1f 46 a3 bc bd bc 25 3d
       0.028278783 -0.010781505 -0.019930897 0.040463198
0001b0 f2 e5 7a 3b 3d c2 15 bd 76 ae f2 3c 4a c4 5a bb
       0.003828403 -0.036562193 0.029624205 -0.0033381158
0001c0 9b bc 80 3c d9 12 42 3c 1b a9 93 3c 25 16 f0 ba
       0.015714934 0.011845314 0.018024972 -0.0018317146
0001d0 4d f5 31 bc 4c 7e f3 bc d4 b6 25 3d 09 d4 34 3d
       -0.010861707 -0.029723309 0.04045756 0.044147525
0001e0 2f 00 95 3c 4d 4c 53 3d 36 54 f4 3c bd b8 56 3b
       0.018188564 0.051586438 0.029825311 0.0032763921
0001f0 22 8b 62 3d 0e a8 58 bc 74 b8 fa bb 1c 61 05 3c
       0.05530847 -0.013223661 -0.007651383 0.008140828
000200 2d 42 07 bd 97 fd 25 3c bf 15 f7 3c f9 92 9e 3c
       -0.033022095 0.010131261 0.030161737 0.019357191
000210 4a 45 ac 3b ab 42 32 3d f3 14 d9 bc 92 36 f6 bc
       0.0052572833 0.04352061 -0.026499247 -0.030055318
000220 64 01 ac bb 3f 70 87 3c 90 64 83 bc 77 a4 1f 3d
       -0.005249189 0.016533015 -0.016039163 0.038975205
000230 53 3f 11 3d 6e 97 ff 3c 31 25 f3 3c 17 56 98 bc
       0.03546078 0.031200137 0.02968082 -0.018595738
000240 58 10 78 3b 77 ce 2b 3d 83 35 2e 3d aa 41 b8 3c
       0.0037851539 0.041944947 0.0425315 0.022492249
000250 67 40 7b bb 6d ce cf 3c 8f 72 a8 bc 56 91 b0 3c
       -0.0038337947 0.025366986 -0.020562438 0.021553677
000260 07 9a 06 3d 40 d0 a9 bc 82 a5 11 3d 17 28 10 bd
       0.032861736 -0.020729184 0.03555823 -0.035194483
000270 45 32 24 3c 35 8c 1b 3c c0 8a b0 bc b7 fa 98 bc
       0.010021751 0.009493877 -0.021550536 -0.018674238
000280 ca 2a 04 3d da 38 82 bc 5c fd b5 bc a6 3e 0d bd
       0.03226737 -0.01589625 -0.022215538 -0.034483574
000290 e1 69 24 3d 9e 1c 20 3a ad 86 2f 3d f5 8f b9 bc
       0.040140036 0.000610778 0.042853046 -0.022651652
0002a0 02 35 4d 3c f0 99 1d 3d bf 8c 69 bc 01 6f 7d bc
       0.012524845 0.038476884 -0.014254748 -0.01546836
0002b0 8c c8 f1 bc 5a 82 06 3d 25 75 17 3d 5b d9 be bc
       -0.029514574 0.032839157 0.036976952 -0.023297003
0002c0 f9 36 28 3d 0e d3 ae 3c 49 a2 cd 3c 29 fc f0 bc
       0.04106805 0.021340873 0.025101798 -0.029417114
0002d0 5d b5 c7 3b 4a c4 27 bc 54 71 0a 3d dd 25 fa bc
       0.0060946182 -0.01023967 0.033799484 -0.030535633
0002e0 fb 17 1a 3d aa b1 e1 3b f5 c8 4d 3c a3 41 b0 bc
       0.037620526 0.0068876343 0.012560119 -0.021515673
0002f0 0c 4b 29 3d d0 31 ca 3c 61 5b ca 3c a9 69 00 3c
       0.041331336 0.024681956 0.024701776 0.007837691
000300 d3 53 75 3c 97 1f 79 3b 47 3e 76 bb 1e 86 0c 3d
       0.0149735985 0.0038013214 -0.0037573741 0.03430759
000310 4f 2d 00 3d 0f 10 0c bc ae 0b 12 3c 0a 9f 0a bd
       0.03129321 -0.008548751 0.0089139175 -0.033843078
000320 8d 8f 1b bd 9c 38 2e bb 07 a9 0c 3d 5e 19 74 bb
       -0.037978698 -0.0026584035 0.034340885 -0.0037246565
000330 56 88 00 3d de 8a 1e bc e0 c1 98 3a f8 60 0a bd
       0.03138002 -0.009676663 0.0011654459 -0.033783883
000340 8f 47 4c bc 3c d3 10 3d f7 90 50 3c 87 33 67 3b
       -0.012468233 0.0353577 0.012729875 0.0035278515
000350 bc 67 bb 3c c9 4f ca bc 24 89 22 bd 68 be b5 bc
       0.022876613 -0.024696248 -0.03968157 -0.02218552
000360 11 9c c3 3c a7 51 a5 bc 88 1e 15 3a db 9f 9b 3c
       0.02387813 -0.020180536 0.00056884484 0.018997123
000370 ef 9e 9e b9 9b 6c 1e bd 66 32 f3 ba 53 31 24 3b
       -0.00030254523 -0.038677793 -0.0018554449 0.0025053814
000380 3b de 23 bc ed 5c b3 3c 92 f6 63 3c 0b 7b 3e 3d
       -0.010001714 0.021894896 0.013913767 0.04650406
000390 7c f2 9a 3c d6 36 27 3d 8c 65 e3 3c 26 f8 c2 3b
       0.018914454 0.04082378 0.027758382 0.0059499918
0003a0 4f 8d 76 3c c0 78 9b bc f7 a8 00 bd 0c a4 3d b9
       0.015048339 -0.018978477 -0.031411137 -0.00018085557
0003b0 a1 07 87 bc 6a f6 1b bc 33 79 63 bc 14 06 23 3d
       -0.01648313 -0.009519199 -0.013883877 0.03980072
0003c0 eb 5c 88 3c 62 a9 df 3c d0 c0 09 3c e0 0e a7 3b
       0.01664587 0.027302448 0.0084077865 0.005098209
0003d0 82 66 0f 3d 8d ae dd 3c 26 77 e7 3c a4 8f 9e bc
       0.03500987 0.027060771 0.028255057 -0.019355603
0003e0 14 ec 06 3d 75 ec fa 3c 60 3d 4a bb 5f 1d 44 3d
       0.032939985 0.03063033 -0.0030859336 0.047879573
0003f0 35 5a 09 bd 20 c1 92 bb f6 e2 30 3d 18 f9 4d bc
       -0.033533294 -0.0044785887 0.043185197 -0.012571596

bias f4 [64]
000000 5d 1c 0b 3d d0 1c 1b 3d 45 a0 a3 3c f9 ed a9 3c
       0.033962596 0.037869275 0.019973883 0.020743357
000010 d8 36 94 3c 2a 33 f6 bb b4 56 0c 3c 8d c5 ba bc
       0.018092558 -0.0075134235 0.0085655935 -0.022799278
000020 1b a1 c1 3a 73 db c6 3c 10 74 44 bc 98 fc 27 3a
       0.0014772745 0.024274563 -0.011990562 0.0006408184
000030 8e 9b f3 3c a1 1d 20 3d b5 d8 f9 bc b8 f0 b9 3c
       0.02973726 0.039090756 -0.030498842 0.022697791
000040 1f 88 1d 3d 03 fe 3a bc 5d 88 93 3c 89 07 1b bd
       0.038459893 -0.0114131 0.018009359 -0.037848983
000050 d5 39 61 3b f4 05 0f 3d e2 d3 08 bd 89 7e 9c 3b
       0.0034366746 0.034917787 -0.033405192 0.0047758264
000060 40 16 7a 3c cc ee 22 bd 78 a8 2a ba a7 d5 b7 3a
       0.015264094 -0.039778516 -0.0006510089 0.0014025465
000070 71 3c 37 3c e2 0f 1a 3d 48 39 9a bc f6 96 c5 3a
       0.011183844 0.037612803 -0.018826142 0.0015074897
000080 46 8a cd 3c 35 dc 14 39 4e f5 15 bd 18 48 dc bc
       0.025090348 0.00014196413 -0.036610894 -0.026889846
000090 d4 1c e3 bb 1e ff 17 bd 17 8b ee bc 30 ea 0b bd
       -0.006930927 -0.037108533 -0.029119058 -0.034158885
0000a0 9f b8 1a 3d 34 9e ae 3c 60 6a 10 bd 66 55 9f bc
       0.037773725 0.021315672 -0.035257697 -0.0194499
0000b0 20 6a 05 bd 9b df 02 3d ce f3 14 3d 35 5c bb 3c
       -0.03257191 0.031951528 0.036365323 0.022871116
0000c0 63 ab 37 3b 3e ff 59 bc 7a cf f2 3c 09 e3 08 3d
       0.0028025738 -0.013305483 0.029639948 0.033419643
0000d0 2c 26 bd 3c a8 3e 96 bc 16 f0 2a 3d c2 4f f6 bb
       0.02308949 -0.018340424 0.04173287 -0.007516832
0000e0 33 fd 84 3c e1 3d cd 3c 68 ab e8 bb ed 13 79 bb
       0.016234016 0.02505392 -0.0071005113 -0.0038006261
0000f0 60 05 e1 bc 1e 50 da 3c 13 e7 8c bb 87 a9 0e bd
       -0.027468383 0.026649531 -0.004300007 -0.034829643

weight f4 [64, 32, 3, 3]
000000 3d e5 a0 3c be c2 44 bd c9 0d f0 3c 96 c5 0b 3d
       0.01964056 -0.048037283 0.029303448 0.03412398
000010 7f 2e 6c 3d 71 ff 70 3d 5a d7 de 3c 0e 00 99 bc
       0.05766153 0.058837358 0.027202297 -0.018676784
000020 39 66 27 3d 97 8b a4 bc 7e af 23 3d b3 13 2c bc
       0.04086897 -0.020086093 0.039962284 -0.010502744
000030 11 47 3c 3c 64 e9 85 bc 5a fa 0a bd ed c8 56 bd
       0.011491553 -0.01634664 -0.03393016 -0.05243771
000040 c9 b9 1f bd 43 98 e7 bb 37 bc c3 bc fc 2d 18 3d
       -0.038995538 -0.0070677116 -0.023893459 0.03715323
000050 f1 23 13 3d 8d 08 56 3d ac 96 32 3c ae d6 41 bc
       0.03592295 0.05225425 0.010900181 -0.011830969
000060 ca fb 31 3d 8a 5e 7c bc 16 fc 02 3d 29 ed 23 3d
       0.043453015 -0.015403399 0.03197869 0.040021095
000070 76 a0 6f 3c 23 be 2e 3c e4 36 e1 3c 88 67 46 bd
       0.014625659 0.010665449 0.027491994 -0.04843858
000080 46 87 62 3d 59 ca 63 3d 35 d1 7a bc 5f 33 0b 3c
       0.055304788 0.055612896 -0.015308668 0.008496135
000090 7f 9d b9 3c 69 b0 16 bd af f3 1b 3d 10 4b f0 bc
       0.022658108 -0.03678933 0.03807419 -0.029332668
0000a0 54 3a df 3c 46 11 12 3d 8d ac 5a bd a8 11 aa 3c
       0.027249493 0.035661004 -0.053387213 0.020760372
0000b0 60 44 4c 3d 0d 5d 4e 3d c6 a4 06 3d 81 fa 37 bd
       0.049869895 0.05038171 0.032871984 -0.044916634
0000c0 97 35 d4 bc 86 2b 33 3d 91 77 a5 bc e0 d3 1f 3d
       -0.02590446 0.04374268 -0.020198615 0.03902042
0000d0 20 6b 63 bd 9b 34 58 3d 5c ca 73 bd 0d 25 21 3c
       -0.055522084 0.052784543 -0.059519157 0.009835494
0000e0 77 0d 0c 3c 5e 74 77 bd b1 91 a0 39 c8 3c 3b 3d
       0.008548132 -0.06041371 0.00030626127 0.045712262
0000f0 5f 06 82 bb 6a 33 b6 3c db aa ab bc ea 38 3a bd
       -0.0039680446 0.022241313 -0.020955494 -0.045464434
000100 aa a0 23 3d ce fe 36 3d c5 e7 16 bc c3 a7 89 bc
       0.039948143 0.044676594 -0.009210532 -0.016803628
000110 e6 56 32 3d 22 34 8f 3b dc 3e b7 bc c9 ea 68 3c
       0.043539904 0.0043702284 -0.02236884 0.014216133
000120 b0 74 76 bc 80 a9 59 bc 3c 91 60 bd 24 a4 6b bd
       -0.015042469 -0.013285041 -0.054826006 -0.057529584
000130 72 e9 b4 3c 38 8f 2b 3d 07 6d 31 bd 20 da 3d bd
       0.022083972 0.04188463 -0.043316867 -0.0463506
000140 41 a8 9f 3b 16 ab b1 3c a7 7b 97 bc bf c6 62 bd
       0.0048723524 0.021688025 -0.01849158 -0.05536532
000150 88 d0 ab 3c 4f 3d 2c 3d f0 84 01 bc 6a ce 5d 3c
       0.020973459 0.042050656 -0.00790523 0.0135379825
000160 b6 de 7f bb 23 95 63 3d 13 24 49 3d 97 f4 1c 3d
       -0.0039042658 0.05556215 0.04910667 0.038319197
000170 57 63 37 3d 11 9e 25 3d 32 a8 02 bd d2 86 4b 3c
       0.044772472 0.040433947 -0.031898685 0.01242228
000180 ec fe 93 3a 4e ed 88 3c 3e 7d 04 3d 49 9f c3 3c
       0.0011291183 0.016714718 0.032346003 0.023879664
000190 e1 75 00 bc 8c ad 93 bc 73 d7 3d bc 01 65 27 bd
       -0.0078406045 -0.01802709 -0.011587012 -0.04086781
0001a0 ee 15 10 3d 54 d0 5a bd b1 8b 52 3d 7d 3a b7 3c
       0.035177164 -0.053421333 0.05140275 0.022366757
0001b0 53 ad 43 bd 37 87 72 3d f6 7e 6b bd 2d ab da 3c
       -0.047772717 0.059210982 -0.057494126 0.026692951
0001c0 87 d9 67 3c 24 35 17 3d 3f 1b f7 bb 99 bf f7 3c
       0.014150984 0.036915913 -0.00754109 0.030242728
0001d0 23 68 41 bd c0 4a 19 3d 09 d2 e5 bc 74 71 3b bc
       -0.047218453 0.037424803 -0.028054254 -0.011440624
0001e0 98 e5 ec 3c e1 26 23 bd 81 4b 27 bd 95 71 06 bd
       0.028918073 -0.039832 -0.04084349 -0.032823164
0001f0 b4 54 cd 3c e1 e1 db bc 94 cd 8a 3c dd 1c 55 3d
       0.025064804 -0.026841106 0.01694373 0.05202948
000200 78 69 5f bd f6 ad 30 bc 01 62 70 bc 51 e3 71 3c
       -0.054543942 -0.010783663 -0.014671803 0.014763669
000210 de 39 cc bc fe 40 b0 bc 9f 13 97 bc ce e8 03 3d
       -0.024929937 -0.021515366 -0.018441973 0.03220444
000220 24 09 f1 bc b8 48 25 3c 38 c8 10 bd b3 5c c3 bb
       -0.029423304 0.010088138 -0.035347193 -0.0059619783
000230 72 2d 18 3c 48 d8 82 3d f6 3b d6 3b ac 66 0e bd
       0.009288179 0.063889086 0.0065379096 -0.034765884
000240 b0 56 a3 bc 83 9b 54 3d a3 a2 83 3c 0b 55 4c 3d
       -0.019938797 0.05190612 0.016068762 0.04988579
000250 45 76 f7 3c 1e 3f 09 3d 58 f4 13 3d 4f c3 30 bd
       0.030207762 0.03350746 0.036121696 -0.04315501
000260 24 0d 04 3d 8d a7 b0 3c 81 9f be bb d4 fb 5f bd
       0.032239094 0.02156427 -0.005817354 -0.05468352
000270 e7 42 18 3d b7 de 36 bd ef 33 08 3d 22 16 e8 bc
       0.037173178 -0.04464599 0.033252653 -0.028330866
000280 3f 3e c7 3c 6c 98 25 3d d6 f9 6f bc c4 d8 5f 3d
       0.024321673 0.040428564 -0.014646968 0.054650083
000290 d5 89 fc bc f4 8a 98 bc dd 46 ee 3c 77 62 f7 bc
       -0.030827442 -0.018620946 0.029086525 -0.030198319
0002a0 f9 e4 e5 3b 1b 4f 1a 3d c5 71 1e 3d 3d 70 13 3d
       0.007015821 0.037673097 0.038682718 0.03599571
0002b0 61 c5 64 3d 13 06 53 bc 6e a1 8d 3d 67 8e 22 3d
       0.055852298 -0.012879866 0.06915556 0.039686587
0002c0 c1 3c a9 3c 25 fa 43 bd 93 95 fb bc f6 53 48 bc
       0.020658853 -0.04784598 -0.030710971 -0.012227049
0002d0 03 a0 bc 3c 0e 29 84 3c ee 4c 3b 3d 8b 33 88 3c
       0.023025518 0.016132858 0.045727663 0.01662614
0002e0 0f 44 27 3d 83 e6 5c bd 33 49 39 3d 78 74 d9 bb
       0.04083639 -0.05393077 0.045235824 -0.0066361986
0002f0 a8 7b 57 bd 73 64 aa bc 09 1a 59 bd 66 16 29 bd
       -0.052608162 -0.020799851 -0.053003345 -0.041281126
000300 4b a9 d1 3a 8e bd 1f bd 51 59 2d 3b 08 dd 3a bc
       0.0015995888 -0.038999133 0.0026450942 -0.011405237
000310 77 42 ea 3c c8 f6 09 3c ef a9 42 bd 39 7a 6d 3b
       0.028596146 0.008420654 -0.047525343 0.003623618
000320 5b be 20 3d 43 01 ce 3c 5e dc 2a bc 94 ff 7a 3d
       0.039244037 0.025147086 -0.010428516 0.061278895
000330 ee 75 47 bc f4 21 3a bc e5 55 85 3b c3 1d 43 3d
       -0.012174113 -0.011360634 0.0040690773 0.047635805
000340 ba 4b e1 bc 84 d2 61 3d e0 d6 0d bd e4 d1 16 bd
       -0.02750193 0.055132404 -0.03462875 -0.03682126
000350 7c 45 36 3d 87 01 50 bc 22 b4 0c 3d 9f 42 10 3d
       0.04449986 -0.012695677 0.034351476 0.035219785
000360 3a 3d cf 3c f6 6f 57 ba 89 88 18 3c 6b 04 e0 3c
       0.02529775 -0.00082182826 0.009309896 0.027345857
000370 2c ed 6f bd 7e fd 45 3d bf b1 58 3d c8 08 1b bd
       -0.058575794 0.048337452 0.052903887 -0.03785017
000380 b2 d8 62 bb 6a 09 3d 3b 20 2b 25 3b 38 e1 f4 bc
       -0.0034614024 0.0028844723 0.0025202706 -0.029892549
000390 80 77 21 bd 98 0f aa 3c c0 20 46 ba 1f c2 af 3c
       -0.039420605 0.020759389 -0.0007557981 0.021454869
0003a0 c6 5a a7 bc 91 61 16 bc 78 d4 78 3b f3 16 25 bd
       -0.020429026 -0.009178535 0.0037968438 -0.04030509
0003b0 55 11 1e 3d e2 47 a2 3c 59 cb 4d 3c ee e7 6f bc
       0.038590748 0.019809667 0.012560689 -0.014642699
0003c0 50 7b e9 3b 7b 7a d5 3c 76 8d ef bb 4e f5 ed bc
       0.0071252957 0.02605938 -0.0073105646 -0.029047634
0003d0 94 bc 0b 3c 05 84 a3 3b 93 5e 04 bc dd a0 a2 ba
       0.008528847 0.004990103 -0.008079189 -0.001240756
0003e0 95 7d 58 bd 48 35 8f ba 13 d2 4e bd 25 5c 64 3d
       -0.05285414 -0.0010925913 -0.05049331 0.05575194
0003f0 f3 cc 0e 3d b4 ae 26 3c 19 33 31 bd 44 e8 dd bc
       0.034863424 0.010173488 -0.04326162 -0.027088292

bias f4 [32]
000000 c2 00 53 bd 7f 9a 3e 3d 2b d6 37 3c a9 e3 87 ba
       -0.051514395 0.046534058 0.011220495 -0.0010367531
000010 8f 89 2c 3d c3 e8 2b bd 2d f2 0e 3b 54 e0 35 3d
       0.042123374 -0.041970026 0.0021811828 0.04440339
000020 51 24 5a bd 2c db 08 3d fe 7f c0 3c 60 63 73 3d
       -0.05325729 0.033412144 0.023498531 0.059420943
000030 ad 43 b7 bb ca f7 44 3d bd f2 b4 bc 18 27 1b 3d
       -0.0055927844 0.048087873 -0.022088403 0.03787908
000040 f3 ba 16 3d ff be 08 3d 7b 20 54 3d f4 08 81 3c
       0.036799382 0.033385273 0.05178879 0.01575134
000050 f3 10 13 3d b4 be 3f bd bd ff 20 3d cd 14 42 bc
       0.035904836 -0.046812728 0.03930639 -0.01184578
000060 58 45 29 bd ef 44 1f 3d d7 9c cd bc 8e ae 0b 3d
       -0.041325897 0.0388841 -0.025099201 0.034102015
000070 76 a9 4c bd 26 ea 71 bc a7 aa 3c bd a4 58 48 3a
       -0.049966298 -0.014765298 -0.046061184 0.0007642603
