inpatinign diagrams/best_final_denoising_model_1500.pth (torch, 60658 bytes, 12 tensors)

weight f4 [32, 3, 3, 3]
000000 c8 f6 0d be e7 73 93 bd 39 c4 91 3c a5 1a 15 3e
       -0.13863671 -0.07199841 0.017793762 0.14560945
000010 b0 a1 c0 3d ec 1e 70 3d f8 24 15 3e b7 e2 c3 3d
       0.094058394 0.05862324 0.14564884 0.09564727
000020 4d ff de bd da 0e a2 3d 98 8f 95 3d 65 07 0d 3d
       -0.108885385 0.07912989 0.07302779 0.03443088
000030 94 fa 21 3e 10 c3 e1 3d a0 21 b9 bd 40 6a 1b 3e
       0.15818244 0.11023533 -0.090396166 0.1517725
000040 59 db 25 be 23 27 19 3e 5b f3 19 be 42 76 43 3e
       -0.16196956 0.14956336 -0.15034239 0.1908808
000050 0b c6 3f be b9 0a 92 bd 31 8b 6b 3d 10 ad 94 3d
       -0.18727891 -0.071309514 0.05750579 0.072595716
000060 83 5a 54 bd 7a 78 0d be 0f 99 1b 3e 42 11 d7 3d
       -0.05184413 -0.1381549 0.15195106 0.105013385
000070 97 e0 8d bd 85 30 49 3d e7 3b 1f be 18 23 29 be
       -0.06927603 0.049118537 -0.15550195 -0.16517293
000080 0c 2b 36 3e 94 2b 01 be a8 3e 86 3a f9 8e f9 bd
       0.17789859 -0.1261428 0.0010242062 -0.12185473
000090 78 0e 48 be 90 e3 02 3e 50 8a 0a be ce 41 b6 bd
       -0.1953677 0.1278212 -0.13529325 -0.0889927
0000a0 ff f8 7f bd 4b 76 1c be 82 53 f4 3d 8c 5a 84 bd
       -0.06249332 -0.152795 0.1192999 -0.06462583
0000b0 2d f3 0a 3e c4 48 94 bd 86 2b 17 bd a2 bb d8 3d
       0.13569327 -0.072404414 -0.03690674 0.10582663
0000c0 38 7a 75 bb 7b 82 ab bd 28 bb 6b 3d 20 31 e4 bd
       -0.0037456881 -0.083744965 0.057551533 -0.11142182
0000d0 e1 3a 1a be f0 ca 62 3d b3 89 eb 3d 96 38 24 bd
       -0.15061523 0.055369318 0.115008734 -0.040093027
0000e0 78 31 bd 3d 00 5d c2 3d 1e e4 e9 3a c4 71 e9 bc
       0.09237951 0.094903946 0.0017844473 -0.02849663
0000f0 f4 e9 3f 3c 2f b7 7d bc c8 48 c2 3d 18 6e bf 3d
       0.011713494 -0.015485569 0.09486538 0.093471706
000100 76 dd 46 3b a5 c1 22 3d 1b 09 fc 3b 34 f8 9a bc
       0.0030344403 0.039735455 0.007691515 -0.01891718
000110 ab 6d e9 3c 0d 75 ca 3d f2 e7 96 bd 45 e9 41 bd
       0.028494677 0.09885607 -0.07368459 -0.047341604
000120 80 74 f2 3d cd ca 9c bd d0 76 d9 bc 2a 7f 37 be
       0.11838627 -0.07655869 -0.026545912 -0.17919603
000130 ba da df 3d 39 e4 1e be 91 fd 39 3c 70 a4 2b be
       0.10930391 -0.15516748 0.011351959 -0.16761947
000140 fb 43 16 bd 5a 98 98 bd a6 63 b5 3d 7c d7 8f 3d
       -0.036685925 -0.07450934 0.08856897 0.07023522
000150 ff 5c 25 be 12 b5 24 3e 5e cb 44 3d d0 c5 2c 3d
       -0.16148756 0.16084698 0.04804551 0.042180836
000160 75 34 4e 3d 84 f7 c6 3a 2a 29 be 3d cb 34 17 3e
       0.050342996 0.0015179967 0.09285195 0.14766233
000170 85 56 2e bd 7c f3 bd 3c 1b bd 02 3d 6f d6 d4 bd
       -0.04256298 0.023187391 0.031918626 -0.103924625
000180 c1 4e bd bd 64 2c b6 bd 74 cc a5 3d db 83 b9 bd
       -0.09243537 -0.088951856 0.08095637 -0.090583526
000190 ea ef e8 3c 60 a8 f7 bd 8d eb ca bd 6c af a9 3d
       0.028434712 -0.12092662 -0.09908209 0.08285412
0001a0 2a cd ec 3d 71 74 97 3a 12 d9 1a 3d a1 d0 d2 3d
       0.115625694 0.0011555088 0.03780467 0.10293699
0001b0 70 e9 25 be 25 08 14 be 83 1c b3 3c 3b bf 10 3e
       -0.1620233 -0.14456232 0.021864181 0.14135449
0001c0 85 03 45 3e 9e c1 07 be 31 72 80 bd fb 2b 40 3e
       0.19239624 -0.13257453 -0.0627178 0.18766777
0001d0 ea 59 ce 3d 91 36 fd 3d 56 e7 fd 3d 13 7f 19 3e
       0.100757435 0.12363923 0.123976395 0.14989881
0001e0 53 0b 25 3e a6 07 01 be 2f 89 64 bd 43 66 48 be
       0.16117601 -0.12600574 -0.05579489 -0.1957026
0001f0 85 a5 cf bd 2a b5 dd 3d a5 b4 77 3d db 82 2e be
       -0.10138992 0.1082557 0.06047501 -0.17042105
000200 83 5d 9a 3d db ff 06 3e 4c 34 5c bd 01 7e 86 bd
       0.07537367 0.13183539 -0.05376081 -0.06567002
000210 b1 2d c2 3d e2 a6 d9 bd 3f 1e d3 3c c0 b0 4e be
       0.09481371 -0.106275335 0.025771258 -0.20184612
000220 5c f2 fc bd cc 76 46 be 8f a4 e1 bd 24 4c d5 bd
       -0.12350914 -0.19381255 -0.11017715 -0.10414913
000230 00 37 2c 3e f7 97 35 3e 3f 60 26 3b 3e 37 9e bd
       0.16817856 0.17733751 0.0025386957 -0.0772538
000240 16 64 ee bc 18 06 61 3e 75 78 9a 3c 49 65 b9 bb
       -0.02910046 0.21974981 0.018856267 -0.005657826
000250 43 fb 10 3e 35 67 f5 bc 66 05 63 3e 2a 29 9f bd
       0.14158349 -0.02995644 0.22170028 -0.07771523
000260 19 05 7a 3e 50 5c 70 bd d2 f8 b1 bd ce e0 d8 bd
       0.24416007 -0.058681786 -0.08690037 -0.10589753
000270 30 e7 a6 bd 3e 45 b2 bb 5e 03 95 3d 32 ab 14 3e
       -0.08149564 -0.005440383 0.07276033 0.14518431
000280 19 57 97 3d 37 44 c5 bc e1 12 df bd 42 9a ab 3d
       0.073896594 -0.024080379 -0.10892273 0.08379032
000290 69 4a 22 bd 52 06 bb bd c5 7d 0c 3d 4d 94 3f bc
       -0.039621744 -0.09132065 0.03429963 -0.0116930725
0002a0 68 3c 07 bd 07 d2 3a 3d c0 65 c7 bc ce dd a1 bd
       -0.033016592 0.045610454 -0.02434051 -0.07903634
0002b0 73 68 fc bc 54 da 45 3e e8 d1 1e be ac fe 2f be
       -0.030811524 0.19321567 -0.1550976 -0.17186993
0002c0 86 d9 9a bb 2c 65 81 3d 7f 0c 56 3d 0c f9 4d 3d
       -0.004725638 0.06318125 0.05225801 0.050286338
0002d0 af a1 0a be 43 70 50 3b 73 d6 60 3d 3c 10 32 3e
       -0.1353824 0.0031805194 0.054892015 0.17389005
0002e0 36 89 26 be ab da 25 be 7a ca 2b 3d a0 5a ae bc
       -0.1626328 -0.16196696 0.041941144 -0.021283448
0002f0 83 30 3e be b0 20 f9 bd 46 38 30 be 2f a9 cc bd
       -0.18573193 -0.12164438 -0.17208967 -0.09993207
000300 51 ff 43 bd 3a 84 0e 3d 3c 5c 27 be d6 fc 03 3e
       -0.04785091 0.03479407 -0.16343778 0.12889418
000310 53 20 5b bc 84 60 a6 bd 8d d7 93 bd 9e fb ce bd
       -0.013374406 -0.08123878 -0.072188474 -0.10106586
000320 26 ec d0 bc 20 21 e7 3b cd 4c b9 3d 45 32 b0 3d
       -0.02550323 0.0070535094 0.09047852 0.08603338
000330 83 c9 54 bd 5e b7 9c 3d 20 10 e8 bd b3 22 16 3e
       -0.05194999 0.07652162 -0.113312006 0.14661674
000340 b6 3c 29 bd 3d 65 48 bd 81 05 c3 bd 18 b1 33 be
       -0.041317664 -0.048924673 -0.09522534 -0.17548025
000350 b9 1e 02 3e 14 9b 1f be 62 1a d0 3d 7e 9e 94 3d
       0.12707032 -0.15586501 0.10161282 0.072567925
000360 92 57 61 3d 84 86 c1 bd e8 9f 96 bb f5 07 39 bd
       0.055015154 -0.09449485 -0.004596699 -0.045173604
000370 78 bd 19 3e 1b 37 d4 bc 3c 54 d3 bd 88 ba f1 3d
       0.15013683 -0.025905183 -0.10318801 0.11803156
000380 d8 ed 91 3b bd 0b 03 3d 90 55 e3 bd 96 a2 55 bd
       0.004453402 0.031993616 -0.11100304 -0.052157007
000390 13 84 8d bd 53 a7 10 3c 9a 07 04 3e 85 b0 fd 3c
       -0.06909957 0.008828956 0.12893525 0.03096796
0003a0 8c 37 3e 3d 4e 20 a5 3c 36 b9 f0 bd 30 ca a0 3d
       0.046439692 0.020157006 -0.11754076 0.07851064
0003b0 e5 6f 3e be a4 1b 6a bd 1a 95 91 bc 64 fe 1c 3e
       -0.18597372 -0.057155266 -0.017771292 0.15331417
0003c0 69 b0 2f 3e 6b 0c 1f 3e 43 16 ab 3c b3 00 66 3d
       0.17157139 0.15532081 0.020884639 0.05615301
0003d0 55 35 5a bd c8 05 ac 3d f3 e9 96 bd 19 2b e2 bb
       -0.053273518 0.0839954 -0.07368841 -0.0069021103
0003e0 11 24 2a 3e 2f 36 59 bc 5e 9e c5 bd 55 73 3f bd
       0.1661532 -0.013257547 -0.09649347 -0.04674085
0003f0 e2 9a d3 3d bd ba 3f bd 0f 94 50 3e 0d 6c 07 3e
       0.10332276 -0.046808947 0.2036898 0.13224812

bias f4 [32]
000000 29 0a 8c be 4b f4 e9 3e ac 90 6e 3d 90 d7 7b be
       -0.27351502 0.45694193 0.05824344 -0.2459395
000010 a2 06 da bd d4 ae ae be 64 fa da bb 28 f6 06 be
       -0.10645796 -0.34117758 -0.006682681 -0.13179839
000020 ff 25 b6 be c6 56 8e 3e a9 9a 7b be 53 3a 42 3d
       -0.35575864 0.27800578 -0.24570717 0.047418904
000030 71 63 77 3e 36 3d d6 bd d6 72 f4 3d 4c 8d 82 bd
       0.24159028 -0.10460894 0.11935966 -0.063746065
000040 9b f7 de 3e f4 59 15 3e 71 2d 01 3e 70 5d 5c 3e
       0.43548283 0.14585096 0.12614991 0.21520019
000050 c0 d9 4e be 83 92 79 be 7b b8 92 bd 69 ff f8 bd
       -0.20200253 -0.24372296 -0.07164093 -0.121580906
000060 d3 b8 8a be a8 b1 1b 3d 7c bf 3f 3e d5 d6 96 3d
       -0.27094135 0.038011223 0.18725389 0.07365195
000070 9d 21 ac 3f fe 83 13 3e 3e 4d 60 3c 89 40 14 3e
       1.3447758 0.1440582 0.013690291 0.14477743

weight f4 [16, 32, 3, 3]
000000 17 f1 77 3d 60 4a b4 3c c3 f8 2d bd d9 e2 d1 3a
       0.060532656 0.022008121 -0.042473566 0.001601304
000010 75 a0 43 bd 6b 7a f1 3c 00 99 1c bd fe 76 50 bd
       -0.047760446 0.029477319 -0.03823185 -0.05089473
000020 ee 60 e4 3b cf fa 3e bc 0c 98 57 bd 70 29 20 bd
       0.0069695627 -0.011656477 -0.052635238 -0.039102018
000030 1a 15 e2 bc 10 9e 3f 3d 2f 5a 15 bd f3 cd 5a bd
       -0.027597953 0.0467816 -0.03646296 -0.053419065
000040 a1 d1 af 3c 5c f4 2f bd bf fd 47 3b 26 b0 34 bd
       0.021462264 -0.04295765 0.0030516235 -0.0441133
000050 32 bc 2e bc c2 95 7c 3d de 33 74 3d 30 14 26 3d
       -0.010664986 0.061666258 0.059619777 0.040546596
000060 02 4f e1 bc 4c 7e c7 3c c5 f3 1c 3d c5 88 1f 3d
       -0.027503494 0.024352215 0.038318414 0.038948793
000070 fe e7 d0 bb 0a cb 76 3d 89 3e b5 3b 54 79 50 bd
       -0.006375312 0.060252227 0.0055311364 -0.050896958
000080 9e 5f 46 bc 7f 68 1e bd 11 5b 02 3d e6 f6 63 bd
       -0.012107758 -0.038673874 0.03182513 -0.055655383
000090 14 ec 20 bd 84 5d 40 3c 4b 66 60 3d a9 69 5c 3d
       -0.03928764 0.011741046 0.054785054 0.053811703
0000a0 f8 c7 1b 3d 79 be 1b bd 69 77 53 3d 10 a0 b8 bc
       0.038032502 -0.038023446 0.05162755 -0.022537261
0000b0 a2 8a 3a 3d 58 a5 4c bd 64 24 6f bc dd 06 79 3d
       0.045542367 -0.04996237 -0.014596079 0.06079756
0000c0 b8 97 ae bc eb 67 1e 3d ad 49 2c 3d 49 6d 04 3d
       -0.02131258 0.038673323 0.04206245 0.032330785
0000d0 ca 52 57 3c 84 42 33 3d 45 22 50 bc ff 0e 6a bd
       0.013142297 0.043764606 -0.012703483 -0.057143208
0000e0 69 7b 3c 3d 80 30 2b 3c d3 05 5f 3b f6 66 f4 bc
       0.04601613 0.010448575 0.003403057 -0.029834252
0000f0 e4 f7 ad bc 82 30 f0 3b 21 87 05 3d 97 5f 0b bd
       -0.021236368 0.0073300013 0.032599572 -0.03402671
000100 8d 20 6c bd 31 cc 2d bc 86 b1 58 bd 48 0c 84 3c
       -0.05764823 -0.010607765 -0.052903675 0.016119137
000110 fc f1 3e 3c f4 01 87 bd 98 41 92 bc 12 ae e6 bc
       0.011654373 -0.065921694 -0.017853543 -0.028159175
000120 6d 4e c9 3a 77 db 07 3d f9 7f c2 3c 92 73 b6 bc
       0.0015358456 0.033168282 0.023742663 -0.022271905
000130 0d 91 6f 3d 53 3c f8 bb 1f d7 4b 3d 6c 19 1b bd
       0.05848794 -0.0075755506 0.049765702 -0.03786604
000140 9f 6f 0a bd 09 89 bc bc 7b d7 d2 bc 0f a5 da 3b
       -0.033797856 -0.023014562 -0.025737515 0.0066725085
000150 93 a2 ee 3c 99 61 ce 3c 8b 3d 10 bd ad a9 4d bd
       0.029130256 0.025193023 -0.035214942 -0.050210644
000160 26 93 43 3d bd d3 11 bd 75 59 dd 3b 05 94 c5 3b
       0.047747754 -0.03560232 0.006755049 0.006029608
000170 74 57 f9 ba fe e5 26 3d ee c7 35 3c 49 12 30 bd
       -0.0019023255 0.04074668 0.01109503 -0.042986188
000180 6e 6d 0e bd 2d 33 09 bd 23 82 42 3d be 2a 7f bc
       -0.03477233 -0.03349607 0.04748739 -0.015574155
000190 0a b5 29 bd fd 62 67 bd f6 3a 4d bd 20 f7 0b 3d
       -0.041432418 -0.056490887 -0.050105058 0.034171224
0001a0 37 4d be 3c 1b ba 94 3c b8 20 3a 3d 0d b5 13 3d
       0.023230178 0.018155148 0.04544136 0.036061335
0001b0 6a 47 f1 3c e5 2a b3 bc 4f 5f 27 3d 62 dd a6 bc
       0.029452998 -0.02187104 0.040862378 -0.020369235
0001c0 83 2a ce bc 1a 00 7a bc 11 79 df bc cb 02 15 bd
       -0.025166756 -0.015258813 -0.027279409 -0.036379617
0001d0 af 22 86 bc f6 47 23 bd bf 27 4e 3d 8b 14 65 bc
       -0.01637396 -0.03986355 0.050330874 -0.013981949
0001e0 e6 84 f6 bb 02 d3 9d bc be f0 80 3c 5f 81 03 3d
       -0.007523167 -0.019265655 0.015739795 0.0321058
0001f0 5f 9b a9 3c 00 f6 f6 bc f3 8f 39 ba 3d b2 9e 3c
       0.02070397 -0.030146599 -0.000707864 0.0193721
000200 98 9e a4 bc 4d 98 b5 bc ce 15 42 3d 78 10 d1 bd
       -0.020095155 -0.02216735 0.047384076 -0.10208219
000210 1b a0 6e bc d4 b0 46 bd 33 1b c8 bd 2c 3d 05 3d
       -0.014564539 -0.04850848 -0.09770813 0.03252904
000220 29 45 b4 3d ec f6 71 bb 2c 71 45 bc 80 f3 f8 3c
       0.08802254 -0.0036920859 -0.012050908 0.030389547
000230 c6 5c 83 3d 3d 36 04 bd 13 75 20 bc 90 f2 e6 bc
       0.064141795 -0.03227829 -0.009793538 -0.028191835
000240 04 57 cc bc 6a 2a d8 bc 37 b2 73 bd 7c af 20 bd
       -0.024943836 -0.026387412 -0.05949613 -0.039229855
000250 5e 76 ea 3c 95 c8 1f 3d c4 87 95 bb 72 c1 80 bd
       0.028620895 0.03900965 -0.0045633037 -0.06286897
000260 41 a9 40 bd 0b 7a 5b bd 70 a1 3e 3d af 38 68 bd
       -0.047036413 -0.053583186 0.046540678 -0.056694683
000270 07 4f 39 3d 21 ac 50 bc 8d 87 20 3d df c6 75 3b
       0.045241382 -0.012736351 0.03919177 0.003750257
000280 bb 08 26 3b 3a dd c9 bc 60 f9 47 3d 09 ba 3a bd
       0.0025334794 -0.024641622 0.048821807 -0.045587573
000290 de d6 b1 3c 3b 06 2c bd ab 2f 28 bd 0c 37 65 bc
       0.021708902 -0.04199813 -0.041061085 -0.013990175
0002a0 39 d6 55 bd 57 96 7a 3b e7 00 60 bd c7 cd 84 bd
       -0.05220625 0.0038236582 -0.05468836 -0.064845614
0002b0 0d 98 2f bd 3d b2 65 3c 65 df 90 bd d8 79 c6 bc
       -0.042869616 0.014019546 -0.07073859 -0.024228022
0002c0 34 55 b6 bd ec 5e d4 bd 01 8f 27 3c 23 f1 b0 bd
       -0.0890297 -0.103696674 0.010226966 -0.08639743
0002d0 d2 ff d4 bc f8 34 31 bc 3a 53 44 bd 02 30 bd 3a
       -0.02600089 -0.010815851 -0.047930934 0.0014433863
0002e0 f9 ec c3 bc af 54 4c bd 91 eb 34 3c 61 ea e7 ba
       -0.023916708 -0.049885448 0.0110424915 -0.0017693752
0002f0 44 41 5e 3d f8 58 c8 bc c3 9b 0d 3b 7b 15 b0 bc
       0.05426146 -0.024456486 0.0021607734 -0.021494618
000300 03 37 15 3b e7 b5 20 3d ad 8e 1d 3d fa 21 26 3d
       0.0022768385 0.039235976 0.038466144 0.040559746
000310 f3 a2 f0 3c 89 b6 07 3d 51 e1 6a 3d ab 72 0f bd
       0.029374575 0.033133063 0.057343785 -0.035021465
000320 62 c8 d6 3b 73 0a 96 bc e9 c3 1d 3d da b5 13 bd
       0.006554649 -0.01831553 0.038516913 -0.0360621
000330 2a 5d d5 ba be 8c ad 3b 28 16 72 bd 12 1f c7 bd
       -0.0016278375 0.005296319 -0.05910316 -0.09722723
000340 89 31 bb bc 83 ce 41 3c bb e4 8d bb af 6b 32 3d
       -0.022850769 0.011829021 -0.0043302453 0.043559726
000350 6c ad 4a 3c ca 7c ba 3c 41 83 6f 38 b5 13 60 bd
       0.012370449 0.022764582 5.710428e-05 -0.054706294
000360 9a 09 f0 bc 4f 75 7b bb bf b8 8b 3c 0c 8b 42 bc
       -0.029301453 -0.0038369482 0.017055867 -0.011873972
000370 b2 42 0f 3d cf 65 ff 3c da fb 19 bb 10 fe 4a bd
       0.034975715 0.031176476 -0.0023496062 -0.0495587
000380 5c f5 3a 3d f3 8e 0d be 97 96 39 bd f8 e3 e6 3d
       0.04564415 -0.13824062 -0.04530963 0.1127395
000390 a8 82 a0 bc f7 3b 04 bd c3 92 34 3d e7 ee a3 bd
       -0.019593552 -0.03228375 0.044085275 -0.080045514
0003a0 f9 73 99 bc 7c 2b af bc 00 9d c7 ba 1d 67 e8 3c
       -0.018732058 -0.02138304 -0.0015229285 0.02836948
0003b0 49 e9 e0 bc dc c3 d5 bc 82 3c 3e bd c9 82 95 3c
       -0.027454989 -0.02609437 -0.046444423 0.01825084
0003c0 94 2a 98 3c e6 5d 7a 3c c0 72 03 bd 9f 01 81 3b
       0.01857499 0.015281176 -0.032091856 0.003936961
0003d0 ca f4 8b 3d ac 9a 3d bd 14 aa 72 3d fd 18 f5 3b
       0.06833799 -0.046290085 0.05924423 0.0074797855
0003e0 a2 e2 10 3d 6c 1b 88 3d 91 a2 88 3d 25 51 69 3d
       0.035372384 0.06645855 0.06671632 0.05696215
0003f0 bc 1e 7a 3c 37 e1 f4 3c f3 46 09 bc e2 22 c1 3c
       0.015266117 0.029892547 -0.008378732 0.023576204

bias f4 [16]
000000 02 c5 b6 bd 28 1e 54 3d d8 71 83 3d 30 96 c9 3d
       -0.08924295 0.05178657 0.06418198 0.09843099
000010 5f bd c9 3d e2 c8 91 bd 4b 26 74 bc 38 a9 54 3c
       0.09850573 -0.071183935 -0.014901708 0.012979798
000020 2c 9c 18 3e e7 01 1a be 09 e5 95 bd 51 77 71 3e
       0.14903325 -0.15039788 -0.073190756 0.23580672
000030 fc a0 d1 3d cd 1b 2c be 2b a2 79 3d 94 7d 2e 3f
       0.102357835 -0.1680748 0.06094567 0.68160367

weight f4 [8, 16, 3, 3]
000000 de f6 ec bc 04 e4 57 bd 69 1e 01 be a9 f7 5c bd
       -0.02892631 -0.052707687 -0.12609257 -0.053947125
000010 27 36 04 3d 7d 24 80 bd c4 6a ce bd 4c c4 4d 3b
       0.032278206 -0.062569596 -0.10078958 0.003139752
000020 34 fb e3 bc 75 a4 a9 3c cb ac 08 bd 8b c2 ba bc
       -0.027829744 0.020708302 -0.033367913 -0.022797843
000030 ab 1c 46 3c 39 c6 be 3c f7 e9 23 bd f4 45 f8 3c
       0.012091796 0.02328788 -0.04001805 0.030306794
000040 66 ad ba 3c ea 88 37 bd 56 81 24 3e 7f d3 35 3e
       0.022787761 -0.044808306 0.16064963 0.1775646
000050 eb ba 2e 3e 4d c0 fd 3d 1b 3e 2a 3e 6e 69 e2 3d
       0.17063491 0.12390194 0.16625254 0.11055265
000060 14 fa a7 3d ba a5 04 3e 04 d0 ab 3d fa 22 42 3c
       0.082019955 0.12953845 0.08389285 0.011849159
000070 12 19 e0 3b c4 08 32 bd bb b8 57 bd 83 e1 a6 bd
       0.006838926 -0.04346539 -0.052666407 -0.08148482
000080 95 0f 48 3d 27 98 80 3d 30 cb 59 3b ce 75 2f bd
       0.048842985 0.06279021 0.0033232681 -0.042836957
000090 7f 5e 72 bd 21 c6 9d 3d c7 b5 31 bd 09 c3 d9 bc
       -0.05917215 0.07703806 -0.043386247 -0.026582258
0000a0 00 00 92 bc 4d 81 5c 3d e7 9b 18 bd ca 05 f1 bc
       -0.017822266 0.05383425 -0.037258055 -0.029421706
0000b0 71 00 b0 bc d7 fc 7b 3d 5a 63 8e 3d c5 54 f9 3c
       -0.021484585 0.061520424 0.069525436 0.03043593
0000c0 4a f9 cc 3c 91 f3 07 3c 86 b2 f9 3c 84 60 a4 bc
       0.025021214 0.008297817 0.030480634 -0.020065553
0000d0 7d 96 54 bd b3 78 eb bc 96 6a 74 3d a4 80 89 bc
       -0.05190133 -0.028744077 0.05967196 -0.016784973
0000e0 c7 5c 39 3b bb a9 93 3c 63 1f 54 bd 26 65 20 3d
       0.002828406 0.01802527 -0.051787745 0.039158963
0000f0 24 50 bb bc 65 41 45 3d cc d2 8b 3d 55 46 ab bd
       -0.022865362 0.04815807 0.06827316 -0.08363024
000100 71 8f cf bd fa 66 20 bd 6a 42 e0 bc 3f f1 f3 bd
       -0.10134781 -0.039160706 -0.027375419 -0.119112484
000110 c9 0a fa bd 71 9e 7e bd b0 c6 fa bd cf 5a 70 3a
       -0.12209088 -0.06216282 -0.12244928 0.0009168805
000120 4d 45 e0 bd ba 8f 84 bc 3a 5b f8 bd 12 95 a2 bd
       -0.10950718 -0.016181815 -0.12126775 -0.07938589
000130 29 7c 0a be 6a 66 22 bd 91 3c fa bd e5 2a 45 bd
       -0.13523926 -0.03964845 -0.122185834 -0.04813661
000140 46 22 cb 3c 52 50 9a bc 73 4b 9b bb c0 6b 4d bd
       0.024796616 -0.018837128 -0.004739219 -0.050151587
000150 25 a6 74 3d e0 cf 52 bd 41 97 d8 3b 34 fd 40 3b
       0.05972876 -0.051467776 0.0066098277 0.0029447796
000160 93 ac a0 bd 3f 7a 4e 3d 3c ba 1e bd a4 bd 67 3d
       -0.07845416 0.05040955 -0.038751826 0.05657734
000170 31 d4 95 3c 85 03 1c 3b 77 a7 43 3d 9a 85 c1 bd
       0.018289657 0.0023805809 0.04776713 -0.094493106
000180 14 63 ba bb 56 3e cb bc c9 03 86 bd c4 60 a3 bd
       -0.0056880806 -0.024809998 -0.06543691 -0.07977441
000190 c5 db 6e bd 45 63 96 bd 6b 6e d3 bd 11 41 76 bc
       -0.058315057 -0.07343153 -0.10323795 -0.0150301615
0001a0 b9 55 87 3c 2f 4c 3e 3d 54 f0 22 3d da 68 c9 3c
       0.016520368 0.046459373 0.039779976 0.02458613
0001b0 80 c4 23 bd 0f 79 be 3d 95 ec 2d 3c 66 bf 5e bd
       -0.03998232 0.09300434 0.010615488 -0.05438175
0001c0 f7 4c 0c 3c ed 00 b7 3d f3 38 e9 bb 9f fd a7 3d
       0.008563272 0.089357235 -0.0071173846 0.08202671
0001d0 0c 69 2b 3d 5b 06 03 bd 13 a0 87 3d 75 5a 23 3b
       0.041848227 -0.031988483 0.066223286 0.0024925743
0001e0 e8 a2 c2 3c 55 17 88 bc de 1c a6 bd 81 16 98 bd
       0.02375932 -0.016612688 -0.08110975 -0.07426167
0001f0 06 d0 87 bc ff bf 9e bc 39 aa 71 bd 50 21 8f bd
       -0.016578685 -0.01937866 -0.059000228 -0.06988776
000200 19 f7 01 3d 36 e5 cd bd f9 2e 03 bc 5b 92 63 bd
       0.03172979 -0.10053484 -0.008006805 -0.055559497
000210 1b 43 3c 3d 36 7f 00 bc b0 c6 9d 3c e4 4e 8d 3d
       0.045962434 -0.007842829 0.01925978 0.06899813
000220 7b 3a 2d bd 2c 70 97 3d 1b ac 85 bd f8 1e 78 3d
       -0.0422921 0.07394442 -0.06526967 0.06057641
000230 d1 63 95 3d d4 bd 87 3d df b3 0a bd 74 18 5b bd
       0.07294429 0.06628004 -0.033862945 -0.053490117
000240 f4 1e 4f 3d c1 e3 5f bd 81 4c 5c bb 94 67 ad bc
       0.05056663 -0.054660562 -0.0033614936 -0.021167554
000250 a1 c7 85 3d f0 09 0c bd 6d 5a 72 3c ea a8 c9 bc
       0.06532217 -0.034189165 0.014792067 -0.024616677
000260 38 dc fe ba 71 46 28 bd 54 b1 74 3d 1d 93 9e bd
       -0.0019444292 -0.041082803 0.059739426 -0.077429034
000270 80 3c 81 bd 6a 79 62 3d 68 25 8a bd e1 a1 aa bd
       -0.063103676 0.05529157 -0.06745416 -0.08331657
000280 c2 6e b2 3b 05 88 91 3d b3 1f de bd 2f 07 e8 3c
       0.0054453323 0.07106022 -0.1084589 0.028323738
000290 58 ae c0 3c c7 03 91 bd e5 dc 86 bc 29 49 85 bd
       0.023520634 -0.070807986 -0.016462753 -0.06508095
0002a0 24 65 02 bd 26 42 df bb 64 ec 73 3d 7c 89 bc bb
       -0.031834736 -0.0068133054 0.05955161 -0.005753694
0002b0 d7 eb aa bc 72 72 a5 3c 49 45 74 3c 76 21 5d bd
       -0.02086441 0.020196173 0.014909097 -0.05398699
0002c0 a1 73 97 3d 5a fd 2f bd a7 e9 80 3d 54 09 92 3d
       0.07395101 -0.042966224 0.06294566 0.071306854
0002d0 7f e6 6f 3d 1c cc 83 3d 40 81 94 3c c7 88 c3 3c
       0.058569428 0.06435415 0.018128037 0.023868931
0002e0 58 ff 4c bd bd e7 37 bc 48 66 cd bc 0a 13 a8 3b
       -0.050048202 -0.011224684 -0.025073186 0.0051292228
0002f0 24 0e 48 3d 98 36 0e bd ff ca 1e bd 98 25 0a bd
       0.04884161 -0.034720033 -0.03876781 -0.03372726
000300 16 a0 27 3d 90 6d d8 3d 5f 4b 9a 3d a8 71 57 3c
       0.040924154 0.105677724 0.07533907 0.013149656
000310 c0 ac 21 3d 1a eb a3 bd 7b 84 de 3c 7b 18 69 bc
       0.039471388 -0.080038264 0.027162781 -0.014227028
000320 2e 4e 32 3d e7 ea 8c 3c 21 ad 7e 3d ad 4b 7c bd
       0.04353159 0.017201854 0.062176827 -0.061595608
000330 62 ad 0f 3c 69 fe 4b 3d ae e3 5d bc c6 42 91 3d
       0.008769365 0.04980317 -0.013543053 0.07092814
000340 76 8f cc bc 41 0e 8d 3d 16 f3 e6 bb 39 fc 3a bc
       -0.024970751 0.06887484 -0.007048021 -0.011412674
000350 dc e1 34 bd 42 03 87 bd 63 e8 8c 3c fd 5b 8e bc
       -0.04416071 -0.06592418 0.017200654 -0.017377848
000360 d9 bb 30 bd e5 0b 76 bd c1 7e 4c bd 8d 30 04 bc
       -0.043147895 -0.060069937 -0.04992557 -0.008068216
000370 95 4c 6f 3d d3 b6 91 3d 78 1b 2b 3c ab f6 7c 3d
       0.058422644 0.07114949 0.010443561 0.06175868
000380 6c 15 3a 3c 49 16 32 3d d9 fc 22 bd e5 36 94 3d
       0.011357646 0.043478284 -0.039791916 0.07237033
000390 9a 41 1f bd 58 0f 00 bd 58 dd 8c 3c e5 13 14 bb
       -0.038880922 -0.031264633 0.017195389 -0.0022594866
0003a0 11 f8 57 bd 09 00 a2 3c 4e 7c 38 bc c4 18 a2 bd
       -0.05272681 0.019775407 -0.011260105 -0.0791488
0003b0 9c fb 21 bd ac 33 b0 3c 01 e3 7d bc d6 db 9a 3c
       -0.039546594 0.021509014 -0.0154960165 0.018903654
0003c0 07 7a 70 bd 12 66 6c bd 50 ad bd 3c 4c e0 33 bc
       -0.058710124 -0.05771453 0.02315393 -0.0109787695
0003d0 ba 19 4a 3d 1a d2 ca b9 ce 4c 1c bd 13 dd 04 3d
       0.04934094 -0.0003868498 -0.038159184 0.032437395
0003e0 0e ab e0 3c 79 06 82 3c 76 72 d8 bb 14 90 63 3d
       0.027425315 0.015872227 -0.0066054417 0.055557325
0003f0 85 0a 90 bb 8f f3 fd bc 4d d1 67 bd 3e 78 34 bc
       -0.0043957853 -0.030999927 -0.05659609 -0.011014996

bias f4 [8]
000000 32 bc c5 bd 5c 92 26 3e 89 37 ad 3d 1c 35 6a 3e
       -0.09655036 0.16266769 0.08457858 0.22871822
000010 35 85 a7 3d 06 b4 6e bb e5 7e 1f 3c 87 ee d3 3e
       0.08179704 -0.003642322 0.009734844 0.4139292

weight f4 [8, 16, 3, 3]
000000 e7 b9 8f bd ad 04 7d bb 93 48 ba bd b1 82 05 3d
       -0.0701788 -0.0038607523 -0.09095874 0.03259534
000010 d5 b8 29 bd 73 10 94 bd 07 a2 83 bd 69 e1 10 3c
       -0.041436035 -0.072297 -0.06427389 0.0088428045
000020 cb 01 40 bd bb 26 92 bc 26 0d 9d bd 7a e7 8b 3d
       -0.04687671 -0.017840734 -0.076685235 0.0683126
000030 b4 64 5d bd 53 b8 4e 3d ed 9a 48 bc 9d a6 72 bd
       -0.054051116 0.050468754 -0.012243968 -0.059240926
000040 f6 0d a3 3c c2 b2 38 bd 98 7a 1f bd 00 fe a9 bb
       0.019904118 -0.04509235 -0.038935274 -0.00518775
000050 59 04 9d 3c 02 a0 33 3b 5c cf 15 3c 70 54 fb 3c
       0.019167112 0.0027408605 0.009143677 0.030679911
000060 f5 d2 5f 3d 84 ef 29 bd a2 e0 4c 3d 86 54 96 bd
       0.054644544 -0.041488186 0.050018914 -0.0734034
000070 83 01 c4 bd 00 4f 8d bd 97 ed 77 bd 00 15 05 bd
       -0.09570601 -0.06899834 -0.060529318 -0.03249073
000080 1a 42 c6 bd 9c ed 8e 3c f2 5d 82 bc 13 f9 4d 3d
       -0.096805766 0.017447285 -0.015913937 0.050286364
000090 f8 7b 86 3d 3a d1 60 3d dc 11 91 bd 70 50 95 3d
       0.06566614 0.054887034 -0.070834845 0.07290733
0000a0 48 f5 f8 3c d8 f1 cc 3c 69 ba 58 bc 5b 94 4d 3d
       0.030390397 0.025017664 -0.013228037 0.05019031
0000b0 b7 5d 8b bb 6f 5d 18 be 0a f1 69 bc 9b ed 33 be
       -0.004253115 -0.14879392 -0.01427866 -0.17571108
0000c0 38 29 ab bd 49 b9 bf bd 1c b8 95 bd fa 13 ef bd
       -0.08357471 -0.09361512 -0.07310507 -0.11673732
0000d0 9d e5 22 be 97 81 03 be 52 77 fc 3c f7 05 87 3d
       -0.15907903 -0.12842403 0.030818615 0.065929346
0000e0 3b 9d 2a bc 76 95 21 3d 6c 10 0b bd 76 55 8b 3c
       -0.010413463 0.039449178 -0.033951208 0.017008524
0000f0 8f c8 9b 3c 57 cf 24 3d 9c 32 0c 3d d2 0e 4f bd
       0.019016532 0.040236797 0.034227952 -0.050551243
000100 30 9d c6 bb c0 9f 12 3c 53 21 0f bd e4 46 fd bc
       -0.0060612187 0.00894922 -0.03494389 -0.030917592
000110 60 3d 9d 3d 97 bf 84 bd e0 b4 5b bd 45 33 a0 bd
       0.07677722 -0.06481855 -0.053639293 -0.07822279
000120 65 ed 99 3d e7 53 ee 3c 91 5c 4e bd 2d 6e 5d bc
       0.075159825 0.029092742 -0.050381247 -0.0135150375
000130 ca a1 b1 3d 5f 6b 77 bd 5f b6 3f bd 2a c0 49 3d
       0.08673437 -0.06040513 -0.046804782 0.049255528
000140 87 14 9c 3d 4e 80 75 3d 18 1d 91 3b d5 3a a7 3d
       0.07621103 0.059936814 0.004428517 0.08165518
000150 23 73 5a 3d ed 74 dd bc a1 5c 85 3c 16 23 9e 3d
       0.05333246 -0.027033294 0.01627952 0.07721536
000160 e8 b6 72 bd f7 d1 7a bd 96 0d 38 bd 59 d2 13 bd
       -0.059256464 -0.061235394 -0.04493483 -0.036089275
000170 16 74 28 bd 7c 68 7b bd 54 c2 17 3d ed 20 9b 3d
       -0.041126333 -0.06137894 0.03705056 0.075746395
000180 12 8d 4f 3d 7c 77 86 bb 2a 8c 28 bd 6c 44 de bc
       0.050671645 -0.004103599 -0.041149296 -0.027132235
000190 43 75 7e 3c 98 fe d2 39 ec 63 92 bd 81 9a 94 3c
       0.015530887 0.00040244008 -0.07147965 0.01814008
0001a0 e0 86 b2 bd 6e 44 5f bd 8c f6 05 bd 5f 16 6c bd
       -0.087171316 -0.05450862 -0.03270583 -0.057638522
0001b0 06 da 09 3d 20 5d 52 3d 1c 3f 2d 3d 48 bb 19 bd
       0.03365519 0.051358342 0.042296514 -0.03753212
0001c0 9e 38 cd 3b 09 f4 28 bc 1b 72 5b 3d 33 15 b0 bc
       0.006262853 -0.010312089 0.053575616 -0.021494484
0001d0 52 78 5d bc a0 aa 4b bd 41 5e 52 3c 07 94 27 bd
       -0.013517456 -0.049723268 0.012839855 -0.040912654
0001e0 24 ae a4 3d f2 1b 21 3d 9b d9 e7 bc 97 58 34 bd
       0.08041027 0.03933329 -0.028302005 -0.0440298
0001f0 5a 66 6c bd f1 ac fa 3c 01 44 a9 bd a1 77 d1 bd
       -0.057714798 0.030600043 -0.08264924 -0.102278955
000200 9b 64 8b bd cc e0 fe 3c 59 c7 be 3c 44 4c 85 bc
       -0.06806298 0.03111305 0.023288416 -0.016271718
000210 b6 f2 da bd 1a 87 5c bb 08 d9 40 bd 0b b7 8b bd
       -0.10690825 -0.0033649863 -0.047081977 -0.06822022
000220 9f 62 39 bd 06 9b b3 bd ea 44 4b bd ab e6 7b 3d
       -0.045260068 -0.08769803 -0.04962627 0.06149928
000230 df 2e f3 bc fa 76 79 3d 94 65 89 bd 29 89 69 bd
       -0.029685436 0.06090448 -0.067088276 -0.05701557
000240 e7 08 66 bc fd 6b 5a 3d 84 e0 99 bd f3 01 4b 3d
       -0.014040208 0.053325642 -0.07513526 0.049562406
000250 75 e4 70 3c a7 b9 40 3d d1 bb a6 3d 05 6d 1f 3d
       0.014702906 0.047052052 0.08141292 0.03892233
000260 98 52 7c 3d b8 6c 01 3d d3 73 d1 bb f8 7d 46 3c
       0.061602205 0.031597823 -0.006391981 0.012114994
000270 20 33 07 bc d0 ca c9 3a b4 06 90 3d 31 5a 09 3c
       -0.008251935 0.0015395526 0.070325285 0.00838332
000280 c6 ed 5e 3d f5 08 2d 3d ff 2e 84 bd 3c ef a8 bd
       0.054425977 0.04224487 -0.06454276 -0.08248755
000290 e4 38 10 bc 5a 62 05 bc 1e 5e 9b 3d 02 5d 3a bd
       -0.008802626 -0.008141125 0.07586311 -0.045498855
0002a0 3a 44 22 3d 82 a2 f8 bc 23 94 38 bd 38 25 43 3d
       0.039615847 -0.030350927 -0.04506315 0.047642916
0002b0 49 18 60 bd a4 82 5e bd 0c 13 8a bc 37 28 f6 3c
       -0.05471066 -0.054323807 -0.016854785 0.030048473
0002c0 a3 cd b9 3c df d6 c7 3c 39 28 88 bd 85 ee 13 3d
       0.022681063 0.02439445 -0.06648297 0.03611614
0002d0 77 46 5a 3c ad 6d 78 3d c9 d2 fe 3c 09 f3 00 3d
       0.013322464 0.06065147 0.03110637 0.031481776
0002e0 cd 82 4f 3d c4 4e 36 3d b7 77 03 bd 4b d2 e2 3b
       0.05066185 0.04450871 -0.03209659 0.0069220415
0002f0 47 f5 c1 3b 8a 38 f2 3d 1a 12 40 bd d9 3f 46 3d
       0.005919132 0.1182719 -0.046892263 0.048400734
000300 55 66 07 bd d4 4b 87 bd e1 18 cc bb 25 3f 7d 3d
       -0.033056576 -0.0660626 -0.0062285517 0.061827797
000310 ae 48 6d bd b8 30 0f 3d 42 25 f6 3d 93 ef 53 3d
       -0.05793064 0.03495857 0.12018825 0.051742148
000320 97 08 8d bd b5 69 98 bd b2 3c 8a bd 35 5f 83 3d
       -0.06886404 -0.07442037 -0.06749858 0.06414644
000330 2d 87 de bc 37 31 b5 3b 53 e3 09 bd d3 b4 80 3d
       -0.027164066 0.0055295485 -0.03366406 0.062844895
000340 9a 2c f5 3c 22 8e 5c 3c e3 e1 b6 3d 3f 89 b0 3d
       0.029928494 0.0134616215 0.08929803 0.086199276
000350 c4 34 85 bc ff 1a 8f 3c 0b ad a9 3d c4 32 8e bd
       -0.016260512 0.017468927 0.082849585 -0.069432765
000360 ce 05 cc 3c c8 89 8b 3c 04 10 89 3d d8 d0 62 3d
       0.024905112 0.017033473 0.06692508 0.05537495
000370 90 bf 3b bd 2f e2 47 3d 9b 63 3a 3d 97 38 2e bd
       -0.045836985 0.04879969 0.045505147 -0.042534437
000380 55 6e 6e bd dd 47 53 3c 1d 87 be bc c3 cd 2f 3c
       -0.05821069 0.0128955515 -0.023257786 0.01073021
000390 54 02 b3 3b 8b c9 59 bc 7c fa a0 3d cc a0 8d 3d
       0.005462924 -0.0132926805 0.07860276 0.06915435
0003a0 6d a2 62 bd 8e a9 eb bb 7d 79 34 bd a3 28 5f bb
       -0.055330683 -0.0071918434 -0.044061173 -0.003405132
0003b0 57 e0 7b 3d 58 53 77 3d 3a 1a dc 3c e4 d6 53 3d
       0.061493244 0.060382217 0.026867975 0.051718608
0003c0 8e 61 c2 bd 5e ec 28 bb 4b e5 24 bd 9f c2 1e 3d
       -0.09491263 -0.0025775651 -0.040257733 0.038759824
0003d0 ba 1c bd bd e7 be 37 bd 1f 88 6c 3c 2f c1 72 3c
       -0.09233995 -0.044859793 0.014436751 0.014816566
0003e0 19 1e ab 3c 9d 61 05 3d d9 e4 8f bc c3 29 42 3d
       0.020888375 0.032563794 -0.017565178 0.04740311
0003f0 f6 ba 7a 3c c9 4b 3b 3d 91 3c c2 3c a1 a5 2d 3d
       0.015303364 0.04572657 0.023710521 0.042394284

bias f4 [16]
000000 2d 85 bd 3d d7 ec 0a be 4a 3b 6c bd 8c 4d 15 3e
       0.09253917 -0.1356691 -0.05767373 0.14580363
000010 f4 9f 31 3e f0 71 bb 3d 39 11 bb bd 75 cc f6 3d
       0.17346174 0.09152591 -0.09134144 0.12050716
000020 2b 8d 58 3e f8 4c 0e be ef 42 90 3d d0 d4 9a 3c
       0.21147601 -0.13896549 0.070440166 0.018900305
000030 5e e0 b8 bd 52 13 29 3e 37 92 fb bd 0f 6a c2 bd
       -0.0902717 0.16511276 -0.12283748 -0.09492885

weight f4 [16, 32, 3, 3]
000000 8a cc 46 3d 49 84 2c bd 09 39 8b 3d 9d 3c d6 bc
       0.048534907 -0.042118344 0.06797988 -0.02615195
000010 cf 0d 34 bd 9e 7d 8a 3d d9 7a 14 3c c1 de 48 3d
       -0.04395848 0.06762241 0.009062492 0.04904056
000020 97 7a 51 3d 9b 32 ba bc 5c 4b 03 bd d6 06 17 bd
       0.0511423 -0.022729209 -0.03205429 -0.036871754
000030 0a 2c 65 3d d7 09 83 3c c7 ef f7 bc 41 91 67 3d
       0.055950202 0.015995903 -0.030265702 0.05653501
000040 87 25 d7 ba 02 5c 9a 3c 66 56 f4 3c 0c c5 9a 3c
       -0.0016414382 0.0188427 0.029826354 0.018892787
000050 e1 9c ac 38 e8 bf 73 3d 58 98 ab bc be 38 13 bd
       8.23082e-05 0.059509188 -0.020946667 -0.035942785
000060 88 f8 cf 3c 5f 35 57 3d f3 e5 60 bb 82 88 1b bc
       0.025387064 0.052541133 -0.0034316748 -0.009492995
000070 c8 8d b2 bc bb ba 5e 3d c3 8e d7 3c 48 70 55 3d
       -0.021796122 0.0543773 0.026313191 0.052109033
000080 97 12 b3 3c bd c4 00 3d 65 1e 26 3d 06 21 f9 3c
       0.02185945 0.031437624 0.04055633 0.030411255
000090 27 c8 6c bc d0 ce 1f 3d 7b 1d e0 3c 94 85 9d bc
       -0.014452017 0.03901559 0.027357807 -0.019228734
0000a0 da 98 85 3d ac be 50 3d a4 9b 6f 3d 98 c7 97 bc
       0.06523295 0.05096309 0.05849804 -0.01852779
0000b0 5b 44 a0 3c 2d 21 0d ba fb ff 1e bd be 82 25 bd
       0.019563844 -0.0005383667 -0.03881834 -0.04040789
0000c0 4e ae 08 bb 6c 8e 2f 3c 40 53 da 3c 02 43 07 bd
       -0.0020855847 0.010715108 0.026651025 -0.033022888
0000d0 29 41 8f bd e0 74 4e bd 6f 55 b7 bc b5 40 ba 3c
       -0.0699485 -0.05040443 -0.022379605 0.022735933
0000e0 dd 37 3f 3d 67 6e 53 3d 86 5c 05 3d cf 65 2c bd
       0.046684135 0.05161896 0.03255894 -0.04208928
0000f0 0d 98 17 3d cd f6 53 3c e5 f4 37 bd 17 40 0b bc
       0.03701024 0.01293726 -0.044911284 -0.008499167
000100 3d 21 3a 3d 31 fb ff 3c fb a5 f5 3c 61 ad be bc
       0.045441855 0.031247707 0.029986372 -0.023276033
000110 b5 48 b1 bc 14 72 7a ba 6a c8 42 bb ba 12 d5 bc
       -0.021641115 -0.0009553742 -0.0029721507 -0.026009906
000120 00 96 70 bd 14 63 c2 bb cd 7e 73 bd f5 d0 43 3d
       -0.0587368 -0.005932221 -0.0594471 0.0478067
000130 c0 58 dd 3c cf e2 2b bc df 34 06 3c 9e 16 42 3c
       0.027019858 -0.010491087 0.008191316 0.011846213
000140 cd d5 39 bd 7d 71 36 bd 0b e2 22 3d 98 fb 2d bc
       -0.045369912 -0.044541825 0.039766353 -0.010619067
000150 f7 cc 2b 3d 0c 69 be 3c 27 00 2a 3c 15 cb 44 bc
       0.041943517 0.02324345 0.010376013 -0.012011309
000160 00 85 19 bd 23 ba 2d bc 46 34 f6 3c 6c 31 5d bc
       -0.037480354 -0.0106034605 0.030054223 -0.013500553
000170 94 59 01 ba 79 62 a9 3b 29 37 d5 bc d5 2d 8e 3c
       -0.00049343077 0.0051692096 -0.026027279 0.017355839
000180 96 7b aa bc e4 96 7b b9 69 09 15 3c 5d 09 12 3d
       -0.020810883 -0.00023993436 0.009096482 0.03565346
000190 5e 3a 13 bd 2a 66 dc bc 1b f9 02 bd b7 4d 0d bd
       -0.035944335 -0.026904184 -0.031975847 -0.034497943
0001a0 7d 54 79 3d 72 93 24 3d bb 8a 82 3d e6 d9 39 bc
       0.06087159 0.040179677 0.06374117 -0.011343455
0001b0 ed eb 1e 3d 22 17 17 3d f5 db be bc 40 fa 63 3d
       0.038799215 0.036887296 -0.023298243 0.05565858
0001c0 b1 73 19 3d 55 76 3c 3d 3b 32 3e 3d 81 3c 70 bd
       0.037463848 0.046011288 0.046434622 -0.05865145
0001d0 6c bc b7 bc 5a 69 21 3d 99 38 35 3c 00 3e b9 bd
       -0.022428714 0.03940711 0.011060857 -0.09045029
0001e0 19 fc 25 3d 37 10 03 bd c8 d0 e9 bb 48 70 20 bd
       0.040523622 -0.031997886 -0.0071354844 -0.03916958
0001f0 60 47 12 bc 01 a1 88 bc f8 79 48 ba 1f 00 cb 3c
       -0.00892815 -0.016678335 -0.00076475693 0.024780331
000200 c0 c1 1b 3d 6b 28 91 3a 64 d5 c1 3c e4 a6 cf b6
       0.03802657 0.0011074668 0.023661323 -6.1885094e-06
000210 14 b0 52 3d 13 d9 3f bd f1 05 57 bd f9 ac a5 bc
       0.051437452 -0.046837877 -0.0524959 -0.020224081
000220 b1 58 95 bc f4 10 6e 3d 2a 6d 1b bd cb 02 56 bc
       -0.018230768 0.058121637 -0.037945904 -0.013062189
000230 be f1 28 3d 2b 4d 74 3d 88 c9 00 3d 57 e4 28 3d
       0.04124617 0.059643906 0.031442195 0.041233387
000240 2f 58 63 bd 65 07 8f bc d0 ba 96 3c 04 85 44 bd
       -0.05550402 -0.01745958 0.018399626 -0.047978416
000250 4f 8e aa bd 5a b2 68 bd b4 08 2d 3d 1b f1 38 3b
       -0.083279245 -0.056810714 0.042244628 0.0028219882
000260 e0 ce 03 3d ad ed b4 bc ce 34 af 3c fc 48 96 ba
       0.032179713 -0.022085989 0.021387484 -0.0011465843
000270 32 7e 94 3d 76 15 a5 3d 8b 2b 47 3d 96 c3 60 3d
       0.07250632 0.08060734 0.04862551 0.054874025
000280 c6 f7 b6 3d 42 9d 0e bc 40 84 84 3c 6e df 17 3d
       0.08933978 -0.008704485 0.016176343 0.037078314
000290 47 c7 58 bd 8c b3 13 bd 1c c7 65 bc ec fa eb bc
       -0.05292442 -0.0360599 -0.014024522 -0.028806172
0002a0 b6 fb 5e 3d af 24 c9 3c d4 06 dd bc 96 8c 4d 3d
       0.05443927 0.024553625 -0.026980795 0.0501829
0002b0 cd 6a e3 3c 92 83 c8 3b 4a f7 5c 3c 3c 2f 4f 3d
       0.027760888 0.0061192 0.013486693 0.050582156
0002c0 7f 20 66 3d 6c 5f d5 3c 61 21 3e 3d d0 29 8c 3d
       0.056183334 0.026046477 0.04641855 0.068439126
0002d0 17 e7 1c 3d 11 93 63 bd 80 24 c1 3c 4b ef 37 3d
       0.038306322 -0.055560175 0.023576975 0.044905942
0002e0 aa 87 6c bd aa d1 7b 3c 98 67 19 3d cb 04 10 3c
       -0.057746567 0.015369812 0.03745231 0.008790205
0002f0 12 f2 4a bd 21 69 3e 3d 42 81 15 3d 6d ad 93 3b
       -0.049547262 0.046486977 0.036500223 0.004506758
000300 52 1f 4c bd c5 2d 1e bd 26 d9 5a bc 1d 49 2c bb
       -0.049834557 -0.038617868 -0.013357436 -0.0026288696
000310 58 61 12 bd 9b 7e 49 3d b4 6a 1b 3d 72 64 7b bd
       -0.035737365 0.049193006 0.037943557 -0.06137509
000320 25 59 f5 3c f6 8e 21 bd d4 8a 79 bd 71 e9 b8 3b
       0.029949734 -0.03944298 -0.060923412 0.0056430628
000330 f7 13 e2 bc 2b b8 11 3c 53 24 88 bd fb e0 7d bc
       -0.02759741 0.008894007 -0.06647553 -0.015495534
000340 af 1b 6d 3d cc 3f 6d 3d c0 8c 00 bd cc 61 ad 3c
       0.05788773 0.05792217 -0.03138423 0.021164797
000350 06 f3 4a bd 6a 6d 3b 3d 6e 20 4e 3d d8 d5 11 bc
       -0.04954817 0.045758642 0.050323896 -0.008901082
000360 9e c0 56 3c a9 71 ea 3c 09 7b e5 bd 96 24 9f 3d
       0.013107447 0.02861865 -0.11205108 0.0777065
000370 e4 8c a2 3d 80 7d 5a 3b da a4 b0 b9 89 89 2b 3c
       0.07937029 0.0033338964 -0.0003369216 0.010469803
000380 79 b6 4f bd a4 84 56 3d 5f a1 3d 3c 0d 28 55 bd
       -0.05071113 0.05237259 0.011574118 -0.05204015
000390 e1 c6 48 bd 53 ef f5 3c f1 14 6e bc ab ea 3f 3d
       -0.04901779 0.030021345 -0.01453136 0.046854656
0003a0 d8 2d d1 bb 42 4b 73 3c f3 f0 4e 3c 07 a1 ef bc
       -0.006383639 0.014849486 0.012630689 -0.029251589
0003b0 d1 37 da bc c5 5c f0 3c 9d 48 8a bc a0 4f 08 bd
       -0.026637943 0.029341111 -0.016880328 -0.03327906
0003c0 76 46 08 bc 2b 0e 9d ba 7c c3 fe bc 7a 67 be bb
       -0.00831758 -0.0011982372 -0.031099074 -0.005810675
0003d0 47 d8 1b bd 22 78 99 bc da 4a 3a bd c7 bb a2 ba
       -0.038048055 -0.018734042 -0.04548154 -0.0012415581
0003e0 d6 e8 29 bd b1 0a 51 bc 6d 26 0f bd 21 d4 2d 3c
       -0.041481815 -0.012758897 -0.034948755 0.0106096575
0003f0 6d 8d 83 bc f1 53 20 bd ed 83 c1 3c b1 3d 03 bd
       -0.016058648 -0.039142553 0.023622477 -0.032041255

bias f4 [32]
000000 46 30 23 3e c8 2b fc 3d e7 4d b4 bd 04 c3 ff 3d
       0.15936384 0.12313038 -0.08803921 0.12488368
000010 7d 2e fc 3d 06 91 fc 3c 36 d4 cb bc 1b 75 87 bd
       0.123135544 0.030830871 -0.024881463 -0.06614133
000020 6b 47 16 bd b4 27 1a bd e2 b5 89 bd eb 63 ae bd
       -0.036689203 -0.03763552 -0.067241445 -0.085151516
000030 5a c3 1f 3e c8 6d af 3d b2 80 8d 3d b1 2d 2f bd
       0.15601864 0.08565861 0.06909312 -0.042768184
000040 f6 52 30 bd 01 48 8f bd 93 2b be bd ad a1 fc 3d
       -0.043047868 -0.069961555 -0.09285655 0.12335525
000050 0d e7 b5 3d a9 81 94 3c 8c a5 0f 3e 69 69 26 bc
       0.0888196 0.018128233 0.14027995 -0.010156968
000060 3b e5 89 3d 3f 8c d5 bd af c5 81 bd 09 a5 92 3d
       0.06733175 -0.104271404 -0.06336533 0.07160384
000070 5f 7b c1 bc 87 9d 9a 3c 0c cf 05 3e 9f 16 38 bd
       -0.023618398 0.018873943 0.13067263 -0.04494345

weight f4 [32, 3, 3, 3]
000000 31 b2 c5 bd b4 d5 11 be 9d e8 de bd 60 55 01 be
       -0.09653128 -0.14241678 -0.10884211 -0.12630224
000010 95 2d db bd 36 75 99 bc f9 df cd 3d b0 43 06 be
       -0.107020535 -0.018732648 0.10052485 -0.13111758
000020 7f 6a ec 3d 06 96 fc 3d 26 0e 3b be 79 14 bd 3c
       0.1154375 0.12333302 -0.18267116 0.023081051
000030 e4 b9 cf 3d c9 30 39 be b4 07 5a 3c d0 fe 1e 3d
       0.10142878 -0.18085016 0.013307501 0.038817227
000040 f8 a8 c9 bd 81 d5 96 bd ac 1b 93 3d 8f 32 83 be
       -0.09846681 -0.073649414 0.07183012 -0.2562451
000050 01 a7 d9 3d 7a c9 1d b9 0a 7d 0e be 4e 88 4d be
       0.106275566 -0.00015047743 -0.13914886 -0.20071527
000060 09 da ad 3b d7 fe 8b 3d 24 a2 e1 bd dc 34 00 bd
       0.005305533 0.06835716 -0.11017254 -0.03130041
000070 26 2a 77 3d f4 5f 0c 3d b4 52 39 bc 2a 68 51 3d
       0.06034293 0.034271196 -0.011311222 0.05112473
000080 54 44 e9 bd 71 ce 06 bd e7 85 2c be c3 b4 1d be
       -0.11389986 -0.03291172 -0.16847955 -0.15400986
000090 f8 a6 61 be 5d ad 25 be 1b 01 66 be d4 2f e9 3d
       -0.2203635 -0.16179414 -0.22461359 0.113860756
0000a0 71 22 80 3d ce a2 02 3d 6a 0d 8f bd 0f 5f bb 3d
       0.06256569 0.031893544 -0.069849804 0.0914899
0000b0 67 6e 2e be fb cd 11 3d 7e f4 25 bd 71 f5 62 be
       -0.17034303 0.03559683 -0.04051637 -0.22163941
0000c0 10 6b 2e bd 3e 5a 0f 3e 2e 26 72 be c9 9d f2 bd
       -0.04258257 0.13999268 -0.23647377 -0.118465014
0000d0 7a 07 2a bd e7 c9 19 be 54 8a 19 3e 10 27 18 be
       -0.041511036 -0.15018426 0.14994174 -0.14858651
0000e0 77 88 cd bd e4 81 42 3e ae 3a e6 bb 4c b1 e4 3d
       -0.10035794 0.18994862 -0.007026038 0.11166629
0000f0 ac 34 3b bd 8e fc 76 3d 84 b2 dd bd e2 b4 5d 3d
       -0.04570453 0.06029945 -0.10825065 0.05412758
000100 b9 50 e7 3d e4 62 23 be dd 5f 49 3e 48 08 e5 bd
       0.112946935 -0.15955693 0.19665475 -0.1118322
000110 4b 10 48 3e 12 52 21 3d 5a 72 0e be 2d b2 3e 3e
       0.19537465 0.03938491 -0.13910809 0.18622656
000120 ef 09 09 be 22 79 0d 3e 01 91 cf 3d 04 1f 09 be
       -0.13382696 0.1381574 0.10135079 -0.13390738
000130 1b 0a ab bd 68 d5 a7 3c ab c0 c7 3d d1 2c 1d be
       -0.08351537 0.020487502 0.097535454 -0.15349127
000140 da 07 24 3e 12 38 3a 3e 8d 12 3a be c4 01 49 bd
       0.1601862 0.18185452 -0.18171139 -0.04907395
000150 8b 57 d7 3d 28 85 30 be a2 c5 18 3e 13 25 33 be
       0.10514744 -0.17238295 0.14919141 -0.17494611
000160 55 61 55 be 19 6f 97 bd 72 3c 38 bd 9a 35 c3 3d
       -0.2083791 -0.07394237 -0.04497952 0.09531708
000170 a3 39 9f bb 32 18 d4 3b 82 4d ef 3d 28 f5 35 be
       -0.0048591658 0.006472611 0.11684705 -0.17769301
000180 f9 fc 64 bd b8 b4 87 3d 24 8c 9d bc 0b 4a 2a be
       -0.055905316 0.06626266 -0.019231863 -0.16629808
000190 37 a6 ce 3d 4c 73 2c 3e 17 25 24 be 4e 5e 33 3e
       0.10090297 0.16840857 -0.16029774 0.17516443
0001a0 cf 38 47 3d a0 58 4e be 78 e9 20 be 1c 85 c3 bd
       0.04863816 -0.20150995 -0.15714061 -0.09546873
0001b0 77 c7 58 3d 27 2d 1a be 88 ff 32 be 35 7f 69 be
       0.0529246 -0.15056287 -0.1748029 -0.22802432
0001c0 da 36 34 be 35 74 3e be 1a 9a 6b be 30 51 d5 3c
       -0.17599049 -0.18599017 -0.23008004 0.02603969
0001d0 d3 9e 88 bd 0a 15 4c be 96 9b 5a 3b 58 12 01 be
       -0.06670918 -0.19929901 0.0033356897 -0.12604654
0001e0 23 fa bc 3d 0a f1 11 3e d0 08 2a 3d 06 da e9 3b
       0.09227397 0.14252105 0.04151231 0.007136586
0001f0 11 62 02 be 10 47 c2 bd f4 71 14 bb ee 14 85 3d
       -0.12732722 -0.0948621 -0.002265093 0.06498133
000200 7f ed be 3d 4e a0 27 be 78 d6 40 be 0d ce 76 be
       0.093226425 -0.16369745 -0.18831813 -0.2410204
000210 03 4d 1c 3d 5a 88 57 be 2d fb 27 be ed 32 00 be
       0.03815938 -0.21048108 -0.1640441 -0.12519427
000220 69 7b 0e bd 97 ec 20 bc 1b 46 07 be e0 a1 d1 3c
       -0.03478566 -0.009822032 -0.13210337 0.025589883
000230 61 09 b7 3d 1c e2 2c 3e e7 4c 04 3d 6e 56 5e 3d
       0.08937336 0.16883129 0.032299902 0.054281645
000240 68 8f f6 3d 3b 38 ab 3d 30 72 14 3e e8 13 38 be
       0.12039071 0.083603345 0.14496684 -0.17976344
000250 72 21 00 bd fc 7c 5c bd c4 0a 83 3d 3c aa 11 3d
       -0.031281896 -0.053830132 0.06398538 0.03556274
000260 5c 47 85 bc ae 61 d3 3c 99 46 1d 3d 06 af 09 be
       -0.016269378 0.025803413 0.038397405 -0.13445672
000270 4a 34 80 3a ce f7 a3 3c fb d3 22 3c 9d b8 a7 bd
       0.0009781208 0.020015623 0.009938235 -0.08189509
000280 5e 86 16 bd 73 74 f1 bd 66 b8 26 be 7f fc 9d bd
       -0.036749236 -0.11789789 -0.1628128 -0.077141754
000290 93 ae 19 be 78 f8 a4 3b d7 dc 56 bd 5c 18 46 3c
       -0.15008001 0.0050345026 -0.052456703 0.012090769
0002a0 9a ee 60 3d 15 32 d0 bd 76 0e 1e 3e 76 31 c3 3d
       0.05491505 -0.101658024 0.15435204 0.09530918
0002b0 00 09 a3 bd 19 97 75 3d 52 86 71 bc bb c0 26 be
       -0.07960701 0.05995855 -0.014741497 -0.16284458
0002c0 78 64 f9 bd 12 9c e4 3d 74 81 f1 3d a7 50 a2 bd
       -0.12177366 0.111625805 0.11792269 -0.079255395
0002d0 69 70 17 3e e8 cf 00 bd 1d 70 cf 3d 12 3b 43 3d
       0.14788975 -0.031448275 0.10128806 0.047663756
0002e0 b5 b4 23 3e 9b cd 6c bd f0 57 03 3d e8 7a 6a bd
       0.15986903 -0.05781327 0.032066286 -0.05724612
0002f0 4c bc 24 be 73 ec 0e 3e 48 62 27 bd 75 19 3b 3e
       -0.16087455 0.13957386 -0.040865213 0.1827143
000300 91 1b 8b bc 1f 71 30 3e 1f e7 19 be ec 23 06 3e
       -0.016980918 0.17230652 -0.15029572 0.1309964
000310 1b f0 1c be 29 25 e2 3d 26 ef 19 3d aa 57 6c bd
       -0.15325968 0.11042244 0.037581585 -0.05770079
000320 75 fe b4 bc 74 d0 51 3e 67 9d 70 3d b3 f4 18 3e
       -0.02209399 0.20489675 0.05874386 0.14937095
000330 1d 85 ff 3d cb a9 0a be 95 84 0e be 19 48 5c 3d
       0.12476561 -0.13541333 -0.13917764 0.053779695
000340 bc 9b 0e be 6f 26 20 3e c4 86 a8 3d 92 c4 5a 3e
       -0.13926595 0.15639661 0.082288295 0.21364048
000350 26 a4 44 3e d6 8c 0f 3d 35 52 20 be e3 9f ef bc
       0.19203243 0.03504642 -0.1565636 -0.029251045
000360 51 62 f4 bd da 8d 17 3e a5 f2 25 3e 0e f6 53 3e
       -0.11932815 0.14800206 0.16205843 0.20699331
000370 fd 1f 9a 3d 2c cc e6 bd 9f 18 16 3b 46 47 5e 3b
       0.075256325 -0.112694114 0.002290286 0.0033916994
000380 37 f5 a5 3d aa a5 23 be 9f ad 2e 3e 39 f5 2c be
       0.08103412 -0.15981165 0.17058419 -0.1689042
000390 fa 58 7c bd 70 a0 5d 3d 4d 8c 90 bd 80 6a 92 3d
       -0.061608292 0.054108083 -0.0705801 0.071492195
0003a0 c5 1c f1 3d 74 59 26 be 50 9f bf 3c 98 83 a5 bd
       0.117730655 -0.16245061 0.023391396 -0.0808174
0003b0 3d 86 ff 3d 43 9c 25 3e be a4 d4 bd 10 f4 bc 3c
       0.12476776 0.1617289 -0.103829846 0.023065597
0003c0 87 1f 50 3d a4 1e b7 bd ac ff f0 3d ff f1 92 bc
       0.050811317 -0.08941391 0.117675155 -0.017937658
0003d0 c4 87 92 3d 2a 41 8b bc 6b 59 3a 3e b7 8c d3 3d
       0.071548015 -0.016998846 0.18198173 0.103295736
0003e0 0b e1 aa 3d 9d ac a2 3d 51 7e 35 3d 31 de 91 3d
       0.08343705 0.079430796 0.044309918 0.07122458
0003f0 5a 39 83 bc 70 67 be 3d 95 3a 32 3e e9 ef 35 be
       -0.016018558 0.09297073 0.1740516 -0.177673

bias f4 [3]
000000 34 2a 81 bd 4e 0b 78 bd fb c1 1e be
       -0.06306878 -0.060557656 -0.15503685
