inpatinign diagrams/best_final_denoising_model.pth (torch, 60578 bytes, 12 tensors)

weight f4 [32, 3, 3, 3]
000000 59 ce 8b bd 25 d1 7d bd 9e a5 0c 3e 16 63 c4 3d
       -0.06826467 -0.061967034 0.13735053 0.09589212
000010 b4 9d be bc f0 c7 e2 3d 74 af 2f bd 5e 68 90 3d
       -0.023268558 0.11073291 -0.042891935 0.070511565
000020 6e 0c ae 3c ed 79 26 bd 4f 1d c0 3d 3b a7 29 be
       0.021246161 -0.04064362 0.0938059 -0.165677
000030 be e2 07 bc 0a a4 3d bd d0 dc dd bd da 26 80 bc
       -0.008293806 -0.046299018 -0.10833132 -0.015643526
000040 03 5d d9 3d ca 64 91 3d 03 ce 2c 3e df 3a 5a bd
       0.10613444 0.07099302 0.16875462 -0.0532788
000050 eb c3 9a bc fb c9 04 3d 23 b6 03 3e fb 0b 20 bd
       -0.01889225 0.032419186 0.12862448 -0.039073925
000060 4d b1 1d be d2 e5 93 bd d1 c3 db 3d 35 24 32 3e
       -0.15399666 -0.07221569 0.107307084 0.17396624
000070 5b 02 6f 3d 27 3b 87 bd c3 98 48 bd 0f 2f d8 3a
       0.058351856 -0.06603079 -0.04897381 0.0016493517
000080 33 b3 35 3e be fa fb bd a7 b9 03 be 0e bf 50 bd
       0.1774414 -0.12303685 -0.1286379 -0.050963454
000090 fc c8 9e bb 16 e4 dd 3d 33 ee 21 3d 09 49 2d be
       -0.0048457365 0.108345196 0.039533805 -0.16922392
0000a0 af 1c 80 3c 15 54 89 3d e5 06 48 3d ed 85 36 3e
       0.015638677 0.067054905 0.0488347 0.17824526
0000b0 ac 8d 81 bd de e4 2a be 92 eb 2c 3e a1 57 2f be
       -0.0632585 -0.16688868 0.16886738 -0.17123272
0000c0 41 78 60 3d 25 50 35 be 35 a9 fa 3d af 8f 24 bd
       0.054802183 -0.17706354 0.12239305 -0.04017609
0000d0 06 77 32 bc 12 87 4a 3e fe 88 a0 bd 4d c5 d9 bd
       -0.010892635 0.19778088 -0.07838629 -0.10633335
0000e0 77 f9 37 be fa 74 87 bd b5 8d 3b 3e 50 20 2f bc
       -0.17966257 -0.066141084 0.18315776 -0.010688856
0000f0 c0 20 38 bd b5 2f 0f be bd 6f d9 bd 2a bb 8f bd
       -0.044953108 -0.13983043 -0.106170155 -0.070181206
000100 df a2 4b 3e 32 b2 42 3e 96 61 f4 bd 55 c8 2f be
       0.19886349 0.19013289 -0.119326755 -0.17166264
000110 61 dc 4c 3e 19 8c bf bd e1 38 8f bc 93 a1 14 3e
       0.20005943 -0.093528934 -0.017483177 0.1451476
000120 92 33 1c be 00 2a 18 be e4 5f 92 3d a5 53 d5 3c
       -0.15254048 -0.14859772 0.07147196 0.026040861
000130 aa 33 ac 3d ce 3f d5 3d 83 1d 02 3e 6a 29 8b 3d
       0.08408292 0.104125604 0.1270657 0.067950085
000140 65 13 e4 3d cd 8e 2c be 0c 52 d3 3d cf cd a1 3d
       0.11136512 -0.16851349 0.103183836 0.07900583
000150 0e f5 2f 3e fc 4c c8 bd c7 77 8f bd e7 43 35 3e
       0.17183325 -0.097803086 -0.070052676 0.17701684
000160 4a 08 83 bd ae 05 27 3c 06 2a 24 be 69 98 48 3d
       -0.063980654 0.010194225 -0.16031656 0.048973475
000170 d7 d7 5c bd 28 33 17 3e 19 e3 2e be be ea 96 3d
       -0.05391678 0.14765608 -0.17078818 0.07368992
000180 f9 63 05 be dc a4 37 3d 21 b2 ff bb 9d 91 35 3d
       -0.13026418 0.044834957 -0.007803217 0.04432832
000190 66 a4 e2 3d b9 04 20 3e b6 d0 e4 3d a6 7d 21 bd
       0.11066513 0.15626802 0.11172621 -0.03942647
0001a0 d6 e9 cf bc 2d 19 7d 3d 9c 2b 3e bd 96 57 0e 3e
       -0.025380056 0.061791588 -0.046428308 0.13900599
0001b0 fa cd 1b 3e 99 0a 81 bd 9f 1d 8e bd 73 a9 4d be
       0.15215293 -0.063008495 -0.069392435 -0.20084171
0001c0 28 09 ba 3d b5 fa 02 be 5b 7b 00 3e d3 11 1f 3d
       0.09083778 -0.1279095 0.12547056 0.038835358
0001d0 ed ef 91 3d 99 4d 98 3c 7e 16 ae bc a2 9c 27 be
       0.0712584 0.018591689 -0.02125096 -0.16368344
0001e0 7d 7a ab 3d 58 40 20 be 57 97 77 bd 93 49 2b be
       0.08372972 -0.15649545 -0.060447063 -0.16727285
0001f0 79 01 2a 3d ed 76 c1 bd f1 7a 41 bd 9e ef 14 3e
       0.04150531 -0.094465114 -0.047236387 0.14544532
000200 6f e9 23 be 18 91 1e be 35 70 86 bd b5 9d 1a 3e
       -0.16007017 -0.15485036 -0.065643705 0.15099223
000210 5d 06 25 be 90 59 08 bd 91 00 5f 3c 10 7b 15 bc
       -0.16115709 -0.03328854 0.013610975 -0.009123579
000220 9e bb a6 bb c4 92 cd 3d d6 7c f7 bb c8 32 14 bd
       -0.0050882837 0.10037759 -0.0075527234 -0.03618124
000230 40 99 49 3e 73 af 02 be 93 64 a3 bc 5f 52 ab 3d
       0.19687366 -0.12762241 -0.019945418 0.083653204
000240 16 15 06 be 72 9b 26 be 49 18 ef bd 5c 97 a9 bc
       -0.13093981 -0.16270235 -0.11674554 -0.020702057
000250 be 41 d0 bd 4d a6 1d 3e 5b 63 b2 3d 25 d1 2f bd
       -0.10168789 0.1539547 0.08710357 -0.042924065
000260 e1 c0 40 3e b0 1d d0 bd 48 6e 38 3d 38 97 97 3c
       0.18823577 -0.101619124 0.045027047 0.018504724
000270 19 cf 1a bd 21 7b 1b be d6 5f be bd 05 98 03 3e
       -0.03779516 -0.15183689 -0.09295623 0.1285096
000280 70 07 cf 3d de 2f c1 bd ff 1e 3e 3e 3a 0d 28 3e
       0.101088405 -0.09432958 0.18566512 0.16411296
000290 88 de 16 be d7 d4 09 be ea 63 0e 3d 44 78 02 3e
       -0.14733326 -0.13460098 0.034763254 0.1274119
0002a0 3e a5 35 be e9 56 1d 3e 4f 30 58 3d c3 bf 29 3e
       -0.17738816 0.15365185 0.052780446 0.16577058
0002b0 8f 9f 42 3d 59 00 e7 bd b8 a4 be bd 79 1f 1a be
       0.04751545 -0.11279363 -0.09308761 -0.15051068
0002c0 d2 76 fb 3d 6e 98 d4 bd c5 58 2b be 33 c9 25 be
       0.122785226 -0.10380636 -0.16733082 -0.16190033
0002d0 27 93 8b 3b b7 5b 38 3e 51 52 fb bd dc 6e fc 3b
       0.0042594853 0.18003736 -0.1227156 0.007703645
0002e0 fd a0 1c be 6c 29 4f 3d f7 41 e0 bd e0 1e 33 3e
       -0.15295787 0.050576612 -0.10950082 0.17492247
0002f0 9a e2 28 be f1 1d 2d 3e c1 cc db bc 07 de b7 3d
       -0.16492692 0.16905953 -0.026831033 0.08977895
000300 bc 3e 47 3d b7 ba cd bd 0b df 88 3d 70 78 13 3d
       0.048643813 -0.10045379 0.06683167 0.03600353
000310 86 28 11 be a8 45 ed 3d e4 ed fa 3d 07 cf 34 3e
       -0.14175615 0.115855515 0.12252405 0.176571
000320 ee e2 8d 3d df 97 2c 3e d5 1c c8 3d 53 f6 e1 3d
       0.06928049 0.16854809 0.09771124 0.11033311
000330 00 6c 44 be c3 e0 0e 3e 3b 62 d3 3c af 59 0a 3e
       -0.19181824 0.13952927 0.025803676 0.13510774
000340 ab 15 f8 3d 13 aa c9 bd 41 7f 3b 3d bc 37 b2 3d
       0.12113508 -0.09846892 0.045775656 0.08702037
000350 85 a4 a2 bd bd fc 8f bc 24 19 c5 3c d2 14 8f bc
       -0.07941536 -0.01757657 0.02405984 -0.017465983
000360 74 d7 1b bd 02 b7 1f bd 6d 44 76 bd 44 4d ef bd
       -0.03804727 -0.03899289 -0.06012385 -0.11684659
000370 79 3a 50 3e ea 46 9e 3d 02 26 6c 3d 58 aa dd bd
       0.20334806 0.077283695 0.057653435 -0.10823506
000380 e2 08 4e 3e e3 4a cf 3d 8d 04 f3 bd ec c4 32 3d
       0.20120576 0.101217054 -0.11866102 0.04364483
000390 74 ed 11 3e 43 48 0c 3d 69 70 2f 3e 50 13 2a 3e
       0.14250737 0.0342486 0.17132725 0.1660893
0003a0 2b bb 94 3d 29 67 a5 bc 94 68 fe 3d b7 34 61 bd
       0.07262262 -0.020190792 0.124222904 -0.054981913
0003b0 14 e3 78 b9 fd ac d3 bd 8e 40 8b 3d ae 86 ba bc
       -0.00023735716 -0.10335729 0.06799422 -0.022769298
0003c0 22 23 91 bd a1 1f 67 bd e3 90 35 be f8 42 e7 bd
       -0.07086779 -0.056426648 -0.17731051 -0.1129207
0003d0 e7 bf 18 3d 9d 9d 12 be 77 56 d2 3d ca d3 2f 3e
       0.037292387 -0.14317937 0.10270398 0.17170635
0003e0 52 e8 02 be d3 d7 06 3e 2e ef 36 3e ce 68 07 3e
       -0.12783936 0.13168268 0.17864677 0.13223574
0003f0 25 24 0d 3e 99 2e 9f bd db e5 fb 3d a4 22 2d be
       0.1378332 -0.0777256 0.12299701 -0.16907746

bias f4 [32]
000000 cd bf 56 3b d9 4a 2d bd 51 82 2c 3e 05 97 b7 bd
       0.003276813 -0.04230771 0.16846587 -0.089643516
000010 94 2a 6a 3e 24 fe 36 3e 99 78 f6 bc f4 24 8c be
       0.22867805 0.17870384 -0.030086802 -0.27371943
000020 1d 12 a1 be 8d c7 aa bc b6 b5 f3 3d 50 75 0a bd
       -0.31459132 -0.020847106 0.11899893 -0.033803284
000030 f3 1c 91 3e 71 09 28 3e 6b 16 f1 bd de 6a 94 3d
       0.283424 0.16409852 -0.11771854 0.07246946
000040 4d 90 2d 3e bb bc 87 3d 45 6d 10 bd 6c ed b2 3e
       0.16949578 0.06627794 -0.035260458 0.34946764
000050 df 31 fd 3b ba 31 15 3f ad 99 ad be ba f0 08 be
       0.0077268924 0.58279 -0.33906308 -0.1337308
000060 c6 98 d8 3b c8 47 c5 3e 16 45 b0 3e e2 9a ab 3d
       0.006610009 0.38531327 0.34427708 0.08379151
000070 3d d2 06 be 88 52 02 3d 0c 20 25 be 77 8f 1d 3e
       -0.13166137 0.03181699 -0.16125506 0.15386759

weight f4 [16, 32, 3, 3]
000000 47 52 46 bd 19 f6 92 bb 02 6d eb bc 65 b2 30 bb
       -0.04841831 -0.0044849035 -0.028738502 -0.00269618
000010 48 11 13 3d 9d 73 98 bc ed e6 4a bd 81 50 57 bd
       0.035905153 -0.018609816 -0.049536634 -0.05256701
000020 6b 78 71 bc c8 ab 3b bd 8f ef a3 3b e4 ba 21 3d
       -0.014738183 -0.04581812 0.005002923 0.039484873
000030 02 53 b0 bc 9d 5c a5 ba 0f 06 62 3d c0 0b 3b bc
       -0.021523956 -0.0012616102 0.05518156 -0.011416376
000040 0b e9 de 3b 9b 89 09 3c 7e 1a 46 bb a8 58 25 bd
       0.006802683 0.008394624 -0.0030228193 -0.040367752
000050 81 12 63 bd a8 5a df 3c 2d 8f 99 bc 9a b7 03 bc
       -0.05543757 0.027264908 -0.01874503 -0.0080393795
000060 3b 6d 11 bd 57 06 21 bc 57 b0 6d 3d 7e 9d 33 bc
       -0.03550456 -0.009828172 0.0580295 -0.010962842
000070 56 ca 0b 3d 34 23 0f bd d3 4e 6b 3c 8a 67 56 bd
       0.03412851 -0.03494568 0.014362055 -0.052344836
000080 b3 3a 4d bc 7b db 0e bb 55 ad a0 bc dc 88 43 3d
       -0.012526202 -0.00217983 -0.019613901 0.04773794
000090 63 5a d8 bc a6 c9 e8 bb c4 00 2b ba 64 ac ef 3c
       -0.026410287 -0.0071041165 -0.00065232464 0.029257007
0000a0 fc 2d 2c 3b 7d 08 d5 3c 47 7d 43 bd 43 f9 ba bb
       0.0026272526 0.026005024 -0.047726896 -0.005705984
0000b0 12 7f 69 3b aa 14 20 3d d0 e2 48 bd 75 4c f7 bc
       0.0035628718 0.039082207 -0.04904443 -0.030187825
0000c0 be be 2f 3c eb c8 9c 3c 17 8d f3 3c 46 df fd 3b
       0.010726629 0.019138774 0.029730363 0.0077475635
0000d0 ef b8 55 3d 57 63 05 bd 3d b6 a8 bc b2 80 b3 3b
       0.05217832 -0.03256544 -0.02059471 0.005477988
0000e0 11 a9 25 3d ba 72 08 bd 61 ba 85 bc 23 f4 35 3d
       0.040444437 -0.033312537 -0.016324224 0.04442228
0000f0 68 ce 3a 3d fb 3b 24 bd ae fb c4 3b f3 f5 3b bd
       0.045607 -0.040096264 0.006011448 -0.045888852
000100 16 4c 4d 3c 1e da 10 3c ef 88 89 bc df da 62 bb
       0.012530347 0.008841066 -0.016788928 -0.003461532
000110 33 89 9b 3c b5 54 51 3b a6 ed 41 3d eb e4 2b 3d
       0.01898632 0.0031941358 0.04734578 0.04196636
000120 59 2d e1 3b 62 21 db bc 9a b4 34 3d 65 5a 61 bd
       0.006871861 -0.026749317 0.044117548 -0.055017848
000130 6d 77 22 3d 24 4a c0 3b ce d4 45 bd bf 19 69 3d
       0.039664675 0.0058682133 -0.04829865 0.05690932
000140 7a 98 41 bd 61 7a 9b bb eb 24 dd bc 87 d2 70 3d
       -0.047264554 -0.0047448133 -0.026995143 0.058794525
000150 e0 c6 a4 3c 19 0b 4d 3c b6 c9 2e bd dd 1f 17 3c
       0.020114362 0.012514853 -0.042672835 0.009223905
000160 dd 79 4e 3b 95 26 52 3d f5 5d cd bc 41 ce 26 bd
       0.0031505742 0.051306326 -0.025069216 -0.040724043
000170 16 7d cc bc 01 a7 ac bc 63 cf 56 bd 1e 6a 30 bd
       -0.02496199 -0.021075727 -0.052443873 -0.04306995
000180 9a a3 3a bc 86 3e b6 3b 07 27 49 3d 7b db c4 bc
       -0.011391545 0.0055616526 0.049109485 -0.024030438
000190 0b dd f6 bb 6f af 8c 3c 97 58 ad 3c 9e 18 10 bd
       -0.0075336746 0.017173497 0.021160407 -0.035179727
0001a0 c5 93 9e 3d 2e bc 56 bd a4 9a bc bc 95 80 69 3c
       0.077430286 -0.052425556 -0.023022957 0.014251848
0001b0 3b fb c8 bc 05 de 98 bb 4a 31 6d bd 4d cb 08 3c
       -0.024533859 -0.0046651387 -0.057908334 0.008349252
0001c0 5c 8b 53 bc 5b 3f 56 3d 97 55 94 3b 6b 9c 65 bd
       -0.012911644 0.052306514 0.0045268047 -0.056057375
0001d0 7f 5b 30 bd a7 14 d3 3c 89 af 0d 3d 77 6d f3 3c
       -0.043056007 0.025766684 0.03459123 0.029715283
0001e0 61 5a de ba 04 4f 2c 3c 86 b2 cf bb ef 3c 13 3c
       -0.0016964191 0.010516886 -0.0063384203 0.008986696
0001f0 3d df b5 bb 49 dd 11 3d 88 df f7 bc f3 ef 30 3d
       -0.0055502937 0.035611425 -0.030257955 0.043197583
000200 b8 6d 30 bd 9d cd 2f bd 5f 95 0d 3d bb af 80 3d
       -0.043073386 -0.042920697 0.03456628 0.06283518
000210 4a 41 ad bc ba a3 3e bd 0f d3 80 bc 2f 89 9b bc
       -0.021149296 -0.04654286 -0.01572564 -0.018986313
000220 e4 8c 93 bc 91 b5 06 3d 6b 04 88 bc 2e be 46 3d
       -0.018011518 0.032888 -0.01660367 0.048521213
000230 ea bd 23 3d 0a ae 4b 3d c8 f9 c0 3c 55 56 b2 bc
       0.039976038 0.049726523 0.023556605 -0.021769682
000240 e1 ba 9a 3c a8 ab 4c bb 79 65 3e 3d 85 35 3a bb
       0.018887939 -0.0031230245 0.04648349 -0.0028413248
000250 bc fd c4 3c 09 b2 29 bd b5 f6 0d bc 08 5f 22 3d
       0.024046771 -0.041429553 -0.008664777 0.03964141
000260 9f cf 8d 3c f0 00 bf bd ba 07 d7 bc 4a 40 59 bd
       0.017310916 -0.09326351 -0.026248801 -0.053039826
000270 26 c0 b8 3c e1 60 f6 3c e6 a2 e4 3c b7 ad 52 3c
       0.022552561 0.030075492 0.027909707 0.0128588
000280 09 2d 98 3c 1c 57 04 bd ab 77 0f 3d 77 b6 a0 bc
       0.018576162 -0.032309636 0.035026234 -0.019618256
000290 6c df ef 3c 3b da fe 3c a6 d8 e5 3b 3c 3f 40 bc
       0.02928134 0.03110992 0.007014352 -0.011733826
0002a0 e3 d2 24 3d a9 13 75 3d 98 7c 2a 3b f1 49 22 3c
       0.04024018 0.059833203 0.0026014205 0.009905324
0002b0 2f 7d 46 bb 4e a6 62 bc 8a 60 09 3d 0f 49 51 bd
       -0.0030287018 -0.013833595 0.033539332 -0.051095065
0002c0 a7 08 4a 3d 57 ba c8 3c b9 d7 de bb d4 fa b1 bb
       0.049324658 0.024502916 -0.0068006185 -0.0054315124
0002d0 34 de 24 bc cb eb 84 3c 85 a3 e4 3c a4 1f 77 3d
       -0.010062743 0.016225716 0.027910003 0.06033291
0002e0 e8 43 17 bd e9 99 06 bd 70 29 57 bd 61 b8 23 bd
       -0.036929995 -0.032861624 -0.052529752 -0.03997076
0002f0 5b 50 47 3d 59 58 8d bd 01 cb 2d 3d fc f3 ce bd
       0.048660617 -0.069016166 0.042429928 -0.1010513
000300 86 df 3a bd f9 0d 2f bd 6f 7a 99 bc 44 b9 ae 3d
       -0.045623325 -0.042737935 -0.018735139 0.0853143
000310 ff ab c3 3c a3 a1 29 3d f4 26 49 3c 62 81 11 bc
       0.023885725 0.041413914 0.012277354 -0.008880945
000320 ba fb 90 3c 9a a2 57 3d 5c 2e 3f bc ba 50 1f bd
       0.017698158 0.052645303 -0.011668768 -0.038895346
000330 e5 df 1b bb fc f0 7d bc 47 b0 34 3d 06 e9 7a bd
       -0.0023784575 -0.01549935 0.044113424 -0.061257385
000340 5b 85 08 3d 3d b7 06 3d 4d ca 2e 3d bf d7 44 3d
       0.033330303 0.032889593 0.042673398 0.048057314
000350 05 3b b8 3c 46 be f9 bc b2 6a b0 bc 3a da e7 bc
       0.02248908 -0.030486237 -0.021535251 -0.0283023
000360 0e dc ef bc f6 65 18 bc a8 88 6c bd c3 b6 f6 bc
       -0.029279735 -0.009301653 -0.057747513 -0.030116444
000370 3e e5 f1 bc 58 43 70 3c 80 c9 41 3d fc 6d 54 bd
       -0.029528257 0.0146644935 0.047311306 -0.0518627
000380 1d 96 58 3d 68 73 2b 3d d5 b4 12 bd e2 f9 31 bc
       0.052877534 0.041858107 -0.035816986 -0.010862799
000390 8e a0 04 3d ae 69 98 bc 86 ba 6e 3d 10 b7 0e bd
       0.03237968 -0.01860508 0.05828335 -0.03484255
0003a0 ce 7f 04 bc 54 43 90 3c bd 6c f1 bb f3 b5 a0 bc
       -0.008087112 0.01761023 -0.007367699 -0.01961801
0003b0 33 d0 04 3d 88 d7 21 3c b0 11 2b bc 72 03 a0 3c
       0.032425117 0.009878047 -0.010441229 0.019532893
0003c0 d9 de 25 bd f2 1d 15 3d 25 4e eb 3c 7e 08 62 bd
       -0.040495727 0.03640551 0.028723786 -0.05518388
0003d0 6e 1e c9 3c dc 0a 10 3d 7c cf 27 bd cc 5e 6f bc
       0.024550643 0.035166606 -0.040969357 -0.014610004
0003e0 3e 8a e8 3c c8 72 d7 bb 81 2a 63 3d 7d d4 35 3c
       0.028386232 -0.0065749623 0.055460457 0.011098024
0003f0 58 e2 d8 bc e1 a6 15 3d af 72 98 3b 0f c3 2d bd
       -0.026475117 0.0365361 0.004652343 -0.04242235

bias f4 [16]
000000 52 30 ce 3d 1a 5a 11 3d 51 79 1b 3e af e6 90 3d
       0.1006781 0.03548632 0.15182997 0.070752494
000010 12 90 28 3e 77 01 b4 bd 11 97 32 bc c4 0b b0 3e
       0.16461208 -0.08789342 -0.010900275 0.34383976
000020 82 df 1c bd c3 a7 28 3d 12 fd 80 3e 2e 55 01 be
       -0.03829909 0.041175615 0.25193077 -0.1263015
000030 23 ba 50 bd 92 cf 9e bd 44 e8 a8 bd 91 c9 a3 3e
       -0.050958764 -0.07754435 -0.08247426 0.3198972

weight f4 [8, 16, 3, 3]
000000 26 79 87 3d 36 89 4b 3c 6c eb 92 3c 8d b8 33 bd
       0.06614904 0.01242285 0.017934524 -0.043877173
000010 f5 f2 41 3d a7 17 96 3d 9b 48 2f 3d 05 2a a1 3d
       0.047350843 0.0732873 0.04279385 0.07869343
000020 ad 15 5e bc 68 07 83 3c 0a 1c a9 bc 81 31 40 3d
       -0.013554973 0.015994743 -0.020643253 0.04692221
000030 39 a3 70 bb 72 d6 44 bd d1 f6 bb bc 87 b8 ce 3a
       -0.0036718382 -0.048056073 -0.02294484 0.0015771546
000040 25 19 ed bc 53 42 e2 3c be ab e8 3c d2 e7 49 3d
       -0.028942654 0.027619516 0.028402206 0.049293347
000050 4c 4d ec bc 36 7f d6 3c 74 82 00 3d 26 87 24 bd
       -0.028845452 0.026183706 0.03137441 -0.04016795
000060 e2 cb 51 bd e8 09 be 3c 7e 8d 56 bd 70 d1 8a bd
       -0.05121983 0.023198083 -0.05238103 -0.06778228
000070 b7 2e 37 bd 43 84 3b bd 63 9b 90 bd ad a5 ce bd
       -0.044722285 -0.04578043 -0.07060888 -0.10090194
000080 2d 6a 57 3c fe 5d 0a bd c3 ac 04 3d 20 1c da 3c
       0.013147873 -0.033781044 0.03239132 0.02662474
000090 b5 d0 aa bc 24 68 9d bd d7 50 dc bd 1f c4 b0 3d
       -0.020851472 -0.07685879 -0.107576065 0.08631157
0000a0 00 9b be bc 4c 07 0f bd b0 36 b7 3d 0b 63 9f 3d
       -0.02326727 -0.03491907 0.08945978 0.07782563
0000b0 8b f9 4d bd ef f7 80 bc 45 64 e7 3c cb 79 49 3c
       -0.05028681 -0.015743224 0.028246054 0.012297104
0000c0 f8 b2 41 bd c7 40 72 bb b9 61 6e bd d1 b2 28 bd
       -0.04728982 -0.003696488 -0.058198664 -0.041186158
0000d0 b1 41 45 3c 1f 33 a0 3d b8 c1 96 bd 4b 87 c7 bc
       0.012039588 0.078222506 -0.07361168 -0.024356505
0000e0 c5 a3 0a bd 34 2a af 39 b3 7b d3 bb e0 2c 5e 3d
       -0.03384759 0.00033410045 -0.006453955 0.054242015
0000f0 3f b4 93 3d 34 9a 5b 3d fa 16 af 3c 9e 3c 4a bc
       0.072121136 0.053613856 0.02137326 -0.012343554
000100 13 9d a1 3d ea af 9b 3c 1f 9c 60 bc b0 82 f1 bc
       0.07891288 0.01900478 -0.013709097 -0.029481262
000110 f5 92 04 3d 4f 32 57 bd b2 2a 50 3c 3a f7 6d bd
       0.03236671 -0.052538212 0.012705492 -0.0580971
000120 05 c8 bc bd 67 12 42 bd ea f3 8a 3d 3d 7a db bb
       -0.09217838 -0.04738083 0.06784804 -0.0066979215
000130 95 12 90 bd dd 0e f5 3b ba 60 92 3d 3c bb 14 bd
       -0.07034794 0.0074785785 0.071473554 -0.036311373
000140 8d 2f b5 3d eb b1 83 bc 1e fc 17 bd 4a 56 77 bd
       0.0884696 -0.016076049 -0.037105672 -0.060385026
000150 11 5f 25 bd 6f 59 ac bd 6d d9 40 3d 6a bd 8b bb
       -0.040373866 -0.084154956 0.047082353 -0.0042645233
000160 af 26 06 be c9 32 1b 3d d8 02 05 3d d4 63 f5 bc
       -0.13100694 0.03789023 0.032473415 -0.029954828
000170 03 2c af 3c 73 65 82 bd f7 1e 83 bd 10 91 2f 3b
       0.021383291 -0.06367006 -0.064023905 0.0026789345
000180 a4 04 6b 3d 84 89 a1 3d 74 7a b4 3c 47 d5 4e bd
       0.057377473 0.07887557 0.022031046 -0.050496366
000190 b6 92 86 bd 77 f8 1b 3d 64 dc 09 3c 12 93 94 bd
       -0.06570952 0.03807875 0.008414362 -0.07254614
0001a0 8c c3 76 bd 80 f0 5b 3d 02 7d 75 3d c5 ba 4d 3d
       -0.06024508 0.053696156 0.05993367 0.050226945
0001b0 62 27 74 bd f6 a5 92 bc 58 2c 8b 3d 74 ea ac bc
       -0.05960787 -0.017901402 0.06795567 -0.02110789
0001c0 fa b5 df bc a2 29 a8 bd 00 5c 05 3d ab 00 5b bd
       -0.027308453 -0.08211066 0.03255844 -0.053467434
0001d0 b9 aa e9 3c 94 e6 3d 3d e1 37 57 bd 58 d8 2f bd
       0.02852379 0.046362475 -0.052543525 -0.04293093
0001e0 fe 82 96 bd de 16 fb 3b d0 3b 0a 3d dd 3d 7d 3c
       -0.073492035 0.007662638 0.033748448 0.015456644
0001f0 b3 69 a0 bd 58 9d 52 bc 6a d7 59 bd e2 68 2b 3c
       -0.078326605 -0.0128548965 -0.05318395 0.010462018
000200 fd f5 b6 3b a8 83 bc bd 68 51 c6 bd 91 e2 25 bc
       0.0055835233 -0.09204799 -0.09683496 -0.010124818
000210 a5 99 26 3d 71 e6 6a bd 85 0c 6e 3d 69 15 8c 3c
       0.04067387 -0.057348672 0.05811741 0.017100053
000220 04 60 9c 3d 01 6d b5 3c f4 1d 07 bd d3 7e a1 bd
       0.07635501 0.022146704 -0.03298755 -0.07885518
000230 d4 13 c0 bd 3a 80 1c 3d fd 42 6b b9 cb f0 5c 3d
       -0.09378782 0.038208224 -0.00022436302 0.053940576
000240 54 2d 92 3d f0 83 49 3d 9c a9 74 bd a0 0f c2 bc
       0.07137552 0.04919809 -0.059732065 -0.023689091
000250 af c9 c2 bc d3 b1 2b 3d 00 d1 a5 3c c4 25 47 bd
       -0.02377781 0.041917633 0.02024126 -0.04862
000260 2f 3a 37 3d ea ca 09 be 3c dc 82 bd d8 f7 2c 3c
       0.044733223 -0.13456312 -0.063896626 0.010557137
000270 e0 17 90 bc 21 0d c1 3d a6 c3 a2 3d 53 02 4a bd
       -0.01758951 0.09426332 0.07947473 -0.049318623
000280 95 c2 4e 3d 37 31 7b 3d d4 fe 32 3d f0 c0 57 bd
       0.050478537 0.06132623 0.043700054 -0.052674234
000290 80 c9 29 bd 6d 35 69 bd 53 b1 a0 bd 5e 19 9c bd
       -0.04145193 -0.056935716 -0.07846322 -0.07622026
0002a0 e7 94 95 3d 2f 5b 2b bc 10 32 7b bd f8 39 44 bd
       0.073037915 -0.010458752 -0.06132704 -0.047906846
0002b0 5c 71 7f bc f4 7f 7b 3d fb d5 7d bb 01 ad de 3d
       -0.015590992 0.061401322 -0.0038732279 0.108728416
0002c0 76 bd 00 3b 15 93 c0 bc ac 9d 95 3d 67 a7 3b 3d
       0.0019644178 -0.023507634 0.07305464 0.045813944
0002d0 9b 58 91 bc c9 06 c1 bd fd 6e 2b bc 72 db d6 3b
       -0.017742446 -0.09425122 -0.010463473 0.0065569216
0002e0 b7 7e 83 bd 81 63 29 bd 0d 73 e6 3d 55 19 f6 bd
       -0.06420653 -0.04135466 0.11252413 -0.120165505
0002f0 19 1d 68 bd ff ff 83 bd 25 09 9b bd e7 79 56 bc
       -0.056668375 -0.06445312 -0.075701036 -0.013090587
000300 0e 2e b3 3c 6a ae 19 bd ac 83 ed 3c d5 58 ae 3b
       0.021872547 -0.03751985 0.02899345 0.005320648
000310 65 4c 90 3d 6f fd a3 bd bb 98 1a bd d7 ec 73 3d
       0.07045821 -0.08007323 -0.03774331 0.05955204
000320 95 92 66 3b 9f aa 56 3d 5c 82 eb bc 5a 43 c4 bc
       0.0035182585 0.05240881 -0.028748684 -0.023957897
000330 b1 06 0c 3d 39 36 be bd 00 17 4d 3d 6b 4a 98 bc
       0.03418607 -0.09287686 0.050070763 -0.018590173
000340 da ad 07 be 9c f7 69 3b e4 7f bd bd 67 51 e2 bb
       -0.13249913 0.0035700565 -0.09252909 -0.0069066766
000350 76 1f 1b 3c 6b 1d af bd 9e 28 d9 bd 19 b4 20 bd
       0.00946795 -0.08550533 -0.1060345 -0.039234255
000360 5b cf 13 bc 8e d8 69 bd 11 79 35 bd 77 8a 41 b9
       -0.009021605 -0.05709129 -0.04430491 -0.00018457496
000370 6a bd 5b 3d 2e 12 a9 3c c4 b8 d4 bd 50 57 83 bc
       0.053647436 0.020638552 -0.10386804 -0.016032845
000380 cb 4f c9 bd 56 3a 13 bd 6a c3 8f 3b 05 a5 e7 bd
       -0.098296724 -0.035944305 0.004387309 -0.11310772
000390 35 f1 6c 3c e9 42 8a 3c dd 8b 83 bd 0a 4a c4 bb
       0.014461805 0.016877608 -0.06423161 -0.0059902715
0003a0 ec 1b 42 bd 97 dd a7 bd 76 96 3b 3b 67 c9 44 3c
       -0.04738991 -0.08196562 0.0028623617 0.012010909
0003b0 50 80 ef bc 0c a0 95 bd 30 64 6e bd 24 70 84 bd
       -0.029235989 -0.07305917 -0.058201015 -0.064667016
0003c0 e0 c9 2f 3d 82 8d e4 bb 1d 2d 17 bc 3b 67 a4 3d
       0.042917132 -0.006974877 -0.009227064 0.08027502
0003d0 e7 ec 70 3c 5d 5b 30 3d 83 08 63 3d 5c 45 9c bd
       0.014704919 0.04305588 0.05542804 -0.07630417
0003e0 4a 72 92 3d 5c 87 79 3d 07 45 72 bd 1a a2 fc 3c
       0.07150705 0.060920104 -0.05914786 0.030839015
0003f0 1a 78 12 3d f7 26 fd 3b e7 db 9b bd d1 a1 49 3c
       0.03575907 0.0077255922 -0.076103024 0.012306646

bias f4 [8]
000000 aa 09 66 3d 57 bd 31 be d4 ae 88 bc cf 1c 8f 3d
       0.05616156 -0.17357384 -0.016684927 0.06987917
000010 3d 17 5c 3d d9 b7 fc 3d 05 57 a7 3d 6a c9 b7 bd
       0.0537331 0.12339754 0.081708945 -0.089739636

weight f4 [8, 16, 3, 3]
000000 3a 95 90 3d b1 e7 ab 3c 1f 0f ad 3c 0e eb 8b 3d
       0.07059713 0.020984503 0.021125374 0.068319425
000010 be af 30 bd 27 32 b8 b7 3a 97 9f 3c 78 fd 05 bb
       -0.04313635 -2.1957863e-05 0.01948129 -0.0020445269
000020 f1 92 c4 bc 41 e0 d8 bc 01 98 0d 3d 72 fb 63 3d
       -0.023995848 -0.02647412 0.03456879 0.05565972
000030 d1 58 65 bd e7 35 69 bd 99 bb 8f bd b9 30 26 3d
       -0.055992905 -0.05693617 -0.07018203 0.04057381
000040 bd 4c bd 3c 53 95 ba 3d f6 1d 65 bb 55 56 bb bd
       0.02310788 0.091105126 -0.0034960485 -0.09147326
000050 1a 52 e9 bc e7 8a fb b9 0d 7f 82 bc 51 d4 83 3d
       -0.028481532 -0.0004797794 -0.015929723 0.064369805
000060 d7 e6 78 3d f2 5a 49 3d 19 c1 82 3d 52 d4 ec bd
       0.06076702 0.049158998 0.06384487 -0.115639344
000070 5b 7f d4 bd a5 c5 e7 bd d8 53 d0 bd bb 67 02 be
       -0.10375854 -0.113169946 -0.10172242 -0.12734883
000080 89 e4 d3 bd e3 76 00 3d a1 30 0c 3c a2 43 ef 3a
       -0.10346324 0.03136338 0.008556516 0.0018254409
000090 ca f8 95 3d 6b e4 09 3d 55 f6 9e bd 8e 56 9b bc
       0.073228434 0.033665102 -0.07761828 -0.01896217
0000a0 b9 c9 bd bd 73 89 81 bc 30 03 d1 3d e3 ce a5 bd
       -0.09266991 -0.015812611 0.10205686 -0.08096101
0000b0 1f b5 30 bd bc 7b a8 bd c3 dd 9f 3b 4a d0 49 3d
       -0.04314148 -0.082267255 0.004878731 0.049270906
0000c0 64 8f a6 bc ba 09 fe 3c 87 05 ab bd 28 e3 1d bd
       -0.020332046 0.031010497 -0.08350664 -0.03854671
0000d0 54 08 45 ba e5 95 3f 3c 41 9f 28 bd b8 cf 3c bd
       -0.00075161946 0.0116934525 -0.0411675 -0.046096534
0000e0 5d fe 55 bd 9b fe 86 bc 80 48 94 bd dc f5 c5 3c
       -0.052244533 -0.016478827 -0.07240391 0.024165086
0000f0 97 cb 08 3b cd f3 bf bd 26 4e 88 3c 4a 4a 49 3c
       0.0020873302 -0.09372673 0.016638827 0.012285778
000100 27 74 be 3d f7 f9 1e 3d 9c d1 93 bd 22 d3 10 3d
       0.09299498 0.038812604 -0.07217714 0.035357602
000110 ed ec 43 bd d7 9b 47 bd 2b 46 5f bd 0b 73 76 3b
       -0.047833372 -0.048732605 -0.054510277 0.0037605192
000120 9c ec b6 bd b9 5e fe 3b 57 af 86 3c ea 7a 66 bd
       -0.089318484 0.0077627567 0.01644103 -0.056269564
000130 ca 91 c0 bd a6 4a 4c 3d a7 6c 89 bd 83 79 83 bd
       -0.09402807 0.049875878 -0.06710177 -0.06419661
000140 e5 af 9c 3b ce 95 c4 3a 7d 0b 91 3c 24 98 c6 3d
       0.0047817104 0.0014998259 0.017705673 0.09696987
000150 55 17 45 3d 56 62 bd 3b 17 8a 8e 3d 11 79 09 3c
       0.048117954 0.005779545 0.06959932 0.008390681
000160 cc c4 6c 3c 64 c7 44 3d 55 f3 4d 3c 66 8d 66 bd
       0.014451217 0.048041716 0.012570222 -0.05628719
000170 7c 10 11 bd cb a5 28 3d f8 22 38 bd cd 33 3a 3d
       -0.03541611 0.041173737 -0.044955224 0.045459557
000180 40 65 4a 3d b9 42 99 3d 06 ef 95 bd e8 b2 49 bd
       0.049412966 0.074834295 -0.07320981 -0.049242884
000190 64 3d 60 3d 79 78 53 3d a0 52 83 3a e8 65 49 bd
       0.054746047 0.051628564 0.0010019131 -0.04916945
0001a0 a0 3a 63 bd 9f f5 90 bd c2 d5 0a 3c 75 ac 61 3d
       -0.05547583 -0.070780985 0.008473815 0.05509611
0001b0 28 d5 ea bc 6d b6 4c bb 2a 94 92 3d d4 f7 ab 3c
       -0.028666094 -0.0031236664 0.07157166 0.020992197
0001c0 30 ca 65 3b b8 c1 73 3d 9c 89 1f bd e1 56 0a 3d
       0.003506314 0.059510916 -0.038949594 0.03377426
0001d0 04 2d 5b 3d fe 9a b4 3b b7 d1 62 bc 5e f4 89 bd
       0.053509727 0.0055116406 -0.013843945 -0.067360625
0001e0 70 df f9 3d e7 4d c2 3c 2d 0e a9 3d 93 65 11 3d
       0.122008204 0.023718787 0.08254657 0.03549726
0001f0 49 cd 66 bd 73 bc 3e bc 57 08 aa 3d 99 3e ac 3d
       -0.05634812 -0.0116416095 0.08302372 0.08410377
000200 ba 3d 80 bd b8 33 da 3c 02 c4 85 3c 8d b7 0a 3d
       -0.062617734 0.02663599 0.016328815 0.033866454
000210 89 20 93 3d d8 94 a1 3d de 83 ad 3d 73 fc 81 3c
       0.0718394 0.07889718 0.08472417 0.015867447
000220 5d 66 2c 3c 96 00 3b bd c2 65 10 3d c8 33 98 bc
       0.010522452 -0.045654856 0.035253294 -0.018579379
000230 e1 03 3e b8 97 8d 92 bd cd c3 0f 3d 2c 82 ea 3c
       -4.5303143e-05 -0.07155912 0.03509884 0.028626524
000240 f5 88 5f bd 66 96 86 bd 04 e1 9d 3b 4e e9 3b bd
       -0.05457397 -0.06571655 0.0048180837 -0.045876794
000250 b2 f7 90 bd a7 65 38 3d 67 02 f8 3c 0a 25 04 3d
       -0.07078494 0.04501882 0.030274583 0.032261886
000260 e7 44 78 bd 6d f9 de 3c 67 9e 90 bd b4 d5 c8 bc
       -0.060612585 0.027218545 -0.07061463 -0.024515964
000270 4a 01 14 3c 95 5a da bb 85 75 8e 3c 51 60 be 3c
       0.00903351 -0.0066636303 0.017390022 0.023239287
000280 2e 68 dc 3b 74 4b c8 bc b7 2b 7e bc 58 62 61 3d
       0.0067262864 -0.024450041 -0.015513352 0.05502543
000290 2e 4f 08 bd 11 57 c9 3c d7 d3 a8 bd 7d 7c d8 3c
       -0.033278637 0.02457765 -0.0824353 0.026426548
0002a0 5e 14 60 3d ba 32 46 3d 6f 1f 9e bd a7 9f 88 bd
       0.054706924 0.04838822 -0.07720839 -0.06671076
0002b0 21 47 2a bd 53 14 6d 3c e6 e2 c5 bc 4d 37 4d bc
       -0.04157174 0.014470178 -0.024156045 -0.012525392
0002c0 6d 35 7c 3d 48 03 a9 bb ec 06 46 bd 28 55 9a bd
       0.06157439 -0.005157862 -0.048346445 -0.075357735
0002d0 09 8b cd bd 82 c2 ce bd a6 38 92 3d 16 a9 32 3d
       -0.100362845 -0.10095693 0.07139711 0.043618284
0002e0 8b 5a ad bd 4e 3b cf 3d b3 22 9d bd 87 67 9c 3c
       -0.08464535 0.10118733 -0.07672634 0.019092334
0002f0 9a a2 87 3d cf a3 89 3c 23 6b 3c bc 5c 32 36 bc
       0.06622811 0.016801743 -0.011500153 -0.011120405
000300 60 26 1f 3d b2 48 ef 3c 9c d8 fd 3b 72 89 c5 3c
       0.038854957 0.029209469 0.007746769 0.02411339
000310 4b 03 1f bc 72 bd a8 bd 40 ea a8 3c 4b 0b 53 bd
       -0.009705375 -0.08239259 0.020619512 -0.05152444
000320 72 c9 90 bd 86 d2 b2 bd c6 a6 14 3d 89 33 92 bd
       -0.07069673 -0.087315604 0.03629186 -0.07138736
000330 45 e3 41 3d 59 c5 34 bd 34 6a 85 bd 83 5c bc 3c
       0.04733588 -0.044133518 -0.06514397 0.022993332
000340 0f 3b 8e 3d 19 ca 61 3d e9 50 63 3d 73 16 2b bd
       0.06944858 0.055124376 0.055497084 -0.041769456
000350 df 76 ff bc 5b 32 93 3c 28 48 b9 3a 45 4f d9 3c
       -0.031184612 0.017968347 0.0014135884 0.026527056
000360 94 02 af bc 3e aa 7c bd 54 c3 a1 ba 6b f2 85 bd
       -0.021363534 -0.061685793 -0.0012341538 -0.06540378
000370 1f c1 6b 3c a7 7e e7 3a 3c fb 95 bd 38 99 e9 bc
       0.014389305 0.0017661647 -0.0732331 -0.028515443
000380 da a8 24 bd 30 9c 51 bd 45 cc 36 3d 3c 77 ec bc
       -0.040200092 -0.051174343 0.0446284 -0.02886545
000390 76 e2 85 bd 30 fc 05 be 53 58 03 be 38 21 82 bd
       -0.065373346 -0.13084483 -0.12826662 -0.06353992
0003a0 36 00 0f bd b4 86 fd bc 33 ac f0 bc 68 54 79 3d
       -0.03491231 -0.03094802 -0.029378986 0.06087151
0003b0 a8 c1 d0 bd 91 d0 31 bd 2d 96 aa bd 41 e2 df bd
       -0.10193187 -0.043411795 -0.08329425 -0.109318264
0003c0 ab 03 56 bd 03 22 c6 bd 79 c3 11 bd 29 1a cd bd
       -0.05224959 -0.09674456 -0.035586808 -0.10014755
0003d0 31 e1 58 3c 72 e3 13 3b bf a3 4c 3d 61 c0 94 3c
       0.013237284 0.0022565988 0.049960848 0.01815814
0003e0 db ce 89 3d c8 d3 53 bd 15 e2 59 3d 82 d5 12 bd
       0.06728908 -0.051715642 0.053194124 -0.03584815
0003f0 5c 34 9d bd a7 bb 7c 3d 9d 9e fc bc 03 0f 67 bc
       -0.076760024 0.061702397 -0.030837351 -0.0141027

bias f4 [16]
000000 6f ed 25 3e 81 b0 8f bd 1d 75 2d bd 47 33 b5 bc
       0.16203855 -0.07016087 -0.042348016 -0.022119178
000010 c9 42 0b bc cd 96 26 3e 41 c4 08 3e b3 3a 70 bd
       -0.00849981 0.16268463 0.13356115 -0.05864973
000020 01 58 7a bd d8 14 41 3d c7 1b 25 bd d0 61 95 bd
       -0.061119083 0.04713902 -0.040309694 -0.07294047
000030 21 e4 48 3e 8a 9b 21 bd 5e ba 8a 3e 8c 12 00 3e
       0.19618274 -0.039454974 0.27095312 0.12507075

weight f4 [16, 32, 3, 3]
000000 c3 24 91 3c 30 83 ce 3d 15 f7 9e 3d 84 17 b4 3d
       0.017717725 0.10083616 0.07761971 0.08793548
000010 37 55 92 3d f9 cc fa 3d 73 2f b7 3d 6e 8c 80 3d
       0.0714516 0.12246127 0.08944597 0.06276785
000020 69 22 fd 3c 3f 86 b0 3c 85 55 5c 3d 06 1e 59 bd
       0.030900197 0.021548389 0.053792495 -0.05300715
000030 da 34 d7 3d 13 76 d2 3d de 86 ce 3d 02 5c 71 3d
       0.105081275 0.10276427 0.100843176 0.058925636
000040 6f 5f a2 3d 41 8e 42 3d 35 dd 6d 3d 0b 95 a8 3d
       0.07928359 0.047498945 0.058072288 0.08231553
000050 d7 10 ac 3c 97 e4 db 3d 9f ac c6 3c d7 6b 0a 3d
       0.021004124 0.107369594 0.024252234 0.03379425
000060 dd 37 96 3d 9b d6 ad 3d 68 eb f4 3d 0a d9 7b bd
       0.07334874 0.08488198 0.11958963 -0.06148628
000070 23 54 e3 bd 86 1b a5 bc 4e 92 b2 bd 54 4b 83 bd
       -0.11100032 -0.020154726 -0.08719312 -0.06410852
000080 5f 61 65 3d 7b bb f3 3c e6 2b 6f bc c3 f2 c2 3b
       0.056001063 0.029752484 -0.014597869 0.0059493496
000090 1f 28 84 3d f1 61 ea 3c 5b 88 fe bc a5 5b 73 3d
       0.06452965 0.028611155 -0.031070879 0.05941357
0000a0 1f c4 a1 bc d5 f8 85 bd a5 e9 a7 3b e2 87 63 bd
       -0.019746838 -0.065416016 0.005124288 -0.05554951
0000b0 ec e1 05 3d 5a 9c b2 3b 6a ac 2e bd 65 e1 61 3d
       0.03268616 0.0054507675 -0.042644896 0.055146594
0000c0 98 4d 8d 3d d6 b8 7f 3d 9f 6d 95 3d e1 60 26 3d
       0.068995655 0.062432133 0.07296299 0.040619735
0000d0 0e aa f8 3c 0e 7a 07 bb 55 7d 79 bd a0 05 bd 3c
       0.030354526 -0.0020672115 -0.06091054 0.023073971
0000e0 63 74 2d bc dd a2 84 bd c2 dd 8f bd 4b 17 32 bd
       -0.010586831 -0.06476376 -0.07024719 -0.043479245
0000f0 9a 7d 40 bd c7 37 ea bd cf e5 07 bd 58 d3 52 3d
       -0.046994783 -0.1143642 -0.033178147 0.051471084
000100 8c ff 82 3d 04 4b fa 3c e3 92 6e 3d 6b 5e b0 3c
       0.06396398 0.030553348 0.05824555 0.021529397
000110 a9 ea d4 3d 43 6d aa 3d 91 d3 6b 3b 9c 83 2c 3d
       0.103963204 0.08321621 0.0035984258 0.0421177
000120 57 58 8f bd 98 7f 3a 3b 44 23 22 bd d2 46 f8 bc
       -0.06999271 0.00284574 -0.039584413 -0.030307207
000130 d1 30 65 bd bc 5a 1a 3c d4 a2 45 bd eb fc ab 3c
       -0.055954758 0.009421047 -0.048250988 0.020994624
000140 10 23 23 bd b6 4d 71 3d e2 c1 19 3d 77 ff 9a 3d
       -0.03982836 0.058912 0.037538417 0.07568257
000150 bb 0e 49 3d f6 61 04 3e 16 96 7c bb 41 f5 4f 3d
       0.049086314 0.12927994 -0.0038541607 0.050771
000160 ba 61 92 3d 5e c8 5c 3d 37 0d 20 3d b6 2c 5d 3d
       0.07147546 0.053902023 0.039075103 0.053997718
000170 4a 27 f4 3c cf 6b b3 3c ce 29 49 3d 00 c9 6b 3d
       0.02980389 0.021901993 0.049112134 0.057564735
000180 d8 b0 9c 3c 0f a0 fb 3d 7c 8f ee 3d 52 b8 06 3d
       0.019127294 0.12286388 0.11648461 0.032890625
000190 d5 36 20 bc e8 77 d4 bc 10 22 19 bd 6e 8b f3 3c
       -0.009778698 -0.025936082 -0.037386 0.029729571
0001a0 5a ab e0 3c 5a f3 a8 bc d2 53 70 bd a3 c2 3f 3c
       0.027425457 -0.020623852 -0.058673687 0.01170412
0001b0 90 18 f8 3b 77 16 35 bd 24 84 2e 3d b5 71 9e 3d
       0.0075712875 -0.044210877 0.042606488 0.07736532
0001c0 10 db 95 3c 61 fe e9 3c db b0 ab 3d 5a d1 34 bd
       0.018292934 0.02856368 0.08383342 -0.044144966
0001d0 51 62 13 3c 51 83 23 3c 3c dd 0c 3d 5c 3a aa 3d
       0.008995608 0.009980039 0.034390673 0.083119124
0001e0 52 4d 37 3d 49 23 ab 3d 05 85 2a bc 13 25 b0 3d
       0.044751473 0.083563395 -0.010407691 0.08600821
0001f0 6a 89 d3 3d 76 cd d7 3d 91 71 db 3d ba 36 b3 3d
       0.10328944 0.105372354 0.107150204 0.08750673
000200 bb b9 df 3b fc c0 12 3d b9 97 fd 3d 99 d1 6a 3d
       0.0068275607 0.035828575 0.123824544 0.057328794
000210 34 f3 c6 3d d5 1c 7c 3d 85 f7 b1 3c 3d ad c0 3d
       0.09714356 0.061550934 0.021724472 0.094080426
000220 ba 59 f7 3d 1f 7a c2 3d f6 9e ba 3c 90 24 ae 3d
       0.12077661 0.09495949 0.022780877 0.085030675
000230 cf 4d 0b 3c c9 d2 7c bc 3c ef 69 3d a1 ca b1 3d
       0.008502438 -0.0154311145 0.057112917 0.086812265
000240 49 bb 1e bd e3 43 10 3d 43 3c a1 bc 65 b4 3a 3c
       -0.038752828 0.03522099 -0.019682055 0.0113955485
000250 e6 4f ae 39 0f 4a 93 bd da 66 3e bb 4f d2 92 bd
       0.00033247395 -0.0719186 -0.0029053004 -0.071690194
000260 ef bb 33 3c 1f 33 ac bd 36 39 78 bd 3a 2a 0b 3d
       0.0109701 -0.08408188 -0.060601436 0.033975817
000270 0c 3c 8f 3c 90 6e aa bc d8 2e 4c bc 53 74 b0 bd
       0.017484687 -0.020804673 -0.01246234 -0.08615937
000280 a6 92 c8 bb 1f 62 00 3b 53 73 25 3d 17 d6 56 bd
       -0.0061209975 0.0019589735 0.040393185 -0.052450266
000290 8a da 94 bc 02 b2 fe 3c 60 cd 52 3d fc 95 14 bb
       -0.018170614 0.03109074 0.051465392 -0.0022672405
0002a0 e5 c0 06 3d d7 17 86 3d 56 e7 86 3d 07 06 83 bc
       0.032898802 0.06547516 0.065870926 -0.015994085
0002b0 db b4 48 3d a6 f9 25 bd 3b 06 85 bc 0a b1 c4 bc
       0.049000602 -0.040521286 -0.016238322 -0.0240102
0002c0 9e e2 90 3a 5f 0a d6 3c 25 ed bf 3c 52 44 8d bc
       0.0011053865 0.026127992 0.023428509 -0.017244492
0002d0 d8 72 5e 3c 1a 8b a3 3d e2 76 aa 3d b2 49 03 3e
       0.013577186 0.07985516 0.08323456 0.12821081
0002e0 a1 dd ab 3d b6 2e 31 3c 6a 47 8e 3d 89 de 43 3d
       0.08391882 0.010814359 0.06947215 0.047819648
0002f0 fa 8f 8c bc 36 e9 5f 3d 91 80 7c 3c f6 19 8f 3d
       -0.017158497 0.054665767 0.015411512 0.069873735
000300 08 66 27 3d 77 56 e4 bc ee 4d 46 bc 09 7a 27 3d
       0.04086879 -0.02787326 -0.012103541 0.040887866
000310 37 98 0e 3c af 91 d0 3c 94 1d c3 bc ac 8a a9 bd
       0.008703283 0.025460092 -0.023817815 -0.08278403
000320 a3 a6 6c bd f1 b8 9f bd da 6d 4a bd 7a 1b d1 bd
       -0.057776105 -0.07798947 -0.04942117 -0.10210319
000330 14 62 ff bc 70 e8 98 bd 84 b5 6e 3c ab 7f 03 be
       -0.031174697 -0.07466209 0.014569644 -0.1284167
000340 02 e4 cf bd 35 b7 ea bc f9 d7 61 bd 77 08 9b bd
       -0.10150911 -0.028651813 -0.05513761 -0.07569974
000350 1a 5f 1a be b4 c4 f1 bd 7e d3 21 be 18 67 bf bd
       -0.15075341 -0.11805096 -0.15803334 -0.093458354
000360 8a cf 95 3d a6 5f bf 3d 8f 74 2c 3d a4 a3 eb ba
       0.073149756 0.09344415 0.042103346 -0.0017977846
000370 50 f5 31 3d 08 b0 4d 3d 66 a0 a5 3c b1 7b 3d 3b
       0.04344684 0.050216705 0.020218085 0.0028912837
000380 b7 b7 b2 3c 0b ca 7d 3d 9b 7e 70 3d c0 b1 cc 3d
       0.021816118 0.06196026 0.05871449 0.099948406
000390 97 b8 81 3d 46 c4 95 bc c6 e0 22 bc a4 30 ff 3c
       0.06334036 -0.018282067 -0.0099412855 0.031151123
0003a0 48 86 86 3d 5d 6d 78 3d 49 ed 3b 3d 6f 2b e5 3b
       0.06568581 0.060651172 0.04588059 0.006993703
0003b0 db b8 05 bd 4d 1f 4e 3d d8 41 d5 bc fc cc d1 3b
       -0.032646995 0.05032282 -0.026032373 0.00640261
0003c0 0d f8 7b bd fe a1 a6 3c 60 f7 b2 3c 3b 9a 0b 3b
       -0.061515857 0.020340916 0.021846473 0.0021301645
0003d0 e5 39 31 bd 2b b9 fa 3c f4 52 a7 bd 0b 1a 73 bd
       -0.043268103 0.030605873 -0.08170119 -0.05935101
0003e0 da 22 04 bc cc 5f 70 bd 79 eb c4 3c a4 c0 d2 bc
       -0.00806495 -0.05868511 0.024038063 -0.025726624
0003f0 a2 e5 dc 3c 22 82 db 3d a9 00 ba 3d 9d ca da 3d
       0.026964966 0.1071818 0.09082157 0.10683177

bias f4 [32]
000000 e4 53 9f 3d 47 d3 3c 3e 76 59 b8 3d 18 4a ab bd
       0.07779673 0.18439971 0.09001438 -0.08363742
000010 87 99 7d bc 39 5b 96 3d bc d9 51 3c 20 2d d5 3d
       -0.015478498 0.07341618 0.01280826 0.104089975
000020 09 31 39 bd 43 eb 1c 3e 5d 57 96 3c fe 4e 54 bd
       -0.04521278 0.1532412 0.018352205 -0.051833145
000030 f4 61 3b bd 6a 9d 0c 3e 82 34 15 3e 94 b6 8f 3b
       -0.045747712 0.13731924 0.14570811 0.0043857787
000040 3c a9 c5 bc 07 1d c3 bc 08 07 b9 bd 56 5e 86 bd
       -0.024128549 -0.023817552 -0.09034544 -0.06560962
000050 3d 06 a5 3c 52 3e 06 bc 37 ac 80 bc 04 f8 45 bd
       0.020144576 -0.008193569 -0.015707118 -0.04833223
000060 fa 21 04 3e b5 30 8b bb 41 e0 a8 3b 39 03 3a bd
       0.12903586 -0.0042477497 0.0051536863 -0.04541323
000070 c9 19 a6 3d 49 72 00 bc de 6a ba 3c 46 90 8d 3c
       0.08110387 -0.007839748 0.022756036 0.017280709

weight f4 [32, 3, 3, 3]
000000 a1 d8 c0 bd 94 5f ba 3c 2c 9b 31 3e b8 7a a2 3d
       -0.09416319 0.022750653 0.1734435 0.07933563
000010 0f fc 58 be fa 36 52 bd be 08 3e be 2f eb 1d 3e
       -0.21189903 -0.05132196 -0.18558022 0.15421747
000020 4e 0a 7c bd d7 1b 7c 3d 2c 6a 45 be e6 4f e5 bd
       -0.061533265 0.061549988 -0.19278783 -0.1119688
000030 cd 51 77 be 05 fb cf bd 72 9c ff bd ee d5 00 be
       -0.24152298 -0.101553 -0.124810115 -0.12581608
000040 ba 3f 07 3d 06 2c 64 be 89 1a 8b be 47 8c 7e 3c
       0.03301976 -0.22282419 -0.27168682 0.015536374
000050 ab d0 4a bc 11 b2 9b be 76 b3 a3 bd cc da 86 be
       -0.012378852 -0.3040929 -0.07993214 -0.26338804
000060 27 ff 68 be e1 8f fb 3a 88 cb 58 be 25 db f7 bd
       -0.22753583 0.001919266 -0.21171391 -0.121023454
000070 d0 4a 97 bd 50 06 a7 3b 20 dc 20 3e ca d0 5a be
       -0.07387316 0.005097188 0.15708971 -0.21368709
000080 c6 4d 89 3b 7e 66 43 bc d8 6a 23 3d cb 46 3c 3e
       0.0041901795 -0.0119262915 0.039896816 0.1838638
000090 e3 04 ce 3d 73 8e b3 bd f2 f1 54 be e4 62 eb bd
       0.10059526 -0.087674044 -0.2079542 -0.11493471
0000a0 ec 6c a7 be a6 bf e6 3b ef 10 55 3c bb 1d 55 be
       -0.32700288 0.0070418892 0.013004526 -0.20812123
0000b0 c4 fe cc 3d 3c d5 13 be de d2 e4 be 8a b4 30 be
       0.1000953 -0.14436811 -0.4469213 -0.1725637
0000c0 1c eb e1 be ad 7f 04 bf 28 61 b3 be a4 5f d8 bc
       -0.44124687 -0.5175732 -0.35035062 -0.026412793
0000d0 65 cc bc be 7a f6 12 bd d2 3a 53 be 37 5b 0f be
       -0.3687469 -0.03587959 -0.20627907 -0.1399964
0000e0 5e 37 0d be 85 64 59 be 04 0f 68 be 90 23 8f bd
       -0.13790652 -0.21229751 -0.22661978 -0.06989205
0000f0 8a e4 86 3c 78 99 12 bd ee 63 06 3d 8c c8 2a be
       0.016466398 -0.03579089 0.032810144 -0.16678065
000100 3f 54 29 be 20 d8 aa 3d bf c0 0d 3e ff 17 d3 3d
       -0.16536044 0.08342004 0.13843058 0.10307311
000110 5e de d7 bd a6 01 3d be 71 c3 13 3e c9 fd 29 bd
       -0.1054046 -0.1845766 0.14430024 -0.041501794
000120 8f f3 52 be 76 86 47 be 6d 47 f6 3d 0c 85 49 be
       -0.20600723 -0.19484887 0.12025342 -0.1967966
000130 65 e6 f4 3d a7 dd d7 bd d4 9d 06 3e 62 a4 47 bd
       0.11958007 -0.10540324 0.13146144 -0.048740752
000140 45 b5 d6 bd be 80 26 3e 28 68 2e 3e 0a a1 de bd
       -0.10483793 0.16260049 0.1703192 -0.108705595
000150 ea 39 70 bd fe 62 09 be f5 67 67 3d 78 a8 32 bc
       -0.05864898 -0.13416669 0.056495626 -0.010904424
000160 d8 cd 76 bc 8b 3a 49 3e 1c 9d a7 bd 35 6b a7 bd
       -0.015063725 0.19651239 -0.08184263 -0.08174745
000170 63 7f fb bc b9 e2 2f 3c d3 e5 bc 3d 6a 86 87 3d
       -0.030700391 0.010735207 0.09223523 0.06617434
000180 dc 1e 2d be 4b 1c 32 3e a2 62 cf 3d 12 44 4e 3e
       -0.16906303 0.17393605 0.101262346 0.20143154
000190 f2 d2 f3 bd ae 55 3e 3d 7c 26 45 bd a1 41 e0 bd
       -0.11905469 0.04646843 -0.048132405 -0.10950018
0001a0 e5 51 39 3e 72 3a 00 3e cb 2e 03 3e 76 4d 84 3b
       0.18097647 0.12522295 0.12810819 0.0040375544
0001b0 50 b7 d3 3d c9 c8 14 3e 03 dc ae 3c d1 af f8 3d
       0.103376985 0.14529718 0.021345144 0.12142909
0001c0 37 be 2f 3e c1 57 0a 3e 75 cf d2 bd 12 bf ae 3d
       0.17162405 0.13510038 -0.102934755 0.085325375
0001d0 77 82 f8 bd 7a 64 56 be 42 f3 0e bd 84 0b 21 bd
       -0.12134259 -0.20936766 -0.034899957 -0.039317623
0001e0 9f a9 44 be 8a f2 38 3e 18 34 df 3d 38 91 eb 3b
       -0.1920533 0.18061271 0.10898608 0.0071889423
0001f0 9d 51 6b bd 41 67 b9 bd 0b 9e 01 be cd 4b b5 bd
       -0.05745088 -0.09052897 -0.12657945 -0.088523485
000200 79 88 3c 3d 4d 02 1e 3e 3c 7d 5f 3e 32 88 05 be
       0.046028588 0.15430565 0.21825117 -0.13040236
000210 20 7a c0 bd e4 e3 63 3e 6b 3f 8b bd 69 2e 3c be
       -0.093982935 0.22254902 -0.067992054 -0.18377079
000220 aa ff 45 be c5 ae 75 3d d0 a8 fc 3b 71 7f b4 3c
       -0.1933581 0.059981126 0.0077105537 0.022033425
000230 cd 26 68 be a2 dd 80 3c fc 1d f5 bd a9 00 57 be
       -0.22671051 0.015730683 -0.1196861 -0.20996346
000240 57 09 27 3e 18 3f 32 be 83 af 84 bd 35 ee ec bc
       0.16312157 -0.17406881 -0.06478789 -0.02892218
000250 fa 00 d7 bd b1 75 ba bd 4b fc 2a be 0c e7 17 3d
       -0.10498233 -0.09104479 -0.16697805 0.037085578
000260 ec 36 c3 3d 20 9f ea 3d 02 69 e3 bd 70 03 26 be
       0.0953196 0.11456132 -0.11104013 -0.16212249
000270 a0 8f 09 3e 06 16 4a bb 56 9c 6c bd 37 9b 0c be
       0.13433695 -0.003083588 -0.05776628 -0.13731085
000280 e1 58 cb 3d 18 b6 20 3e 6a 1f b4 3d 9b ae d2 3d
       0.09929062 0.15694463 0.08795054 0.102872096
000290 6f 32 44 3e 4d 9d 15 3e ae ba 28 3e 78 ea ee bc
       0.19159864 0.14610787 0.16477463 -0.029164538
0002a0 aa b6 9c bd 60 f9 0c bc a7 9d f9 3b b0 9d 89 3d
       -0.07652028 -0.0086043775 0.0076176706 0.0671953
0002b0 bd 30 42 3e a0 a0 2b 3e ee 48 44 be 06 8d bb 3d
       0.18963905 0.16760492 -0.19168445 0.091577575
0002c0 59 48 4b bd 6a 26 61 bd 83 55 6a 3d bc 78 3e bc
       -0.049629543 -0.054968275 0.057210457 -0.011625465
0002d0 ed 7b 41 3e 43 41 42 3e 6e 2b 4e bc f3 1a 06 3d
       0.1889493 0.18970208 -0.012583597 0.032740545
0002e0 65 da 09 3d ff 76 2b 3e 59 ed 0f be 54 3c 3b bc
       0.033655543 0.16744612 -0.14055385 -0.011427958
0002f0 8c b3 83 bd 80 4c ab bd 8b ae 5b 3d 63 f6 01 3e
       -0.0643073 -0.083642006 0.053633254 0.12691645
000300 19 d0 a8 bd a8 99 e4 bd 2c 33 50 be 53 55 0e bd
       -0.082428165 -0.1116212 -0.2033202 -0.03474934
000310 a0 a4 d5 bc 2f d6 3c 3c bf 25 1a be 76 c6 f3 3d
       -0.026079476 0.011525675 -0.15053461 0.11903088
000320 5a 5d 10 be 8b 9a 83 be 8f 1d 68 be 3c c9 75 be
       -0.14098111 -0.25703844 -0.22667526 -0.24002546
000330 f0 d9 09 be 15 99 2c be df 0b 87 3d 6a f6 2d be
       -0.13462043 -0.16855271 0.06594061 -0.16988531
000340 16 f2 2d bc 10 94 8f bd 39 5d cf 3d 3c 31 69 be
       -0.0106168 -0.070106626 0.10125203 -0.22772688
000350 ae 2b 83 3d f8 79 19 3b 65 96 f6 bd 58 6f cd bd
       0.064048156 0.0023418646 -0.12040404 -0.10031003
000360 15 a6 8e bc 58 07 2c be cc 96 02 3e d0 c8 96 3d
       -0.017413178 -0.16799676 0.12752837 0.07362521
000370 bf a1 1b be a9 99 77 bb 2b c2 7d 3d 32 77 19 3e
       -0.1519842 -0.0037780798 0.06195275 0.14986876
000380 b7 dd 82 3c d3 75 40 3e 20 df c3 3d 96 7a c3 bd
       0.015974863 0.18794946 0.09564042 -0.09544866
000390 e4 e1 ef 3d 7a 8e 01 3e 22 93 1f 3e 9e 3b a0 bb
       0.11713007 0.12652007 0.1558347 -0.0048899194
0003a0 f6 96 89 3d 8d 57 5e bc 44 7f 81 bc 49 99 55 3c
       0.06718247 -0.013570678 -0.015807755 0.013037034
0003b0 17 fc cb bd a1 70 40 3e 77 c8 64 ba b0 e1 5c 3e
       -0.09960192 0.18792965 -0.00087273814 0.21570468
0003c0 3a 89 19 3e ae 00 a0 bc 05 af 13 3e a7 ab e0 bd
       0.14993754 -0.019531574 0.14422233 -0.1097024
0003d0 e8 38 9b 3b 1f 6c 43 be 95 2d a3 3d f1 4f 49 be
       0.0047370084 -0.19084214 0.079676785 -0.19659401
0003e0 e2 9a 2a bd ff 1f dd bd 9b 4a 5d 3c e5 0b 05 be
       -0.041651614 -0.107971184 0.013506557 -0.12992819
0003f0 f9 4f 82 be 0a 07 dc bc ae 96 53 bd 87 01 2c be
       -0.2545164 -0.026858825 -0.05165737 -0.16797458

bias f4 [3]
000000 4f e6 10 be 7e 6a d4 bd cc 90 57 be
       -0.14150356 -0.10371874 -0.2105133
