inpatinign diagrams/best_unet_with_denois_20_each.pth (torch, 684626 bytes, 12 tensors)

weight f4 [32, 3, 3, 3]
000000 e0 52 d9 3c 4a e3 cd 3d 5c e8 22 3e f1 a4 54 3d
       0.026528776 0.100531176 0.1590895 0.051915113
000010 33 55 9e bd 61 ea 22 3d bd 5b 8e bd 74 8a 6b bc
       -0.07731094 0.039774302 -0.069510914 -0.0143762715
000020 cc 6f df 3d af 17 ec 3d 7b 2a ff bd ce 1f f6 bd
       0.109099954 0.11527955 -0.124592744 -0.12017785
000030 f5 25 9b bd 71 cd ae bc 25 c6 ef bd 8c 9e 09 be
       -0.07575599 -0.021338196 -0.11707715 -0.13439387
000040 41 6a 22 3e 30 4a 75 3d 60 72 95 bc 4d 78 48 3d
       0.15860845 0.059885204 -0.018243015 0.048942853
000050 de 67 34 be e1 de 3e 3c ef 3a 0d 3e e6 15 7f bd
       -0.17617747 0.011649818 0.13792013 -0.062276743
000060 5f e5 41 3e e3 52 8c 3b aa bc fb bd 1f 80 0d be
       0.18935154 0.004282342 -0.12291844 -0.13818406
000070 23 d2 2e 3e 74 e5 19 3e ae d0 4f 3c 5b 1c 48 3d
       0.17072348 0.15028936 0.01268403 0.048855167
000080 42 6e 87 3c 24 8d 22 be e1 4d 20 3e f5 af 34 be
       0.016532067 -0.15874153 0.15654708 -0.17645247
000090 34 a0 27 3e 55 1e d7 3d 0d 1c c0 3c ce 00 0b be
       0.16369706 0.10503832 0.023450876 -0.13574526
0000a0 81 67 10 be 91 08 51 3c 64 e1 8c bd a4 22 11 3e
       -0.14101984 0.01275839 -0.06878927 0.1417337
0000b0 b0 55 96 bd 39 3e 6a 3d e5 43 35 ba 42 15 1b 3d
       -0.07340562 0.057188246 -0.0006914719 0.03786207
0000c0 5a b2 53 3b 04 84 28 bd 10 4e 34 3e 0b b5 bd 3d
       0.003230235 -0.041141525 0.17607903 0.09263047
0000d0 91 74 f4 bd d7 69 b8 3c 51 d2 28 be 82 c4 ee 3c
       -0.11936296 0.022511406 -0.1648648 0.029146437
0000e0 97 92 e8 bc 74 f3 3d be 12 6a 2a be 4a 50 d8 bd
       -0.028390212 -0.18549901 -0.16642025 -0.10562189
0000f0 d1 8b a8 3d e2 c4 e7 bd f2 70 17 3d e7 f8 44 3e
       0.08229793 -0.11316849 0.036972947 0.19235574
000100 cf 5c a5 bd d7 01 26 3e d1 04 4a 3e da 0a 4f 3d
       -0.080743425 0.1621164 0.197284 0.05054746
000110 6c 10 22 3e 5e 01 17 3d 87 0f 2f 3e 76 1e 53 3c
       0.15826577 0.03686654 0.17095767 0.01288568
000120 ab 7c ea 3d 17 98 4d bd da fe fe bd 80 d0 73 bd
       0.1144956 -0.050193872 -0.12450953 -0.059525013
000130 de b2 01 3e 62 92 1d 3d 69 ba 03 bd 49 7d 08 be
       0.12665889 0.03846968 -0.032160196 -0.13329042
000140 57 ef 3a bd d8 db 33 3e 33 6b 12 bc 00 5d dc 3c
       -0.04563841 0.17564332 -0.008936691 0.026899815
000150 5a ee 76 3c 3e b8 d9 bc f7 8c f4 3d f5 d0 1e 3e
       0.015071476 -0.026577111 0.119409494 0.15509398
000160 b5 af fd 3d b0 33 ca bc 5a ca 23 be f8 a4 db bd
       0.12387029 -0.02468285 -0.1599516 -0.10724825
000170 ec 2f d6 3d 28 19 91 3d 39 9c 5e bc e7 a8 2b bc
       0.10458359 0.07084876 -0.013587051 -0.010477281
000180 fc cf e2 bd c8 60 0f 3e 4d 59 3d 3e 1f 18 35 3e
       -0.11074826 0.14001763 0.18491097 0.17684983
000190 24 55 de bd cf 93 dd 3d f1 93 37 3e 11 c1 12 3e
       -0.10856083 0.10819208 0.17927529 0.14331461
0001a0 0b 8b b5 bc 0a 5f 9e bd d0 f0 40 3e 6d 12 3f 3e
       -0.022161027 -0.07732971 0.18841863 0.18659373
0001b0 6c e2 ab 3d e9 ff 80 3d d9 31 31 3e 8d cb 80 bd
       0.08392796 0.06298811 0.17304172 -0.06288824
0001c0 a5 ba 16 3e c5 b8 20 be 50 84 3c be 84 0d 18 bd
       0.14719637 -0.15695484 -0.18409848 -0.037122265
0001d0 15 6d 48 3d 5b d0 d4 bb 01 24 7e 3d ae 8e 14 3e
       0.048932154 -0.0064945645 0.062046055 0.14507553
0001e0 b6 3c e9 bd a9 8b ba 3d 2d 45 1c be 20 84 20 3d
       -0.11388533 0.09108669 -0.15260763 0.039188504
0001f0 57 e9 f1 3d af 59 01 3e ab 80 78 3c 6a 24 10 3e
       0.11812084 0.12631868 0.015167396 0.14076391
000200 c2 28 cb 3c f5 da f0 bd 91 6c af 3c 17 6d 04 be
       0.024799708 -0.11760513 0.021414073 -0.1293224
000210 bd 12 7b 3d da a6 52 3c 22 1d 36 3e b6 2f 10 be
       0.061297167 0.012857163 0.17784551 -0.140807
000220 f5 9f 2d be 0d e1 05 be c5 17 12 3d e3 8f 74 3d
       -0.1695555 -0.13074131 0.0356672 0.059707534
000230 3d a2 04 be 8c 74 3e bd fe bb 55 bd e9 91 2f be
       -0.12952514 -0.046497867 -0.052181236 -0.17145504
000240 d8 7d 3f bc 75 08 92 3d 80 8c b3 3d 79 91 14 3d
       -0.011687718 0.07130519 0.087670326 0.036271546
000250 e0 0f 2e be 09 9f d2 bc 26 5c cb bc f0 68 af bd
       -0.16998243 -0.0257106 -0.024824213 -0.08564937
000260 0a 5c 1a be 26 aa 15 3e 85 2a 2d 3e 32 f1 21 bb
       -0.15074173 0.14615688 0.16910751 -0.0024710414
000270 09 d8 ff 3d bf b2 f5 3c d4 1a 0e be 61 47 e0 bb
       0.12492377 0.02999246 -0.13877422 -0.0068444465
000280 b1 fa 25 bd a0 02 07 be 99 35 25 3e b4 ee 17 bd
       -0.04052228 -0.13184595 0.16133727 -0.03709288
000290 bd d7 3e 3d 75 03 e1 bb 2e 4c 53 3d fa 6a 30 be
       0.046592463 -0.006866867 0.051586322 -0.17228308
0002a0 93 bb 97 3c 12 3a 17 be 0b 44 d1 bd 13 37 24 3e
       0.01852206 -0.14768246 -0.10218056 0.16036634
0002b0 38 7b b6 3d 1e f6 0a bd d4 ed 65 3d 95 05 04 bd
       0.08910221 -0.033926122 0.056135014 -0.032231886
0002c0 5e ab 22 be 6e 1c 9e bd 2b 73 d1 3d 01 6f f6 bd
       -0.15885684 -0.07720266 0.10227045 -0.12032891
0002d0 08 d4 ea 3c c9 7e 55 3e 2b 2f 5d bd d0 3f ec bc
       0.028665558 0.20849146 -0.05400006 -0.028839022
0002e0 ca f4 16 be e4 bd 14 bd ae ec 38 be 6b 3c 6a 3c
       -0.14741817 -0.036313906 -0.18059036 0.014296631
0002f0 d7 00 a8 bd 5e 98 76 3d 3d a6 36 3e 0f 8a 3e 3c
       -0.08203285 0.060203902 0.17836852 0.011629595
000300 98 e6 12 3e fe b6 47 be d7 5e 82 3d 8a ff 42 be
       0.14345777 -0.195034 0.063657455 -0.19042793
000310 49 f7 36 3d 08 8c 1a bd 68 e1 6c bd fb 76 2f be
       0.044669423 -0.0377312 -0.05783215 -0.17135231
000320 75 a0 af 3d 42 ff c1 3d cb 80 06 3e 8e b1 0f 3e
       0.085755266 0.09472515 0.13135068 0.14032575
000330 88 94 fb 3d dd c5 d9 bd e7 cc ce 3d 8d cd 11 3e
       0.122841895 -0.106334426 0.10097676 0.14238568
000340 a0 c3 28 be e8 e6 11 be 8b ed 25 3e f0 b9 a3 3c
       -0.16480875 -0.1424824 0.16203897 0.019986123
000350 6d 62 d4 3d 56 b2 30 3e 1b 0e 30 3e 55 b2 33 3e
       0.10370336 0.1725553 0.17192881 0.17548497
000360 f3 2e 3e be e9 e0 8a bd 18 89 56 3c 62 5b 1b 3c
       -0.18572597 -0.067811795 0.013094209 0.009482237
000370 2b 6a 82 3d 8a 0e cf 3c ad a6 15 be 31 54 92 3c
       0.06367906 0.025275487 -0.14614363 0.017862411
000380 fc 73 e2 bd 90 83 3c bd 3d dd 16 be 4a 51 26 be
       -0.110572785 -0.046023905 -0.14732833 -0.16241947
000390 03 27 bc bd 3d 76 ba 3d f4 7f 1a bc a2 75 38 3e
       -0.091871284 0.091045834 -0.00942992 0.18013623
0003a0 f3 9c 2a be 64 11 04 3e fe df 56 3c e7 2e 20 3c
       -0.16661434 0.12897259 0.013114927 0.009776807
0003b0 6b 9c c4 3d 26 25 22 3e 78 41 70 bd 54 50 8e bd
       0.09600147 0.15834484 -0.058656186 -0.06948915
0003c0 fb 6a 86 3d e9 9b 2d 3a e6 33 00 be 32 5f 21 3c
       0.06563374 0.00066226587 -0.12519798 0.0098493565
0003d0 e5 4b 17 3e e7 1c 11 3e a3 71 0d be 4a 6f c7 bd
       0.14775045 0.14171182 -0.1381288 -0.097380236
0003e0 d5 4e 18 3e 8a e1 18 be fb 8c 32 3e c6 ed 2f be
       0.14873822 -0.14929786 0.17436592 -0.17180547
0003f0 bc cf ef bd 08 70 3d be 4b 61 ba bc b2 67 7f 3c
       -0.11709544 -0.18499768 -0.022751471 0.015588688

bias f4 [32]
000000 04 8f 12 3e 5b 16 5a 3d bb 39 1b be 8d 46 b5 bd
       0.14312369 0.053243976 -0.15158741 -0.08851347
000010 39 4a a2 3c c9 4d 11 3e 1c b1 a6 3d 63 c6 0c 3e
       0.019810783 0.14189829 0.0813925 0.13747554
000020 59 ef 36 be bc e4 69 3d fb cf d4 3d f0 61 dd bd
       -0.17864741 0.057102904 0.103912316 -0.10809696
000030 dd 7b f3 bd e9 1e c0 bc f9 03 45 3e e2 65 2a be
       -0.118888594 -0.02345224 0.19239797 -0.16640428
000040 51 10 a8 3b 92 7e 90 bd ca 65 4b 3d ee 6b 4a 3e
       0.005128898 -0.07055391 0.04965762 0.19767734
000050 56 99 db 3d 64 e3 bb bd bb e6 39 be 8d 3a 21 be
       0.10722606 -0.09174231 -0.18154423 -0.15744992
000060 7f c4 14 bc 8d 18 11 3e 4b 11 09 bc 4d e0 c4 3c
       -0.009080051 0.14169522 -0.008365939 0.024032736
000070 80 b8 e6 3d 2b 76 85 bd 66 06 89 bc e2 98 16 3e
       0.11265659 -0.065166794 -0.016726684 0.14706758

weight f4 [32, 3, 3, 3]
000000 11 f3 8d bd 96 18 1d 3d 34 a0 d0 bd 2f a6 d7 bd
       -0.06931127 0.038353525 -0.10186806 -0.10529744
000010 cd 5d 2b 3e 3f 28 23 be b9 7f 26 3e b5 58 45 3e
       0.16735001 -0.15933321 0.1625966 0.1927212
000020 66 6d 89 bd 2f 54 1f bd 8b dd 57 3b ca 89 cf 3d
       -0.06710319 -0.038898643 0.0032938446 0.10133703
000030 6d c7 44 3d 1d a1 2c 3d 75 77 90 bd b0 3e 92 bd
       0.04804175 0.042145837 -0.070540346 -0.07140863
000040 cf ad c4 bc c1 95 03 bc 91 29 21 be fb c9 d5 3c
       -0.02400866 -0.00803131 -0.15738513 0.026097288
000050 31 f3 32 be 87 8e 2d bd 2f 40 6a 3d 30 fb b0 3d
       -0.17475583 -0.042372253 0.057190116 0.0864166
000060 f9 20 ee 3d 1c a3 aa bc 3b b0 dc 3d ca ca 2a 3e
       0.11627383 -0.02082973 0.10775801 0.1667892
000070 2d d8 01 be b3 f5 b3 bd 13 d7 90 bd 82 ae 23 be
       -0.12680121 -0.08787098 -0.07072272 -0.15984538
000080 95 cc 2c 3e 20 36 7c bd 8d 42 99 bd 5d f7 dc 3d
       0.16874917 -0.061575055 -0.07483397 0.10789368
000090 0d 6e bc bd 44 7c e1 3d 70 c8 ea 3c 1c 90 c9 3c
       -0.09200678 0.1101003 0.02866003 0.02460485
0000a0 0a c8 90 3d 6b 92 8d bd 9f 8b 87 bd 66 fd 61 3d
       0.070694044 -0.06912693 -0.066184275 0.0551733
0000b0 d7 d9 e3 bd 85 e7 24 3e 19 1f b6 bd 75 2f 41 3e
       -0.11125534 0.16103943 -0.0889265 0.1886576
0000c0 20 3d f1 3d de 7d 14 be 1b 66 1f 3d d4 5f 11 bd
       0.11779237 -0.1450114 0.038915735 -0.03549178
0000d0 b7 5e e9 3d a2 18 d5 bd f6 c5 ec bd 8d d5 37 3e
       0.113950185 -0.10405089 -0.115611956 0.17952557
0000e0 7e 15 21 3e d1 fa 6d 3d 37 1a a8 3d 27 c1 0c 3e
       0.15730855 0.058100525 0.08208125 0.13745557
0000f0 6a b1 24 bc 43 7a ea bd e1 a0 35 3d 62 d7 91 3d
       -0.010052064 -0.11449101 0.04434288 0.07121159
000100 8e 9c 0b bd fe c2 72 3c 6b ae 65 3d 12 21 72 bd
       -0.03408485 0.014816998 0.05607454 -0.05911357
000110 2b 7e 9a 3d 70 df 8c bd 83 7e ae bb 30 62 36 3d
       0.07543596 -0.06878555 -0.00532514 0.044527233
000120 c2 fc 3d 3e 0d b1 30 3e 68 a9 d4 3d fd d8 eb bc
       0.1855345 0.1725504 0.10383874 -0.028789992
000130 52 e0 e0 3d f0 61 0c 3d 21 90 db bd eb b9 d3 bd
       0.10980286 0.034273088 -0.1072085 -0.103381954
000140 5a 5e 22 bd 79 94 af bc 8a 98 36 3e 70 91 40 3e
       -0.039640762 -0.021433102 0.17831627 0.1880548
000150 ed 9c eb bd 1b 44 23 3c e7 dc 7a bd bb 9b 11 3e
       -0.115045406 0.009964968 -0.061245825 0.14219563
000160 53 05 28 3e ae 70 62 3d 9f 37 57 bc 3c 2f 33 be
       0.16408281 0.05528324 -0.01313582 -0.17498487
000170 bc 61 8a 3d 25 5a 21 be 2d 58 0f 3e 61 ba 5c bc
       0.067569226 -0.15757044 0.1399848 -0.013472171
000180 b8 27 d1 bd 5f 28 23 3e ef 57 a6 3d c7 ad 06 3e
       -0.10212654 0.15933369 0.08122241 0.13152228
000190 e7 59 02 3d 61 89 ae 3d e4 9f ab 3d e0 ea 3c be
       0.03182402 0.08522297 0.08380106 -0.18448973
0001a0 56 bf 4e 3d 9a 51 02 be 4a d7 c4 bd 34 c2 15 bd
       0.05047544 -0.12726441 -0.09611376 -0.03656216
0001b0 9f 6e 22 be 0b 7e 3e bd f5 7c 26 3e 73 02 da 3d
       -0.15862511 -0.046506923 0.16258605 0.106449984
0001c0 8b 48 16 3c 99 25 3f 3e 77 b9 30 be d7 a4 3d 3e
       0.009172569 0.18666686 -0.17258249 0.18519913
0001d0 e4 33 2d 3d a2 32 88 3c 27 b2 93 bd c0 b0 42 be
       0.042285815 0.016625706 -0.07211714 -0.19012737
0001e0 ab b1 1e 3e e0 a2 40 3d e4 0c 0f 3e 52 94 8a bd
       0.15497462 0.04703033 0.13969761 -0.06766571
0001f0 b1 91 88 3c cc f5 6f bd 54 49 0c be df fb 7f 3c
       0.016671034 -0.05858402 -0.13699847 0.015624016
000200 f6 04 12 3d 5c 43 1d be a3 a8 10 3c 7e 13 3c be
       0.035649262 -0.15357727 0.008829269 -0.1836681
000210 b7 b3 e6 3c 39 0d fa 3d 6e 1a 06 3e ed 3c df 3c
       0.028161867 0.12209553 0.1309602 0.027250731
000220 39 f1 05 3e ca ef 33 be 05 cb ab 3d 40 7f fd bd
       0.130803 -0.17571941 0.08388332 -0.12377787
000230 7d 3e e7 bd af ec 9c 3d 05 69 5a bd fb e7 3d be
       -0.112912156 0.07662331 -0.05332281 -0.18545525
000240 bf c8 0c 3e 73 64 c9 3d 7e 35 87 bd 23 c5 a2 bd
       0.13748454 0.09833612 -0.06602 -0.07947757
000250 3e 56 e5 3d 75 f2 29 be 8c 2d d2 3b ad 4a 0b be
       0.1119809 -0.16596396 0.006414121 -0.13602705
000260 fe 50 2d be 98 11 ba bd 4c 5a 1b be 39 ae d1 3d
       -0.16925427 -0.09085387 -0.15171164 0.102383085
000270 4e f7 35 be d6 f3 00 3e e5 73 19 3e a0 29 fe bb
       -0.1777012 0.12593016 0.14985617 -0.007756427
000280 01 34 39 3d ee 76 9b bd b1 19 0a be 98 42 00 be
       0.04521561 -0.075910434 -0.13486363 -0.12525403
000290 72 57 d2 3c f6 47 99 3d af ce 75 3d 62 31 3e 3e
       0.025676463 0.074844286 0.060011562 0.18573526
0002a0 61 07 46 bd db 09 43 be 92 d8 0a be 4b 0e 32 be
       -0.04834688 -0.19046728 -0.13559178 -0.17388265
0002b0 9b bb 3f 3e 35 9e a8 3d 5c fe 38 3e e1 11 79 3c
       0.1872391 0.082333006 0.1806578 0.015202017
0002c0 ca 96 2f 3d de 69 0e 3e 34 fe 0e 3e 6d d2 2a 3d
       0.042868413 0.13907573 0.13964158 0.041704584
0002d0 28 a8 47 bd 1e bd 54 bd 96 fb ec bc 8c 5a 0b bd
       -0.04874435 -0.05193817 -0.02892856 -0.0340219
0002e0 6f c3 1d 3e 15 5a 0f 3d 2f e4 33 be 5f 5b 67 bd
       0.15406583 0.03499802 -0.17567514 -0.056483623
0002f0 c8 ce f7 3c b0 89 22 be 89 6a de bd 02 0f 90 3d
       0.030249968 -0.15872836 -0.10860164 0.070341125
000300 49 ab 11 3e f2 7c e0 3d 99 50 0e be c7 0c 34 3d
       0.14225496 0.109613314 -0.13897933 0.043957498
000310 86 d4 d3 bd 34 0e c2 3c 14 8c 0b 3e 66 c9 0d 3d
       -0.1034327 0.023688413 0.13627654 0.034615897
000320 69 29 09 3e ee f8 1f be 9c 7c 9d bc b2 f5 e2 bd
       0.13394703 -0.15622303 -0.019224457 -0.11082019
000330 54 b7 cc 3d 6d 3b 8a bd b0 4b dc 3d 78 24 8f 3d
       0.099959046 -0.06749616 0.10756624 0.06989378
000340 05 0e 8c 3b 5d 84 88 3b cc 82 12 be db 86 de bd
       0.004274132 0.0041661696 -0.14307708 -0.108655654
000350 99 a5 04 3e 9e 48 3f 3e bb 08 34 be 3d 1e 46 3d
       0.12953795 0.18680045 -0.17581455 0.04836868
000360 dd 9f 97 bd 87 f1 de bd df 33 12 bd 10 5c af bc
       -0.074035384 -0.108859114 -0.035694 -0.021406204
000370 37 7d d8 3d 47 a3 f2 bd 42 4c 8e 3d 31 6b 74 bd
       0.10570758 -0.11847549 0.06948139 -0.05967254
000380 44 ac 3b bc 8d 28 e3 3c 45 38 32 3e a4 11 0a bc
       -0.011454646 0.027729297 0.17404278 -0.008427057
000390 f3 9e 07 3e 61 89 3b 3e 1f 4a a3 3d 94 a8 2e be
       0.13244228 0.18314125 0.07973122 -0.17056495
0003a0 e6 17 82 bd 21 8c eb 3c 14 ad a1 bc ea ff 1a 3e
       -0.063522145 0.028753342 -0.01973585 0.15136686
0003b0 9d c6 ce 3d 5f 2d 4b 3d 71 ee ea bc 99 b4 19 bd
       0.10096476 0.049603816 -0.02867815 -0.037525747
0003c0 f4 71 bd bd 54 91 cb bd 56 4b f3 3d e5 5a b6 3d
       -0.092502505 -0.099398285 0.118796036 0.089040555
0003d0 51 bf 23 3e a5 a6 40 3e 95 0c e5 bd ed c4 dd bd
       0.1599095 0.1881357 -0.111840405 -0.10828576
0003e0 8d c2 cd 3b c4 a5 1f be c5 8b 5b bd f9 c9 c6 3b
       0.006279296 -0.15590578 -0.05360009 0.0060665575
0003f0 29 6c 00 3e 01 ab 96 bd e8 66 13 3e 35 c2 44 3e
       0.1254126 -0.07356835 0.14394724 0.19214709

bias f4 [32]
000000 c5 b6 9e bd 42 90 ac 3d b1 40 35 3e 88 dd 40 3e
       -0.07749704 0.084259525 0.17700459 0.18834507
000010 09 0d 3e be 60 52 87 3d 26 36 0b 3e ca c2 e5 b9
       -0.1855966 0.06607509 0.13594875 -0.00043823413
000020 14 18 9f 3d 1e bd 1b bc a5 d2 03 be c4 37 2a be
       0.077682644 -0.009505538 -0.12873323 -0.16622835
000030 37 dd d8 3d 63 2c 70 3d 61 f6 02 3e b5 29 38 be
       0.105890684 0.05863608 0.12789299 -0.1798466
000040 e7 d2 cd 3d df f4 e9 bd 21 ea d9 bd 26 de c1 3d
       0.10049992 -0.114236586 -0.1064036 0.094661996
000050 48 75 42 3e 2a 10 6a bd 7a 29 09 3e de c3 ca 3d
       0.18990052 -0.05714432 0.13394728 0.0990064
000060 34 3b 85 3d 39 96 d4 bc 40 bf 17 be c7 27 46 bd
       0.06505433 -0.025950538 -0.1481905 -0.04837778
000070 9e 75 cf bd cf 3d 4d 3e 35 92 47 3e 94 7f 3c be
       -0.101298556 0.2004311 0.19489367 -0.18408042

weight f4 [128, 64, 3, 3]
000000 a2 20 d2 bc 9e d4 1f bc b5 6d 91 bc 31 5d 23 3d
       -0.025650326 -0.009755282 -0.017752508 0.039883796
000010 64 d8 24 3d dd e6 0e bd d8 ef 6d bc 66 aa 86 3c
       0.04024543 -0.034888137 -0.014522515 0.016438674
000020 a1 d4 0d 3d 51 4d 5c bc 3a f1 9f 3c af 6e c0 3c
       0.034626607 -0.013446168 0.019524205 0.023490278
000030 b7 b7 d4 bc f4 34 3d bc 17 b1 1c bd 75 2e 5c bc
       -0.025966508 -0.01154827 -0.038254824 -0.013438811
000040 c2 f0 87 bc d6 7b 19 3b 92 03 cb bb d9 b0 6f bc
       -0.016594294 0.002341976 -0.006195494 -0.014629566
000050 8e 9d 98 3c d4 40 62 bd 7e 68 51 3c e0 d6 16 bd
       0.018629815 -0.055237606 0.012781261 -0.036826015
000060 d5 bc d8 3b dc 5c 3a 3c f4 b4 5b bc 35 99 4c 3c
       0.0066143074 0.011374678 -0.013409842 0.012487699
000070 40 38 b4 3a 60 27 2a 3d 2f a1 0f 3b 31 d8 91 bc
       0.0013749674 0.041541457 0.0021916141 -0.017803283
000080 59 61 19 bd 51 e5 0e 3d 05 ea aa bc c6 4b f8 3c
       -0.037446354 0.034886662 -0.020863542 0.03030957
000090 8a 54 07 bc eb 4a e1 3b 13 f2 25 bc d7 e5 4c 3c
       -0.008259902 0.006875386 -0.010128516 0.01250597
0000a0 b1 59 ba 3a 5b cb e3 3b 46 39 d7 3a 36 c3 19 bd
       0.0014217404 0.006951732 0.0016420267 -0.037539683
0000b0 f7 45 de bc f8 ca 80 bb e1 bb 63 bc 8f 06 06 bd
       -0.027132971 -0.0039304458 -0.013899774 -0.0327211
0000c0 10 57 b6 3a 11 71 d2 3c 1d 8d e4 bc f0 be 3c bc
       0.0013911445 0.02568868 -0.02789932 -0.011520132
0000d0 c2 fe 46 3b 23 ac 0b bd 70 f0 39 bc 59 1e 84 3c
       0.003036425 -0.03409971 -0.011348829 0.016127752
0000e0 f4 2c 4f 3c da 4e d6 bc 17 7b 8a bc f7 ec e3 3a
       0.012644995 -0.026160646 -0.016904397 0.0017389347
0000f0 15 6b dc bc bd ad 50 3d 08 8e f2 bc 67 1f f7 bc
       -0.02690653 0.05094694 -0.029608741 -0.030166341
000100 fb 5e e6 bc 9b 7a c3 bb f7 1e 16 3d 30 27 ab 3c
       -0.028121462 -0.0059655434 0.036650624 0.02089271
000110 d9 a9 12 3d e1 cc 71 3c ea 0a 09 bd 1e cb 90 bc
       0.03580651 0.01475832 -0.033457674 -0.017674979
000120 e8 39 85 bc 10 9a 15 bd 06 84 a5 bc 3e 60 e5 3c
       -0.016262963 -0.03652388 -0.020204555 0.027999993
000130 c9 b0 7b bb 91 9f 23 bd 5f 79 0d 3c 30 2a 8c 3c
       -0.0038404933 -0.039947096 0.008634894 0.01710996
000140 c1 86 27 bc 43 a3 04 bd ca 99 89 39 b2 7e 13 bd
       -0.010224999 -0.03238226 0.00026245258 -0.036009498
000150 15 fb 8b bb 5f 2d 12 bd e2 53 41 bc 4c 9e 25 3d
       -0.0042718747 -0.0356878 -0.011799784 0.040434167
000160 f9 0c 25 bd b7 93 0f bd ee a6 b6 3c 3e 29 f5 3c
       -0.040295575 -0.03505298 0.022296395 0.029926892
000170 0f a7 cc bc 67 4c 2a 3c 99 a3 8f bb 75 c0 72 bc
       -0.024982003 0.010394192 -0.004383516 -0.014816393
000180 70 ea db bc fb 30 9e 3c dc 87 2e bd 04 52 20 3d
       -0.026845187 0.019310465 -0.042610034 0.039140716
000190 b2 36 7b 3c b7 4f 7b 3c ec 3c 03 3d 4f 1b 59 bc
       0.015332865 0.01533883 0.03204052 -0.01325114
0001a0 04 c0 c8 3c 8e a2 9b 3a ac a9 11 bd 60 14 5b bc
       0.024505623 0.0011874007 -0.035562202 -0.013371557
0001b0 24 bb 26 3d 9a 3e 55 bc 5e b4 18 bd e9 7c f4 3b
       0.040705815 -0.013015414 -0.037281387 0.0074611795
0001c0 21 fc 1a bb 22 b7 86 bc 60 d9 c5 3c 6e 6f 06 bd
       -0.0023648816 -0.016444746 0.024151504 -0.03282111
0001d0 b1 9a 1c 3d 66 19 13 bd 44 97 63 3c 0d 8e dd bb
       0.038233463 -0.035912894 0.013891045 -0.0067613185
0001e0 67 fd a1 bc ba bc c9 bc a3 51 26 bd 07 69 87 3c
       -0.019774152 -0.024626125 -0.0406052 0.016529573
0001f0 a4 55 20 bd 0e e2 09 3c d8 17 4f 3c c7 95 b8 3c
       -0.039144173 0.008415712 0.012639962 0.022532357
000200 28 d2 4a bc f2 1c d9 3c 05 5e 34 bc 70 55 dc bc
       -0.012379207 0.02650306 -0.011008744 -0.026896209
000210 94 89 19 bd d6 8c 40 bc f6 af 0f 3d 2c ba 0b 3c
       -0.03748472 -0.011752328 0.03507992 0.008528274
000220 72 f5 42 bc b9 bf a5 bc 31 57 6b 3d c2 c7 a5 bc
       -0.011899339 -0.020233022 0.0574562 -0.020236854
000230 54 ad 89 bc 44 ee 4b 3d f6 5e 44 3b cd 3f 19 3d
       -0.016806282 0.049787775 0.0029963828 0.03741436
000240 24 85 00 bd b5 f8 d6 3c 2b 1f 37 3c 29 e8 1b 3b
       -0.031376973 0.02624164 0.011176865 0.0023789501
000250 9d c7 1b bd 60 19 c3 bc 64 a5 aa 3c a7 94 04 bc
       -0.038032163 -0.02381581 0.020830818 -0.008092082
000260 13 00 20 bd 78 87 c8 bc ed d7 d6 bb 2d fa 09 bd
       -0.03906257 -0.024478659 -0.006556502 -0.03368585
000270 f7 ee 12 bc 43 a3 02 bc 25 65 1e bd f2 95 e0 3c
       -0.0089681065 -0.007973495 -0.038670678 0.02741525
000280 43 94 15 3d 31 55 c7 39 e2 55 de 3c 2f 64 af 3c
       0.036518347 0.0003801971 0.027140561 0.021410076
000290 24 b3 52 bc b0 6d d9 ba 1c f5 08 3c 69 a6 50 3c
       -0.012860093 -0.0016588476 0.00835922 0.012734988
0002a0 e9 f8 96 3c c0 43 14 bd 92 6d f0 bb ec 0f 75 bb
       0.018429236 -0.036197424 -0.0073372805 -0.0037393523
0002b0 37 17 0b 3d e6 3d a1 3b 8f 25 f8 3b 39 d9 be bc
       0.033957686 0.004920709 0.0075728367 -0.02329694
0002c0 fe d9 03 3b ec 18 f4 3b 20 d3 93 3c 7c d5 1f bd
       0.0020118947 0.00744926 0.018045008 -0.039021954
0002d0 02 8c 51 3c dd 94 05 3c 10 c9 dc 3c 65 aa c0 bc
       0.012789728 0.008153168 0.026951343 -0.02351875
0002e0 81 68 0c 3d 4a 15 01 bd 63 06 31 bb 1f 2b de 3b
       0.03427935 -0.031514443 -0.0027011863 0.006780043
0002f0 a2 02 a9 3c ee 0f a3 3c 56 b1 e5 bc e8 40 10 bc
       0.020631138 0.019905057 -0.028038662 -0.008804537
000300 7c 9e ef bc dd ed 9b bc e0 f8 29 3d cb 87 93 bc
       -0.029250376 -0.01903432 0.04149711 -0.018009087
000310 82 c8 0d bc 57 fe aa 3c d1 a4 e5 3c 4c 2a 0f 3d
       -0.008653762 0.020873232 0.028032692 0.034952447
000320 ea 9b 1b bd d5 c5 09 bd e8 bd b2 3a fa 09 4b bc
       -0.037990488 -0.033635933 0.0013636919 -0.012392515
000330 e0 0a 2f 3b 39 8b 79 bb 72 ab 80 3c 3e 02 9e 3c
       0.0026709363 -0.0038077368 0.015706751 0.019288179
000340 2d 60 39 bd 53 7a 1b bc 51 a3 5b 3d 3f 57 e5 3a
       -0.045257736 -0.009489614 0.053622548 0.0017497315
000350 5a f5 92 bc 2e 51 98 3c 94 97 39 3d 46 48 b4 39
       -0.017939258 0.018593397 0.04531057 0.00034386123
000360 ef 64 2a bd b7 39 46 bb 88 2b 50 3b 2b 5a 7b ba
       -0.041600164 -0.0030246803 0.0031764228 -0.0009588326
000370 fa c3 8b bc 16 80 1f 3d 01 7a c4 3c ce 22 20 bd
       -0.017061222 0.03894051 0.023983957 -0.039095692
000380 9c 3f de bc 3f 3b 15 bd 45 bb 08 3d 6c 85 e7 bc
       -0.02712994 -0.036433455 0.03338172 -0.028261863
000390 b4 b9 23 3d 1a 62 d7 bc 99 f8 dd 3c ee 7e 1a bd
       0.039972022 -0.026291896 0.02709608 -0.037718706
0003a0 23 7b c1 bc ca 42 9b bc 7a cb d2 bc 5a 25 30 bc
       -0.023618286 -0.018952746 -0.02573179 -0.010751093
0003b0 5e cb 26 3d f5 89 b8 bb 89 8b 27 bd 4d 78 27 3d
       0.04072129 -0.00563168 -0.040904555 0.040886212
0003c0 ea fb 1e bd c7 21 50 bc 80 83 05 bd 36 fb 1c bd
       -0.038814463 -0.012703366 -0.03259611 -0.03832551
0003d0 75 6d 0a 3d 06 6f 60 bd 85 67 cb bc c3 0a d4 bc
       0.033795793 -0.05479338 -0.024829635 -0.025884038
0003e0 e6 8e 3e bd 56 3a e2 bb a3 16 a2 bb a2 9b f2 3a
       -0.046522997 -0.006903927 -0.004946546 0.0018509517
0003f0 06 61 9b bc 63 67 e4 3c d1 7e 30 3a 8c e9 f7 3b
       -0.018967163 0.02788133 0.00067327643 0.0075656828

bias f4 [128]
000000 71 2a 6b bc b4 53 25 bd ad 3f d9 3b 77 b1 92 bc
       -0.014353381 -0.04036303 0.006629905 -0.017906887
000010 fa e8 30 3c de 5d 8a 3c 71 b0 88 bc fa 2d 4e 3c
       0.010797733 0.016890462 -0.016685696 0.012584204
000020 fd 17 49 bc 84 9b c9 ba 16 a7 06 bd 22 8d 90 3b
       -0.012273786 -0.001538143 -0.03287419 0.0044113556
000030 d5 59 03 3d 3c ea 07 bd d0 41 5e 3c a9 a8 ee bc
       0.032068092 -0.033182368 0.013565496 -0.029133158
000040 0c 3b e7 bc b0 e1 2f 3b f4 af 48 bb 1c b1 c4 bb
       -0.028226398 0.00268374 -0.0030622454 -0.0060025584
000050 65 9d 50 bc c6 eb 03 3d 41 a0 9b 3c 45 6e a3 3c
       -0.012732838 0.032207273 0.018997313 0.019950042
000060 aa c3 c1 3a 47 d4 2f 3d 25 29 21 3d 1d cb ec bc
       0.0014783044 0.042927053 0.03934588 -0.028905446
000070 33 ee a2 3c 6e 9e d1 3c a6 e1 16 3d 86 7c 11 3d
       0.019888973 0.02558824 0.03683629 0.035519145
000080 29 06 40 3d f2 30 00 bd 0d 59 b1 3b f2 37 af bb
       0.046880875 -0.031296678 0.005412227 -0.0053472454
000090 38 66 00 3d 85 ce 18 bd 4d 24 fe bc ab a1 20 3d
       0.031347483 -0.037306327 -0.031023169 0.03921668
0000a0 24 5f 45 3b 19 37 0c 3d 0c d3 93 3c 50 7a d2 bc
       0.0030116523 0.034232233 0.01804497 -0.025693089
0000b0 56 20 2b 3c 54 49 8a 3c 6c 66 86 3b 08 bd e7 bc
       0.010444721 0.016880669 0.004101565 -0.02828838
0000c0 28 d0 65 bc f1 21 07 3d ec b2 df bc d5 f5 2c 3d
       -0.014026679 0.032991353 -0.027306996 0.04222663
0000d0 23 80 8f 3c 09 a5 1f 3d d3 fd e1 3c 25 ee c0 bc
       0.017517155 0.03897575 0.027586853 -0.023551056
0000e0 21 c0 89 3b 75 29 04 3d f2 55 0d bc 4e a2 f8 3c
       0.0042038118 0.0322661 -0.008626448 0.03035083
0000f0 cc d4 09 3d df 6f bc bc 6d 46 75 ba 15 f0 22 bd
       0.033650205 -0.023002563 -0.00093565026 -0.03977974
000100 1a 5c 91 3c 42 77 15 bd af fb 34 3d c4 8a 50 3c
       0.017744113 -0.036490686 0.044185337 0.012728397
000110 00 46 7c 3b d0 25 89 3c 77 3f c0 bc ec 04 77 3c
       0.0038493872 0.016741663 -0.023467762 0.015076857
000120 9b 4e 89 3c 68 3d c8 bb d3 46 06 bd 33 23 71 bc
       0.016761115 -0.006110836 -0.032782387 -0.014717865
000130 79 59 1e 3d 07 8b 99 3c d0 ca ba 3b be cb a4 bc
       0.038659547 0.018743051 0.0057004467 -0.020116683
000140 96 2c 15 3d 13 5f 24 bd 8d 42 0e 3d 4d 51 d4 3c
       0.036419474 -0.040129732 0.034731437 0.025917673
000150 8f 32 db bc dc f0 b8 3c 5e df 8e bc b3 5a ee bc
       -0.026757507 0.022575788 -0.017440494 -0.029095983
000160 87 d4 58 3a 7b 5b 20 ba 86 d1 2c 3d 89 b4 83 bc
       0.0008271415 -0.0006117147 0.042192005 -0.016077297
000170 e8 c5 a5 bc ef db a8 3c e9 f3 f3 bc ff 3a 46 bc
       -0.02023597 0.020612685 -0.029779391 -0.012099027
000180 d0 55 af bc 01 f6 10 3d d8 6c 25 3d 4f c6 8b 3c
       -0.021403223 0.035390858 0.040387005 0.017062334
000190 0c 96 24 bc dd 46 ce bc a1 19 d1 3c 7c 18 4a 3d
       -0.01004554 -0.025180275 0.025524916 0.049339756
0001a0 09 ce ab 3c b1 15 24 bd 71 72 33 bb 07 72 c3 3c
       0.020972269 -0.04005975 -0.0027381445 0.023858083
0001b0 b7 83 43 bc 43 bc 8c 3c f8 a8 84 3c 13 2b f9 3c
       -0.011933259 0.017179614 0.016193852 0.030416047
0001c0 f8 de 26 bd 12 66 7b bc a9 1e 0a 3d f6 2d 1b 3d
       -0.040739983 -0.01534416 0.033720646 0.03788563
0001d0 14 aa ff bc 4c 26 9d 3b 8a f6 45 3d 7c 96 38 3c
       -0.03120903 0.004795825 0.04833082 0.011266347
0001e0 01 f9 9d 3c 85 9d cf bc 9e b2 18 3c c7 9f 18 3c
       0.019283773 -0.025343666 0.009319929 0.009315438
0001f0 ca fc 12 3d e2 4e dc bc 2a ce b5 3c 8f 28 24 3c
       0.03588561 -0.026893083 0.022193033 0.010019436

weight f4 [128, 64, 3, 3]
000000 ba dd e2 bc dc 7d 00 bd b7 84 03 bc f2 a3 ae 3c
       -0.027693618 -0.03137003 -0.008027247 0.02131841
000010 13 a4 db 3c 5e 57 3a bc 49 81 1e bd 5d 4e 2b bd
       0.026811635 -0.011373369 -0.038697515 -0.04182278
000020 42 3e ab bc 35 a7 0d bd b5 1a 93 3c a4 bd f3 3c
       -0.02090371 -0.03458329 0.01795707 0.029753514
000030 2c d6 c4 bc bc 91 be bc 28 65 a8 3b 13 46 17 3d
       -0.024027906 -0.023262851 0.005139012 0.036932062
000040 bf c3 0a 3d e2 81 11 3d f4 d6 d7 3c d0 e6 aa 3c
       0.033878084 0.035524257 0.026347615 0.020862013
000050 a5 6f ef 3c 75 c5 30 3a 4a af 09 bd 1a e2 f8 bc
       0.029228041 0.00067432906 -0.033614434 -0.030381251
000060 98 77 2b 3c 8f e6 dc bb 49 1c a0 3c a8 70 61 3b
       0.010465525 -0.006741352 0.019544737 0.0034399424
000070 7a a1 55 3c 9a 28 cf bc 14 a6 d5 bc 26 2c 2b 3d
       0.013038987 -0.025287915 -0.026080169 0.04179015
000080 4b 34 15 bd 5e 82 1f bd b8 3b 9f 3c a4 51 16 3d
       -0.036426824 -0.038942687 0.019437656 0.036698952
000090 95 e4 15 3d ac a6 9f bc f9 4f 01 bd 6d 19 a3 bc
       0.036594946 -0.019488655 -0.03157041 -0.019909585
0000a0 a3 a5 77 bc a9 f7 8d bc 81 b2 89 3b 64 b5 0c bd
       -0.015115174 -0.017330008 0.0042021875 -0.034352675
0000b0 5c 0e a1 bc ba 0c c0 3c be 64 b9 bc a3 2b 68 3a
       -0.019660167 0.023443568 -0.022631045 0.00088566
0000c0 a3 81 a1 3c 9d 26 0e bd 5a 7b 0a 3a 70 06 e2 3c
       0.019715136 -0.034704793 0.0005282663 0.02759096
0000d0 e9 f9 2c bd d9 7f 7a 3c 32 40 62 bd fd 17 e5 bc
       -0.04223052 0.01528927 -0.055237003 -0.02796554
0000e0 af d4 8f bc 21 8b 22 bd ba 6c 0a 3d fb c2 32 bd
       -0.01755747 -0.039683465 0.033795096 -0.04364298
0000f0 2a 74 2c bd 60 25 24 bc a5 32 b3 bc 60 5d 08 3d
       -0.04210297 -0.0100186765 -0.021874735 0.033292174
000100 92 2d 50 3c bd bb d8 bc d5 1b 20 bd 59 11 30 bc
       0.012706177 -0.026456708 -0.039089043 -0.0107463235
000110 00 30 f3 3c 63 4e dc bc b9 50 d1 ba da 30 0b bd
       0.029685974 -0.026892846 -0.0015969492 -0.033982135
000120 b9 49 9f 3c d8 f4 82 bc 60 e3 97 bb ad 6b 1d bd
       0.019444333 -0.015985891 -0.0046352595 -0.038432766
000130 34 f9 ab bc 11 d7 1d bb 6c 4c 80 bc 98 f6 2d 3a
       -0.020992853 -0.0024084488 -0.01566144 0.00066361716
000140 02 a7 99 3c e7 20 25 bd b3 96 28 bd 75 e3 d8 3c
       0.018756393 -0.04031458 -0.041159343 0.026475647
000150 f4 b1 26 bd 72 76 f2 ba 7e 83 c0 3b 01 d1 96 3c
       -0.040697053 -0.0018498434 0.00587505 0.018410208
000160 85 64 96 3c da 64 0d bc 8e 77 ba bc 0d 7e 27 bd
       0.018358478 -0.008630002 -0.022762086 -0.040891696
000170 92 50 75 3c 70 af 26 bd 08 7f 02 bd ab dc 13 bd
       0.014972823 -0.040694654 -0.031859428 -0.036099117
000180 da 6a 22 3d 37 18 a6 bc 18 54 24 3c 4e c3 4a 39
       0.039652683 -0.020275218 0.010029815 0.00019336978
000190 70 17 a8 3c 9d d5 dd ba 18 56 f0 bc 93 85 0e 3d
       0.020518988 -0.0016924624 -0.029337928 0.034795355
0001a0 91 ea 5d bc 5b bc 3b 3d 3f 93 40 bc 64 4d 29 3d
       -0.0135446945 0.045833927 -0.011753856 0.04133357
0001b0 be 22 23 3d 1a 86 a9 bc ff 30 cd 3c 0e de 9f bc
       0.039828055 -0.020693827 0.025047777 -0.019515064
0001c0 4f 28 28 bd 15 dc 94 bb df c1 18 bd 25 16 c9 bc
       -0.041054066 -0.0045428374 -0.037294265 -0.024546692
0001d0 2b ee 11 3d 0b 66 81 bc b0 67 02 bd 86 a1 ac bc
       0.035627525 -0.015795728 -0.031837165 -0.021073114
0001e0 41 49 36 3d b7 02 a3 bb f0 e4 7b 3c d6 ec 8b 3c
       0.044503454 -0.004974689 0.015374407 0.017080706
0001f0 ef 22 82 3c f7 34 0a bd 0b 3f 0f bd 77 79 f9 3c
       0.015885798 -0.033741917 -0.03497223 0.030453427
000200 e1 aa 0a 3c 33 b6 f7 3b 43 01 05 3d 90 d5 0d 3b
       0.008463592 0.0075595616 0.032471906 0.0021642186
000210 1d 2c a8 3c d1 4d 98 bc 2a 64 35 3c 3f a8 05 bc
       0.020528847 -0.018591793 0.011071244 -0.008157789
000220 fe 2b c0 3c 03 d3 eb 3c 7b 99 c2 bc dc da 8f bc
       0.023458477 0.028787142 -0.023754826 -0.017560415
000230 3b 66 a5 3b 1d e9 8d bb e9 6d d2 3c df 1a e3 bc
       0.005047587 -0.004330768 0.025687175 -0.027722774
000240 67 60 d9 bc 8c 1a f5 bc 71 e5 f1 3b 06 f8 37 3d
       -0.026535226 -0.029919885 0.007382088 0.044914268
000250 b5 ec 57 bb 1e 5e a3 bc 53 ce 21 3d ed 66 68 bc
       -0.0032947485 -0.01994234 0.039503407 -0.014184696
000260 99 49 f3 bc 7f 9d e7 3c 9b 57 07 bd f4 a2 d5 3c
       -0.02969818 0.028273342 -0.03304253 0.026078679
000270 bc f7 46 bc fd 18 17 bd 9c 92 0f bd 3e d9 0e 3d
       -0.012144025 -0.036889065 -0.035051927 0.034875147
000280 af c5 17 3d 02 c7 aa 3b 12 8c ae 3c fe 19 86 3a
       0.03705376 0.005211712 0.021307025 0.0010231135
000290 ae 0c 10 3d 5a 11 7c 3b 2f 6c 3b bc d9 b0 18 3d
       0.035168342 0.003846249 -0.011439367 0.03727803
0002a0 49 ac ca bb 15 0f 3e bb 17 b1 04 bd 45 9c 22 bd
       -0.006185089 -0.0029000689 -0.03239545 -0.03969981
0002b0 3f b5 f1 bc 24 3b 94 3c c1 31 07 bd bb 61 ff bc
       -0.02950537 0.018094607 -0.033006433 -0.031174531
0002c0 af 58 9d 3c f1 1b 2d bd 41 06 af 3c 64 d1 20 bc
       0.019207327 -0.042262975 0.021365287 -0.009815548
0002d0 12 e8 04 3d cc 8b bd 3c 56 45 92 3c e0 b7 8e 3c
       0.032447882 0.02313795 0.017855328 0.017421663
0002e0 01 b3 f7 3c 5d 70 e0 3c fa 90 eb 3b 9a 5a 0a bd
       0.030236723 0.027397329 0.0071889134 -0.03377781
0002f0 b5 ca 9d bc fe cc d1 bc 20 bf fd bc 05 ea 0b 3c
       -0.019261697 -0.025610443 -0.030974925 0.008539681
000300 d3 5c 0c 3c 5a 29 50 bc 4f 33 06 3d f1 dc f5 3c
       0.008567053 -0.0127051715 0.032763775 0.03001258
000310 76 91 b0 bb da 2b 08 bc f9 be 1e bd d7 03 e9 3c
       -0.005388434 -0.008311236 -0.038756344 0.028444214
000320 c4 40 f4 3b 2e 24 ef 3b 07 f2 01 bd 24 4b ed 3c
       0.0074540097 0.007298014 -0.031724956 0.028966494
000330 63 4f 3d bc c2 e1 26 bc d2 40 81 bb 50 85 90 bb
       -0.011554572 -0.010185661 -0.0039444948 -0.0044104233
000340 83 ef 6d 3c c9 e6 2b 3c 47 50 ab 3c 11 9a d3 bc
       0.014522436 0.010492035 0.020912303 -0.0258303
000350 92 0f 80 bc 62 1f 2c 3d f9 2a 0d 3d 44 f0 14 3c
       -0.015632425 0.042022116 0.03446481 0.009090487
000360 ee 35 82 ba ee cf df bc 20 c2 9e bc ec bc 22 3d
       -0.0009934285 -0.027320828 -0.019379675 0.03973095
000370 2a 32 16 3c 30 ae f8 bc 45 44 b8 bc 32 61 6a bc
       0.0091672335 -0.030356497 -0.022493491 -0.0143054
000380 70 a8 87 3c b9 64 02 bd 9f 09 ef 3c 54 b3 1a 3d
       0.01655981 -0.031834338 0.029179392 0.037768677
000390 e6 a7 03 bd ff f3 13 3d a1 dd e9 3c 24 84 85 bb
       -0.032142542 0.036121365 0.028548064 -0.0040745903
0003a0 cb 20 3b bc ab ef 5e 3b 8c 55 e0 bb 8f cc 92 bc
       -0.011421393 0.0034017365 -0.0068461355 -0.017919807
0003b0 94 8d 27 bc f5 44 28 3c 11 51 be 3b 6c 56 bd 3a
       -0.010226626 0.010270347 0.0058080037 0.0014445311
0003c0 c3 c2 04 3d 9a 92 dd 3c a3 ac b9 bc b2 84 57 3c
       0.0324123 0.027047444 -0.022665327 0.013154196
0003d0 a7 8c b8 3c 84 b6 10 bd ae b0 c7 bc d7 6b 9c bb
       0.022528006 -0.03533031 -0.02437624 -0.0047735977
0003e0 cb cc 35 3c fc e7 37 3d eb 6e 4a 3c 19 26 36 bc
       0.01109619 0.044898972 0.0123555465 -0.011117482
0003f0 e5 f7 c6 3c 52 2d 00 bd d1 38 33 3c 16 12 b3 3b
       0.024288127 -0.03129322 0.010938839 0.0054648025

bias f4 [64]
000000 5e ed e9 bc 27 c7 bf bc 62 52 b0 3c 70 5e f9 bc
       -0.028555568 -0.023410393 0.021523658 -0.03044054
000010 48 14 ca bc 29 bd 43 3c 83 c8 c4 3a 27 32 2b 3d
       -0.024667874 0.011946955 0.001501337 0.041795876
000020 eb f5 23 bd 3a 1d 80 b9 b6 74 87 3c 57 14 18 3d
       -0.040029448 -0.00024435838 0.016535144 0.037128773
000030 b3 db 15 bc 80 4a 86 bc 8c fb b9 3c 81 3a 48 3c
       -0.009146619 -0.016392946 0.022702955 0.01222098
000040 cb 38 80 3a 6a d5 04 3d dc 46 b6 bc 87 9f 17 3d
       0.0009782551 0.03243009 -0.022250585 0.03701737
000050 ba e6 d1 bc 40 c1 84 3c fe 83 8a ba 66 6d 98 3a
       -0.025622714 0.01620543 -0.0010567901 0.0011629283
000060 11 78 78 ba cf 12 c8 3a f9 69 1b bd 0a f7 85 bc
       -0.00094783405 0.0015264394 -0.03794286 -0.016353149
000070 49 a7 b1 bb 2c 03 15 3d 82 ba 09 bd bb 50 17 bd
       -0.0054215533 0.036379978 -0.033625133 -0.036942225
000080 25 2e b2 3c 59 b0 0f bc 40 c6 00 3d be 8f 77 3c
       0.021750519 -0.008770072 0.031439066 0.015109954
000090 79 b6 44 bc 26 20 0c 3d 20 b5 11 3d e7 1d 8c 3c
       -0.0120063955 0.034210347 0.035573125 0.017104102
0000a0 fd 1d e5 bb f7 dc db 3c b2 24 40 3c 7f b6 29 3d
       -0.0069921003 0.026838763 0.011727499 0.041433807
0000b0 ff ed 25 bc 6e c2 89 bb c5 e5 1c bd 64 0c 05 3c
       -0.0101275435 -0.004204086 -0.038305063 0.00812063
0000c0 00 12 1c bd 35 80 46 3c 59 e1 66 3b 78 61 be 3c
       -0.038103104 0.012115528 0.0035229533 0.023239836
0000d0 12 c2 a6 bc 3b 35 b7 3c 6b 8f c4 bc 25 49 90 bc
       -0.020356212 0.02236425 -0.023994168 -0.017613003
0000e0 e6 47 25 bd 0b 43 2e 3d c8 c1 c2 3b 10 f9 ca bc
       -0.04035177 0.042544406 0.0059435107 -0.024776965
0000f0 69 7f 61 3c d0 4f 17 bc 0d 75 bc bc 87 d9 05 bc
       0.013763287 -0.009235337 -0.023005033 -0.008169538

weight f4 [64, 32, 3, 3]
000000 4c 16 ef bb ae e4 5b ba ad 1b 08 bd 9f 7a 5f bd
       -0.007296359 -0.0008388263 -0.03322952 -0.0545603
000010 51 7b 56 bd dd 60 fe 3c 85 8f 13 3d 37 ce 5e bd
       -0.052363697 0.031052047 0.036025543 -0.05439588
000020 b5 2f 6b bd 98 46 55 3b 74 08 1b bc f6 3a 27 3d
       -0.057418544 0.0032543298 -0.009462465 0.040827714
000030 bd a0 db bc cf 2c 54 bc 0b be 8b bd 9f 26 10 3a
       -0.026810044 -0.012950136 -0.06823357 0.0005498919
000040 80 d0 e5 bc 41 a1 33 bd 39 6d 43 bc 3c 01 1c 3d
       -0.028053522 -0.043854956 -0.011927896 0.038087115
000050 ce 46 de bc 6d 12 24 bd 23 11 38 bd b4 8c 90 3d
       -0.027133372 -0.040056635 -0.044938218 0.07058087
000060 7e 26 aa bc 11 18 e8 bc c7 84 63 3d 63 07 3c bd
       -0.020770308 -0.028331788 0.05554655 -0.045905482
000070 a5 60 59 3d 01 59 3a bd 29 4c db 3c 6d 68 40 3c
       0.053070683 -0.045495037 0.026769714 0.011743647
000080 02 ba 20 3d 0d 30 15 bd fc 8e 06 bc ff 39 4c 3d
       0.03923989 -0.036422778 -0.008212801 0.049859997
000090 c3 c2 f0 bc e0 df 6f 3c 24 64 91 3a 1d c4 05 bd
       -0.029389745 0.014640778 0.0011092466 -0.03265773
0000a0 95 85 0a bd 0e 6e ab 3c 9e a0 7b bc ba c3 4e 3d
       -0.0338188 0.020926502 -0.015358118 0.05047963
0000b0 d1 1e e4 3c a1 b6 31 bc 13 ee a4 3b 25 f3 75 bd
       0.027846726 -0.010846765 0.0050332635 -0.060046334
0000c0 ed b4 eb 3c fd 1c 81 bd 3a 89 4a 3b 96 4d 37 3d
       0.028772796 -0.06304357 0.0030904547 0.044751726
0000d0 18 ab 00 bd 59 c5 07 3d eb f6 1e 3c e0 da 9d 3d
       -0.031413168 0.03314719 0.0097024245 0.07707763
0000e0 fe 24 94 bc ff c3 bb 3c 92 6a 2f bd 21 25 f7 ba
       -0.018084045 0.022920607 -0.042826243 -0.001885567
0000f0 88 a2 58 bd 88 32 67 bc b8 a6 38 3d 5d 7f 22 3b
       -0.052889377 -0.014111169 0.04508087 0.0024795153
000100 ed ce 46 3d d5 ae f3 bc 85 e9 d6 3c d7 96 a5 3c
       0.048537184 -0.029746452 0.026234398 0.020213528
000110 25 db 58 3b 46 25 d5 bb f4 ae e7 bb e5 18 86 3c
       0.0033089605 -0.0065046875 -0.0070704166 0.016369293
000120 d5 71 48 bc 7d 56 4e 3c 87 bc 3b bc 83 33 3b 3d
       -0.012234171 0.012593863 -0.011458523 0.045703422
000130 c5 d0 30 bd ba b1 db 3c b6 d3 e0 bc 79 0a 5e bd
       -0.04316785 0.026818145 -0.027444702 -0.054209206
000140 dd 38 65 bd 8a c5 10 3d 5c 69 33 bd 4f bf 6b bc
       -0.055962432 0.035344638 -0.04380165 -0.014388873
000150 fb 2e 1c 3d ae 8c 90 3b 12 f3 ad bc 8f 8a 70 3d
       0.03813074 0.0044113016 -0.021234069 0.05872589
000160 27 a1 48 bd 77 9f f7 bc 5e 48 ba bc e5 c6 5c bc
       -0.04898181 -0.030227406 -0.022739585 -0.0134751545
000170 f1 4e 56 bd fd 2b d9 39 70 db d5 3c 75 89 ca 3c
       -0.05232138 0.0004142224 0.026105613 0.024723748
000180 49 e6 d1 3c 3c 07 1e bd c5 80 04 bd 5c 36 29 bd
       0.025622504 -0.038581118 -0.032349367 -0.041311607
000190 52 f8 e6 3c 66 6b d0 3c cc 85 38 bd 8b 9e b4 bc
       0.02819458 0.025441837 -0.045049474 -0.022048255
0001a0 90 2f 3a bd dd fc d6 ba 79 9b 97 bc fc be 5b 3d
       -0.045455515 -0.0016402263 -0.018506752 0.053648934
0001b0 e9 ee 7e 3b 90 26 03 bd 97 1c 0f 3d 91 1c d9 bc
       0.0038899726 -0.032019198 0.034939375 -0.02650288
0001c0 7d 0d 6a 3d f3 63 d5 bb 9e 8f c7 3c af cc 75 bc
       0.05714177 -0.006512159 0.024360474 -0.015002414
0001d0 3b d8 4c 3c 8f 0c 51 bc 3e f6 c3 3c 53 98 a6 3b
       0.012502725 -0.012759342 0.023921128 0.0050840764
0001e0 4a 8c 16 bd f0 8d 90 3c cb 40 11 bc 5b 29 fc 3c
       -0.036754884 0.017645806 -0.0088655455 0.030781439
0001f0 7c 9c f6 3c 39 38 58 3d 2e 93 6d bd d5 89 43 3d
       0.030103914 0.052787993 -0.05800169 0.04773887
000200 ba f8 ad bc 71 7c d4 bc 5f db 5c 3d 1a 1c 7b bd
       -0.021236766 -0.025938245 0.053920146 -0.061306097
000210 47 06 5a 3d c4 0f 08 bd bf 2f 0c bc f2 67 98 3d
       0.053228643 -0.03321816 -0.008556305 0.07441701
000220 9c 8d a0 3c 07 7e c0 3c 7e 38 fd 3b ce f9 aa 3c
       0.019598775 0.023497595 0.0077276817 0.02087107
000230 e9 95 33 bd 23 22 7d 3d 14 a4 ea 3c c4 c1 14 ba
       -0.043844137 0.061800133 0.028642692 -0.0005674625
000240 05 8a 55 3c 45 8c 0b bb 7d 53 1a 3d b4 86 98 3c
       0.013033395 -0.0021293324 0.037677277 0.018618919
000250 99 39 0e bd c7 70 5c bb d9 ef 18 3d aa 2a 26 3d
       -0.0347229 -0.0033636556 0.03733811 0.04056803
000260 82 2f 89 ba 43 ff 09 3d 6f 71 c8 bc 90 49 27 3c
       -0.0010466429 0.033690702 -0.024468152 0.01021041
000270 86 c9 96 3c f0 22 46 3d a7 67 f6 3c 0a fa 95 bc
       0.01840664 0.048373163 0.030078722 -0.018307704
000280 cc be f7 bb 70 0e 1f bd 30 94 67 bd 95 f8 1b bc
       -0.0075605866 -0.038832128 -0.056537807 -0.009519716
000290 1d 8a 48 3c 0f 35 e4 bc 49 92 91 3c e1 15 e1 bc
       0.01223996 -0.027857332 0.01776995 -0.027476253
0002a0 9e bd 00 bd 18 3d 0d 3d ff 89 2e bd 32 d9 32 3d
       -0.031430833 0.03448209 -0.042612072 0.043664165
0002b0 6e 81 ed bc 44 65 33 bd aa 4d 29 bc 4b 6d 7c 3c
       -0.028992381 -0.043797746 -0.010333458 0.015406917
0002c0 78 e4 45 3d 3c 8a 87 bc 3b 26 fd bc f4 80 39 3d
       0.048313588 -0.016545407 -0.030902019 0.045288995
0002d0 bf 69 40 bd 14 0f 3a bd 59 d5 f0 bc 97 ae 56 3c
       -0.046975847 -0.045424536 -0.029398607 0.013103149
0002e0 8f bd 43 3d a5 7c 2d bd 24 6d fb 3c 19 b8 24 bc
       0.0477882 -0.0423552 0.03069169 -0.010053658
0002f0 cf 68 1c bd ea d2 3b bd 8d 47 44 3c d5 6c 84 bd
       -0.03818589 -0.04585544 0.01197995 -0.064660706
000300 a7 27 d7 3c 93 d8 1e 3c 3f d1 4a bd ab b3 13 bd
       0.026264025 0.00969519 -0.04951596 -0.036060017
000310 db 23 24 3d 31 48 74 bd 26 b6 8a ba cf be 0e bd
       0.040073257 -0.05963916 -0.0010582849 -0.034849938
000320 50 4d 51 3d ed b4 5f bd 5a 21 0d 3d d0 2b b5 3a
       0.05109912 -0.054615904 0.034455635 0.0013822261
000330 c0 7d 0f 3b 5d cc 0f bd 2d e0 02 3c 7c e5 15 3d
       0.0021895021 -0.035107005 0.007988018 0.036595806
000340 4f 5b 34 3d 81 c4 1d 3d ad ae 42 3d 49 fe 53 3c
       0.04403239 0.03851748 0.047529865 0.012939044
000350 e8 e0 bd 3c 54 78 2c 3d 40 15 68 bd 44 6d 59 3c
       0.023178533 0.04210694 -0.05666089 0.01327068
000360 1d 81 95 3d 88 31 70 3c a7 47 7d 3d 1b 6b 74 bb
       0.07300017 0.014660247 0.06183591 -0.0037295285
000370 01 36 cc bc 7a 56 cb bc 61 4a 36 3b fb 1f 00 bd
       -0.024928095 -0.024821509 0.002781533 -0.0312805
000380 2d 71 1a 3d 77 5c 02 3d b8 c8 47 bc 48 69 42 bd
       0.03770559 0.031826463 -0.012193851 -0.047463685
000390 0f 9e 30 bc 8a 16 14 3d 9b 04 80 bc 26 41 46 bd
       -0.010779872 0.036154307 -0.015627196 -0.048401974
0003a0 e5 2b 33 bb 23 89 32 3d b9 7e fc bb c2 73 15 3c
       -0.0027339396 0.043587815 -0.007705536 0.009121837
0003b0 73 9a e6 3a ad ff 0c bd 1c 56 0f bd eb ce 11 bd
       0.0017593637 -0.03442352 -0.03499423 -0.035597723
0003c0 33 dc 3b bc 11 51 34 bc 38 07 12 bd 06 05 86 3c
       -0.011466074 -0.011005656 -0.035651416 0.016359817
0003d0 ad 85 0b bd 83 31 0e bd d6 4e 4b bd 44 f4 31 bd
       -0.03406303 -0.034715187 -0.04963573 -0.04344584
0003e0 91 18 88 3c 73 2a 82 bc 23 19 39 bd b8 b3 24 3d
       0.016613277 -0.015889382 -0.045189988 0.040210456
0003f0 1a 60 9e bc ab 24 35 3c 9c 5b 72 3d af 2e 2a bc
       -0.019332934 0.011056106 0.059169397 -0.010387107

bias f4 [32]
000000 b1 6a a6 3b 62 47 1a bb f3 45 2a 3d 18 6a 03 3d
       0.0050786366 -0.0023541083 0.041570615 0.0320836
000010 34 4f 62 bd e3 cf 53 3d 42 4b c3 bc e6 b1 c5 bb
       -0.055251315 0.051711928 -0.023839597 -0.00603317
000020 9e 9b b4 3b 02 66 4b 3d f6 e9 56 bc 64 f8 34 bd
       0.005511715 0.04965783 -0.013117304 -0.044182196
000030 0c 32 ba bb 11 6d 57 3d fa 20 41 bd a8 c6 a1 3c
       -0.0056822356 0.05259425 -0.04715059 0.019748047
000040 04 78 5e 3a 22 50 66 3d 40 08 b9 bb 6c 21 bf bb
       0.00084865117 0.056228764 -0.0056467354 -0.0058328416
000050 cb 23 d9 ba 9a e6 a2 bc 9f 7f a9 bc 11 48 36 bd
       -0.0016566453 -0.01988535 -0.020690737 -0.04450232
000060 6b 2b e5 3c 0d 6d 6b bc e7 5b 18 3d 26 3b 36 3d
       0.027974805 -0.014369261 0.03719702 0.044490002
000070 11 2c 4b bd bf bd 43 3c 49 6d b3 bc 75 8b 14 bd
       -0.049602572 0.011947094 -0.021902697 -0.03626581
