inpatinign diagrams/best_unet_with_denois (4).pth (torch, 684434 bytes, 12 tensors)

weight f4 [32, 3, 3, 3]
00000000: 925b 3ebd 6bbd 2f3c fb7d 0c3d cee7 72bd
00000010: 70d6 3fbd 264d 18be 257f d8bd 627e 163e
00000020: 11aa 193e 3371 ef3c 117e 9b3d aa53 98bd
00000030: 58a9 b8bd 2fed 7f3d 4c22 3f3e d1f6 cebb
00000040: 6745 3e3e 35e1 223e 7d66 5b3d 922b ff3d
00000050: a63a 5b3d 6bb9 29be 0896 89bd 587a dd3b
00000060: 9f6d e23d 2c99 65bd 5fbc 253e 79e1 eb39
00000070: 73e2 1b3e 2e9d 323d e63f d6bd ee82 60bd
00000080: d898 a03d 6060 d73b 0bf9 0e3d 0765 9ebd
00000090: 3a3a bb3d e015 8e3c 66e9 0a3e b626 efbd
000000a0: ea27 fcbd 36d0 cc3c c673 c33c ab57 36be
000000b0: ee5a cf3c be5c 183e b78b ca3d 3ded 893d
000000c0: 0efe 0fbe d8b9 2b3b a7e1 b43d 6295 e4bd
000000d0: d3be 463e dfef 8dbb 1a38 06be a43e d8bd
000000e0: 6c05 11bd 5732 d2bd 2f11 6b3d 0592 6fbd
000000f0: 24be acbc 2719 1abe 1129 1abd af1b 23be
00000100: b16d d9bd 1e8f 923d bdcb b4bc 9e18 ed3d
00000110: 8a98 44bd 3ea6 eebd b7ee 1d3e 15fd 0ebe
00000120: 3473 88bd 7ca9 bdbd 7dcc 9dbc fd8e 333e
00000130: 4693 f7bb 3284 3e3e 3f41 4f3d 0267 2f3e
00000140: 87b2 193e 059c 42be 90f3 d33c ecaf 3b3c
00000150: 2d15 f0bd 4185 a1bd 8aeb 46bc fde0 20bd
00000160: d2d6 37be 5b50 0abd 45f3 ca3d 778f 21be
00000170: f070 673d 5eba d73d 05d3 9d3d 4169 4d3d
00000180: 42ae e63d c76d fb3d 7daf 243e 047f 20bd
00000190: c6ee bdbd 55ec 093e d6b6 123d 2f56 91bd
000001a0: 233e 953d 04b6 ff3d c495 c3bd 604b 813d
000001b0: 0de8 2a3e 582c 513d 25f8 d53c dbd7 0c3e
000001c0: 388c e63c e986 883c df9d ba3c 4104 48bd
000001d0: 09ac 583d 51c8 30bd e2fb e8bd d9ac babd
000001e0: ea00 733d ad30 3d3e 9f96 1c3e 7a68 b9bb
000001f0: 2000 953c 39c4 123e c7a7 6dbd de3c 803d
00000200: 5e43 393e ef17 9abd c825 b83d ca31 023e
00000210: e0f8 78bd 7c44 a83d 75e6 0fbe 5359 973a
00000220: d06e 2abe 727d b8bd 0db1 b73d bdee 833d
00000230: 1864 b7bd 9278 21be 42c8 803d 7dc5 2a3e
00000240: 248c 253e 7ff5 0abd 2c52 69bd dfbd 2cbe
00000250: f544 acbd bebc ad3d 9284 c23d 5915 f8bc
00000260: 3d10 2bbc 0b54 abbd f647 193e 0a10 ee3d
00000270: 725d 7b3d b923 57bb 409f 30be 668a f73d
00000280: 5c4d 78bd bbbc 43bd 88f2 80bd 8228 283e
00000290: 8182 2ebe a752 dd3d 9fa0 353e ec34 86bb
000002a0: 14bd 83bd f977 cc3d 0be9 e1bd deee 343e
000002b0: afed 233e 4e69 0cbe f523 b4bb 4da5 afbd
000002c0: ed6b 40be 728a c1bd cc3b c4bd 63b5 8c3d
000002d0: 493f 90bd 9987 7e3d 5165 383e ee6b ce3d
000002e0: 85d0 adbd ca52 1bbd 57c8 23bd d7b5 93bd
000002f0: 0980 fc3d dc96 bb3d ad15 853c 0bf6 293e
00000300: 649e 063e b881 c73d ad3d c9bd b3a8 2a3e
00000310: 178e 2d3e d172 b13d 40c7 32bd 777c abbd
00000320: 30a5 0bbe 4fed edbd 932b cdbd ea5d 993b
00000330: 7fc6 483d 7aba 3fbe b59d b2bd bafa d43d
00000340: 3f43 253d 571e 763d 691c a7bd 9d7a 053e
00000350: 9999 243d 499e ff3d 729e b3ba cdd4 5b3d
00000360: 0acc 07be ffc3 b0bd 4ae5 483d e48e c53d
00000370: 9316 02bd 09b2 adbd 669f bd3d e506 c5bd
00000380: a320 f83d 5c69 303c 153e 303e 2145 133d
00000390: 32a3 a13d 47a4 ed3d 1232 04bd f67a c5bc
000003a0: 20a0 3f3e a368 13ba af3d 37bd 3054 103e
000003b0: 4b74 96bd 35b6 af3d aa4b c83d 84d8 ea3c
000003c0: a0c6 783d 2168 e6bd 4c92 31be 7f72 f03d
000003d0: 1adb 31be 0ab5 0fbe 10a5 0f3e ea94 bcbd
000003e0: ab61 28be 216d e0bd 3700 ebbc d67a 4a3e
000003f0: 44d1 99bc 3302 19be 2bba 53bd 7741 963d
-0.046474047 0.010726313 0.03429983 -0.059303097 -0.046835363 -0.1487318 -0.10571126 0.14696649
0.15006281 0.029228782 0.07592405 -0.07437833 -0.09016675 0.062482055 0.18665427 -0.006316044
0.18581162 0.15906222 0.053564537 0.12459482 0.05352273 -0.16574638 -0.06718069 0.0067589693
0.11056065 -0.05605428 0.16185139 0.00044990683 0.15223102 0.04360693 -0.104614064 -0.054812364
0.07841653 0.006572768 0.034905475 -0.07734113 0.09141965 0.017344415 0.13565597 -0.116773054
-0.123123005 0.025001626 0.023858916 -0.1780688 0.025311913 0.14879128 0.0988993 0.06734703
-0.14061758 0.00262033 0.08832102 -0.11161305 0.19408731 -0.0043315734 -0.13107339 -0.10558823
-0.03540556 -0.10263508 0.057389434 -0.058488864 -0.02108676 -0.15048657 -0.03763682 -0.15928529
-0.10616625 0.07156204 -0.022069806 0.11576961 -0.047997035 -0.11652802 0.15423094 -0.1396373
-0.06662598 -0.09260842 -0.019262547 0.17535014 -0.007555398 0.18605116 0.050599333 0.17129138
0.15009509 -0.19004829 0.025872976 0.011455517 -0.11722789 -0.07886744 -0.012141118 -0.039277066
-0.17953041 -0.03376804 0.09909681 -0.15777384 0.05650419 0.105335936 0.077062644 0.050149206
0.11263706 0.12276798 0.16082568 -0.03918363 -0.09274058 0.1346906 0.035818897 -0.07096516
0.07287242 0.124858886 -0.0955005 0.06313205 0.16690083 0.05106768 0.026119301 0.13754217
0.028143033 0.016665893 0.022780357 -0.04883218 0.05289844 -0.043159787 -0.11376168 -0.09114999
0.059327044 0.184756 0.15291832 -0.0056582065 0.018188536 0.14332666 -0.058021333 0.062616095
0.18092105 -0.07524096 0.08991581 0.12714306 -0.06078422 0.08216187 -0.14052756 0.0011547006
-0.16643834 -0.09008302 0.08969317 0.0644202 -0.08954638 -0.1576865 0.06288196 0.16676898
0.1616674 -0.03392553 -0.05696313 -0.16869305 -0.0841159 0.08483265 0.09497942 -0.030283617
-0.010440883 -0.08365639 0.14968857 0.11624153 0.061368413 -0.003282769 -0.17248249 0.12086944
-0.06062065 -0.04778741 -0.06296259 0.16421703 -0.17041971 0.1080678 0.17737053 -0.0040956642
-0.06432548 0.099838205 -0.110307775 0.17669246 0.16008638 -0.13712046 -0.0054974505 -0.085764505
-0.1879117 -0.094502345 -0.09581718 0.06870534 -0.07043321 0.062141035 0.18007399 0.1007918
-0.084870376 -0.03792075 -0.03998598 -0.072124176 0.12329108 0.091596335 0.016245687 0.16597764
0.13146359 0.09741539 -0.09826217 0.16665916 0.16948734 0.086644776 -0.04364705 -0.08373349
-0.13637233 -0.11617529 -0.10018077 0.004680385 0.049017426 -0.18723479 -0.087214865 0.10399385
0.040347334 0.060087528 -0.08159716 0.13035055 0.040185545 0.124813624 -0.0013703837 0.05366974
-0.13261428 -0.08631133 0.049046792 0.09646395 -0.03175981 -0.08481223 0.092589185 -0.09620456
0.121156 0.010767307 0.17211182 0.0359546 0.07892455 0.11603599 -0.032274313 -0.024106484
0.18713427 -0.0005623197 -0.04473656 0.14094615 -0.073464 0.08579675 0.09780057 0.028667696
0.0607363 -0.1125033 -0.17340964 0.117405884 -0.17368737 -0.14033905 0.1402781 -0.092080906
-0.16443507 -0.10958315 -0.028686626 0.1977342 -0.018776543 -0.14942245 -0.051691215 0.07336705

bias f4 [32]
00000000: 83f9 d73c 7a92 39be e9cb c23d 2993 1bbd
00000010: 7a10 dcbd d982 b1bd 7531 eb3d 278c 45bd
00000020: d05d bbbd 1916 e9bd 92b3 133e b62e a03d
00000030: 9db0 373e 993d 49bd 66af 3b3e d8c6 013e
00000040: b8fa 8e3b 5668 79bd 912b 113c 5b7f d4bd
00000050: f541 99bd a9f8 ddbd 2527 c7bd 3f7b 7b3d
00000060: 02b0 ce3d 0ebe 393d ba68 09bb 5025 2fbe
00000070: 5c62 10be 3b22 8c3b b359 843d 0fe2 9dbd
0.026364094 -0.18122283 0.09511549 -0.03798214 -0.1074533 -0.08667535 0.114840426 -0.048229363
-0.09148753 -0.11381168 0.1442397 0.078214094 0.17938466 -0.04913101 0.18328628 0.12673509
0.004363384 -0.060890518 0.008860485 -0.10375854 -0.074832834 -0.10838444 -0.09724263 0.061396834
0.100921646 0.045347266 -0.0020966963 -0.17104077 -0.14100021 0.0042765415 0.06462421 -0.07709133

weight f4 [32, 3, 3, 3]
00000000: bf7b 41be d62a 013e 5fae fe3a dbe2 88bc
00000010: 677f a5bd 5e90 dd3d 1292 e4bd 0073 943d
00000020: 6e88 11be 1796 fabd 00cd 07be 4968 01be
00000030: 95cd debd 811e 0e3e 795e cbbd 7201 16be
00000040: ac2d 1c3e 8fe1 533e d32d e1bd 5e51 74bd
00000050: 9571 04bd 58da ac3d ac2c f93d a223 343e
00000060: da1b 18be f7cd 503e b86d 05be 63ee 2f3e
00000070: 809b 043e 73e9 15be d440 d6bd 35ef e03d
00000080: b743 d33c 5aac 9d3d 02e6 e13d 25eb 5fbd
00000090: ce86 4dbc e1a0 88bd f7b3 ae3d 17c2 f83c
000000a0: 45fe b63d 8058 c73d 7b59 3a3e d07a 33be
000000b0: c40f a33d d6cd 353e e846 243e 6f89 3d3e
000000c0: 910e f93d 8f7e 753d 33fb f8bc 68ba b93d
000000d0: a026 8abd 6c56 273e 9d84 d7bd ec5a 813d
000000e0: 30dc 3f3e 7dba 20be 5f2c b7bd 7a0b 92bd
000000f0: 4158 dfbd 072d 643e 30fe 81bc 5e2a 87bd
00000100: a92c c33b aaee 1b3d 1ebf 42be 1740 c9bc
00000110: 7568 8ebc 89b2 823d 02d9 583e 9d53 2d3e
00000120: 0cba 10bd ab2b 54bd 397d aabd 0585 163e
00000130: bd84 5e3c 0dcf e83d 0eff 24be 0fae 79bd
00000140: d3c3 c2bd f153 463e 0e56 263e d8df 8cbd
00000150: 89ed 90bc 7c79 1abc e741 6fbc dae9 cf3c
00000160: 052e bf3d 7e8f b03d ebb3 3c3e b524 20be
00000170: a032 20be a367 14be 6f5f 2e3d 8e35 e1bd
00000180: adf5 94bd ff86 12bd 34e4 43bd 7f58 093e
00000190: b11d 543d 8f38 8dbd 8f17 8ebd 1fa2 abbd
000001a0: 6c15 433e 5c36 b0bc 10e5 04be f3ad dabc
000001b0: 6687 16be 8ad6 0ebd 64a0 09bd 4a7b d03d
000001c0: f262 053e 03e7 02be 5cad 533e 9cc0 97bc
000001d0: bb9c 08be 121a 36bd 56bd 4e3d c35c 1fbe
000001e0: 8ce9 27bd 240d d93d 56f3 8cbc fb1e ecbc
000001f0: 2d65 bb3d 3649 253e 8eca bd3d bebf 1c3e
00000200: 5f9c bf3b 0c2e d2bd 8011 cd3d b01b be3d
00000210: 75b6 0fbe 7fa8 b6bd 109c 0bbe bf2e 0dbe
00000220: 0756 0ebd ce8a 7d3d 2ce0 58bd 6c98 c13c
00000230: 35cc b93d bd85 553d 741c 20be bdb2 18be
00000240: 1661 ab3d 511c dd3d f323 46bd df1d 253e
00000250: f564 4b3e b15f 223c 4621 a13d d44d 20be
00000260: e910 0a3e 22a7 0c3e a05d df3d 2fcb 103c
00000270: cd17 d6bd 5c0e 74bd d775 34be f960 833d
00000280: a334 aebd d652 32bc 915e 9cbd 77e8 a83d
00000290: eb13 0dbd d32d f0bd 81f0 1e3d 6329 8bbd
000002a0: 4693 0d3a d44a 7ebd e309 e73c b0b6 b0bd
000002b0: 65fc fbbd 9e99 a53d b378 31be 5dc0 d53d
000002c0: 3f5c 16bd c02e 03be 0832 323d e8dc 53bd
000002d0: 996d c33d 4982 723d aacb be3d 8a79 bcbd
000002e0: 98b6 253d 59dc a03c 3a45 473e e492 f73d
000002f0: c508 ccbd ddf1 2f3e 4af9 cdbd f743 873d
00000300: 9049 393e 13b0 2f3e a536 2dbe 19d6 0cbe
00000310: bf21 37be e54a dd3d 9054 e23d 1784 2cbe
00000320: 97fa be3d 7411 ef3c a2ce 813d bf61 8c3c
00000330: 53c5 cd3d 415d 043d 03b7 30be a1f4 8dbd
00000340: dc5a 2cbe 4dc6 573d e968 20be 102f 1dbd
00000350: 28d5 213e 7046 22be 93c1 453e cfb6 a73d
00000360: 0aeb b5bd db93 073e 94f4 383e 66e3 223e
00000370: 653d 6ebc 6697 c53c 288a 243c 432d 883c
00000380: 40d5 f5bd 8917 eb3d e4a7 2b3e b311 4f3d
00000390: 7421 6b3d 3b5d 53bd ed4d 8c3d 697f 3dbe
000003a0: 321f 6b3d 00f7 d53d f149 453e 722c fbbd
000003b0: f94d 40be 4ade c6bd fa87 efbd df2b 30be
000003c0: 2b48 60bd 9725 4a3d cb71 e3bd 0e2e 4ebd
000003d0: 2d98 3a3e cf98 2a3e 0120 253e 95c2 5abb
000003e0: efa9 0fbe a081 83bd b8ff bd3d 971e bfbd
000003f0: 1e0e 0a3c 48a3 003e 9db4 bdbd dfe9 2d3b
-0.18894862 0.12613997 0.0019430629 -0.016709736 -0.08080941 0.108185515 -0.11160673 0.07248497
-0.142122 -0.122356586 -0.13261795 -0.12637438 -0.108790554 0.13878824 -0.099301286 -0.14648989
0.15251797 0.20691513 -0.109950684 -0.05964791 -0.032334883 0.08440083 0.121667236 0.17591718
-0.14854375 0.2039107 -0.13030136 0.17180781 0.12949944 -0.14639835 -0.10461584 0.10983125
0.025789125 0.07698889 0.11030199 -0.05466761 -0.012544347 -0.0667131 0.08530419 0.030365987
0.08935217 0.09733677 0.18198197 -0.17527318 0.079619914 0.17754301 0.16042674 0.18509458
0.121609814 0.05993515 -0.030393219 0.09068757 -0.067456484 0.16341561 -0.10523341 0.0631617
0.18736339 -0.1569614 -0.0894401 -0.07131095 -0.10905505 0.22282802 -0.015868276 -0.06599878
0.0059562516 0.038069405 -0.19018218 -0.024566693 -0.017383793 0.06381709 0.21176532 0.16926427
-0.035333678 -0.051799458 -0.083246656 0.1469918 0.013581452 0.11367617 -0.1611292 -0.06095701
-0.09510007 0.19367959 0.16243765 -0.06878632 -0.01769139 -0.009428378 -0.014603115 0.025380064
0.093349494 0.08621119 0.18428008 -0.15639003 -0.15644312 -0.1449266 0.04257148 -0.10996543
-0.072734214 -0.035773274 -0.047825053 0.13412665 0.05178613 -0.06895553 -0.06938087 -0.083805315
0.1905114 -0.021510296 -0.12978005 -0.026694274 -0.14700088 -0.03487257 -0.033600226 0.101797655
0.13026026 -0.12783436 0.206716 -0.01852446 -0.13341038 -0.044458456 0.050473534 -0.1556273
-0.040994212 0.105982095 -0.017205875 -0.028823366 0.09150157 0.16141209 0.0926715 0.15307519
0.0058474983 -0.10262689 0.100131035 0.09282625 -0.14034446 -0.08918857 -0.13633752 -0.13787363
-0.03475001 0.061899953 -0.052948162 0.02363225 0.090721525 0.052129496 -0.15635854 -0.14911933
0.08368127 0.107964166 -0.048374128 0.16124676 0.19862731 0.00991051 0.078676745 -0.15654689
0.13483013 0.13735631 0.109065294 0.008837505 -0.104537584 -0.059584007 -0.17623077 0.064149804
-0.085061334 -0.010884007 -0.076352246 0.08247464 -0.034442823 -0.1172749 0.03880358 -0.06795003
0.00054006686 -0.06208308 0.028202957 -0.08628595 -0.12304 0.08085941 -0.173312 0.10437081
-0.036709066 -0.12810802 0.043504745 -0.051724344 0.095423885 0.05920628 0.093161896 -0.09202869
0.040457338 0.01963632 0.19460002 0.12088564 -0.0996261 0.17182107 -0.10057314 0.0660476
0.18094468 0.1715701 -0.16915376 -0.13753547 -0.17883967 0.108053006 0.11051285 -0.16847263
0.0932514 0.029183127 0.0633824 0.017136453 0.10047402 0.032315496 -0.17257313 -0.06931425
-0.16831535 0.05267935 -0.1566502 -0.03837496 0.15803969 -0.15847182 0.19312124 0.08189165
-0.08882721 0.13239996 0.18062049 0.15907058 -0.014541005 0.024120044 0.010042705 0.016623145
-0.12003565 0.11479098 0.16763264 0.05055399 0.05740495 -0.051602583 0.06850801 -0.18505634
0.057402797 0.10447502 0.19266488 -0.12264337 -0.18779744 -0.09710367 -0.11695857 -0.17204235
-0.054756325 0.049352255 -0.11105689 -0.05033689 0.18222113 0.16659854 0.1612549 -0.003338014
-0.14029668 -0.064212084 0.0927729 -0.093320064 0.008426217 0.12562287 -0.09262965 0.0026537103

bias f4 [32]
00000000: 1943 ebbd e96e 1e3e 27f0 913d 96b2 0bbe
00000010: 6e93 283d c404 633d 7c0c f7bd fab5 343d
00000020: fc07 b13d 7a9d e43d b2fb 77bd a64e 1cbe
00000030: e08a 023e 8cae d63d 1089 ef3d 7efd bb3d
00000040: 241d dc3c b556 9a3d daed ae3d b2b6 52bd
00000050: 240f b63d 594b 083e 57e3 fe3d 85c3 b1bd
00000060: efe6 033d d10d 6cbd ef61 1dbe 31da aa3d
00000070: 0ab9 c3bd 67d1 233e 4a05 813d 6c7f 23bd
-0.11487407 0.15471996 0.071258835 -0.13642344 0.041156225 0.055424467 -0.12062928 0.04411886
0.08644101 0.11162849 -0.06054277 -0.15264377 0.12748289 0.10482511 0.116960645 0.09179209
0.026869364 0.07536069 0.0854146 -0.051443763 0.088896066 0.13309993 0.124457054 -0.086798705
0.032202657 -0.057630364 -0.1536939 0.08342398 -0.09556778 0.1599785 0.06299837 -0.03991644

weight f4 [128, 64, 3, 3]
00000000: 272a be3c 8612 eb3c 2058 1cbc 09f2 ba3b
00000010: a878 973b 4b5d b63c 63cc 64bc 2722 8cbc
00000020: fb4f 2c3d edc9 eb3c b785 0bbd bd15 a9bc
00000030: 37ff f5bc 8bbd 073d c040 ceba 1dec 453d
00000040: b802 bfbc 80ed 503c ad1b bbbb 738f 163d
00000050: 5b40 9d3c 20ad 753c 831c 313c 36db f8bb
00000060: d5e5 1a3d 2458 a73c 68f2 a23c e704 6cbc
00000070: 7942 8a3c 1023 31bc 6716 c8bc efab 023d
00000080: a859 d73c 996c 023d 2304 093d 5a92 93bc
00000090: ad33 8a3a e641 00bd 64c6 c93c 8f0c f63c
000000a0: aa08 cf3c b28b f1bc cba3 ab3b cd54 0d3d
000000b0: d032 4d3b a5d8 5cbc 6c6b a13c 5d06 2b3d
000000c0: de61 52b9 ed02 c2bc 6f06 f83a 0c32 0fbc
000000d0: 69da 0938 4151 95bc 3065 afbc 6735 b13c
000000e0: ce7d ecbc b9e8 133d 7bf4 3d3d 13aa 0d3d
000000f0: 968a 79bc 5cac c33c 2b52 c73c aa1e ecbc
00000100: 4761 953c 4f17 0e3d a38e 7b3c bfed 19bb
00000110: 1d33 14bd e0e5 033d 4723 9bbc be1b 933c
00000120: ab3e 1dbd 80b5 7dba a10c 6ebc e018 2c3d
00000130: 32a0 133d 6e4f 1e3d 3102 833b de8d 1c3d
00000140: 1b5a aabb a87f debc be89 6ebc bf0d 7d3a
00000150: 5cd4 993c 27d7 cc3c d025 abbc 27fd 0d3d
00000160: b11c 253c 9869 ed3c 8ab3 d13c a7c0 163a
00000170: 1feb 1c3c 4e21 f53c 9ed5 f33c adf8 ff3c
00000180: 7d95 1a3d 2704 1abd b924 0ebc 91a0 cd3b
00000190: 390f 36bd 8cf4 84bd 73c5 0cbd 1d21 bb3b
000001a0: 2ffe 03bd c9a3 74bd 6192 d9bc fd57 42bc
000001b0: 0678 243d 53aa 8cbc 9b3e ca3c c6c0 4dbc
000001c0: 1c84 f03c c819 11bd ae65 de3c 1fb9 ec3a
000001d0: 81ee 31bd 653e 93bd 34d0 973b ceb5 a73c
000001e0: 86c4 2ebb 4050 2ebb a3c5 e2bc a14d 0dbc
000001f0: 316c f43b 1728 213d 4d2f af3c 3343 3fbc
00000200: f5b0 eabc 2519 793c 77ba d9bc b618 093b
00000210: cf1d efbc d913 cdbc 61c5 ee3b 3159 50bd
00000220: 44b4 3f3d 5128 eebc 27d6 27bc 9504 06bd
00000230: ed63 0ebd da83 a8bc d27c 40ba c226 27bd
00000240: d039 7a3c 6685 1e3d 2d90 2f3b 06e1 af3c
00000250: 8505 3e3d fec5 9d3c da27 033c e528 803c
00000260: 8011 0d3d 1417 913c 8227 e93c 1192 e73c
00000270: 309b 453d f3e1 4abd f11b ac3c dbb9 723c
00000280: f45f 223d bc30 d7b9 c7c4 a33b 0589 13bd
00000290: 07fd fe3b 26b1 9cbc 9f85 4fbc 3cff 85bc
000002a0: 2913 d1bc 2718 edbb 7bc1 443c 3198 ab3c
000002b0: 670b 4d3c 82df 07bd 0d35 763b 3b48 cebb
000002c0: 0588 003d d74d e1bc 50cb f83c 0e68 7ebc
000002d0: d6ba 1dbd ed08 2ebd 39d4 12bc d816 103c
000002e0: b864 753c cc64 6638 8b98 b43b d015 253d
000002f0: 9443 fc3c 11b0 0abd 8a19 383c c86a cbbc
00000300: 8658 0bbd 4c59 8a3b c0ef e9bc 65e6 34bd
00000310: d9d8 993c 744f b93b b39f 703c e41e 3f3d
00000320: d856 a6bc fda7 59bd aa84 853d 3889 30bd
00000330: 4ffd 11bd ad70 4fbc e4c7 a23b 7de6 7bbc
00000340: 8289 163d 0b56 bcbc fd37 093b 5f7a 9d3b
00000350: e42a 6c3c ce32 5f3c 827f 68bc ffc9 36bb
00000360: 26d0 06bc 7fad 7ebc b73a ce3c 83e0 8abc
00000370: f1cf 10bd 823a f5bc 2907 fbbc 4eae cdba
00000380: b9f3 e3bc bb37 893c df8a d73c e066 ab3c
00000390: 14af 143d 2e4b 95bc 93ef fcbc d994 213d
000003a0: 3f2a f0bb 07be 593c a6e6 15bd 9afc 2d3d
000003b0: c108 a7bc 386a 353d cfa6 67bc 33ad 4ebc
000003c0: b455 a43b bf70 113d 82cf 25bd da4c fd3c
000003d0: 5b5f efbc ef7d 0cbd 4585 b93c b931 12bc
000003e0: e764 533c 1a6c 0ebd 1e39 8f3b 273e 30bd
000003f0: 9bf7 543c 2049 ac3c f557 2d3c 2856 193a
0.02321346 0.028695356 -0.009542495 0.0057051224 0.0046225376 0.022261282 -0.013964745 -0.017106129
0.042068463 0.02878281 -0.034063067 -0.020640248 -0.030028922 0.033139747 -0.001573585 0.04832088
-0.023316726 0.012751937 -0.0057100863 0.036757898 0.019195726 0.0149948895 0.01081002 -0.0075944914
0.03781684 0.02042777 0.019890979 -0.014405466 0.0168774 -0.010811582 -0.024424745 0.03190225
0.026287869 0.031841848 0.03345121 -0.018014122 0.0010543965 -0.031312846 0.024630733 0.030035285
0.025272686 -0.029485557 0.0052380315 0.0345047 0.0031310804 -0.013479386 0.019704543 0.041754115
-0.00020063619 -0.023683036 0.0018922816 -0.008739959 3.2866756e-05 -0.018227221 -0.021410555 0.02163191
-0.028868582 0.036110613 0.046375733 0.034586024 -0.015230795 0.023885898 0.024331173 -0.028823216
0.018234862 0.034690198 0.015353831 -0.0023487655 -0.036181558 0.032201648 -0.01893772 0.017957564
-0.038389843 -0.00096782297 -0.014529378 0.04201591 0.036041446 0.03864997 0.003998064 0.038221233
-0.0051987297 -0.02716048 -0.0145592075 0.00096532324 0.018778019 0.025004936 -0.020892054 0.034665253
0.010077641 0.028981015 0.025598306 0.00057507533 0.009577542 0.029923107 0.029764947 0.031246508
0.03774022 -0.037601616 -0.008675748 0.0062752445 -0.04444811 -0.06491956 -0.03436799 0.0057107345
-0.03222483 -0.05972651 -0.026559057 -0.011861798 0.040153526 -0.01717106 0.024688056 -0.012558168
0.02935987 -0.035424978 0.027148094 0.0018060541 -0.043440346 -0.07189635 0.004632974 0.020472433
-0.002666743 -0.0026598126 -0.027682131 -0.008624465 0.0074591865 0.039344873 0.02138486 -0.011673736
-0.028648833 0.015203749 -0.026578171 0.002091927 -0.029189019 -0.025033878 0.007286713 -0.05086631
0.046802774 -0.029071959 -0.010243929 -0.032719214 -0.034763265 -0.020570684 -0.00073428184 -0.040808447
0.015272573 0.038701437 0.0026788816 0.021469604 0.046391983 0.01925945 0.008005107 0.0156445
0.034440517 0.0177112 0.028461222 0.028267892 0.0482437 -0.04953189 0.021009417 0.014814819
0.03964229 -0.00041044306 0.004997823 -0.036019344 0.007781628 -0.01912744 -0.012666135 -0.016357057
-0.025521832 -0.007235545 0.01200902 0.020946594 0.012514926 -0.033172138 0.0037568242 -0.0062952316
0.03137972 -0.027502937 0.030370384 -0.015527738 -0.03850826 -0.04248898 -0.008961731 0.008794509
0.0149776265 5.4930148e-05 0.0055113486 0.040304005 0.030793943 -0.033859316 0.011236558 -0.02483119
-0.03401997 0.004222071 -0.028556705 -0.044165034 0.018780159 0.0056552235 0.014686513 0.04666032
-0.020305082 -0.05313872 0.06519444 -0.043099612 -0.035641965 -0.012661141 0.0049676765 -0.015374777
0.03675223 -0.022990247 0.0020937913 0.0048058475 0.014414523 0.013622953 -0.0141905565 -0.0027891395
-0.008228337 -0.015544294 0.025174482 -0.016952759 -0.03535456 -0.029935125 -0.030643063 -0.0015692206
-0.027826177 0.016750207 0.026311336 0.020923078 0.03629978 -0.018224325 -0.030875957 0.039448593
-0.007329255 0.013289935 -0.036596917 0.042477228 -0.020389916 0.04429075 -0.014138891 -0.012614536
0.0050150994 0.035507914 -0.040481098 0.030920435 -0.029220274 -0.034299787 0.022646556 -0.008922988
0.012902475 -0.034771062 0.0043708226 -0.043028023 0.012998487 0.021030962 0.010580053 0.0005849325

bias f4 [128]
00000000: 39ac 0ebd 9d69 d43c c5f6 033d ea72 bc3c
00000010: 3b4f 8fbc 2d47 6fbb a9b4 f9bc 4ba2 fcbc
00000020: de1d 323d 9cc0 9e3c fb12 563c 0635 3b3d
00000030: 7b8e 073c f2a1 d13c f625 febb 8dd6 403d
00000040: 7b02 0a3d 5d78 23bc 737f a5bc 1bd9 303d
00000050: 50ad 00bd b6fa b13c 2f31 cd3c b6a9 0fbd
00000060: 9848 fcbc af5f 20bd b47c a2bc 5458 b83c
00000070: 8819 19bd a81c 4cbc d1b9 93ba 8971 063d
00000080: 061b 133d ddf0 5dbc 6738 07bc 4025 58bc
00000090: 5d0e 2c3c fd13 a13c b3d7 98bc 4e8d 12bb
000000a0: 01e7 223d 858a d03c 7e3d 333c 4ae8 b73b
000000b0: 987f a53c b4da 1f3b 31a0 08bc faf1 fa3c
000000c0: e422 053d df59 c53c c753 ecbc 9b0b 98bc
000000d0: 74a5 99bc fe1f b73c 235f babc 7a05 c03c
000000e0: fe97 b0bc 42f2 ee3c 2486 2a3b a753 d8bc
000000f0: 4a1b 813c 0703 003d 44e1 bd3c 9bf2 f33c
00000100: dc28 b53c d18d 0d3c 83c7 463c 13ef be3a
00000110: 7d29 ddbc c887 173d 0f17 03bd e335 23bd
00000120: f870 19bb 33cf 27b8 59fe 1bbd aeee 103d
00000130: 9954 203d 72c3 febb 6dd9 c9bc 8ada a2bb
00000140: 091b 0ebb c8ab b7bb 2fa3 29bc 4718 f1bc
00000150: 3a59 b53c 10bd 053b 2c0d 9d3c fe94 f8bc
00000160: 1e4b 81bc dc9a 993c 1946 ae3a 3c5b d9bc
00000170: 9d8d a73c 1a49 3b3a f517 e53b c12b 193d
00000180: 38fa 053c 21ca 81bc b631 afbb 2213 98bc
00000190: 5b72 4d3c 6dfc 07bd 464d 1f3c 6ef5 da3c
000001a0: 240d 1e3c 6b5b d53c fc3d 823b fc4e 5f3c
000001b0: 2698 d03c b131 bbbc 07be 24bd a517 b33c
000001c0: a510 e63c 00f6 253d 395e dc3c 2f20 21bd
000001d0: a79a 823b 35d6 d63c 6306 203c be87 8d3c
000001e0: 3e8d 93bc 8773 c13b f17b 2c3d 5b18 87bc
000001f0: b942 1fbc b284 15bd 7d13 e23b 81e3 553c
-0.034832213 0.025929267 0.03221776 0.023004014 -0.017493835 -0.003651093 -0.030481653 -0.030839106
0.043485515 0.019378953 0.013066049 0.045704864 0.008273716 0.025589917 -0.00775599 0.04707961
0.03369377 -0.009977427 -0.020202374 0.043175798 -0.031415284 0.021725994 0.025047867 -0.03507396
-0.030796334 -0.03915375 -0.019834854 0.022503056 -0.037377864 -0.012458004 -0.0011270588 0.03282312
0.035914443 -0.013546196 -0.008253193 -0.013192475 0.010501471 0.019662851 -0.01865754 -0.0022362056
0.039771084 0.025456676 0.010939954 0.005612408 0.020202443 0.0024391832 -0.008338974 0.030632962
0.032503977 0.024090705 -0.028848542 -0.018560221 -0.018755652 0.022354122 -0.022750443 0.023440111
-0.02155685 0.029168252 0.0026019895 -0.026407076 0.015760083 0.031252887 0.023178704 0.02977877
0.02211421 0.008639769 0.012132528 0.0014567099 -0.026997322 0.036994725 -0.032004412 -0.039846312
-0.0023413282 -4.0008872e-05 -0.03808436 0.035383873 0.03914318 -0.0077747637 -0.02463981 -0.0049698995
-0.0021683595 -0.0056051947 -0.010353847 -0.029430522 0.022137273 0.002040688 0.01917132 -0.030344483
-0.015782889 0.0187506 0.0013296037 -0.026532762 0.020453269 0.0007144377 0.0069913813 0.037395243
0.008177333 -0.015843453 -0.005346502 -0.01856381 0.0125394715 -0.033199716 0.009723013 0.026728358
0.009646688 0.026044568 0.0039746743 0.013629671 0.025463175 -0.022850843 -0.040220287 0.02186186
0.028084109 0.040517807 0.026900398 -0.039337333 0.003985721 0.026225189 0.009767148 0.017276641
-0.018011685 0.0059036645 0.042110387 -0.016491106 -0.009720498 -0.0365035 0.006899296 0.013054729

weight f4 [128, 64, 3, 3]
00000000: 3035 4ebc d260 a43c 1def 10bc 6190 b1bc
00000010: b9e7 95bc 3c84 70bb 0e3d 19bc 2f89 24bc
00000020: d382 a9bc 045f 703c 7c64 30bc eefe 95bc
00000030: d25e 623c bd34 9cbc ff23 5ebc 9002 fb3c
00000040: 393e f73b 04c5 16bc 1eef 47bd c966 0b3c
00000050: 0df1 013d 23fe 303c 0bfa 0d3d 8ecf 47bd
00000060: 413c 1fbc a8bc f9ba 638f febb a63f 913c
00000070: 5da1 1bbd bff6 35bc d5ce be3c 5e46 71bc
00000080: 8987 b53c ed79 243c f9a7 103c a6b7 a3bc
00000090: c704 123b 6404 ee3c 0fa1 073d ea39 1c3d
000000a0: 5550 0f3d 6e9a 613c cf5b 433c cfd7 033d
000000b0: 7a67 7b3c 29f7 4cbc c534 5b3c df2f af3c
000000c0: 7f81 443c 7c20 8abc fe90 153d d59b 393d
000000d0: e68c 383d 49dc 9c3c 0c6a 183d a214 dfbc
000000e0: 900d 1cbc f362 d13c 4933 8639 d32b 2d3c
000000f0: ac08 333d f5ff 8f3c fd5e 24bc 33aa 9e3c
00000100: 5f38 943c 8d01 b93c 2b1f 4439 4988 80bb
00000110: a822 213c 393b 4ebc b5c4 fd3b 70e8 d93b
00000120: 0606 ff3c d7f2 41ba bfe2 ad3c 2f9e 79bd
00000130: b187 88bc fb7d 51bb 326c 1bbd 93d7 39bd
00000140: d820 9ebd cadd 45bc 2754 04bd b35d 5f3c
00000150: eded 983b f6c7 17bd d2b2 d43c c62b d1bc
00000160: 8d7f a53c 7043 13bd ee8d 0c3d f8ff 9a3b
00000170: 1887 babb 12fe 10bd 4f58 373d 628a 9a3b
00000180: c0fc 193d 126d 343d 24f5 9d3c 8770 303d
00000190: 10be bbbc ba18 bebc 348e 0c3d 547c 03bd
000001a0: 8259 7dbc 54a4 e4bc 1abe 143d 7644 ff3c
000001b0: df13 92bc 99b2 85bc a7c1 4f3d cd0f 043d
000001c0: 07a8 12bc 65f2 0e3d fcbc 48ba aa16 e83a
000001d0: f71c e23c d387 0b3d fd2f 57bd d5f3 bebb
000001e0: 8ea4 f83c b9d3 b739 7659 acbc 62d4 b7ba
000001f0: d242 21bc eb02 953c 5d6c 263c 3c98 243d
00000200: a455 ef3c 2074 4cbb e3c7 813c c3e1 ffbc
00000210: 7a8d 4cbb 164d c3bb 4171 22bd 4bc8 703c
00000220: 9b07 f83c 6f6c f13c 7b90 e03c a019 173d
00000230: b844 1dbd 08c4 24bd 2d98 b03c 045c 153d
00000240: efc9 a83c 51d0 88bc 47ad 2b3d b954 323d
00000250: afbd 0b3c edd6 313d 4d7d 2b3d 8523 d53b
00000260: b9ec 673c 8786 ab3b a495 b6bc eb1d 583c
00000270: b065 2c3d 681c 1ebd 0d8a 8c3c 75e2 26bc
00000280: 6867 94bc 4eec d4bc 8373 353c b2c2 01bd
00000290: 5c7e 113d 87b8 07bd 3242 febc 62eb 873c
000002a0: af76 933b b1a4 f3bc cff6 1b3c 0b3b 7d3b
000002b0: 97af d83c 3874 983c a129 02bd a529 41bc
000002c0: bd76 7abc bcba 853b 014e 443c e915 0cbc
000002d0: 5060 c7bb 550e 8fbb d5c9 dd3c e072 90bc
000002e0: 5fbb 8b3b 3ba3 be3c ed0e 093d b2bf 1b3d
000002f0: 28d3 4dbc efba 06bd 0aea a1bb 0f12 18bb
00000300: 829e 0d3b 65f0 cabc f4ba 553c 31c8 3bbc
00000310: 6c13 d63c 7bc1 143d c636 d33c 463d 82b9
00000320: 9001 03bd cfed 1cbc 80ec e93c 8db3 1b3c
00000330: 6230 80bb 9e79 d73b 8685 aabc 0aeb 493d
00000340: 770f 28bd 6a4c 92bc 5932 b6bc c3c5 18bd
00000350: bd07 c4bc 5f12 b3bc 006e 133d 5e6f 87bb
00000360: 6ff2 e63a 06ab fd3c d63d f5bc 3902 af3c
00000370: 053f 473c 5236 1ebd 3540 27bd 718d 04bd
00000380: ec5e fdbb c9f8 3abd c0b2 1c3d 5088 973c
00000390: 12b0 1abd b9bf efbc 4591 ef3b c560 523c
000003a0: bac0 873c f2e4 9cbc 7b8c 193d b052 d53b
000003b0: a2bd 81bc ab03 353d 9dfc e1bb 4b92 aaba
000003c0: c26d cebc c064 f23c 5b1a 1e3d 8056 bebb
000003d0: e04f 8a3c ce55 5bbb 057c a1bc 7e68 bcbc
000003e0: e1da 153d 87e4 0b3d 6465 c53b 8f39 88bc
000003f0: 7ad2 3b3b 4179 f0bc f332 103d f8ff 0b3d
-0.012585923 0.020065699 -0.008846072 -0.02167529 -0.01829897 -0.0036699912 -0.0093529355 -0.010042473
-0.020692265 0.014671091 -0.010766145 -0.018310037 0.013816552 -0.019068116 -0.013558387 0.03064087
0.0075452593 -0.009202246 -0.048812024 0.008508393 0.031724025 0.010802778 0.034662288 -0.048781924
-0.0097189555 -0.0019053416 -0.007768558 0.017730545 -0.037995685 -0.011106192 0.023291985 -0.0147262495
0.022159355 0.010038835 0.00882911 -0.019985031 0.002228068 0.029054828 0.03311258 0.03814117
0.03498872 0.013769729 0.011923744 0.032188233 0.015344495 -0.012510099 0.01337928 0.021385131
0.011993765 -0.016861193 0.03651523 0.04531463 0.045056246 0.019148009 0.03721051 -0.027231518
-0.009524718 0.025559878 0.00025596682 0.010569531 0.043709442 0.017578105 -0.010032413 0.019368267
0.018093286 0.022583747 0.00018703628 -0.0039224965 0.009834923 -0.012587362 0.0077443966 0.006650023
0.031130802 -0.00073985517 0.021226285 -0.06094187 -0.016666265 -0.003196596 -0.03794498 -0.045371603
-0.07721108 -0.012076804 -0.032306816 0.0136331795 0.004667035 -0.037055932 0.025964174 -0.025533568
0.020202423 -0.035952985 0.034315042 0.004730221 -0.005692374 -0.03539855 0.044761952 0.0047162035
0.037594557 0.04404933 0.019281931 0.043076064 -0.022917777 -0.02320515 0.034315303 -0.03210099
-0.015463235 -0.027910389 0.036314107 0.031160574 -0.01783174 -0.016320514 0.05072179 0.03224163
-0.008951194 0.034899134 -0.00076575554 0.001770695 0.027601702 0.03406508 -0.052536 -0.005827407
0.030351903 0.00035062226 -0.021038752 -0.0014025087 -0.009842591 0.018189868 0.010157672 0.040184245
0.029215641 -0.0031197146 0.015842384 -0.031235581 -0.0031212256 -0.005960117 -0.03965879 0.014696191
0.030277064 0.02947065 0.027412644 0.036889672 -0.038395613 -0.040226012 0.021556938 0.036464706
0.020604102 -0.016700896 0.041913297 0.04353783 0.008529111 0.04341786 0.041867543 0.0065044784
0.01415556 0.005234543 -0.022288151 0.013190727 0.042089164 -0.03860131 0.017155671 -0.0101858275
-0.018115714 -0.025991585 0.011074903 -0.031679817 0.035520896 -0.033134963 -0.031037424 0.016591731
0.004500232 -0.029741617 0.009519293 0.0038639929 0.026450915 0.018610105 -0.03177798 -0.011789714
-0.0152870985 0.0040810984 0.011981488 -0.008550146 -0.0060844794 -0.004365722 0.02707378 -0.017632902
0.0042642797 0.023271194 0.0334615 0.03802461 -0.012562551 -0.032893118 -0.0049412297 -0.0023204123
0.002160937 -0.024772832 0.013045061 -0.011461304 0.026132308 0.03631733 0.025782954 -0.00024841184
-0.031983912 -0.009578182 0.028555155 0.009503257 -0.0039120177 0.006575777 -0.020815622 0.049296416
-0.041030373 -0.017858703 -0.022240805 -0.037297975 -0.023929471 -0.021859346 0.035993576 -0.004133149
0.0017619858 0.03096534 -0.029936712 0.021363365 0.012161021 -0.038626023 -0.040832717 -0.03236145
-0.007732263 -0.045647416 0.038256407 0.018497616 -0.03776557 -0.029266225 0.0073110186 0.0128404545
0.016571391 -0.019152138 0.03748749 0.0065101013 -0.015837494 0.04419295 -0.006896569 -0.0013013569
-0.025198821 0.029589057 0.038599353 -0.0058086514 0.01688379 -0.0033467892 -0.019712457 -0.022999045
0.036585692 0.034153488 0.0060240496 -0.016629009 0.002865939 -0.029354693 0.03520484 0.034179658

bias f4 [64]
00000000: 32d0 40bc 5e03 2cbb 97e3 b73c cadb b73c
00000010: d86b 4c3d 7409 023c a091 e3bb c5b2 8cbc
00000020: 0757 6a3c dc79 ba3c e454 fabc 2b22 a9bc
00000030: 2055 1a3d fdc3 af3c 5a9c 1d3a d0cc 353c
00000040: c80d 133c af9f bfbc 1ab7 c0bc 350b d23c
00000050: 40ce da3c a981 8ebc d320 ed3c 17ae ffbc
00000060: 7334 c53c 2f01 e93c ada5 a13c db32 1c3d
00000070: f340 cbbb 0104 d2bc b6c3 d73c 6618 ba3c
00000080: 2892 1c3d 6f78 763b adf9 09bd c46a d03a
00000090: a6b2 953c 6324 01bd 3454 06bd 8931 213b
000000a0: 4160 beba a4ca cabc fc19 a23c 6512 01bd
000000b0: 1a69 e33c eab8 3cbc 9166 83bc 4fd9 9c3c
000000c0: 7703 693b d841 1d3d 0863 1a3d ae95 f43c
000000d0: 8ced f23c 3817 153d 9539 f9bc 745f b5bc
000000e0: 6ef1 76bc c424 c6bc 6016 b63c 6842 f1bc
000000f0: 13bd 41bc 382c 22bd 7c13 04bd 44b2 7cbb
-0.011768388 -0.0026247124 0.02244739 0.02244367 0.049907535 0.007936824 -0.00694485 -0.017175088
0.0143029755 0.022763185 -0.030558057 -0.020646175 0.037678838 0.02145576 0.0006012373 0.011096194
0.008975454 -0.023391573 -0.02352481 0.02564011 0.026709676 -0.017395811 0.028946316 -0.031210942
0.024072861 0.028442947 0.01973232 0.038134437 -0.006202811 -0.025636675 0.02633844 0.022716712
0.038225323 0.0037608405 -0.033685375 0.0015900959 0.018273663 -0.03152884 -0.032795146 0.0024596176
-0.0014524536 -0.02475483 0.019787781 -0.031511683 0.027760077 -0.011518696 -0.016040118 0.01914659
0.0035555044 0.03839287 0.0376921 0.02985653 0.029654287 0.036399096 -0.030422965 -0.022140242
-0.01507221 -0.024187453 0.022227466 -0.02945061 -0.011824864 -0.03959295 -0.032245144 -0.0038558403

weight f4 [64, 32, 3, 3]
00000000: bf3d 0abd e3b6 13bd 2777 cbbc 2ccf 44ba
00000010: 8c92 803d 0559 0d3d eb4e 383d 67c1 1d3d
00000020: a964 2f3d ed1e 1e3d b506 0a3c 8c85 a0bc
00000030: 91aa 15bc 918a 30bd e59d 383d ff84 5ebd
00000040: 717e 19bd 18f0 1d3d b1e9 133c f7ee 29bd
00000050: 161b 063d a9b0 41bd 02f6 0bbd 5925 d8bc
00000060: cfc6 bfbc 0d08 f43c da4d eabc d6ef 3c38
00000070: 1069 03bd 6f89 23bd 08fd 383d 826b c63c
00000080: 0b00 fbbc cec5 33bd 8daa f13c 2e11 adbc
00000090: da51 c938 6421 3dbd d44b 303d 7a7c e73b
000000a0: 925b 0fbd a583 efbc c494 4bbd 4875 303d
000000b0: 0039 17bd 9fc7 2dbd 453e 06bc 112a 9bbc
000000c0: fe42 e63b 171d 813d 84e4 423d e475 51bd
000000d0: 35ef 593c a1d5 7fbc 3111 623d 853d f83b
000000e0: ea45 5dbd 5090 023d d693 4e3d 7870 943c
000000f0: c9ef b2bc 2dcb 5dbd 01ed 22bd 9b26 9b3c
00000100: a904 c03c 85e0 f23c 693a 69bd 8bb4 2d3d
00000110: 5791 24bc a656 38bd accd b4bc 653d 413c
00000120: 4a02 38bb 14be 88ba 0e46 f2bc c5b7 4d3d
00000130: f141 013d 1e14 adbc 9cf5 12bc e032 0a3c
00000140: b78b 163d 12a7 bbbc b128 65b8 327d fbbb
00000150: a838 fb3c 8454 103c a4ae 653d eba4 f0bc
00000160: 2639 043d 68bd 18bd e2d3 14bd 033c 2ebc
00000170: 9cf1 60bd 5b85 163a b4cd 7a3c 934a fa3c
00000180: 091c f4ba 1ee4 7b3b 1922 1ebd 9bbb 523d
00000190: dc96 023d 9494 d13b 38aa 373d c1ad 893c
000001a0: 99d1 0bbd 68c2 3c3d 9204 383c 0c16 203d
000001b0: 088d 24bd a4c4 5fbd fda7 ed3c 88ed 153d
000001c0: 0159 a1bc 0e0d abbb cc2b 123b ff6e 543d
000001d0: d04a 873c 2604 4f3d acbe a2bc 4e94 293c
000001e0: 9737 14bd 574f 7c3b 70cf ac3b 2865 1dbc
000001f0: 8ebf be3c 7747 843c 0372 573d 4a9a e9bc
00000200: 6dd7 c13c 00c1 163c c5c9 243d 8b42 d8bc
00000210: 5bc6 9539 c314 a03b ac01 25bd a962 cabc
00000220: 64c7 c8bc 70b3 e2bc bc7f 89bb abda 4a3d
00000230: f460 7e3c 4176 48bd cc81 ad3c 72ca 9d3c
00000240: 8862 05bd fb86 f7bc 9ae1 6bbd 5c97 683d
00000250: 467e 2a3d a340 c3bc ccfb 223d 4872 c13a
00000260: 2617 ed3b b34d 4ebd ac86 f8bc 4b30 5f3d
00000270: 0ed2 4c3c 6487 05bd b1e5 64bd 354a 72bd
00000280: b2a9 25bb 4981 063b 05b4 b63c e905 c7bc
00000290: a895 113d 66fc 623d aed6 9c3c 510e 563b
000002a0: b8a3 6abd b9e1 ff3c d61f 89bc 0fdf 71bc
000002b0: a52e 3fbd 7129 033c 7c91 5b3c f9a2 3e3c
000002c0: 473a 703c 1abb 003c 5191 903c e892 4a3d
000002d0: 7d23 5c3d a721 54bd a271 e43c 9edc 90bc
000002e0: 69d1 92bc 8efe 363d 7d65 233d e574 73bd
000002f0: bd6a ddbc c30b 6dbc 6775 603d 0be6 71bd
00000300: 743d 993b 06f9 12bd 41ad 033c 21a7 c6bc
00000310: 40c6 88bc 17b1 793c 2bb8 803d 2025 24bd
00000320: a355 273d 9f6d 413d 2f71 e6bc 4053 293d
00000330: 1ff0 0b3c 5f1a 003d 5424 c83a 2a68 a7bb
00000340: e50f 49bd c8f7 cfbc 5fb6 bc3b 8620 8d3c
00000350: 372c 61bd f1ae 99bc c45a b93c dfe6 103d
00000360: f6a6 ab3c ea89 c0bc 9ed1 33bd 3457 273d
00000370: 739a 6fbd b79a ae39 331f b8bc 9c47 0f3c
00000380: aab4 593c 3159 f13b 3448 3b3d 494b f0bc
00000390: 9ba0 85bc f2e0 f63c de3d 773c 5f64 d1bc
000003a0: 7a04 543c 4441 4e3d 5ed5 af3c 16b1 483d
000003b0: b164 07bd 15e9 bbbb 2c0d 65bc 7251 023d
000003c0: cb25 673d d463 193d 3b7d d93c ad3e 783c
000003d0: 5cb7 0f3d 90c2 08bd 7342 b23c 0336 703a
000003e0: c59d 49bd c2ca c03c 3061 663d b493 013d
000003f0: 8128 33bd 0c8a 8a3b a7cb 573c 4096 5cbc
-0.033750292 -0.036063086 -0.02483709 -0.00075076777 0.062779516 0.034508724 0.044997137 0.03851452
0.042820606 0.038603712 0.008424451 -0.01959493 -0.0091349045 -0.043100897 0.045072455 -0.054326054
-0.0374741 0.03855905 0.009027884 -0.04148766 0.032740675 -0.047287617 -0.03417016 -0.026384996
-0.023410229 0.029788995 -0.028601576 4.5046057e-05 -0.032082617 -0.03992599 0.045163184 0.024221186
-0.030639669 -0.043889813 0.02950027 -0.021126356 9.599673e-05 -0.046174422 0.043041065 0.0070643993
-0.034999438 -0.029237578 -0.04970242 0.043080598 -0.036919594 -0.0424267 -0.008193557 -0.018940957
0.007027029 0.063043766 0.04758121 -0.05113782 0.01330166 -0.015614898 0.055192176 0.007575693
-0.054021753 0.03187591 0.050433956 0.018120036 -0.021842854 -0.05414884 -0.039776806 0.018939307
0.023439722 0.029648075 -0.05694047 0.042408507 -0.010044417 -0.04500451 -0.022070728 0.011794423
-0.0028077536 -0.0010432624 -0.02957442 0.050224084 0.031557027 -0.021127757 -0.008969691 0.008434981
0.036754336 -0.022906814 -5.463575e-05 -0.0076748366 0.030666664 0.008809213 0.056074753 -0.029375514
0.032281063 -0.037290007 -0.03633488 -0.010634425 -0.054917917 0.00057419174 0.0153078325 0.030553138
-0.0018624078 0.003843553 -0.038606737 0.051448446 0.031882152 0.0063958857 0.044840068 0.016806485
-0.034135435 0.046083838 0.011231558 0.039083526 -0.04017356 -0.05463089 0.029010767 0.03660348
-0.01969576 -0.005220062 0.0022303937 0.051863667 0.016515166 0.050541066 -0.01986631 0.0103503
-0.036185827 0.0038499439 0.005273752 -0.009606637 0.0232847 0.016147358 0.052598964 -0.028515954
0.023662293 0.009201288 0.040231485 -0.026398918 0.0002856728 0.0048852875 -0.040284798 -0.024705248
-0.02450914 -0.027673453 -0.0041961353 0.049524944 0.015526045 -0.0489409 0.021180056 0.019261573
-0.03256467 -0.03021573 -0.057588197 0.056784973 0.04162433 -0.023834532 0.039790913 0.001475879
0.0072354255 -0.05036707 -0.030337654 0.054489415 0.012501253 -0.03259982 -0.055883113 -0.0591528
-0.0025278148 0.0020523837 0.022302637 -0.02429481 0.035543114 0.055416487 0.019145336 0.0032662342
-0.05728504 0.031235563 -0.016738813 -0.014762654 -0.046675343 0.008005486 0.013401385 0.011635535
0.014662332 0.0078571085 0.017647417 0.049456507 0.05374478 -0.051789906 0.027886216 -0.017683323
-0.01792212 0.044676356 0.03989171 -0.05943765 -0.027028436 -0.014468136 0.054799464 -0.059057277
0.0046765152 -0.03588202 0.008036912 -0.024249615 -0.016696095 0.015239975 0.06285127 -0.040074468
0.040853154 0.047223683 -0.028130142 0.04133916 0.008541136 0.03127515 0.0015269616 -0.005108853
-0.049087424 -0.025386706 0.005759045 0.017227422 -0.054973807 -0.018760176 0.022626288 0.035376426
0.020953637 -0.023503263 -0.04390108 0.040854648 -0.058496904 0.00033303138 -0.022475814 0.0087451
0.013287703 0.007365369 0.045723155 -0.029332774 -0.016311934 0.03013656 0.015090434 -0.025560556
0.01294052 0.05035521 0.021464046 0.048997007 -0.03305501 -0.0057345727 -0.013980191 0.031815954
0.056432527 0.03744872 0.026548972 0.015151662 0.035086975 -0.033388674 0.021760201 0.0009163322
-0.049222726 0.023534182 0.05624503 0.031635 -0.0437398 0.0042278823 0.013171113 -0.013463557

bias f4 [32]
00000000: deed 7cbc 7609 32bd cc8b 0cbd d8a0 e33c
00000010: a465 213d d52b e9bc 6828 fd3c 9a9e c03c
00000020: 3a45 063d 39dc 0a3d 1f9f da3c 3d8e 23bd
00000030: 7865 573d 1f97 2f3c 755d c4bc a6a5 053d
00000040: 8ed6 e03b 80eb 273c 677e 85bc daa6 b53c
00000050: ca6c 28bc 099b 7d3b cf49 e6bc b0bd 18bd
00000060: 840d 6f3d 49a1 303d 2f36 523d 85d7 643d
00000070: 8b1d 5c3c 2122 84bc 57f9 0ebd 9cc9 163d
-0.015437571 -0.043466054 -0.03431301 0.027786657 0.039403573 -0.028463284 0.030903056 0.023513127
0.032780863 0.033901427 0.026687203 -0.03993057 0.052587003 0.010717182 -0.023970345 0.032628678
0.0068615144 0.010249019 -0.016295625 0.022174288 -0.010279844 0.0038697144 -0.028111367 -0.037290275
0.0583625 0.043122564 0.051321205 0.055869598 0.013434778 -0.016129555 -0.034905758 0.036813363

weight f4 [32, 3, 3, 3]
00000000: 6993 adbd 91a2 9cbd 2735 82bd 0c75 b5bd
00000010: 48b8 0ebc 306e 863c 1e00 3f3e 6dd6 e53c
00000020: 07d3 26be 6b62 3c3e f693 0ebe 1949 07be
00000030: b1ca 11be cb76 093e 2945 ed3d 717c f33d
00000040: 99c3 febc f49a f6bd 8607 433e d911 f4bb
00000050: c5e2 d03d 8100 3cbe 2ce9 b03d 8d00 bb3d
00000060: d054 3cbe 8d85 ec3c 8ce2 81bd 56be 0b3e
00000070: 25a9 b8bd f8aa ab3b 0673 203e 046a e13c
00000080: a26b a7bd 2139 8a3c 49d5 84bc 0714 1e3e
00000090: 6e48 34bd 2483 42bd 6bfd 153e 2368 29be
000000a0: 974c 28bd 4f24 30bd 3727 093e 347a 2cbe
000000b0: 6ae9 c0bd 80c1 833d 4c9e 2e3d fa4c 8fbd
000000c0: 0ce2 14be 46ca 813d 1b01 903c 05d1 fd3d
000000d0: f0f5 a5bd 9245 02bd 5040 2c3e 68b3 373e
000000e0: 685b 2ebe 8cb1 3abe 123e 8e3c 8731 06be
000000f0: f288 fabd a84b 333d 88fe a3bd 7dac 79bd
00000100: 8371 5bbd 647c 2fbe 09b8 e13d adaa 9d3d
00000110: 9270 e2bd 2910 d83d 1ced 7fbd 4f0a 6b3c
00000120: 52a9 0fbe 119e bbbc 7339 adbd 415c 41be
00000130: 025b c8bb 65fe 8abd 399b cabc 9fff 7e3d
00000140: 2691 393e 3b63 123e ca02 063e 49e0 fabd
00000150: 81e3 0abe bc0b 28be b500 d6bd 691a d4bd
00000160: 2c94 b0bd 9bd1 88bd d9cf 0cbe cebf 02be
00000170: 5f9f 24be 64ad 18be 19d8 1b3e 9daa 1fbe
00000180: f4e0 043d a846 2d3e 94ee d93b c6dc 25bd
00000190: a22e 06be 6d0b 12be 8256 fcbd 16be 893c
000001a0: 7e46 f6bd 8eae d1bc e925 853c 20ea 323e
000001b0: 4c83 84bc 6e70 aa3d 1a92 173e 19a5 07be
000001c0: d287 1ebe c1b6 023e b9f6 17be 775f 233e
000001d0: a34e 1d3e 8952 c43c 5e0e 363e bc05 1e3e
000001e0: 3c32 c0bd b3b9 7a3d 2cbe bcbd 2a18 bebd
000001f0: 42b9 4d3d a0e0 5dbd fcdf a33c f5bb 023e
00000200: bd03 323e 1171 eabd f841 963d 962f aa3d
00000210: 5550 b1bd ecea 17bd 8549 3bbd c0a5 c23d
00000220: 6dcd 403d bca1 13be 24bf 05be 3c55 4c3d
00000230: 3bd2 02be 9670 e83d 7cb6 ecbd ab71 9a3d
00000240: dd79 6b3c b307 8bbd dc3f 88bd d121 363e
00000250: 8825 9c3d aa0d de3d 39ff 733c 2c31 1b3c
00000260: a687 0bbe f298 cb3c 28a7 87bc 791b 40bd
00000270: 1107 c33d aae0 643d fa9a 16bd d258 043e
00000280: 2de7 dabd e55a ebbd b014 433e bfd0 31bd
00000290: 223c 213d dedc 2c3e e2b0 ef3c 024c 683d
000002a0: ca4b 2abe ece9 833c cb1e 14be 3a05 b8bc
000002b0: f3ca 5fbd 8a00 2c3e 9b9d 24bd 6722 dbbc
000002c0: 0f7b c4bc 33e7 7abc 0cd2 9f3d fb41 7bbd
000002d0: 56e6 7bbd a341 2e3e c8c8 203d 8088 dd3c
000002e0: 4fef a03d 8ac9 433c f47a eebc 5ee5 a33d
000002f0: ed86 27bd c709 353e 9474 17be 3841 0abe
00000300: 5642 94bc 2c05 293e aee5 f8bd 2e98 8cbd
00000310: d6fe e53b 7f1b 3e3e ff65 113d 7f6c cebd
00000320: bcb9 da3d 3ef9 d4bc cd26 1b3e 3ec0 5d3d
00000330: 63c4 2cbe aa81 513d 93c7 df3b 8d72 9bbd
00000340: 3b7c 0f3e a204 0d3e 1956 063d 5eeb e83c
00000350: 382c db3d 700c c73c 7978 173d e313 3e3e
00000360: 7774 d03c a1f4 f5bd 4d12 95bd e87a af3d
00000370: 2fc1 16ba 8e1c 63bd ff76 89bd a501 87bd
00000380: 4c13 083e eed9 293c fa0a 21bc 5729 95bd
00000390: 0843 17be 97ac 0bbe 8372 0bbe 6322 0ebe
000003a0: 4f8b 1fbe ae00 a0bc fbba d53d 9269 b4bd
000003b0: 4b73 c6bc 4750 edbd 1076 4bbd f147 2d3e
000003c0: 4d7b d0bc df3f 82bd 0264 d5bd 2216 02bd
000003d0: 13e9 1b3e cc6d 2fbe dd7f 5abd 9c0f 0dbe
000003e0: fa32 ad3d 455f 233d 273b 5b3e a66d 18be
000003f0: 0216 06bd f49c 0a3e c4c1 7d3c 7dca f83d
-0.08475382 -0.076481946 -0.06357794 -0.088602155 -0.008710928 0.016409963 0.18652388 0.028056348
-0.16291438 0.18396918 -0.1392363 -0.13211478 -0.14237477 0.13424222 0.11585457 0.1188897
-0.031099128 -0.12041274 0.19045839 -0.0074484167 0.10199503 -0.18359567 0.08638224 0.091309644
-0.18391728 0.028872276 -0.063420385 0.13646826 -0.09016637 0.005238887 0.15668878 0.027516373
-0.08174826 0.016872944 -0.016214984 0.15437327 -0.044014387 -0.047488347 0.14647453 -0.16543631
-0.041088667 -0.043003377 0.13393866 -0.16843492 -0.0941952 0.064333916 0.042631432 -0.06997104
-0.14539355 0.06337409 0.017578652 0.12393383 -0.081035495 -0.03180463 0.16821408 0.17939532
-0.17027056 -0.18231791 0.017363582 -0.1310483 -0.122331515 0.043773323 -0.08007532 -0.060955513
-0.05357505 -0.17137295 0.1102143 0.076985694 -0.11056627 0.10549957 -0.062481984 0.0143457195
-0.14029434 -0.02290252 -0.08458223 -0.18882848 -0.0061143646 -0.06786803 -0.024732219 0.062255498
0.18121776 0.14295666 0.13087001 -0.1224981 -0.13563348 -0.16410726 -0.104493536 -0.103566
-0.086220115 -0.06680604 -0.13751163 -0.1276848 -0.1607642 -0.14909893 0.15219153 -0.15592428
0.032441095 0.16921484 0.006650755 -0.04049375 -0.13103727 -0.14262171 -0.123211876 0.016814273
-0.12025164 -0.02559593 0.016253429 0.17472124 -0.016175888 0.083222255 0.14801827 -0.13246574
-0.15481499 0.12765028 -0.14840211 0.15954386 0.15362029 0.023965137 0.17778918 0.15431875
-0.093845814 0.061212253 -0.0921596 -0.09281953 0.050225504 -0.054169297 0.020004265 0.12767012
0.17384239 -0.11447347 0.07336801 0.083098575 -0.086579 -0.037089273 -0.04572441 0.095042706
0.04707091 -0.14417166 -0.13061196 0.049885973 -0.12775509 0.11349599 -0.11558244 0.07541212
0.014372316 -0.06788578 -0.06652805 0.17786337 0.07624346 0.1084245 0.014892393 0.009472173
-0.13625965 0.024853203 -0.016559198 -0.0469012 0.09522832 0.05587832 -0.03676889 0.12924507
-0.106886245 -0.11491946 0.1905086 -0.043411966 0.039363988 0.16881129 0.029259149 0.05671311
-0.16630474 0.016102754 -0.14464872 -0.02246343 -0.054636907 0.1679708 -0.040189367 -0.026749803
-0.02398446 -0.015313911 0.07803735 -0.06134222 -0.061498962 0.17017226 0.03925398 0.027042627
0.078581445 0.011949906 -0.029111363 0.08002733 -0.04090016 0.17679511 -0.14790565 -0.13501441
-0.018098038 0.16505879 -0.12153183 -0.068649635 0.007018904 0.18565176 0.03549766 -0.10079288
0.10679957 -0.025997754 0.1515152 0.054138415 -0.1687179 0.051149048 0.006829211 -0.07590208
0.14012234 0.13771299 0.032796953 0.028432544 0.107017934 0.024297923 0.036980126 0.18562274
0.02544616 -0.1200955 -0.07278881 0.085683644 -0.00057508325 -0.055447154 -0.0671215 -0.065921105
0.13288611 0.0103669 -0.009829277 -0.072832756 -0.14771664 -0.13640057 -0.13617902 -0.13880305
-0.15580486 -0.019531574 0.10436054 -0.088091984 -0.024224898 -0.11587577 -0.04967314 0.16921975
-0.02544942 -0.06359839 -0.104194656 -0.03175939 0.1522563 -0.17131728 -0.053344596 -0.13775486
0.08456989 0.039885778 0.21409284 -0.14885578 -0.032735832 0.13536435 0.015488092 0.121479966

bias f4 [3]
00000000: edf4 373e d04d 15be eaba 1f3e
0.17964526 -0.14580464 0.15598646
