inpatinign diagrams/denoising_model_epoch_0.pth (torch, 60530 bytes, 12 tensors)

weight f4 [32, 3, 3, 3]
00000000: ffd0 963d 42dc 353e 771d 36be 92d9 eabd
00000010: 5a44 c13d 883d 073e efa8 a5bd 9c07 2f3e
00000020: 1600 7c3d 5be8 bcbd 3c40 ab3d 5988 9c3d
00000030: e06e 223d 98c2 f63d 621c 1dbe 420b 1d3e
00000040: 64ac 553c beca 72bd 50a3 ebbd 35c6 2ebd
00000050: 49cf 13be 6436 d03d 810a 063d 25b3 3bbe
00000060: 9b44 183d f9da 5bbd 630b b33d d888 003e
00000070: 541b 3d3e 0c0d 16bc a207 15be 0787 cf3d
00000080: 41a9 91bb c777 eebd 44c0 90bd 59b9 ab3c
00000090: fa2d 0fbe fda2 363d afd1 183c 96c3 08be
000000a0: a3dd 28be f89f 0f3c db82 713d 3a03 0a3d
000000b0: 3596 2cbe 5728 6abc a5c8 943d 8dc1 a8bd
000000c0: 3217 58bd df03 39be 8c7e 89bd 50a1 c13c
000000d0: 3f25 e0bd 325d 03be 6722 1dbe 5da9 f03b
000000e0: 6591 c5bc 378d 3b3e eef7 eebd 168f 373e
000000f0: aa1d babd 76e7 083d e875 ccbd cb15 2b3e
00000100: 63d0 3e3e fea7 523d bc66 abbd e668 ab3d
00000110: d315 30be 5764 76bd bf52 dfbd 8d25 64be
00000120: 6b76 acbc a746 99bd 7cb9 073d 8759 123d
00000130: 3c08 2c3d a998 043e cf63 bb3c 082d 21ba
00000140: 3516 3bbe bd78 c23d 4518 1b3e 9b12 47bd
00000150: b4ad 28be 9fd6 283d a8ca c43d ced6 13be
00000160: d939 d0bd 5518 15be 8ac7 02be 2cd9 2ebe
00000170: 161d 7ebd f19f b0bd ed3f cabd 31a4 053e
00000180: 4ff9 c13d a54b e5bc ece6 19be 7bbe e9bc
00000190: 7d18 913d 6c0d 98bd 4be6 26be f199 a9bd
000001a0: b032 17be 2597 9abd 7a1d c73d 8571 f73d
000001b0: c4f9 6e3a e3c8 50bd aaf7 273d 8659 2e3d
000001c0: c27e 3c3e cfbb 18bc 47e9 c2bd c5a0 323e
000001d0: bddb c03d 644e 9abd 732d f33d 7d5e e33d
000001e0: f4d8 b23c f0f6 4fbd bbb4 363d a815 0e3d
000001f0: 38a2 2fbe b671 37be fb8a 72bd bd03 13be
00000200: 553d 1fbe 4867 65bd a0b0 bbbd 4c60 2d3d
00000210: 0c75 aabd 6f4b cd3c 8090 313e d743 c1bd
00000220: 1567 2dbe 0967 01be 19b9 ba3d 3d95 08be
00000230: 751a 8dbd 3bfd 14be 5095 8dbd 9d45 df3c
00000240: 3c14 ae3a a29d 083e 9a89 7ebc a40c b13d
00000250: 9146 a23b 83d9 6cbc 692d fdbd fbab a53d
00000260: 05e3 003c 8fbe d33d b98a 0fbe 8ffa e43d
00000270: b6bd ccbd 0b0d ce3d 5bd0 193e f169 bcbd
00000280: ff43 d33d fe3c 07bd 40be 903d 58d1 d83d
00000290: 0292 4abe 6627 7c3d 6927 44be a2d1 9e3d
000002a0: 2957 373e 1524 043d 019d 23be 65df d3bc
000002b0: 8e0a ee3d 7c69 813d b09b 08be ab38 96bd
000002c0: b084 5b3d 2625 263c c5c5 893d 2cd8 b53d
000002d0: 8e93 f13c 6288 21bc b401 0ebe 802c 8d3d
000002e0: 4c73 eb3d ebf2 34be 5eed 1dbe 86eb a33d
000002f0: 2b01 64bd 9c82 fcbd 51a8 7cbd 9b13 1a3e
00000300: ea85 0d3d b523 693c 4394 92bd 00b3 0bbe
00000310: d385 ebbd 3788 cabd 22f0 393d c977 c53c
00000320: 7f4c c53d fd24 283d 44bc e73d 8bf5 86bd
00000330: 57ce 46bd 1d24 3db9 3d80 093e 7979 333e
00000340: 109a 053e bcc3 3dbd a540 9bbd f37c 51bd
00000350: eb61 453d 42ce 853b d369 b1bd 209f 283e
00000360: 70b8 36be d6db 8bbd 2d19 f13c 8ee6 7d3d
00000370: a2a7 5dbd 0444 2b3c 8da5 293d 6e59 cd3d
00000380: bbd4 453c 73f4 c43d d154 cb3c 98a3 29bc
00000390: 68cf 533d 74ef 413d 9e15 163e 2ee2 693d
000003a0: b73d 34be 0816 11be 997c 1a3e 4ec3 953c
000003b0: 0439 e43d de11 2e3d 1fe2 b2bd decc e4bd
000003c0: 7a03 0d3c 5681 e3bd 40e6 ca3d 85b7 dbbd
000003d0: e261 323e 073a b4bd acde 0c3e 7320 3dbe
000003e0: 8a68 15be a152 10bd 476c a53d 0564 8ebd
000003f0: c5a1 a7bd a0e5 2fbe bc23 0e3e 0653 e93d
0.073640816 0.17759803 -0.17784677 -0.114672795 0.09436865 0.13207066 -0.08088862 0.17092746
0.06152352 -0.09224006 0.08361861 0.07643194 0.03965652 0.120488346 -0.15342858 0.15336326
0.013041589 -0.05927538 -0.11505759 -0.042669494 -0.14434542 0.10166624 0.03272486 -0.18330057
0.037174802 -0.053675625 0.08742406 0.12552202 0.18467456 -0.009158384 -0.14553693 0.10133176
-0.0044452255 -0.116439395 -0.07067922 0.020962404 -0.13982382 0.04458903 0.009327336 -0.1335586
-0.16490798 0.008766167 0.058962684 0.033694483 -0.16854174 -0.014291844 0.072648324 -0.08240042
-0.052756496 -0.18067883 -0.0671359 0.02363649 -0.10944604 -0.1282852 -0.15345155 0.0073444084
-0.024117181 0.18315588 -0.116683826 0.17925677 -0.09087689 0.033423863 -0.09983426 0.16707532
0.1863418 0.05142974 -0.083692044 0.08369617 -0.17195825 -0.060154285 -0.109044544 -0.2227995
-0.02105256 -0.07484179 0.033135876 0.03572991 0.04200004 0.1294886 0.02287474 -0.0006148373
-0.1827019 0.09495685 0.15145977 -0.048601728 -0.16472512 0.041220304 0.09608966 -0.1443741
-0.101672836 -0.14560063 -0.1277143 -0.17075032 -0.062039457 -0.086242564 -0.09875474 0.13050915
0.0947138 -0.027990172 -0.15029496 -0.028533211 0.07084749 -0.07424435 -0.16298787 -0.08281315
-0.1476543 -0.0754836 0.09722419 0.12082199 0.00091161975 -0.05097283 0.041007675 0.042565845
0.1840773 -0.009322121 -0.0951715 0.17444141 0.09416912 -0.07534483 0.11873903 0.111020066
0.021831967 -0.050772607 0.04460595 0.03468862 -0.17151725 -0.17914471 -0.059214573 -0.14356895
-0.1555074 -0.0560067 -0.09164548 0.042328164 -0.08323106 0.025060384 0.17340279 -0.094367675
-0.16933854 -0.12636961 0.09117336 -0.1333818 -0.06889812 -0.14549725 -0.06913245 0.027254874
0.0013281177 0.13341382 -0.015535736 0.08644989 0.00495226 -0.014456156 -0.12362177 0.08089443
0.007866626 0.103390805 -0.14017762 0.11180603 -0.09997122 0.100610815 0.15020888 -0.09199894
0.103157036 -0.03301715 0.07067537 0.10586804 -0.1978226 0.06156101 -0.19155659 0.07754828
0.17904343 0.032260973 -0.15977861 -0.025863359 0.11623107 0.06318948 -0.1334064 -0.07335027
0.053593338 0.010140693 0.06727175 0.08879122 0.029489305 -0.009859176 -0.13867837 0.06893253
0.114966005 -0.17670791 -0.1542258 0.08003907 -0.055665176 -0.12329599 -0.061683957 0.15046541
0.03455154 0.014229705 -0.07157185 -0.13642502 -0.11500134 -0.09889262 0.045395024 0.02410497
0.09633731 0.0410509 0.11315206 -0.06589802 -0.048536625 -0.00018037898 0.13427825 0.17526807
0.13047051 -0.046329245 -0.07580689 -0.05114455 0.048189085 0.0040834257 -0.086627625 0.16466951
-0.17843795 -0.0682904 0.02943095 0.061987452 -0.054114945 0.010453228 0.041417647 0.10026823
0.012074645 0.096169375 0.024820717 -0.010353945 0.05171147 0.0473475 0.14656684 0.057100467
-0.17601667 -0.1416856 0.15086593 0.018281605 0.11143687 0.04249751 -0.087345354 -0.11171888
0.008606786 -0.11108653 0.09907198 -0.10728363 0.17420152 -0.0880013 0.13756818 -0.1846941
-0.1459066 -0.03523505 0.08077293 -0.06952671 -0.08185152 -0.17177439 0.13880819 0.113927886

bias f4 [32]
00000000: 7a4b abbc ab0b ee3d 0139 0ebe 176a 11be
00000010: f82a 903e e5a3 8c3e 7e0b 843e faca 793e
00000020: 5bbc 3e3e aaf2 513c 90aa 27be 3c5c a9bd
00000030: f142 f23d b8d2 2f3e 0ced b23d 13ef d1bd
00000040: df40 423e 10c5 46bd 8bda cdbc 57fb fa3d
00000050: a885 153e c7e7 99be 7cb2 bdbb ef45 8dbe
00000060: 6b6f 203e a5c3 23bd c363 2cbe 0875 b7bd
00000070: aecd f0bc 9c90 433e 39bd 0cbe 956e a53d
-0.020910013 0.11623319 -0.13888933 -0.14200626 0.28157783 0.27468792 0.25790018 0.24393836
0.1862654 0.012814203 -0.16373658 -0.082695454 0.11829174 0.17170227 0.08736619 -0.10250678
0.18970059 -0.048527777 -0.025128623 0.122549705 0.14601767 -0.30059645 -0.0057890993 -0.27592418
0.15667503 -0.039981503 -0.16834931 -0.08957869 -0.02939495 0.19098133 -0.13744058 0.080777325

weight f4 [16, 32, 3, 3]
00000000: b0e8 2abd 5273 5fbc 622e e13c a1f2 073d
00000010: eb88 153d 62fe f43a 0253 1b3d b752 533c
00000020: 640d 8a3c 90bb acbc 80fe c03a cf9e 15bc
00000030: 00a0 803c 8738 993c 592e 853d 8531 c0bb
00000040: 4d97 113d c8e8 063d 776f 3f3d 4d05 363c
00000050: 92e1 febc 3c8d ea3b 591e 393c 1ee6 cd3b
00000060: ed5c 6bbc a60c 02bc 149a 093b f58e 233d
00000070: 03e0 543d 29c4 00bd 62ab 31bd 4147 39bd
00000080: 9fd4 9e3c 252f 2ebd 1b7d 19bd e333 833d
00000090: 3426 0fbd e72e a6bc 2777 55bc a8ec e33c
000000a0: e89d 213d a215 d13c 7c9a 6abd 97b7 943c
000000b0: f29a ddbc 77fb 85bd 28b2 38bd 5641 fdbb
000000c0: 5360 48bd 29a1 34bd be31 d7bc 09a1 eb3b
000000d0: 6834 12bd a941 c63c 0268 6cbd d69e 153d
000000e0: 156c b0bc 59b9 88bd be06 31bd 8975 9e3c
000000f0: c773 193c bdff 923c bcbb 7fbc 674a 00bd
00000100: ba1d 48bd cbc0 5bbd 0462 13bd f1a7 c03c
00000110: 43ab c53c dab5 2e3d 7dd5 debc 7d60 ebbb
00000120: e84c 5bbd d413 44bd 312d 4abd 9301 58bd
00000130: 96d2 8a3c e0fc 123c 1d4f 1dbd 16b6 74bd
00000140: 20b1 fd3c 2352 17bd 43d4 9b3c 75ea cb3c
00000150: 8376 8cbd da58 013d b757 a2bc 9398 61bd
00000160: f316 a1bc 6d11 773c 36ec b5bc b4f5 06bd
00000170: f1dc 04bd fe3c 423c f6ff 413d 5324 d63c
00000180: fcd3 48b9 72e2 183c 0479 d2bb 93c3 063d
00000190: e7bc 99bd a9f9 093d 87ac 123d 1764 89bd
000001a0: 3a37 1cbc 76ce 013d bd6d 543c c635 0c3d
000001b0: 51cb 12bd a9d6 1c3d 71d8 8c3b ceba 78bd
000001c0: 35b6 883b ea6f 3abd fdbd 293c 38dc 3ebd
000001d0: a2db 6ebd 86ff bcbb cbd4 233d 5d2f a33c
000001e0: 24a2 28bd 8de7 ffbc 24f5 df3b c93d a2ba
000001f0: f8af 79bd 8621 39bd 9941 303c 1079 8fbd
00000200: 3c03 d2bb d027 8abd 6d77 faba e24d 96bd
00000210: 6f55 bd3c b69c 91bc 0660 37bd f2a7 b3bc
00000220: c107 de3c 6505 e53c 9f1c 96bc e7bc 3ebd
00000230: 5d88 4cbd 1405 783c 7c11 77bc fb11 6e3c
00000240: 7dfc 353d 0fdd 2dbc 307f 923c 2668 bcbb
00000250: c094 3e3d 8924 56bd 25c1 efbc 1ac3 87bd
00000260: 0762 f33c f566 843c ecf2 553d 6dc9 a73b
00000270: 8dce 253d b033 dc3c 3396 2fbc 6674 103d
00000280: 019e 323c e3c9 41bd f06b 7bbd b737 22bd
00000290: 60d2 113d c7e0 b53c ec5a 583a 2071 81bd
000002a0: c750 393d a95d 9bbc 8540 d83c fd13 b63b
000002b0: 3721 313b 7edc d23c 0698 123c cb06 1cbd
000002c0: fd00 e93c 23ca c83c 9b1e fd3c da22 2ebd
000002d0: 0b56 74bd e28e b0bc 5de8 6fbd f1c9 d23c
000002e0: b563 913c 4c6b 44bc e778 59bd 4d7a 24bb
000002f0: 56d8 2f3d 1a70 3a3d 8634 ea3b 2157 43bd
00000300: 3c37 bd3c d25a 9ebb 92e7 f53c 1801 f23c
00000310: 0807 e33b dd62 74bd e3f0 cf3c 5f6a b23c
00000320: 4255 bf3c b980 ad3c 8436 1dbd 2a62 44bc
00000330: 88ca 32bc f9d7 283d d2db c33b e1f6 3c3d
00000340: f2c4 343d f462 9d3b 597e 93bc 1f61 273d
00000350: 39bf aabb 7053 67bd f192 4dbd cbae dc3c
00000360: ed44 743d 14a1 943c 27bc 08bd 8779 ce3c
00000370: 0c8e 733b 8926 883a 398d f63c d3d0 393d
00000380: 4fab adbc 56b7 f0bb 32bb 22bd aab1 dd3b
00000390: 1b6f fa3c fccd 443d 981e d33c e772 91bb
000003a0: 2b13 71bc 89e0 4bbd 1ac5 3fbd e258 423c
000003b0: fdac 2e3c 1d4a 493d ad9c af3c a88b 0b3c
000003c0: d851 273d 5cbf 1dbd 3693 a0bc 6b45 003d
000003d0: ba7c e8ba 5f7f 4fbd 7cfb b13c f31c bbbc
000003e0: afd0 7fbd 301e 0bbd 920b 8fbb bd97 013b
000003f0: d529 8cbb 9fb1 983c 25a5 f9bc 8a1a 48bd
-0.041725814 -0.013638334 0.027487937 0.033190373 0.03650753 0.0018691535 0.03792096 0.012898139
0.016852088 -0.02108553 0.0014724284 -0.009132101 0.015701294 0.018703712 0.06502981 -0.005865278
0.035544682 0.03293684 0.04673716 0.011109662 -0.03111342 0.0071579497 0.011298739 0.0062835356
-0.014365417 -0.007937586 0.0020996379 0.039931256 0.051971447 -0.031437073 -0.043376334 -0.04523397
0.019388495 -0.04252543 -0.037472825 0.06406381 -0.034948543 -0.020286037 -0.013028896 0.027822807
0.03945723 0.02552301 -0.057276234 0.018153949 -0.027051423 -0.06542104 -0.045091778 -0.007728736
-0.048919987 -0.044099007 -0.026268836 0.0071908277 -0.03569451 0.024201231 -0.057716377 0.03652843
-0.021535913 -0.06675977 -0.04321932 0.019343155 0.009365982 0.017944211 -0.015608724 -0.031320956
-0.048856474 -0.05365066 -0.035982147 0.02351758 0.024129516 0.042653896 -0.027201409 -0.007183133
-0.05354014 -0.047870472 -0.049359504 -0.052735876 0.016946118 0.008971423 -0.038405526 -0.059743963
0.030968249 -0.036943566 0.019022113 0.024892071 -0.06858542 0.031578876 -0.019817216 -0.055077147
-0.019664263 0.015079838 -0.02220736 -0.032949165 -0.03243727 0.011855362 0.047363244 0.026140368
-0.00019152457 0.0093313325 -0.0064231176 0.032901358 -0.075067334 0.03368536 0.035809066 -0.06708544
-0.009534651 0.031691037 0.012965617 0.03423097 -0.03583843 0.038290653 0.0042982628 -0.060725026
0.0041721114 -0.045516886 0.010360238 -0.046596736 -0.058314927 -0.0057677655 0.039997857 0.019920046
-0.041170254 -0.031238342 0.006834643 -0.0012378033 -0.060958833 -0.045197986 0.010757827 -0.07005513
-0.006409077 -0.06745875 -0.0019109078 -0.07339074 0.023112027 -0.01777492 -0.04476931 -0.021930669
0.027103307 0.027956674 -0.018324194 -0.04656687 -0.049934734 0.0151379295 -0.015079852 0.014530654
0.044430245 -0.0106117865 0.017882913 -0.00574972 0.046528578 -0.052280936 -0.029266903 -0.066290095
0.029709829 0.016162375 0.05223362 0.0051204474 0.040480185 0.026880115 -0.010716963 0.035267256
0.010901929 -0.047311675 -0.061382234 -0.039603915 0.03560102 0.022201909 0.00082532945 -0.06320405
0.04524305 -0.01896556 0.026397953 0.005556582 0.0027027854 0.025739904 0.008947378 -0.038092416
0.028442854 0.024510449 0.030898383 -0.042513706 -0.05965237 -0.021552507 -0.05857121 0.025731059
0.01774774 -0.011988472 -0.053093817 -0.002509731 0.042930923 0.045517065 0.0071473746 -0.047690514
0.023097627 -0.004832604 0.030017648 0.029541537 0.0069283284 -0.059664596 0.025383418 0.021779237
0.023356084 0.021179544 -0.03838207 -0.011986295 -0.010912545 0.041221593 0.0059771324 0.04613388
0.044133134 0.004803056 -0.018004583 0.040864106 -0.005210784 -0.056476057 -0.050188962 0.026938817
0.059636045 0.018143214 -0.03338256 0.025204433 0.0037163524 0.0010387461 0.030096637 0.045365166
-0.02119985 -0.007346074 -0.039729305 0.006765564 0.030570557 0.048048005 0.025771424 -0.0044387463
-0.014714043 -0.04977468 -0.04681883 0.011862012 0.010661361 0.049142946 0.021437014 0.008517183
0.040849537 -0.038512573 -0.019601446 0.031316202 -0.0017737367 -0.05065858 0.021726362 -0.022840953
-0.062454876 -0.033964336 -0.004365393 0.001977428 -0.0042774477 0.018639384 -0.030474255 -0.048853435

bias f4 [16]
00000000: 80e9 7fbd efb0 3bbd d4c5 223d 318e a2bd
00000010: 947d 0f3d 8ec8 ecbd c006 6dbd 3f80 963c
00000020: 5827 323e a6a9 1ebc 2499 8abd 2423 2b3e
00000030: 7c0f f3bd 84a7 213e 4e94 c53d 42f4 f0bc
-0.062478542 -0.045823034 0.039739445 -0.07937277 0.03503187 -0.1156169 -0.057867765 0.0183717
0.17397821 -0.009684002 -0.067674905 0.16712624 -0.11868188 0.15786558 0.096474275 -0.029413346

weight f4 [8, 16, 3, 3]
00000000: 8724 6d3d fbfe acbd 596b 633b bc8e 90bd
00000010: 5ce8 823d 06b6 9bbd 9ccc a33d 2385 1fbd
00000020: ef20 8c3d b50b 68bd 98c2 a93c 98d2 433d
00000030: 00b3 c43c 5f18 33bd bbc9 b43b b9a9 0d3d
00000040: ebaa 97bc 7bd3 593c bd50 cb3c 0dd2 13bd
00000050: 47d1 16bd df63 9abd c63b f2bc 6bfc 3bbd
00000060: 31aa b9bb e6a7 0a3d 5936 053d 8a30 a9bc
00000070: 1b63 7cbd 4add 40bd e081 1b3d 8f49 a5bd
00000080: a61e 05bd eb3c 483d 65c6 083d 8a0a 043d
00000090: fb9a a73a 7456 17bd 35b7 86bd b239 c5bb
000000a0: df43 e4bb e142 2ebd 0c81 923d b2de 1d3d
000000b0: e109 5abd bf03 1fbc d0fe 643d bf5d 47bd
000000c0: 8793 79bd 458f 5b3c 3118 083d 030a 00bd
000000d0: 7d0b d1bc 39df 4c3d 07be e83c 86a4 b73d
000000e0: 7ff7 7e3d a034 283d 69f4 e33c 4fbe b83d
000000f0: f1d3 893d c9b8 003d ec72 063d afff 7abd
00000100: 3d7b 35bd b741 a63d 378a 93bd c2bf bf3c
00000110: 1d8b 9dbd 9afd ab3d 5849 7bbd 0ce6 6cbd
00000120: eb7f 0c3d 987c a43d 9922 793d a85e b9bc
00000130: beae 063d 67a3 763b 4fba 713d ed57 61ba
00000140: b8ac a23d 10be b53c d0e2 a5bd 13dc 16bd
00000150: df3d 09bc afb8 68bd 30a5 1abd 82e6 203d
00000160: 0c01 1e3c 0010 6e3d 7445 abbd 47ac 9fbd
00000170: 23ee 263d 167b 753d cd70 8a3d 0017 6abd
00000180: 7d08 adbd e2ab d4bc 738d 70bd 59b6 183d
00000190: b0a6 153d 4ab3 9ebd 47cb 9fbd 885c 7b3d
000001a0: 03b8 6b3c 3087 683c 3286 9e3c 9fcb a1bd
000001b0: 86ad aabc b30b 96bb 6e99 bf3c efe2 573d
000001c0: 6d77 acbd ac32 5dbd 765d 75bd 1c75 233c
000001d0: de54 5dbd bab2 a93d 7a08 72bd 3878 ea3c
000001e0: ffe0 ee3c 16e6 6c3c c78b c0ba 994a 0fbb
000001f0: a545 b93d 3c91 13bc 0f67 af3c dcfa 983d
00000200: 20f6 13bc a666 22bb b6db bfbc 984f b9bc
00000210: 4b61 3b3d 4bbf 893d 778c fa3d cb5b 3a3c
00000220: 3468 2b3d 4340 b1bc e603 6bbd ad9c a7bb
00000230: c173 42bd 4f89 33bd dcb8 f43c 57e8 083d
00000240: 8446 c3bb b52b d1bb 07f3 23bc 4b6e 88bc
00000250: d7c5 883d 542c 623c b7d3 0cbd 2d83 27bd
00000260: b26f 83bd d052 d73c 0eec 2ebd e1cc 91bd
00000270: 4fc8 4ebb d42a 823d 64af 6abd 6ca7 56bd
00000280: e03b 0fbd 1e9d 3d3d 6ca3 36bd d262 98bd
00000290: 3fc3 9fbc 8d71 603d f4c4 a53b c321 6fbd
000002a0: 6a53 82bd 26bf c6bc 0acf 26bd 341f 6a3d
000002b0: 01be a1bd b403 9dbd 9c88 2e3d c27e a33d
000002c0: 2e55 5bbd 7c9b af3c f192 533d c7e2 eb3c
000002d0: 97bf 8139 e41b e93b ac61 cebc 1370 1d3d
000002e0: 0d25 aa3c 119d 69bd d91e 3fbc dbe9 35bd
000002f0: 47e1 1fbb e0cc 513c 8dd5 35bd bf94 7fbd
00000300: 14be ddba 258b 5e3d 95f4 a63d ec40 453d
00000310: fe9a 33ba ebf3 173d 8463 383d dbb6 6c3d
00000320: fcde 8bbb fac9 1cbd f2eb cf3c 2617 09bd
00000330: 54de 8f3a 87d2 87bd 0954 86bd f646 9dbd
00000340: 0d66 1dbd a223 b13d eee5 a83d d73c d4bc
00000350: 9489 f4bc 3ac2 8c3d 4812 0f3d 5e53 773c
00000360: ea73 78bc ff12 09bd 0142 68bd 17cf 7d3d
00000370: c44d 18bc fe21 993c 8b98 6e3c 3010 163d
00000380: 960c 903b d8fd 4f3d 526c 82bc c621 9a3d
00000390: ad03 b03d 228c 573d c13c eb3c 7e56 983d
000003a0: 9415 0c3d 414c e03b 1af2 813d 6e01 58bc
000003b0: 923e 60bd ff5c 593c 87f1 e2bc 3e93 223d
000003c0: bfec f8bb fdb8 a6bd 88f3 dcbc 75ac c6bc
000003d0: d377 8bbd 7345 c2bd 722c 8a3c 70aa ffbc
000003e0: d4fa aebd 3e84 4c3d 31f8 68bd b598 9c3c
000003f0: fa74 33bc 12e3 90bd 6d74 8cbd aa07 813d
0.057896163 -0.08447071 0.0034701435 -0.070584744 0.06391975 -0.076030776 0.079980105 -0.03894533
0.06842219 -0.05665179 0.020722672 0.04780826 0.024011135 -0.043724414 0.005517212 0.03458569
-0.018514117 0.01329505 0.024818772 -0.036088992 -0.036820676 -0.0753858 -0.029569518 -0.04589502
-0.0056660403 0.033851527 0.032522533 -0.020653028 -0.06161795 -0.047086038 0.037965655 -0.08070671
-0.03249993 0.04888622 0.03339233 0.032236613 0.0012787277 -0.036947682 -0.06577913 -0.0060188407
-0.0069660987 -0.04254425 0.0715352 0.038542457 -0.053232078 -0.009705483 0.05590707 -0.048673388
-0.06093171 0.013400857 0.033226196 -0.031259548 -0.025518173 0.05001757 0.028410925 0.08966927
0.06224775 0.041065812 0.027826505 0.090206735 0.06729878 0.031426225 0.03282444 -0.061278995
-0.044306982 0.08118003 -0.07204097 0.023406867 -0.076925494 0.0839798 -0.061349243 -0.057836577
0.03430168 0.08031577 0.06082401 -0.022628143 0.03288149 0.0037634016 0.05901557 -0.0008596171
0.079431 0.022185355 -0.08099902 -0.036830973 -0.008376568 -0.056816753 -0.03775519 0.03928233
0.009643804 0.058120728 -0.083628565 -0.07796531 0.04075445 0.059931837 0.06759796 -0.05715084
-0.08448885 -0.025960866 -0.058728646 0.037283275 0.03653592 -0.077490404 -0.07802444 0.06136754
0.0143871335 0.014192387 0.019351099 -0.07900166 -0.020834696 -0.0045790314 0.02338859 0.052706655
-0.08421216 -0.054003403 -0.059903584 0.0099766515 -0.054036014 0.082860425 -0.059090115 0.028621778
0.02916002 0.014459154 -0.0014690094 -0.0021864532 0.09046487 -0.009006795 0.021411447 0.07469723
-0.009030849 -0.0024780422 -0.023420196 -0.022620961 0.045747083 0.06725939 0.12233823 0.011374424
0.041847423 -0.021637088 -0.057376765 -0.0051151128 -0.047473673 -0.04383212 0.029873304 0.0334247
-0.005959334 -0.006383384 -0.010006673 -0.016654154 0.0667836 0.013804514 -0.034381595 -0.040896583
-0.064177886 0.026284605 -0.042705588 -0.07119156 -0.0031552499 0.06355825 -0.05729617 -0.05240576
-0.03496921 0.046292417 -0.044589445 -0.074407235 -0.01950228 0.05479579 0.005058879 -0.058381807
-0.06363566 -0.024261069 -0.04072479 0.057158664 -0.078975685 -0.07666722 0.04261075 0.079831615
-0.05354803 0.021436445 0.051653806 0.02879466 0.00024747543 0.0071139205 -0.025193058 0.03843696
0.02076962 -0.057034556 -0.0116650695 -0.044412475 -0.002439575 0.012805194 -0.04439311 -0.062397715
-0.001691761 0.054331917 0.08152119 0.048157617 -0.0006851404 0.037097853 0.04501678 0.057791572
-0.004268525 -0.038278557 0.025381062 -0.03346934 0.0010976293 -0.06631952 -0.06558997 -0.0767955
-0.0384274 0.086493745 0.082469806 -0.025907917 -0.029850759 0.06872983 0.034929544 0.01509556
-0.015164355 -0.03346538 -0.05670357 0.061965074 -0.0092958845 0.018692967 0.014562736 0.03663653
0.0043960316 0.050779194 -0.015920792 0.07525973 0.08594451 0.052623875 0.028715493 0.07438372
0.034200266 0.0068450277 0.06345005 -0.013183935 -0.05474717 0.013266801 -0.02770306 0.039691202
-0.0075965817 -0.081407525 -0.026971593 -0.024252156 -0.06809964 -0.09485903 0.016866896 -0.0312092
-0.085439354 0.049930803 -0.05687732 0.019115785 -0.010953182 -0.0707456 -0.06858144 0.0630029

bias f4 [8]
00000000: 6e29 413d f465 d6bc 8d20 21bd 10b0 0ebe
00000010: ccaa 0e3e 72dc 923d f947 953d b85f 783d
0.04715865 -0.026171662 -0.039337683 -0.1393435 0.13932341 0.07170953 0.07289118 0.06063816

weight f4 [8, 16, 3, 3]
00000000: 676f 65bd 92e4 ad3d aba9 113d 44dc 9dbb
00000010: 8dec 283c cf3b 423d 1f86 2c3c b3c5 a93d
00000020: 29b6 9e3c cad1 85bd 9246 2ebd e922 a13d
00000030: 9644 e8bc 0466 573d 8361 8cbd e4b9 123c
00000040: 3a42 453c 258e ea3c bbf3 933d 86d8 96bd
00000050: d50f 103c 2af8 103c 08c6 883b f9c5 3f3d
00000060: 8c0e 2ebc 8801 96bd fed3 9cbc 1950 7fbc
00000070: 7496 83bc 3d92 00bd 0671 48bd 1746 a23d
00000080: dc88 f4bc 96b4 53bd 4e54 96bc a499 8e3d
00000090: a076 98bc 42d9 3abd c9ea c13c 2abf 823d
000000a0: 27ad 1fbc adc3 f4bb dfe1 153d 80d6 d1bc
000000b0: da80 91bd 5551 473c 439a 403d 84e9 f3bc
000000c0: 8ca5 87bd cc67 e83c 1d4c eabc 4ed4 ec3c
000000d0: d028 8ebd 47b0 3fbd 683c a53c 8f03 d93c
000000e0: 8172 7ebd 2e6e 073d 00fb f0bc f9cf 11bc
000000f0: a2e0 1a3d 356e 3c3c 16d6 b13d b84f a23d
00000100: a1b7 36bd 0cd0 d5bc 027c 393b b534 80bc
00000110: d089 83bc a585 2cbd 345e 4a3d 88a6 20bd
00000120: 1d1e 2e3d 5e48 14bd ad3e 193d d267 8bbd
00000130: 2b04 51bd eeda 753d 43a5 81bd 7756 debc
00000140: f3f3 56bb d431 6e3c ca10 7c3d 1641 783d
00000150: 5752 3ebd 9228 ce3b c237 0cbc 5928 9c3d
00000160: 5380 983d d00b 83bd abff 233d ccf2 54bd
00000170: 8245 793c f714 03bd 30f4 543d 1600 173d
00000180: b745 ffbb e114 6ebc 0616 063d e719 89bd
00000190: 63fa 82bd 150d cc3d 6dd6 8a3d 6b07 2aba
000001a0: 34bc d9bc 36e9 323d 31c1 a8bc daf2 4b3c
000001b0: 48a5 553d e422 b8bd 3647 a0bd f722 80bd
000001c0: eb88 b63c 4b04 413d eb94 f3bc 43f6 443c
000001d0: da39 a1bb 93b4 2abd 3fc4 69bd 47ef 92bd
000001e0: e532 c93c 9b64 71bc 6d07 02bd 5f33 4abd
000001f0: ab09 d43b 1d7d db3c 6dfd 7d3d 14ec e8bc
00000200: 0d40 b4bb 5ef9 863a bf46 1dbd 937e 42bd
00000210: 63d1 5a3d 5fc8 b8bd fc3e f8bb 3e96 413d
00000220: ac68 8b3d 49b7 4d3d a8fb b93c 23d8 853d
00000230: 03f0 51bc bbb2 0cba 7e31 0dbd 43d3 843d
00000240: 8a71 da3c 94aa 4b3d 88c2 ec3c eef2 933d
00000250: 3d22 7dbc 4ecd b0bd f470 a0bc 7c0f 063d
00000260: 54fa 64bd fa5a 89bd ffbc 823d 5165 0d3d
00000270: 5343 66bd 1ac9 463d 654d b1bd 77f7 393c
00000280: da2a 93bd f16e f73c e83b 89bd c14d 093d
00000290: 4b73 673d 7bb8 9abd 78e9 833c 349f 413c
000002a0: 68ad b4bd bf24 5abd f771 b9bc a355 83bc
000002b0: 11a7 1a3c 5193 bb3c 5fea 41bd 192d 43bd
000002c0: f933 dd3c 2d42 5ebd bb32 70bc 8a61 87bd
000002d0: 0258 983d 5c23 ef3c ac6e 36bd 4239 a93d
000002e0: b7b0 f9bc 8b36 4dbd ea63 363d 169b f43a
000002f0: 3056 98bd 1b0d a03d 27ac 503d ce33 ea3c
00000300: d72b 3e3d 6a32 9abb 0e93 a4bd 3ca9 8b3d
00000310: 2ce5 073d ab81 20bc c981 cfba dbba a9bd
00000320: f245 6dbd 4d2c 903a d66d 1e3d 28df aebd
00000330: 9c51 aa3c 0a6e 5d3c a65f 98bd d88d 8bbc
00000340: 567e 143d 5904 af3d 8d8f 4b3d 9a16 123c
00000350: 1798 313b 9637 efbc 18a0 32bd c78e 8dbd
00000360: 3713 98bd 78c9 85bd d06c 853c e7a6 213d
00000370: 741e 6abd 45c7 62bd 2355 adbd 20f9 ba3b
00000380: beeb aebd 7d8c 93bc c0c1 773d 4f76 bebc
00000390: cde3 913d d7ec a63c 16ad 9bbc 8197 863d
000003a0: cc4a 06bd 875a 5dbc 428e 58bd 2486 07bd
000003b0: 247f 7abd ed7a e93c 7ab1 42bd 9d46 693d
000003c0: fc8e 93bb 9c3e 5b3d 8f87 dabc 8447 60bc
000003d0: d903 673c 4ea3 883d 9b1e adbd 0b1e 5d3d
000003e0: bc83 64bd 1323 64bd 9d6e 4abd 9b5b 293c
000003f0: 66d3 aebb ab9f 13bc 12d9 903d f087 583d
-0.056014445 0.08490862 0.0355622 -0.0048175175 0.010310304 0.04742032 0.010530024 0.08289661
0.01937397 -0.06534155 -0.04254777 0.07867987 -0.028353017 0.052587524 -0.068545364 0.008955453
0.012039715 0.028632233 0.07224222 -0.07365517 0.008792837 0.008848229 0.004173998 0.04681966
-0.010623585 -0.07324511 -0.019144055 -0.015583062 -0.016062953 -0.031389464 -0.048935913 0.07923525
-0.029850416 -0.051685892 -0.018350746 0.069628984 -0.018611252 -0.04561735 0.023671525 0.06384118
-0.009745873 -0.0074696154 0.03659236 -0.025614977 -0.071046546 0.012165387 0.047022115 -0.029774435
-0.066233724 0.028369807 -0.028600747 0.028909829 -0.06941378 -0.04679897 0.020170406 0.026490955
-0.06212092 0.03306406 -0.029416561 -0.008899682 0.037811883 0.011500885 0.08683412 0.079253614
-0.044608716 -0.026100181 0.0028302674 -0.015650133 -0.016056925 -0.04211964 0.049406245 -0.039221317
0.042509187 -0.036201827 0.037413288 -0.068069115 -0.051029366 0.06002324 -0.06330349 -0.027140839
-0.0032799214 0.014538247 0.06153945 0.060608946 -0.046465244 0.0062914575 -0.008558216 0.07624883
0.07446351 -0.063987374 0.040038746 -0.05198936 0.015214326 -0.032002416 0.051990688 0.036865316
-0.007790293 -0.014531345 0.032735847 -0.066943936 -0.06395414 0.09963433 0.0677918 -0.0006486091
-0.026579 0.04367944 -0.020599933 0.012448037 0.052159578 -0.0899103 -0.078260824 -0.06256669
0.022282084 0.047123235 -0.029734096 0.012021604 -0.0049202265 -0.041676115 -0.05707192 -0.07174545
0.024560401 -0.014733459 -0.031745363 -0.049365398 0.006470879 0.026793057 0.062009264 -0.028432883
-0.0055007995 0.0010297706 -0.038397547 -0.04748399 0.053422343 -0.09022593 -0.0075758677 0.047262423
0.06807074 0.050223622 0.022703007 0.065353654 -0.012813571 -0.0005367209 -0.034471028 0.064856075
0.026665468 0.049723223 0.028901353 0.072240695 -0.015450058 -0.08632909 -0.01958511 0.03272961
-0.055902794 -0.067068055 0.063837044 0.03452045 -0.05621655 0.04853163 -0.0865734 0.011350504
-0.07185908 0.030204268 -0.06700879 0.033521418 0.056506436 -0.07554718 0.016102538 0.011817742
-0.08822137 -0.0532577 -0.02263735 -0.016032046 0.009439246 0.022897394 -0.047342654 -0.04765043
0.027002322 -0.05426233 -0.014660533 -0.06610401 0.07438661 0.029191665 -0.04453914 0.08262874
-0.030479772 -0.050100844 0.04452888 0.0018661942 -0.07438314 0.07815 0.050945427 0.028589156
0.046428528 -0.004705717 -0.08035861 0.06819388 0.03317754 -0.00979654 -0.0015831526 -0.08287593
-0.057928033 0.0010999531 0.038678966 -0.085386574 0.020790868 0.013515005 -0.074401185 -0.01703541
0.036253296 0.08545751 0.049697448 0.008916521 0.002709871 -0.02920131 -0.04360971 -0.06911998
-0.0742554 -0.06532568 0.016287237 0.03946581 -0.05715795 -0.05536582 -0.08463504 0.0057059675
-0.08541058 -0.018011326 0.06048751 -0.023249773 0.07123528 0.020376606 -0.019003432 0.06571866
-0.032786176 -0.013510353 -0.052870043 -0.03308691 -0.061156407 0.028500998 -0.047532536 0.056952108
-0.004503129 0.053526506 -0.026675967 -0.013688926 0.014100038 0.06671773 -0.08453103 0.05398373
-0.055789694 -0.055697512 -0.049421895 0.010336782 -0.0053352593 -0.009010236 0.07072653 0.052864015

bias f4 [16]
00000000: bb56 343e 47b6 a33d 0ce2 57bd 2a01 bfbd
00000010: 23b3 b6bd 3526 2cbe fb26 ad3d 9daf 373e
00000020: e5fc 5b3e a959 423e 8c71 cb3d 9fdd 493e
00000030: af4e 7bbd ce75 90bc d138 88bd ed21 463e
0.1761121 0.07993751 -0.05270581 -0.09326394 -0.08920886 -0.1681145 0.084547006 0.17938085
0.2148319 0.18979515 0.09933767 0.19713448 -0.061354335 -0.017634299 -0.06651462 0.19348879

weight f4 [16, 32, 3, 3]
00000000: aa1a 1f3d e9ac b1bc d6da 30bd 3d47 283d
00000010: a65f 85bb 1991 81bd 6744 93bd a693 83bd
00000020: d2e1 e1bc 7950 83bc a23c e53b 6d76 223d
00000030: 96f6 64bd 97a6 403d f7f4 a6bc 1272 39bd
00000040: 1e80 46bc b3e0 89bd 34f9 bcbc d41d 53bc
00000050: 73a2 523c 1511 d2bc 3d8c bbbc 702a 38bd
00000060: 45f8 eebc 8356 4d3d 6a5d 51bd 3e32 99b9
00000070: f446 433d ba83 6ebd fcbe 6fbc 2842 1b3d
00000080: d4d5 563c 57e7 5bbd 7a30 e6ba 2871 79bd
00000090: ada0 a139 2f6e 92bc 1152 79bc 0012 0e3d
000000a0: aa7c 03bb 2b15 673b 8ac9 a2bc 7fa5 96bc
000000b0: 0b2d 733d b39f 5f3d bda1 dd3d c0e8 8d3d
000000c0: 26d9 be3d 4a3d 873c 8c84 c33c 96b8 5c3d
000000d0: 200b 8c3d bdb7 203d b7e7 22bd ef09 3a3c
000000e0: 4f63 c9bc c673 293d 3d38 0f3d c5b5 49bc
000000f0: 4da1 c53c 8166 163d 54b3 7c3d 50ec 4d3d
00000100: 039e 043d 4b97 323d 1ef0 d53c 89df 723d
00000110: da7d 02bd 158f 3bbb 101e e33c f0a2 fcbb
00000120: 5436 05bd 3855 d1bc c047 463d a5d1 143d
00000130: 3ebf 35bd 8804 62bd cf37 1abd aa0f 67bd
00000140: e743 0cbd 1271 8cbd 7e61 253d 6d7e a3bd
00000150: 8497 cabc 2ecf d83b 8a72 4fbd 16ff b9bd
00000160: b9e4 30bb d0ae 91bc f442 fe3c 3e58 99bb
00000170: 379b 2ebd 2a22 0f3c a2eb 50bd ca2d 9e3c
00000180: 64b1 37bc 8cd3 1c3d ed3a 21bb 4b4a 5f3a
00000190: c02d 4a3d 101d b5bc 9d10 50bd 05cf 6a3c
000001a0: 85d1 03bd 52a2 2a3d e466 8e3c 60fa f03c
000001b0: 9029 583d 795c e63c 7ecc 2b3d 394f 673c
000001c0: e4e4 033d c31d 343c a0f0 18bd 3974 053d
000001d0: 1c6b 793d 2d77 0d3d 16fa e23b 1011 ba3c
000001e0: ed70 293d 3ff8 433d aa6e b1bc a58b 773b
000001f0: 993f 4e3d bfa3 293d 5719 443c 92f3 4b36
00000200: c3d2 d13b 2f6d 0c3d 0862 343a 44dc ac3d
00000210: 34ee ba3c 1cb4 663d 6644 df3c fedf 6bbc
00000220: accf 643c 8d42 d73c 9ee5 363d 29e8 503c
00000230: e19e 8bbc 56b0 493d 6d43 343d 3507 193d
00000240: 4583 09bb 50b6 33bc 5b19 2dbc 0419 c13c
00000250: afc6 b2ba 0f6d 10bd cd80 3e3d f8d1 da3b
00000260: 77f7 553d 5483 cb3c d517 d53c d55e d2bb
00000270: 0fad 003d bbbd 1a3d f07c 323d 5695 923b
00000280: 6bec 2b3d 6408 913c 9873 c4bc 8d8b ca3c
00000290: dd27 713a 7ec1 183d 80fd 993c 6950 78bd
000002a0: 7a2c 1f3d 9cec 1f3d 4046 583c e1b6 43bd
000002b0: d84a 4dbd 6437 ae3c 5474 aebc 542d 153d
000002c0: 4943 2dbd 24a3 e9bb deb1 c2ba 2db7 1cbd
000002d0: 1554 8d3c 0437 353d 8236 99bc 5cbe 70bd
000002e0: 154a 23bc 5c61 69ba 4e4a 58bc 9d27 61bd
000002f0: efc7 dd3b c87a 083c d593 9e3c dd22 52bc
00000300: 8d54 52bd 2d87 0bbd 786d 183c 30b2 aebc
00000310: 583b 5ebd 1ceb 2cbd f7aa 013d eabf 0dbb
00000320: fb55 713d d9f5 a13d 7779 8c3c 18ae 043d
00000330: fe70 893d 9152 e9ba a875 7c3d 744e 403d
00000340: 28f9 883c e9e2 d93c e00d 67bc 24fc 013d
00000350: 2112 0fbd ee46 fcbb 1e6b 5f3c e57d 603c
00000360: 7b2a e4bb b3b9 2abc 8ad1 1f3d c361 173d
00000370: ce7c 8b3d bb9a 93bc da92 f6bc 7f7f 7f3d
00000380: 0bfd e23c d1d8 22bd 411c a53c a130 363d
00000390: 5c9a 24bd efc5 edbc e97c 3e3d 1c18 90bc
000003a0: 7941 173d 6381 39bd a9a4 663b 73c8 54bd
000003b0: 4038 0ebd b126 e9bc e2de 81bb d329 ef3c
000003c0: 6067 2ebd 085c eabc 1df0 903b e64c c7bc
000003d0: 3b2f a73c bb70 973c a76f 2a3d 1f3a 383b
000003e0: 07c4 b1bc 5e86 b13c f38a cb3b 22ae 2b3c
000003f0: c07a 5539 e7c6 b03c f7b6 e3ba 6c9d 70bd
0.03884379 -0.021688895 -0.04317745 0.041083563 -0.00407024 -0.06326503 -0.07190781 -0.06424646
-0.0275735 -0.016029583 0.0069957534 0.03966372 -0.055899225 0.047033872 -0.02038048 -0.0452748
-0.012115506 -0.06732311 -0.023068048 -0.01288553 0.012856114 -0.025642911 -0.02289402 -0.044962347
-0.029171119 0.050131332 -0.051114477 -0.00029219867 0.047675088 -0.058231093 -0.014632937 0.03790489
0.013112504 -0.05368742 -0.0017562055 -0.06089893 0.00030828026 -0.017874805 -0.01521732 0.034685135
-0.002006332 0.003526042 -0.019871492 -0.018389462 0.05936913 0.05459566 0.10821865 0.06929159
0.093187615 0.016508717 0.023866914 0.053886972 0.068380594 0.039237726 -0.03977176 0.011354907
-0.024583487 0.041370176 0.034965742 -0.012311404 0.024124766 0.03671885 0.061694458 0.050274193
0.032377254 0.043601315 0.026115473 0.05929521 -0.031858303 -0.002861922 0.027724296 -0.0077098534
-0.032522514 -0.02555333 0.04840827 0.036332745 -0.044371836 -0.055180103 -0.03765088 -0.056411423
-0.034244444 -0.06857504 0.04037618 -0.07983098 -0.024730451 0.0066164946 -0.050646342 -0.09081857
-0.0026991798 -0.017783552 0.031037785 -0.0046797087 -0.042628493 0.008736173 -0.051005967 0.019308943
-0.011211727 0.038287684 -0.0024601773 0.00085178454 0.049360037 -0.022108585 -0.050797094 0.014331584
-0.032182235 0.041658707 0.017383046 0.029416263 0.052774012 0.028120266 0.041943066 0.014118009
0.03220071 0.010993424 -0.037338853 0.03258154 0.060893163 0.034537483 0.006926785 0.022713214
0.04136746 0.047844168 -0.021659214 0.0037772444 0.05035362 0.041415926 0.011968932 3.0391134e-06
0.0064032986 0.034283813 0.0006881063 0.0844045 0.022818662 0.05632411 0.027254295 -0.014396666
0.013965528 0.026276851 0.044652574 0.012750664 -0.017043533 0.049240433 0.044009615 0.03736039
-0.0020982784 -0.01096876 -0.010565127 0.023571499 -0.0013639535 -0.035260256 0.046509553 0.0066778623
0.052237954 0.024842896 0.02601234 -0.0064199963 0.03141504 0.037778597 0.04357618 0.0044733686
0.041973513 0.017704196 -0.0239809 0.024724746 0.00091993605 0.037293904 0.018797636 -0.06062356
0.038860776 0.039044008 0.013200343 -0.04778183 -0.050120205 0.021266647 -0.021295704 0.03642018
-0.042300496 -0.0071300436 -0.0014854034 -0.038260628 0.017252007 0.04424192 -0.01870275 -0.05877529
-0.009966393 -0.00089027523 -0.013201309 -0.05496942 0.0067682187 0.008330055 0.019357601 -0.012825695
-0.051350165 -0.03406446 0.009303443 -0.0213252 -0.054255813 -0.042216405 0.031657185 -0.0021629282
0.058919888 0.0790822 0.017147763 0.03239259 0.06711005 -0.0017801096 0.061635643 0.04694982
0.01672037 0.026597457 -0.014102429 0.0317346 -0.0349294 -0.007698885 0.013636379 0.013701891
-0.006963072 -0.010420251 0.03901819 0.036958467 0.06810914 -0.018018117 -0.030099321 0.06237745
0.02770855 -0.039757553 0.020155074 0.04447997 -0.04018627 -0.029025046 0.046505842 -0.017589621
0.036927674 -0.04528941 0.003519336 -0.051948976 -0.034721613 -0.028460832 -0.0039633373 0.029194748
-0.042579055 -0.028608337 0.004423155 -0.02432866 0.020408263 0.018486371 0.041610386 0.0028110815
-0.021699918 0.021670517 0.0062116324 0.010478528 0.00020358991 0.021579219 -0.0017373253 -0.05874388

bias f4 [32]
00000000: c609 21bd 18a6 76bc 30a1 e3bc e0dd e8bd
00000010: c53f 4a3d 0874 043e 8d7a c63d 184e 183e
00000020: 3af2 44bd def6 edbd de2d e53d fafa 19be
00000030: 7a28 0cbe eb8b e1bc e34c 333e a8c5 1c3e
00000040: cd95 213e d96d 1cbe d775 2fbd 68eb a7bc
00000050: 55b2 a0bd 39ac 263c aa0e 703d 546f c5bd
00000060: 2af7 35bd 6b2b 0d3e d1a7 b3bd 399a c2bd
00000070: 69a5 983c bfbf 0ebe 173d e4bd 5397 60bd
-0.03931596 -0.015054248 -0.027786821 -0.11370444 0.04937722 0.12934887 0.096913435 0.1487354
-0.048082568 -0.11619352 0.11190389 -0.15037146 -0.13687316 -0.027532538 0.17509799 0.15309775
0.157798 -0.15276279 -0.04283699 -0.020497993 -0.07846514 0.010172897 0.058607735 -0.09640375
-0.044425167 0.13786094 -0.08772243 -0.09502072 0.018633561 -0.13940333 -0.111444645 -0.054831814

weight f4 [32, 3, 3, 3]
00000000: 99f7 c33d c2ad 5abd 0fc0 1c3e 4790 24be
00000010: 0ecc 203e 78da 5b3e cfdc d4bd bff6 843e
00000020: c708 623e a813 e5bd 241a 173e 798f d63d
00000030: 7a47 73bd 7314 f73c 4e10 f13d 1591 9b3c
00000040: ca45 2a3e a4ae f83b fe2c 183e 1c43 cdbd
00000050: 4a14 253e d8af 41be 53bf 413e f236 dc3d
00000060: e19f f63d 1adf 7a3d f9ec b83d d005 3e3e
00000070: ddcd 1d3e bacf 43bd 4c3f 2dbe 9396 213e
00000080: 5f2d 503d ea9a 833d d77c c43d 6d06 d4bd
00000090: 8d49 36be 2234 82bd 70d8 3c3e 6a28 35bd
000000a0: ebfd cdbc 4434 3dbe 4474 363e 7ac9 8e3c
000000b0: 40c1 16be 8f23 95bd 1b29 c3bb 2883 053e
000000c0: 655e a1bd 96d3 04be 6bde 2a3e 1023 133d
000000d0: b982 d63d dad2 5e3b a013 4f3e 9671 50bd
000000e0: 9f6e b33b a6bc 2d3e e03f 0bbe c353 16be
000000f0: 08d3 173e b3a5 2abe 2499 363d 68cc 1e3d
00000100: 39cc 3bbc 471a 243e 512b d1bc 20c0 69bd
00000110: 5fe5 f83d a67d 8cbd b33e 6cbd f077 8a3d
00000120: 4350 00bc b971 0cbe ceae febd 1089 273e
00000130: 89a6 43bb 676c 0dbe 468c ec3d 5a7d a5bb
00000140: 86fa b5bb f60a 383e 13e5 043e 8c09 13bd
00000150: 4a1d aabd c470 053b 2280 323e fbca 10bd
00000160: c5d8 e4bd 93e6 85bc 0519 64bd 4259 4b3d
00000170: 4ade 0c3e 81a7 3e3e 81f4 6fba 6797 7dbd
00000180: 9c27 c43c 24a1 abbd ea10 453e 29bf 003d
00000190: 8e53 883d 5712 a63a 2e53 793c e67f 503e
000001a0: b99b e53d 24b0 0c3e 833b 31be 049f febc
000001b0: 21f9 843d 28b6 96bd 5f23 03be ef21 54bd
000001c0: a35c 513e e356 f23d d929 403d 1736 ab3d
000001d0: 8192 22be 4e3f e13d 6daf 9cbd 4b27 693d
000001e0: 976b e6bd 0085 023e b22e 613d ecb5 8bbd
000001f0: 872e 32be 2265 4f3d 2079 883d 27cb 40be
00000200: 6f69 313d 4e46 15be e3f1 bc3d 906f 04be
00000210: 969d 973d e6bc 133c b507 afbd 7f94 1dbe
00000220: d184 343d d020 4abe 46be a83d f06a e63b
00000230: e2ff 7bbd 5893 963d 4626 dfbd a5f0 4d3d
00000240: 9c90 2dbe 25af f43d 4d85 9bbd 6c60 12be
00000250: d2f9 40be 6d8a b3bd e554 49be 4890 e93d
00000260: 4a0d b23d c8a3 1ebe a3f3 54be cde5 833d
00000270: 1c0c 95bc c881 20bd aed7 38be eccf 3dbe
00000280: adf0 4bbe cb52 ef3c 9989 a7bd 3a17 98bd
00000290: 0e8a 06be 807d 413d 14d1 5bbe 7060 843b
000002a0: d406 c83b 8623 de3d efbb f83d 6749 0ebe
000002b0: 1197 cd3d e788 67bb 0213 2cbe 065e 72be
000002c0: 4ca7 a3bd 9a21 eebd 5350 bcbd 330f 44be
000002d0: 184a 05be 1a21 c13d e944 2b3e 1b75 60bd
000002e0: 4dcb 06be 3125 1cbe 7a75 1bbe 3699 313e
000002f0: d750 203e cb8c 093e f5fe 803d d41e f4bd
00000300: 4bbb 77be ac29 77be f47b 1abe b3ca 1ebe
00000310: 00b9 4ebe 2238 6c3c ae62 233c f5f7 54be
00000320: 7061 a3bd d3be 543c 3734 31be 5aea d8bc
00000330: 5cc0 28be d00c 16be 8c15 d0bd 39b5 6f3d
00000340: 6752 ce3d 586e 7fbd 8f1c 693d 2516 583d
00000350: 28c8 9fbd 9085 4fbe 7091 05bd 01b9 89bd
00000360: e254 2d3d 6b1f 1a3e 419b c8bd 8df8 2b3e
00000370: a386 493d 468e ab3c f3fd 353e 8bea bcbd
00000380: 210e 373e 78bc 0f3d 3c6b f43d 5cb7 2f3d
00000390: 1994 7339 d24e 1a3e 9eb5 c5bd 199b edbd
000003a0: e966 e6bd d940 cc3c 67b4 2c3c 5194 b3bd
000003b0: 6eb8 b93d 7bd6 283e 510d 7cbc ea40 8dbc
000003c0: 631e 093e dcd7 e7bd 4cc3 b83d 570f 71bb
000003d0: bbf1 f1bc b8f1 0ebe bd5d 093e b071 fbbd
000003e0: e09d 1f3e 0b84 01be 0239 073e 35a3 02be
000003f0: 9455 153e c9cd 92bd 714b 233e cddd d03d
0.0956871 -0.053388365 0.1530764 -0.16070662 0.1570284 0.21470058 -0.103936784 0.25969502
0.22073661 -0.1118539 0.14756066 0.10476584 -0.059394337 0.030161118 0.11770688 0.018990079
0.16628185 0.007589178 0.14860913 -0.10022566 0.16121021 -0.18914735 0.1892064 0.107526675
0.12042213 0.061247922 0.09029574 0.18556905 0.15410562 -0.047805525 -0.16918677 0.15780096
0.05082452 0.06426032 0.09594124 -0.10352788 -0.17801495 -0.063576 0.1844194 -0.044227995
-0.025145492 -0.18476969 0.1781779 0.017430056 -0.14722157 -0.07282173 -0.005955828 0.13038313
-0.078793325 -0.12971339 0.16686408 0.03592211 0.10474152 0.003400019 0.2022233 -0.050889574
0.0054758335 0.16966495 -0.13598585 -0.1468039 0.14826596 -0.16664772 0.04457964 0.038769156
-0.011462265 0.16025649 -0.02553335 -0.05706799 0.12153124 -0.06859903 -0.057676982 0.067611575
-0.007831636 -0.13715257 -0.12435685 0.16360879 -0.0029853901 -0.13810883 0.115501925 -0.0050503435
-0.0055535464 0.17972931 0.1297801 -0.035897776 -0.08306368 0.0020361403 0.17431691 -0.035349827
-0.11174158 -0.016345298 -0.055687923 0.04964567 0.13756672 0.18618585 -0.00091535604 -0.061911967
0.023944668 -0.083803445 0.19244733 0.031432305 0.06656562 0.0012670261 0.0152175855 0.2036129
0.11211342 0.13739067 -0.17307858 -0.031081684 0.0649283 -0.07358962 -0.12806462 -0.051790174
0.20445494 0.118329786 0.04691491 0.08359926 -0.158762 0.109984025 -0.07650647 0.05692224
-0.1125099 0.12746048 0.054976173 -0.06821808 -0.17400561 0.050633557 0.06663728 -0.18827496
0.04331344 -0.145776 0.09225824 -0.12933183 0.07403104 0.009017205 -0.08546392 -0.15388678
0.044071976 -0.1973908 0.08239417 0.007031791 -0.061523326 0.07352322 -0.10895972 0.050278325
-0.16949695 0.11947469 -0.075937845 -0.14294595 -0.18845299 -0.08766637 -0.19661291 0.114044726
0.08693941 -0.15492165 -0.20796065 0.064403154 -0.01819425 -0.03918627 -0.18051025 -0.18536347
-0.1991603 0.029214283 -0.081805415 -0.07426305 -0.13138601 0.047238827 -0.21466476 0.0040398166
0.0061043296 0.10846619 0.121452205 -0.13895188 0.10038579 -0.0035329403 -0.16804126 -0.2366868
-0.07990894 -0.11627503 -0.09195008 -0.19146423 -0.13016546 0.09430142 0.16725506 -0.05479918
-0.1316349 -0.15248562 -0.15181533 0.17343602 0.15655838 0.13432615 0.06298629 -0.119199425
-0.2419254 -0.2413699 -0.15086347 -0.15507011 -0.2018776 0.01441768 0.009972258 -0.20797713
-0.07977569 0.012984949 -0.17305075 -0.026478935 -0.1647963 -0.14653325 -0.1016036 0.058522437
0.10074311 -0.06236109 0.056912 0.052755494 -0.07801849 -0.20265794 -0.032609403 -0.0672474
0.04231728 0.15051048 -0.09795237 0.16794033 0.049200665 0.020941865 0.17772655 -0.09224423
0.17876484 0.035091847 0.11934516 0.042899475 0.00023229457 0.1506913 -0.09653781 -0.11601848
-0.11250097 0.024933266 0.010541058 -0.087685235 0.0906838 0.16488068 -0.015384034 -0.017242867
0.13390498 -0.11320469 0.09021625 -0.0036782825 -0.029534211 -0.13959396 0.13414665 -0.122775435
0.15587568 -0.12648027 0.1320534 -0.12757571 0.14583427 -0.07168157 0.15946747 0.10198555

bias f4 [3]
00000000: 3eef 84be 426a fdbd 6da4 e7bd
-0.25963777 -0.12373783 -0.113106586
