inpatinign diagrams/final_best_denoising_model_for_final_20_each.pth (torch, 60930 bytes, 12 tensors)

weight f4 [32, 3, 3, 3]
0	0x3e06c3e8	0.1316067
1	0x3ddd5735	0.10807649
2	0x3d92470d	0.07142458
3	0xbdea6421	-0.11444879
4	0xbdf1cfbc	-0.118072
5	0x3e04fb7a	0.12986556
6	0xbdafd33f	-0.08585214
7	0xbe2cb922	-0.16867498
8	0x3dc92ebc	0.09823367
9	0x3c75d518	0.015004419
10	0x3c2864b4	0.010277916
11	0x3dc02bee	0.09383379
12	0x3e24ef9c	0.16107029
13	0x3e00f8f1	0.12594964
14	0x3e2122ae	0.15735886
15	0x3db685c2	0.08912231
16	0xbddd5c85	-0.10808662
17	0xbe2da44f	-0.1695721
18	0xbda6987f	-0.08134555
19	0x3e042d4d	0.12907906
20	0x3e028c0f	0.1274874
21	0xbdd4b3c4	-0.1038585
22	0xbd18ea26	-0.037332676
23	0xbe11706f	-0.14203046
24	0x3c0c5ddb	0.008567299
25	0xbdb805d0	-0.08985484
26	0x3dba0180	0.09082317
27	0x3df2e935	0.11860887
28	0xbd0a6ee1	-0.03379715
29	0x3df620ed	0.12017999
30	0x3cf5a299	0.02998476
31	0xbd1ae5f9	-0.037816975
32	0x3d484971	0.048898164
33	0xbdf44a0c	-0.11928186
34	0xbe00e021	-0.12585498
35	0x3da9aea9	0.08285267
36	0xbcb004b1	-0.021486612
37	0x3dc93341	0.09824229
38	0xbe5ab976	-0.2135981
39	0x3b360394	0.0027773129
40	0x3e02a437	0.12757955
41	0xbdfc7b77	-0.123282366
42	0x3dc932c2	0.098241344
43	0xbc7ff3c5	-0.015622084
44	0xbc82ae04	-0.015952118
45	0xbe0669e1	-0.13126327
46	0x3cccb269	0.024987416
47	0xbe0eb30c	-0.13935488
48	0xbe0cd011	-0.13751246
49	0x3cf98e6f	0.030463425
50	0xbe42f080	-0.19037056
51	0x3e1b8fbc	0.15191549
52	0x3c868e24	0.0164252
53	0xbe498a62	-0.19681695
54	0xbd92902e	-0.07156406
55	0x3e0c7318	0.1371578
56	0x3dc9437b	0.09827324
57	0xbded0b8c	-0.11574468
58	0x3d72a4a4	0.059239045
59	0x3dda058f	0.106455915
60	0x3d00fea7	0.031492855
61	0x3e349b2d	0.1763732
62	0x3c664782	0.014055135
63	0xbd845f07	-0.064634375
64	0xbdf52664	-0.11970213
65	0xbd69d026	-0.05708327
66	0xbda9b1d2	-0.0828587
67	0xbddb5d0d	-0.107111074
68	0x3c35ff72	0.011108266
69	0x3e253aa7	0.16135655
70	0x3c4981c9	0.01229901
71	0x3d907090	0.070527196
72	0xbc1837f2	-0.009290682
73	0xbdbc9f1b	-0.092100345
74	0x3dfc9034	0.12332192
75	0x3e008ab5	0.12552913
76	0xbe43b341	-0.19111349
77	0x3dd4afa2	0.10385062
78	0xbda12dc6	-0.07870059
79	0xbdf6966c	-0.120404094
80	0xbe37d119	-0.17950858
81	0xbda74846	-0.08168082
82	0xbd510954	-0.051034287
83	0xbd841e0f	-0.06451046
84	0xbd1956b6	-0.03743621
85	0xbd70d948	-0.058800966
86	0xbd4ed37b	-0.050494652
87	0xbdaa7647	-0.08323341
88	0xbe02b20a	-0.12763229
89	0xbd04caa5	-0.03241982
90	0x3e16ce93	0.1472724
91	0x3c74f47a	0.014950866
92	0x3da63ab3	0.08116665
93	0x3decadef	0.11556613
94	0x3c54b4d8	0.01298257
95	0xbe15935c	-0.14606994
96	0x3d53d494	0.051716402
97	0xbe495d15	-0.19664414
98	0xbcdd8f4a	-0.027045865
99	0xbe376379	-0.1790904
100	0xbd94aa74	-0.07259074
101	0x3cfc22b9	0.030778276
102	0x3ae251ef	0.001726685
103	0x3e1c8fb1	0.15289189
104	0xbe1d930d	-0.15388127
105	0xbe139e5b	-0.14415877
106	0x3de53a4f	0.11192762
107	0x3dccb768	0.099959195
108	0x3d3da571	0.046300355
109	0x3d84b446	0.06479697
110	0xbe002ba4	-0.12516648
111	0xbe36e33b	-0.17860119
112	0xbe1e9038	-0.15484703
113	0x3d7bcc25	0.061473984
114	0x3e2823a1	0.16419841
115	0xbe29af5f	-0.16570805
116	0x3dbca568	0.09211236
117	0xbc6605ee	-0.0140395
118	0x3cda68e3	0.026661342
119	0x3e27922c	0.16364354
120	0xbda2e005	-0.079528846
121	0xbbed84d2	-0.0072484994
122	0xbd972f5e	-0.073820814
123	0xbde07677	-0.109600954
124	0x3dfef4eb	0.12449058
125	0xbbd0500a	-0.0063571976
126	0xbb4d1f1d	-0.0031299063
127	0x3de36338	0.11102909
128	0xbc22b19e	-0.009930043
129	0x3dd6f4ba	0.10495897
130	0xbda3b856	-0.07994144
131	0xbdbc68d1	-0.0919968
132	0x3db10467	0.08643418
133	0x3e056088	0.13025105
134	0x3de6572e	0.11247097
135	0xbdc49d9f	-0.09600376
136	0x3e1d3d16	0.15355334
137	0xbdec6782	-0.1154318
138	0xbc1ab490	-0.0094424635
139	0xbd624c2c	-0.055248424
140	0x3d59c041	0.053161863
141	0xbc96f6f9	-0.018428313
142	0x3d989875	0.07450954
143	0x3dec407b	0.11535736
144	0xbd0848c5	-0.033272523
145	0xbcb35664	-0.02189178
146	0xbdb44e22	-0.08803965
147	0x3e1857c5	0.14877231
148	0xbe02d023	-0.1277471
149	0x3e3090fc	0.17242807
150	0xbc925a39	-0.017865287
151	0xbe021f0c	-0.12707156
152	0xbd0b30b3	-0.03398199
153	0xbd92392c	-0.07139811
154	0x3daa1828	0.08305389
155	0xbd21c326	-0.03949275
156	0xbe10beb7	-0.14135252
157	0x3d75e88e	0.060036235
158	0xbe366c18	-0.17814672
159	0x3c49443c	0.012284335
160	0x3df688b3	0.12037792
161	0x3e1f53a1	0.15559246
162	0x3dfd887c	0.12379548
163	0x3daba06a	0.08380206
164	0xbc528243	-0.01284844
165	0xbe0c087b	-0.1367511
166	0x3dd643d7	0.10462158
167	0xbdd7a630	-0.105297446
168	0x3d98244a	0.074287966
169	0x3e208d27	0.15678845
170	0xbe0fff15	-0.1406215
171	0xbe126ede	-0.14300105
172	0x3dfcecdc	0.12349865
173	0xbd93175c	-0.0718219
174	0xbe348b00	-0.1763115
175	0xbe4727d8	-0.19448793
176	0x3e2eb3a1	0.1706071
177	0xbdd7c874	-0.1053628
178	0x3d90600f	0.07049572
179	0x3dd5c8c3	0.10438683
180	0xbd69055e	-0.056889884
181	0xbd50f568	-0.051015288
182	0x3b31da2d	0.00271381
183	0x3cdc9f0e	0.026931312
184	0x3da45d0d	0.080255605
185	0xbdc6523e	-0.09683655
186	0xbdcd8965	-0.100359716
187	0xbdb62314	-0.08893409
188	0xbcd5fb43	-0.026120787
189	0xbdbc1415	-0.09183518
190	0x3e148e2f	0.14507364
191	0x3c8edf3d	0.017440433
192	0x3e180d68	0.14848864
193	0x3e00f4c2	0.12593368
194	0xbe2a7634	-0.16646653
195	0x3ddb0436	0.106941625
196	0xbd9a65fd	-0.07538984
197	0xbe027021	-0.12738086
198	0xbc32c221	-0.010910542
199	0x3e3621d6	0.17786345
200	0x3e08b569	0.13350452
201	0xbdc608be	-0.09669636
202	0xbe2ac859	-0.16677989
203	0x3c4bb11a	0.012432361
204	0x3e0c12a9	0.13678993
205	0xbe053557	-0.13008629
206	0x3e200987	0.15628634
207	0x3d056f53	0.03257687
208	0xbe0d1262	-0.13776544
209	0x3dd1b9c3	0.10240509
210	0x3e1f62d1	0.15565039
211	0xbd8d8bd9	-0.069114394
212	0x3d66eb98	0.056377023
213	0xbd1f7de8	-0.038938433
214	0x3d795ff2	0.060882516
215	0xbe2f8709	-0.17141356
216	0xbe11ed3c	-0.14250654
217	0x3d2ca386	0.042148136
218	0xbe35998e	-0.17734358
219	0xbd19af4a	-0.037520684
220	0x3dac7da7	0.08422404
221	0xbd040c15	-0.032238085
222	0x3db8b969	0.09019739
223	0x3d9011b7	0.07034629
224	0xbe44910f	-0.1919596
225	0x3e2c20e6	0.16809425
226	0xbd774cec	-0.060376093
227	0x3ddbc231	0.107303984
228	0x3d3dfce0	0.04638374
229	0x3c0fd6f1	0.008779273
230	0x3e02b659	0.12764873
231	0xbe1461be	-0.1449041
232	0x3d523487	0.051319625
233	0xbe115ba5	-0.14195116
234	0xbe11882d	-0.14212103
235	0xbdc88ddf	-0.09792685
236	0x3dab1573	0.083537005
237	0xbe2eaef2	-0.17058924
238	0xbe3a5aa0	-0.18198633
239	0x3e2221ea	0.1583325
240	0x3cf84107	0.030304445
241	0xbdcb6db7	-0.09933036
242	0xbd838923	-0.06422641
243	0xbe4def68	-0.20110857
244	0x3e0bfd20	0.13670778
245	0xbd63f8fb	-0.05565737
246	0xbe2e0579	-0.16994275
247	0xbe4294e4	-0.1900211
248	0xbd4491be	-0.047990553
249	0x3ce8df55	0.028426806
250	0x3e236f91	0.15960528
251	0xbdd618e3	-0.104539655
252	0xbde2b8f2	-0.11070432
253	0x3d7cbf58	0.061705917
254	0xbd769982	-0.06020499
255	0x3da92314	0.08258644

bias f4 [32]
0	0xbe88ac96	-0.26694173
1	0xbdce6c24	-0.1007922
2	0x3d11f7d6	0.035636745
3	0xbd925244	-0.07144597
4	0x3c7b39c2	0.015333595
5	0x3f1224fe	0.57087696
6	0xbe5a814c	-0.21338385
7	0xbe5833f7	-0.21113573
8	0xbbb7ae4b	-0.005605494
9	0x3ea20c45	0.31649986
10	0x3f183f46	0.5947155
11	0x3f081cee	0.53169143
12	0xbddbddf5	-0.10735694
13	0xbe638275	-0.22217734
14	0x3dcb5652	0.09928574
15	0x3dadcaf6	0.08485977
16	0xbe1006bf	-0.14065073
17	0xbd8c0f9d	-0.068389155
18	0xbe725adf	-0.23667477
19	0xbdbe7bf8	-0.09300989
20	0x3e6ee8de	0.2333102
21	0x3e8b180e	0.2716679
22	0xbda3bfab	-0.07995542
23	0xbe958052	-0.29199463
24	0xbe90918a	-0.28236037
25	0x3e05abdd	0.13053842
26	0x3e93a266	0.28834838
27	0xbe4f8040	-0.20263767
28	0xbddcd13a	-0.10782094
29	0x3d80994b	0.06279238
30	0x3e024238	0.12720573
31	0x3eee4f60	0.46544933

weight f4 [16, 32, 3, 3]
0	0xbbb6227b	-0.0055583096
1	0x3ba2eb48	0.0049718954
2	0x3ce310ce	0.027717974
3	0x3c8f2b69	0.017476754
4	0xbc9d0792	-0.019168649
5	0xbc892ed5	-0.016745964
6	0xbd19331c	-0.037402257
7	0xbbf34013	-0.0074234097
8	0x3c1382d1	0.009003357
9	0x3bc4bc54	0.006003896
10	0xbccabbd6	-0.02474777
11	0x3b75907b	0.003747015
12	0xbd050819	-0.032478426
13	0xbc6e4346	-0.014542406
14	0xbc7a844a	-0.015290329
15	0xbc1e9bf7	-0.00968074
16	0xbb81518c	-0.0039464887
17	0xbd76b045	-0.060226697
18	0x3c664765	0.014055108
19	0xb9596345	-0.00020731713
20	0xbc78cc08	-0.015185364
21	0xbc91f96b	-0.017819127
22	0xbcbd2650	-0.023089558
23	0xbcb6f076	-0.022331458
24	0xbbac84b3	-0.0052648424
25	0xbc206841	-0.009790481
26	0x3c71ebab	0.01476566
27	0x3c3dc87d	0.011583445
28	0x3d468b80	0.04847288
29	0xbd53de45	-0.051725645
30	0x3c9c6c1b	0.019094517
31	0xbd1e61d0	-0.0386675
32	0x3cc87194	0.02446822
33	0xbd6b1bcd	-0.05739956
34	0xbd6b5e6f	-0.057463106
35	0x3c76b696	0.01505818
36	0x3b7275a0	0.003699638
37	0x3d62f43b	0.055408698
38	0x3d57e127	0.052704956
39	0xbcfef02f	-0.031120388
40	0x3bf75a4a	0.007548605
41	0x3b372f66	0.0027951836
42	0xbcf865d7	-0.030321999
43	0x3c64b659	0.013959491
44	0xbb777a47	-0.0037762092
45	0x3cbf271a	0.023334075
46	0xbcaa82e2	-0.020814363
47	0xbc8caa78	-0.01717113
48	0x3d036068	0.032074362
49	0xbc0f6919	-0.008753085
50	0x3cb2d682	0.0218308
51	0x3c0c93aa	0.008580128
52	0xbca5af4a	-0.020225186
53	0xbc392bbb	-0.01130193
54	0xbd0146df	-0.03156173
55	0x3a1e349f	0.0006035063
56	0x3d407645	0.04698779
57	0x3cddb421	0.027063431
58	0xbd4dba47	-0.050226476
59	0xbc57af11	-0.013164298
60	0xbd016cbd	-0.03159784
61	0x3b36c005	0.0027885449
62	0x3c94add4	0.018149294
63	0xbb3485e7	-0.0027545632
64	0x3c1dfde3	0.009643051
65	0xbd29a121	-0.04141343
66	0x3d66712d	0.056260277
67	0xbbbaf305	-0.0057052397
68	0x3d01c477	0.031681504
69	0xbd475b5b	-0.048671108
70	0xbc05ecbd	-0.008174119
71	0x3bd63e2c	0.006538173
72	0xbc4d0554	-0.012513477
73	0xbb70446c	-0.0036661876
74	0xbcc74b56	-0.024327915
75	0x3c1bd520	0.009511262
76	0x3c35fe5c	0.011108007
77	0xbd91f50f	-0.07126819
78	0xbb83e45e	-0.004025026
79	0x3d2d7557	0.042348232
80	0xbcc8ec8e	-0.02452686
81	0xbcc90f29	-0.024543362
82	0x3d1c38de	0.03814017
83	0xbd1b0428	-0.03784576
84	0x3d18ddb5	0.03732081
85	0x3c0d111c	0.008610036
86	0x3d08f4f3	0.033436727
87	0xba80dccd	-0.0009831429
88	0xbd175f78	-0.03695628
89	0xbd0ea6e5	-0.03482713
90	0x3b24a074	0.0025120052
91	0xbd0c8b9a	-0.034312822
92	0x3cdbde0e	0.026839282
93	0x3d9553f5	0.07291404
94	0x3a39b77c	0.0007084531
95	0x3bd92fdb	0.0066280193
96	0xbd22e1df	-0.03976619
97	0x3c3d2ddf	0.011546581
98	0xbccad31a	-0.024758864
99	0x3bdfa91f	0.0068255807
100	0x3d0589cf	0.032602128
101	0x3d30c2a2	0.043154366
102	0xbd26df1a	-0.04074011
103	0xbd0b8612	-0.034063406
104	0x3cb1343a	0.021631349
105	0x3d2dc309	0.04242233
106	0xbc63368c	-0.013867985
107	0xbcd400df	-0.025879322
108	0x3d333f7d	0.04376172
109	0x3ceac1fc	0.028656952
110	0xbc802474	-0.015642382
111	0xbd2f942c	-0.042865917
112	0xbb978be0	-0.0046248287
113	0xbd115f25	-0.035491128
114	0x3d363f5d	0.04449402
115	0xbd3c792a	-0.04601399
116	0x3cf8a6e6	0.03035302
117	0x3d7ad363	0.06123675
118	0x3d76d854	0.0602649
119	0xbd63438b	-0.055484336
120	0xbb351b04	-0.002763451
121	0x3b711ea8	0.0036791954
122	0x3bcf155d	0.0063196854
123	0xbc33fd67	-0.010985709
124	0xbcb83d46	-0.022490155
125	0x3d2a1b47	0.04152992
126	0x3c8bf7a9	0.017085867
127	0xbb8555a2	-0.004069046
128	0xbca13493	-0.01967839
129	0xbafd95de	-0.0019347032
130	0x3c7cba04	0.015425209
131	0xbc089b1c	-0.008337762
132	0x3c1521ab	0.009102265
133	0xbc448cdf	-0.011996477
134	0x3cc8598c	0.024456762
135	0x3c3eddbc	0.011649545
136	0xbbb95c98	-0.00565679
137	0xbca213da	-0.019784857
138	0x3ccfbeb8	0.025359496
139	0xbccce560	-0.025011718
140	0xbbb3f4d0	-0.0054918304
141	0x3cfb1a64	0.030652232
142	0xbc06c448	-0.008225508
143	0x3c8a6f82	0.016898874
144	0xbc5f1aed	-0.013617259
145	0xbd236384	-0.039889827
146	0xbd4607a6	-0.048347138
147	0x3cc0d236	0.023537736
148	0xbb4217c1	-0.002961621
149	0x3c996f33	0.018729782
150	0x3b030148	0.0019989777
151	0xbcf06dc9	-0.029349225
152	0xbc541bac	-0.012946051
153	0x3b9b2762	0.0047349194
154	0xbd016529	-0.031590614
155	0x3b99e31a	0.004696262
156	0xba7f34a3	-0.00097353215
157	0x3caa9852	0.020824585
158	0xbcab84be	-0.02093732
159	0x3bc4a549	0.006001149
160	0x3bd22085	0.006412568
161	0x3bf2aeaf	0.007406078
162	0xbd113968	-0.035455137
163	0x3d48f212	0.04905898
164	0x3cb6892e	0.02228221
165	0xbbea087b	-0.007142124
166	0x3d375b18	0.04476461
167	0x3b3d16f8	0.0028852802
168	0x3d5d3a24	0.054010525
169	0xbd51f5c8	-0.051259786
170	0xbcaeb302	-0.021325592
171	0x3d731359	0.059344623
172	0xbd062ac5	-0.032755632
173	0xbd144785	-0.03620102
174	0xbc30fe9b	-0.01080289
175	0xbd1811b4	-0.037126258
176	0xbc849ea8	-0.016188934
177	0xbb0c01f6	-0.0021363473
178	0x3c9b251c	0.018938594
179	0xbc1a7577	-0.00942742
180	0xbbfb37ad	-0.007666549
181	0xbcbfc90f	-0.023411302
182	0x393d8415	0.00018073649
183	0x3b3072e1	0.0026923942
184	0xbacdf637	-0.0015713637
185	0xbcb228ba	-0.021747936
186	0x3bf25218	0.0073950402
187	0xbcd8e4ed	-0.026476348
188	0x3d485d0a	0.048916854
189	0xbcacac26	-0.02107818
190	0xbc4ba698	-0.012429856
191	0xbcf322d4	-0.029679693
192	0xbd1386a9	-0.036017094
193	0x3c364310	0.011124387
194	0x3d73cc6b	0.05952112
195	0x3c047307	0.008084065
196	0x3c7a90a7	0.015293277
197	0xbce1d99a	-0.02756958
198	0xbb97c09c	-0.004631115
199	0x3cb780e7	0.022400333
200	0x3b14a1b8	0.00226794
201	0xbc83e45e	-0.016100105
202	0xbb63ac79	-0.0034740253
203	0x3ca202c0	0.019776702
204	0x3c95b145	0.018273005
205	0x3bc623d4	0.0060467515
206	0xbafb5625	-0.0019175453
207	0xbd028975	-0.03186937
208	0x3d2feb4b	0.042949002
209	0xbc055dad	-0.00814001
210	0xbd4be668	-0.04978028
211	0x3d063d94	0.03277357
212	0x3d16e7e0	0.036842227
213	0x3d28e1ef	0.041231092
214	0xbd15d8e3	-0.036583792
215	0xbcced6db	-0.025248935
216	0xbcea4e72	-0.028601859
217	0x3cef9d11	0.0292497
218	0x3c90d0fe	0.01767778
219	0x3be88234	0.0070955995
220	0x3c6fe3ae	0.014641685
221	0x3d192014	0.037384108
222	0xbb9cc0f6	-0.004783745
223	0x3b93e1cd	0.0045130015
224	0xbc978688	-0.018496767
225	0xbd005414	-0.031330183
226	0xbce526d5	-0.027972618
227	0x3d3adc9a	0.04562054
228	0x3d16d86e	0.036827497
229	0x3cec8a23	0.028874462
230	0x3c813281	0.015771152
231	0xbcfc6c46	-0.030813348
232	0xbd0b858c	-0.034062907
233	0x3ba6a0ed	0.005085102
234	0xbc7edd71	-0.015555725
235	0xbd93a901	-0.07209969
236	0xbd3a6d0f	-0.045514163
237	0xbb86e107	-0.004116181
238	0xbd6987e9	-0.05701438
239	0xbd6e2d70	-0.0581488
240	0x3bfac532	0.007652902
241	0x3a5a81b4	0.00083353673
242	0xbcff6fc9	-0.031181233
243	0x3d24ceb0	0.040236175
244	0x3c3cbf1a	0.011520172
245	0x3d178960	0.036996245
246	0xbd443e96	-0.04791125
247	0x3d1dc67c	0.038519368
248	0x3ce556e3	0.027995532
249	0xbb470bd7	-0.0030372047
250	0x3cafd5c6	0.02146424
251	0xbd22c195	-0.039735395
252	0xbd718064	-0.058960333
253	0xbcf6befa	-0.030120362
254	0x3c5f15a3	0.013615998
255	0x3cc67061	0.024223508

bias f4 [16]
0	0xbd9dc6c7	-0.077039294
1	0x3e8a96e8	0.27068257
2	0x3eb2ed6d	0.34946766
3	0xbe3a4ec6	-0.18194112
4	0x3e249b4f	0.1607487
5	0xbe29bcab	-0.16575877
6	0xbe03b921	-0.1286359
7	0x3921c8d2	0.00015428968
8	0x3e4507fb	0.19241326
9	0x3f43496a	0.76283896
10	0xbf021eb7	-0.5082812
11	0x3f175529	0.5911432
12	0x3db8259c	0.089915484
13	0x3d1b01b7	0.037843432
14	0x3e72d145	0.23712642
15	0xbe8df724	-0.27727616

weight f4 [8, 16, 3, 3]
0	0x3b7d0025	0.0038604822
1	0xbcfe0d50	-0.031012207
2	0xbc82ecd5	-0.015982071
3	0xbc407fbc	-0.011749204
4	0x3b0b726c	0.0021277918
5	0x3aeddece	0.0018148066
6	0xbd0c0e68	-0.034193426
7	0x3d950e09	0.072780676
8	0xbb85e77d	-0.0040864334
9	0x3ccea80e	0.02522662
10	0xbca94cf4	-0.020666577
11	0xbcc78c80	-0.024358988
12	0xbc9b5c5a	-0.018964935
13	0x3d5db5cd	0.054128457
14	0xbc622bdc	-0.013804402
15	0xbd288fbe	-0.04115271
16	0x3d04b4e8	0.03239909
17	0x3d72cb08	0.059275657
18	0xbb7c4538	-0.0038493406
19	0x3bb606a1	0.0055549894
20	0x3b9b4ae2	0.0047391513
21	0xbb53eebb	-0.003233834
22	0x3baa1967	0.0051910165
23	0x3b3efe53	0.0029143288
24	0x3c38f308	0.011288412
25	0xbbb6e51d	-0.0055815117
26	0xbcd2571b	-0.0256763
27	0x3a8e872e	0.0010874027
28	0x3d446f72	0.047957845
29	0x3c4fffd3	0.012695271
30	0x3c145a7e	0.009054778
31	0xbcbce5bc	-0.023058765
32	0xbd6c72cb	-0.057726663
33	0x3ac897cc	0.0015304028
34	0xbd80cf9d	-0.06289599
35	0x3d9afa7d	0.07567308
36	0x3d6471b5	0.055772502
37	0x3c9728bf	0.018452046
38	0xbd8e04fb	-0.06934544
39	0x3d97a79f	0.07405018
40	0x3d565a74	0.052332357
41	0x3c1be318	0.009514593
42	0xbc957ece	-0.018248942
43	0xbbd70332	-0.00656166
44	0x3d80f9ad	0.06297622
45	0x3d074b39	0.033030722
46	0x3c874560	0.016512573
47	0xbc85dfbf	-0.016342042
48	0x3d777007	0.060409572
49	0xbd83ce66	-0.06435852
50	0xbb7b6eda	-0.0038365633
51	0xbd3600c3	-0.04443432
52	0xbd11f5b8	-0.035634726
53	0x3cc65d32	0.02421436
54	0xbcc44987	-0.023960842
55	0x3cd055f9	0.02543162
56	0xbcb9550e	-0.022623565
57	0xbde93e19	-0.11388797
58	0xbdb158fd	-0.08659551
59	0xbdeb1211	-0.11478055
60	0xbd8fa06c	-0.0701302
61	0xbbbc1ef1	-0.005740993
62	0x3c81f52d	0.01586398
63	0x3d685024	0.056717053
64	0xbd17a888	-0.03702596
65	0xbca7fdd8	-0.020506784
66	0x3d30b83f	0.04314446
67	0x3cae7546	0.021296155
68	0xbba03c59	-0.0048900065
69	0xbd015361	-0.031573657
70	0x3d4cf0cd	0.050034333
71	0xbd36396d	-0.04448836
72	0xbc8daf4a	-0.017295498
73	0xbcd05f99	-0.02543621
74	0xbc6a5be0	-0.014304131
75	0x3cac6aa6	0.021046948
76	0x3cd3423d	0.02578842
77	0xbd02d205	-0.03193857
78	0x3a80fe8c	0.0009841486
79	0xbb170ff0	-0.002305027
80	0x3d27a7af	0.0409314
81	0x3dc1d1fb	0.09463879
82	0x3d06c8b1	0.032906238
83	0x3d9a6b4f	0.07539999
84	0xbbdc8229	-0.0067293835
85	0x3da6ac6c	0.081383556
86	0x3d253323	0.04033197
87	0x3c4dcf7d	0.012561676
88	0x3dadc126	0.08484106
89	0x3d0f54ba	0.03499291
90	0x3a91ec79	0.0011133096
91	0x3b5d57f9	0.003377436
92	0xbc9f86ae	-0.0194734
93	0xbd32bccb	-0.04363708
94	0x3ab289be	0.0013621373
95	0xbc3ffbe5	-0.011717771
96	0x3d3f2bb9	0.046672557
97	0xbcd03f2e	-0.025420751
98	0x3c0179f4	0.007902611
99	0xbd4617fb	-0.048362713
100	0x3dbf68d0	0.09346163
101	0x3cf095e4	0.029368348
102	0x3d4a152e	0.049336605
103	0x397526ff	0.00023379548
104	0x3c82ec6c	0.015981875
105	0x3cd2ba20	0.025723517
106	0x3d23715d	0.039903034
107	0xbb7d63f6	-0.0038664318
108	0xbd222cab	-0.03959338
109	0x3db859b5	0.09001485
110	0x3da40cdd	0.08010266
111	0xbd24b275	-0.040209252
112	0xbd829eb9	-0.0637793
113	0x3d27ffa5	0.041015286
114	0xbd06f081	-0.032944206
115	0xbd0e73fd	-0.034778584
116	0xbcbda268	-0.02314873
117	0xbc2b3165	-0.010448788
118	0x3d887544	0.06662992
119	0xbb34d8a0	-0.002759494
120	0x3ce5f986	0.028073084
121	0xbcf7245a	-0.030168701
122	0x3d895e29	0.06707413
123	0x3d1352f6	0.03596779
124	0x3d2ecd1d	0.04267608
125	0xbca72fc7	-0.020408524
126	0x3d249ed8	0.040190548
127	0x3cee2ece	0.029075053
128	0x3d50e16c	0.05099623
129	0x3d1a1c6f	0.037624773
130	0x3da06a64	0.078327924
131	0x3cf2fd65	0.029661844
132	0xbd21fbe0	-0.039546847
133	0x3c4973f1	0.012295709
134	0xbd1ac19d	-0.0377823
135	0x3d7faa58	0.06241831
136	0x3c5d133f	0.013493358
137	0xbd1e13b4	-0.03859301
138	0xbca5de90	-0.020247728
139	0xbd742e93	-0.05961473
140	0x3c7c56ff	0.015401601
141	0x3d0c4177	0.03424212
142	0xbcf22456	-0.029558342
143	0x3d294957	0.041329708
144	0xbd67f77a	-0.056632496
145	0xbceb4a3c	-0.028721921
146	0xbccbfc06	-0.024900448
147	0x3d9d0af9	0.076681085
148	0xbd00cd58	-0.03144583
149	0x3d23f042	0.04002405
150	0xbd873884	-0.066025764
151	0xbcb8387e	-0.022487875
152	0xbd58fc90	-0.052975237
153	0x3cc7df87	0.024398578
154	0xbd7ef649	-0.062246595
155	0x3cf7bc50	0.030241162
156	0x3c6c60b5	0.014427354
157	0x3ca0b73c	0.019618623
158	0xbb636953	-0.003470023
159	0x3cda3e57	0.026641054
160	0xbd5c0def	-0.053724226
161	0x3d4d1c3a	0.050075747
162	0x3c816053	0.015793001
163	0x3ce4422a	0.02786358
164	0xbc2725b3	-0.010201859
165	0x3d469bf7	0.048488583
166	0x3cae89d6	0.02130596
167	0xbd968a9d	-0.07350657
168	0x3c4938da	0.012281621
169	0x3d5b3826	0.053520344
170	0x3d44bee7	0.04803362
171	0xbd2e2766	-0.042518042
172	0x3d5654da	0.052327015
173	0x3d15e1c8	0.036592275
174	0x3d177cef	0.03698438
175	0xbd3aad29	-0.045575295
176	0x3d1c6886	0.03818562
177	0xbd745472	-0.059650846
178	0x3d66ee3b	0.056379538
179	0x3c0d0b7d	0.008608696
180	0xbcfdad1a	-0.03096633
181	0x3d4a2dd3	0.049360108
182	0x3d85cf94	0.06533733
183	0xbd1c16cb	-0.038107675
184	0x3c56cd53	0.013110477
185	0xbda9a966	-0.08284263
186	0x3d8694d5	0.06571356
187	0xbd85d3a8	-0.06534511
188	0xbd4831cf	-0.048875626
189	0xbc78e74d	-0.015191865
190	0x3dc6cd92	0.09707178
191	0xbd11f4fd	-0.03563403
192	0xbd1b8aef	-0.037974294
193	0xbdc8481f	-0.09779381
194	0x3c8d1494	0.017221726
195	0xbd68cb3d	-0.056834448
196	0xbd6184bf	-0.055058237
197	0x3c0e9d95	0.008704563
198	0xbcd0d590	-0.02549246
199	0xbcad767e	-0.021174666
200	0xbc672374	-0.014107574
201	0xbd931a36	-0.07182734
202	0xbda37e3d	-0.079830624
203	0x3d305e6d	0.0430588
204	0xbd8f202b	-0.069885574
205	0xbd930778	-0.07179159
206	0x3c8f2c70	0.017477244
207	0xbd8f75d1	-0.070048936
208	0xbe345148	-0.17609131
209	0xbd0d4590	-0.034490168
210	0xbe0074bd	-0.12544532
211	0xbdf1bc0b	-0.118034445
212	0xbd6b722b	-0.057481926
213	0xbe2ae91d	-0.16690488
214	0xbc18421e	-0.009293107
215	0xbdabfa0b	-0.08397301
216	0xbd3b9b87	-0.04580262
217	0xbda675df	-0.08127951
218	0x3d2faa2a	0.04288689
219	0xbc0bce2e	-0.008533044
220	0x3d5d374e	0.05400782
221	0x3ddd3cfa	0.10802646
222	0xbd39d437	-0.0453684
223	0xbcd174ad	-0.02556833
224	0xbcceb34d	-0.025231982
225	0xbe03bf71	-0.12865998
226	0xbd593702	-0.053030975
227	0xbddf4317	-0.10901468
228	0xbd83c6d2	-0.06434406
229	0xbca312b2	-0.019906376
230	0xbbc3ee88	-0.005979363
231	0xbe10cc42	-0.14140418
232	0xbe1d6824	-0.15371758
233	0xbc72c0ce	-0.014816476
234	0xbd9cf553	-0.076639794
235	0xbdec9fbe	-0.11553906
236	0xbd29c1ef	-0.041444715
237	0x3df06e1e	0.11739753
238	0x3d48e659	0.0490478
239	0x3d8e5c3a	0.069511846
240	0xbd18b762	-0.037284262
241	0x3cbb0b44	0.02283252
242	0x3c982936	0.018574338
243	0x3b12f06a	0.002242113
244	0x3dc31aa2	0.09526564
245	0x3d0253c2	0.03181816
246	0x3d971bfb	0.07378384
247	0x3d9ef7ce	0.07762109
248	0x3ddb4c54	0.10707918
249	0xbcaca740	-0.021075845
250	0xbd6916b5	-0.05690642
251	0xbd3ab6f2	-0.045584626
252	0x3cf22c26	0.029562067
253	0x3b607593	0.0034249767
254	0x3cb97362	0.022638027
255	0xbd85d84d	-0.06535397

bias f4 [8]
0	0x3ed80e2d	0.42198315
1	0xbd374a61	-0.044748668
2	0x3e136a59	0.14396037
3	0x3e56216a	0.20911184
4	0x3f0aa984	0.5416491
5	0x3c1c073b	0.009523208
6	0xbdf23b81	-0.11827756
7	0x3bd58ff3	0.006517404

weight f4 [8, 16, 3, 3]
0	0xbc5ec9dc	-0.013597932
1	0x3c15d1f6	0.009144297
2	0x3dc98cc8	0.09841305
3	0x3bf9850b	0.007614737
4	0xbd9aede9	-0.07564909
5	0xbd1e5b5d	-0.03866135
6	0x3d39a9c4	0.045327917
7	0xbbf198a4	-0.0073729325
8	0x3cf0e589	0.029406326
9	0x3d5f1fbc	0.054473624
10	0x3cd20185	0.02563549
11	0xbb1e312c	-0.0024138195
12	0x3daa542f	0.08316838
13	0x3d856997	0.0651428
14	0x3c958177	0.01825021
15	0xbd9fe8be	-0.07808064
16	0x3c951d4a	0.018202443
17	0xbdb4eaab	-0.08833822
18	0xbd1857cb	-0.0371931
19	0x3da6e110	0.08148396
20	0x3d18eef0	0.037337244
21	0xbcde91c0	-0.027169108
22	0xbd77598d	-0.060388137
23	0x3cd09fd4	0.025466837
24	0xbcf974d3	-0.030451214
25	0x3cfc38bf	0.030788777
26	0xbc3322ab	-0.010933558
27	0xbbca6f95	-0.0061778524
28	0x3d51e15f	0.05124032
29	0x3d10ee04	0.03538324
30	0x3d8b010c	0.06787309
31	0x3d9f2dd2	0.077724114
32	0x3da72908	0.08162123
33	0xbd8b0e13	-0.06789794
34	0x3d7cde82	0.061735637
35	0x3b9fdbab	0.0048784814
36	0x3d80e3a1	0.06293417
37	0x3992fe0c	0.0002803657
38	0x3d23a0d1	0.03994829
39	0x3d3aedcd	0.04563694
40	0x3d7e12f7	0.062029805
41	0x3cf0ae96	0.029380124
42	0x3d773766	0.060355566
43	0xbd3ac22c	-0.045595333
44	0x3dbfc72b	0.0936416
45	0x39d763fd	0.00041082493
46	0x3d3dcfd1	0.046340767
47	0xbc7163e8	-0.014733292
48	0xbccb96f5	-0.024852255
49	0x3cc5284e	0.02406707
50	0xbc98ffd0	-0.018676668
51	0xbcf3f706	-0.029780876
52	0x3d491164	0.04908885
53	0x3d80328d	0.06259642
54	0xbdbf5b99	-0.09343643
55	0x3dde7b6f	0.10863387
56	0x3cd17311	0.025567563
57	0xbccd3f5b	-0.025054624
58	0xbd84fa87	-0.06493097
59	0xbd057057	-0.03257784
60	0xbcb38825	-0.021915505
61	0xbdb18b20	-0.08669114
62	0x3dcc6e73	0.09982004
63	0xbc9861d2	-0.018601332
64	0xbd68ecc6	-0.05686643
65	0xbd05ef4f	-0.032698926
66	0x3b9f02fe	0.0048526516
67	0x3d4ab047	0.049484517
68	0x3d868774	0.065688044
69	0xbbe3b01c	-0.006948484
70	0xbd524703	-0.051337253
71	0x3cd8ad40	0.0264498
72	0xbda9e037	-0.08294719
73	0xbd94245e	-0.07233499
74	0xbd2e8a5c	-0.04261242
75	0xbd441d08	-0.04787925
76	0xba2d01c8	-0.00065996917
77	0xbc88735e	-0.016656574
78	0xbced5026	-0.028968882
79	0xbd656c9d	-0.056011785
80	0x3d5030e0	0.05082786
81	0x3c8ea22d	0.017411316
82	0x3d1a4df8	0.037672013
83	0x3c4c3a6b	0.0124651
84	0x3cf1dff8	0.029525742
85	0x3cbe9e14	0.023268737
86	0x3d08a921	0.03336442
87	0xbdb9a440	-0.09064531
88	0x3d28f072	0.04124493
89	0x3d7e6655	0.06210931
90	0xbd3392b0	-0.043841064
91	0x3d747f9c	0.05969201
92	0x3d833edd	0.064084746
93	0x3c44b6c4	0.012006465
94	0x3d696140	0.05697751
95	0x3b9d6d48	0.004804287
96	0xbdb5cfeb	-0.08877548
97	0xbd58c39c	-0.052920923
98	0xbd9020b3	-0.07037487
99	0xba8535f6	-0.0010163176
100	0xbcd4153f	-0.025889037
101	0x3b628426	0.003456363
102	0x3cedf98b	0.029049655
103	0x3ddaf912	0.10692038
104	0xbbc149bf	-0.005898684
105	0x3cb581fe	0.022156712
106	0x3dc8ce09	0.09804923
107	0xbdbd15be	-0.092326626
108	0xbd7ab3fe	-0.06120681
109	0x3c827a1a	0.015927363
110	0x3d103fec	0.03521721
111	0x3d99a0b9	0.075013585
112	0xbcf161c9	-0.029465573
113	0x3d416678	0.047216862
114	0xbd74703b	-0.059677344
115	0xbcdaa7ae	-0.026691284
116	0x3d2d97c6	0.04238107
117	0x3d3a1fda	0.045440532
118	0xbd219711	-0.03945071
119	0xbd105771	-0.03523964
120	0x3d8511e0	0.0649755
121	0x3d901f9d	0.0703728
122	0x3cc08af6	0.023503762
123	0x3cf6ba2a	0.030118067
124	0x3c029aac	0.007971447
125	0xbd258887	-0.040413406
126	0x3be1d289	0.006891553
127	0xbd33b8c9	-0.043877397
128	0x3b0ecdd3	0.0021790161
129	0xbc632639	-0.013864093
130	0x3d8d66d0	0.069043756
131	0x3d6a7be8	0.057247072
132	0x3c8b0c36	0.016973596
133	0x3d121296	0.035662256
134	0xbb4b4f28	-0.0031022523
135	0xbc12e4a3	-0.008965644
136	0xbc49a840	-0.01230818
137	0xbd25569a	-0.040365793
138	0xb84fc234	-4.953351e-05
139	0x3d2ab9d2	0.04168112
140	0x3c69e84a	0.014276573
141	0xbda634c8	-0.08115536
142	0xbcfcc782	-0.030856851
143	0xbb60842a	-0.0034258463
144	0xbca07077	-0.019584877
145	0x3d8450a3	0.06460693
146	0x3c15372c	0.009107392
147	0xbd8b9897	-0.068162136
148	0x3d5dbfdf	0.05413806
149	0xbd6c5e61	-0.057707194
150	0x3cc4ddc3	0.024031525
151	0xbcbdedbf	-0.023184655
152	0x3bc8828c	0.006119078
153	0xbd9c056e	-0.07618223
154	0xbd0eb207	-0.03483775
155	0xbc2c8a5a	-0.010531032
156	0xbc7a20d4	-0.015266616
157	0x3d19c59e	0.037541978
158	0xbca729ea	-0.020405728
159	0x3d319009	0.043350253
160	0x3c9e21ee	0.019303288
161	0x3d61ad36	0.055096827
162	0xbd033e50	-0.032041848
163	0x3d240efe	0.04005336
164	0x3b85920f	0.0040762494
165	0x3d70cb34	0.05878754
166	0x3d4d0165	0.050050158
167	0xbd660a4b	-0.05616216
168	0x3ce26cbb	0.027639737
169	0x3dc512ea	0.09622748
170	0xbb6b7049	-0.0035925081
171	0x3db2d969	0.08732874
172	0x3db5eaa3	0.08882644
173	0x3d094158	0.033509582
174	0xbc872478	-0.016496882
175	0x3d960849	0.07325799
176	0x3b902a62	0.0043995837
177	0x3c9bed0e	0.019033935
178	0xbc5709a5	-0.013124858
179	0xbcaf17aa	-0.021373589
180	0x3a6bcfba	0.0008995492
181	0x3caf3f4b	0.021392485
182	0xbb7af02f	-0.0038290133
183	0xbd93c379	-0.07215018
184	0xbcb939bd	-0.02261054
185	0xbcd70666	-0.026248168
186	0xbc40da11	-0.011770741
187	0xbd44da18	-0.048059553
188	0x3d3ed588	0.046590358
189	0xbb2bd047	-0.0026216672
190	0x3d858ddc	0.06521198
191	0x3c52cc48	0.012866087
192	0xbd67d1d9	-0.05659661
193	0xbdd4a8b6	-0.103837416
194	0xbbdb55ad	-0.006693563
195	0x3d6e3b22	0.058161862
196	0x3d5fd2be	0.05464434
197	0x3c2490c3	0.0100442795
198	0x3d2c9b72	0.04214043
199	0x3d84729d	0.06467173
200	0x3a5ffe5a	0.0008544676
201	0x3cceaa1f	0.025227604
202	0xbcdc8ffd	-0.026924128
203	0xbbfff296	-0.007810901
204	0x3d267929	0.04064289
205	0x3cb8ffec	0.02258297
206	0x3cc2fa70	0.023801059
207	0x3cf12d3e	0.029440518
208	0x3c38e270	0.011284456
209	0xbcb44609	-0.022006052
210	0x3d42787b	0.04747818
211	0xbb300af0	-0.0026861988
212	0xbce0c5df	-0.027438102
213	0xbc63b4f0	-0.013898119
214	0xbd90e867	-0.07075577
215	0x3c7a550d	0.015279067
216	0x3d2061e9	0.039155874
217	0x3db558ca	0.08854826
218	0xb9ba928f	-0.0003558588
219	0xbd972e94	-0.07381931
220	0x3d3245de	0.04352366
221	0xbce4e2dd	-0.027940208
222	0x3d696efb	0.056990605
223	0x3da0e059	0.07855291
224	0x3d65e505	0.056126613
225	0xbc381b8f	-0.011237039
226	0x3dceba36	0.10094111
227	0xbd5e5541	-0.054280523
228	0x3b4aed9e	0.0030964385
229	0xbd389138	-0.045060366
230	0xbbebbf1b	-0.0071944124
231	0x3dae3566	0.08506279
232	0x3d1bbade	0.038020007
233	0x3d8abe3c	0.067745656
234	0x3d804bbf	0.062644474
235	0xbcb8e6b0	-0.022570938
236	0xbc449f85	-0.012000923
237	0x3dc57fce	0.096435174
238	0x3c98a7d9	0.018634723
239	0x3d2e10d1	0.042496506
240	0x3d7154f2	0.0589189
241	0xbb676b8f	-0.0035311913
242	0x3d610a4c	0.05494146
243	0xbd64ea7a	-0.055887677
244	0xbd6992e2	-0.057024844
245	0xbcabab89	-0.020955818
246	0xbcc631ef	-0.024193732
247	0xbdca4b5f	-0.09877657
248	0x3cd06286	0.025437605
249	0xbdab9e0c	-0.083797544
250	0x3ceed1eb	0.029152831
251	0xbd89fa7f	-0.067372315
252	0x3d66bff7	0.056335416
253	0xbd5c64b3	-0.05380697
254	0xbc3d9e2e	-0.0115733575
255	0x3d0b7922	0.034051068

bias f4 [16]
0	0xbe5dc9a1	-0.21658947
1	0x3e5f6b6e	0.21818325
2	0x3e870c1d	0.2637643
3	0xbde961fb	-0.113956414
4	0xbe27de35	-0.16393359
5	0xbbd2ecf2	-0.0064369375
6	0xbe21db92	-0.15806416
7	0xbe439298	-0.1909889
8	0x3e694aa8	0.22782385
9	0x3e4f0cd0	0.20219731
10	0xbe05ee71	-0.1307924
11	0x3eab3ace	0.33443302
12	0x3e73923d	0.23786254
13	0x3d6de4b3	0.058079433
14	0x3e672dd0	0.2257607
15	0x3efa950b	0.48941836

weight f4 [16, 32, 3, 3]
0	0xbd09e685	-0.033667106
1	0xbd9516f8	-0.072797716
2	0x3cba9a19	0.022778558
3	0xbc55eeb0	-0.013057396
4	0xbbdfc9be	-0.0068294695
5	0xbc9e655a	-0.019335438
6	0xbd93efb5	-0.07223455
7	0xbc5510e6	-0.013004517
8	0xbd732b6d	-0.059367586
9	0x3cb14d4f	0.021643309
10	0x3d5eea31	0.05442256
11	0x3c092e93	0.008372921
12	0x3cc3022d	0.023804748
13	0x3c982c0d	0.018575693
14	0xbbcf8edc	-0.006334169
15	0x3c3bac61	0.011454673
16	0x3d15b522	0.036549695
17	0xbcc5daeb	-0.02415224
18	0xbd172d63	-0.03690852
19	0x3cdff4d9	0.027338432
20	0x3d2c958c	0.042134807
21	0xbc6dd230	-0.014515445
22	0x3c725e42	0.014792981
23	0x3d35d1eb	0.044389647
24	0x3d32e6d0	0.04367715
25	0x3caa568b	0.02079322
26	0x3c3fbdc3	0.011702958
27	0x3ce8fbce	0.028440382
28	0xbd7d8fda	-0.061904766
29	0xbd161f3d	-0.036650885
30	0x3d289dc9	0.0411661
31	0x3bd828cd	0.0065966607
32	0xbd2c7d6f	-0.04211181
33	0x3d26dc4c	0.040737435
34	0xbc766f6a	-0.015041212
35	0xbbaa2c4b	-0.0051932684
36	0xbcb9f824	-0.02270133
37	0x3c1e2f19	0.009654784
38	0x3d5f23dc	0.054477558
39	0xbd1b2c95	-0.037884314
40	0x3d2c5617	0.04207429
41	0x3d96c767	0.07362252
42	0x3d6fcca5	0.058544774
43	0x3d850d1e	0.064966425
44	0x3d73e754	0.059546784
45	0xbd129a13	-0.035791468
46	0x3c864991	0.016392501
47	0x3d56e16e	0.05246108
48	0x3d324fb3	0.04353304
49	0x3d8df23d	0.06930969
50	0x3d22a81f	0.039711114
51	0x3be908e1	0.007111654
52	0xbc345032	-0.011005448
53	0x3c2426f1	0.01001905
54	0xbd6b2870	-0.05741161
55	0xbd1c71bc	-0.038194403
56	0xbcae5303	-0.021279817
57	0x3d36d309	0.044634853
58	0xbcc42f03	-0.023948198
59	0xbbc46d97	-0.0059945094
60	0x3d426c96	0.047466837
61	0xb8931a5b	-7.014415e-05
62	0x3d5ed56c	0.054402754
63	0x3d191d83	0.03738166
64	0xbcb00b4d	-0.021489764
65	0xbd311258	-0.043230385
66	0xbd07db8b	-0.033168357
67	0xbd003dc1	-0.031308893
68	0x3b7d26a6	0.0038627773
69	0x3c240cb9	0.010012799
70	0x3d0bfa72	0.03417439
71	0x3d2e092e	0.042489223
72	0xbd69c6e4	-0.057074443
73	0xbcba5714	-0.0227466
74	0xbd74ddbe	-0.059781782
75	0xbda78273	-0.08179178
76	0x3d0a470a	0.033759154
77	0xbd622368	-0.055209547
78	0x3cede541	0.02903998
79	0x3c1bfc21	0.009520561
80	0xba8623ec	-0.0010234094
81	0x3ce8bec5	0.028411279
82	0xbd6e4992	-0.05817563
83	0xbc447cf0	-0.011992678
84	0xbd8fe511	-0.07026113
85	0x3cfa30c0	0.030540824
86	0xbd38f5e5	-0.04515638
87	0xbd116ad3	-0.035502266
88	0xbd5eaf30	-0.05436629
89	0x3cfe01bf	0.031006692
90	0x3d69d6de	0.05708968
91	0x3d68d34e	0.05684214
92	0x3ca23aa0	0.019803345
93	0x3d809e57	0.06280201
94	0xbb74fe0a	-0.0037382864
95	0x3ba9f744	0.005186947
96	0x3c93b1fd	0.018029207
97	0x3d6b187f	0.05739641
98	0x3cb48fc2	0.022041205
99	0x3d716ed3	0.05894358
100	0x3d3cf09b	0.046127897
101	0x3d7a4aac	0.06110637
102	0xbc9cd983	-0.019146686
103	0x3cc50275	0.024049023
104	0x3d8bf608	0.06834036
105	0x3d02686b	0.031837862
106	0x3d70de28	0.058805615
107	0xb9e0d4c5	-0.00042883135
108	0x3c8223d9	0.015886234
109	0xbd835b9e	-0.06413959
110	0xbc2d8b67	-0.010592318
111	0xbcd38ce5	-0.02582402
112	0xbd507088	-0.05088857
113	0xbd7cd66a	-0.06172792
114	0xbd83f1b5	-0.06442586
115	0xbd096e39	-0.033552382
116	0xbcaa56bf	-0.020793317
117	0x3d96f8bd	0.07371662
118	0x3da2a89e	0.079423174
119	0x3d159a6a	0.036524214
120	0xbceaa7a9	-0.0286444
121	0x3c923907	0.017849458
122	0x3bbaef29	0.0057047796
123	0x3d13be43	0.03607012
124	0x3ce249c3	0.027623063
125	0xbcd317e9	-0.025768237
126	0xbb4890c3	-0.0030603863
127	0x3cf33793	0.029689586
128	0xbcfb7218	-0.030694053
129	0xbd3a798d	-0.045526076
130	0xbc31c2c1	-0.010849656
131	0x3d85e4b2	0.06537761
132	0x3d246014	0.04013069
133	0x3cd16060	0.02555865
134	0xbbd017f3	-0.006350511
135	0x3cffc90a	0.031223793
136	0xbc6d7e4f	-0.014495446
137	0x3d18feb6	0.037352286
138	0xbc1fd45f	-0.009755223
139	0x3c6e76be	0.0145546775
140	0xbc6531fc	-0.013988968
141	0x3d02dfbc	0.03195165
142	0x3d48dde0	0.04903972
143	0xbca1cf95	-0.019752303
144	0xbbc7e797	-0.0061006057
145	0xbcde0eab	-0.027106604
146	0xbc1e8d0a	-0.009677181
147	0x3d096e12	0.033552237
148	0xbd04ebe1	-0.032451514
149	0xbc8aea19	-0.01695733
150	0xbcffc7a7	-0.031223131
151	0xbc984192	-0.018585954
152	0x3d1d8a3c	0.03846191
153	0xbd19558d	-0.037435103
154	0xbc174c32	-0.009234475
155	0xbc70cba8	-0.014696993
156	0x3bdd7b0d	0.0067590536
157	0x3c605c4f	0.013693883
158	0x3d3fb65c	0.04680477
159	0x3d1474e1	0.036244277
160	0xbccb14a6	-0.02479012
161	0xbd45b8f4	-0.04827209
162	0xbd554af2	-0.052073427
163	0xbd0cb0ac	-0.034348175
164	0x3d22023b	0.03955291
165	0xbd6a3918	-0.057183355
166	0x3d09a811	0.033607546
167	0x3d218164	0.039430037
168	0x3d16da3f	0.03682923
169	0x3ca45c81	0.02006364
170	0xbcfc2319	-0.030778455
171	0xbd719305	-0.0589781
172	0x3d8308a2	0.06398131
173	0x3c9228cd	0.017841721
174	0xbd92be30	-0.07165182
175	0x3c5a0d13	0.013308781
176	0xbba5e2fd	-0.0050624595
177	0xbc8748ad	-0.016514147
178	0x3d216715	0.039404947
179	0x3d123df8	0.03570363
180	0xbd4d68a3	-0.050148617
181	0xbbe7783d	-0.007063894
182	0xbcf26e7b	-0.029593697
183	0xbd46926d	-0.048479486
184	0x3c63b205	0.013897424
185	0xbcca7b4f	-0.024717001
186	0xbd259bc2	-0.040431745
187	0xbd3b81eb	-0.045778196
188	0x3c94e2d8	0.018174574
189	0x3c911b9b	0.017713359
190	0xbce48e27	-0.027899815
191	0xbd1acce2	-0.037793048
192	0xbd3af2aa	-0.04564158
193	0x3d00b3de	0.031421535
194	0x3cb8701d	0.022514397
195	0xbc5a75ee	-0.013333781
196	0xbc408563	-0.011750552
197	0x3d3d5b54	0.046229675
198	0xbca84a9c	-0.020543389
199	0xbb13cde3	-0.0022553138
200	0x3d54dcf4	0.05196853
201	0x3c3f00f9	0.011657947
202	0x3d2e9b61	0.04262865
203	0xbcdc8f8c	-0.026923917
204	0x3d5a0871	0.053230707
205	0xbd1756ef	-0.03694814
206	0x3b735e2c	0.0037134988
207	0x3cf6bccc	0.030119322
208	0x3d0b6a00	0.034036636
209	0x3d239ed4	0.039946392
210	0xbb6a79ce	-0.0035778168
211	0xbcd1c89c	-0.025608353
212	0x3cad587d	0.021160359
213	0xbd2fc7dc	-0.04291521
214	0x3d145170	0.036210477
215	0xbd243429	-0.040088806
216	0xbd46429a	-0.04840336
217	0x3d811bef	0.06304156
218	0x3d6b2eae	0.057417564
219	0xbd123a87	-0.035700347
220	0xbce134c9	-0.02749099
221	0xbcd1f4a1	-0.025629343
222	0xbd97ed8f	-0.074183576
223	0x3d0de961	0.034646396
224	0x3d476a92	0.048685618
225	0x3c0dd62d	0.0086570205
226	0xbd153141	-0.036423925
227	0x3d0b374d	0.033988286
228	0x3d4601b0	0.048341453
229	0xbd34c42b	-0.044132393
230	0xbd535c1b	-0.05160151
231	0x3c54a16b	0.012977938
232	0x3d0759b3	0.03304453
233	0xbd28d147	-0.041215207
234	0xbca9f255	-0.020745436
235	0xbd72de6f	-0.05929416
236	0x3c4fdf44	0.012687508
237	0xbbe3637e	-0.0069393506
238	0xbda8f710	-0.082502484
239	0x3c8b96aa	0.017039616
240	0xbd00d47b	-0.031452637
241	0xbd3d7ffe	-0.04626464
242	0xbd0a82d1	-0.033816162
243	0x3d4ee335	0.05050965
244	0x3d63dc26	0.05562987
245	0x3d80a1ad	0.06280837
246	0x3d80016f	0.062502734
247	0xba7f11cd	-0.00097301306
248	0xbc729101	-0.014805079
249	0x3ce2fe65	0.027709195
250	0x3cc8a3aa	0.024492104
251	0xbd4ce576	-0.05002352
252	0x3d8217c7	0.063521914
253	0x3c831c68	0.016004756
254	0x3d229676	0.039694272
255	0xbbbbdadf	-0.0057328786

bias f4 [32]
0	0xbcdce03c	-0.026962392
1	0xbe0b23c0	-0.13587856
2	0x3d7a5520	0.061116338
3	0x3e42f3af	0.1903827
4	0xbd557eee	-0.052123003
5	0xbc989a8c	-0.018628381
6	0x3e1b556b	0.15169303
7	0x3e195c69	0.14976658
8	0x3e121bab	0.14268367
9	0x3e44bf01	0.19213487
10	0xbe417603	-0.18892674
11	0xbdf39740	-0.11894083
12	0x3b9e597c	0.0048324447
13	0xbde58d14	-0.11208549
14	0x3dbae749	0.091261454
15	0xbe0678f9	-0.13132085
16	0xbd3ac917	-0.04560193
17	0x3e15b282	0.14618877
18	0x3dca0922	0.09865023
19	0xb9806c21	-0.00024494625
20	0x3dd87e75	0.10570995
21	0x3c8fccdf	0.017553745
22	0xbdad5fe6	-0.08465557
23	0xbd122803	-0.03568269
24	0xbdc03016	-0.09384172
25	0xbde98901	-0.114030845
26	0x3e133b6b	0.14378135
27	0xbd29752b	-0.041371506
28	0xbe0a3686	-0.13497362
29	0xbe7902ea	-0.24317518
30	0x3df7ff1f	0.12109207
31	0xbdfbbf6a	-0.12292369

weight f4 [32, 3, 3, 3]
0	0x3cc302bd	0.023805017
1	0xbd9941df	-0.07483267
2	0x3da04367	0.07825356
3	0xbd027730	-0.031851947
4	0x3d5ba11b	0.05362044
5	0x3e06d9ab	0.13168971
6	0x3db364f7	0.08759492
7	0xbd2a30cd	-0.041550446
8	0xbdd58c4f	-0.10427152
9	0x3df39739	0.11894078
10	0xbd8c90ba	-0.06863542
11	0xbdcbede4	-0.099574834
12	0x3ccd5309	0.025064008
13	0xbe4680d5	-0.19385083
14	0x3e1509a7	0.14554463
15	0xbe0f93fb	-0.14021294
16	0x3da7d893	0.08195605
17	0x3e03912e	0.1284835
18	0x3e314f6e	0.17315456
19	0xbe3a154a	-0.18172184
20	0xbe4f2a88	-0.20231068
21	0xbca025ba	-0.01954924
22	0xbe049294	-0.1294654
23	0x3d5bef4b	0.053695004
24	0xbd99dc73	-0.075127505
25	0xbc208e23	-0.009799513
26	0xbda739f7	-0.08165353
27	0x3e5d2065	0.21594389
28	0x3be7115a	0.007051629
29	0x3e169799	0.14706267
30	0x3d234e69	0.0398697
31	0x3db78f49	0.08962876
32	0x3da40548	0.0800882
33	0x3d69cc8e	0.057079844
34	0x3daf1f96	0.085509464
35	0xbe2b7854	-0.1674512
36	0x3e13c831	0.14431836
37	0xbd039154	-0.032121018
38	0x3d3936fb	0.04521845
39	0x3b557195	0.003256892
40	0x3b3104a4	0.0027010823
41	0x3dc07a66	0.09398346
42	0x3dbacd47	0.09121185
43	0xbdfa4e1e	-0.12221931
44	0xbd910671	-0.07081307
45	0x3d9fa0ff	0.077943794
46	0x3e443beb	0.19163482
47	0x3d7d5841	0.061851744
48	0x3c3e612c	0.011619847
49	0xbd686fd1	-0.05674726
50	0x3e0d5de3	0.13805346
51	0x3e10eadf	0.14152096
52	0xbde2d5d5	-0.110759415
53	0x3d8f81f7	0.07007211
54	0x3d9ecc84	0.07753852
55	0x3e443392	0.19160298
56	0x3d4d2ebc	0.050093397
57	0xbd0c67d8	-0.03427872
58	0xbb1c95b5	-0.0023892943
59	0x3bc8826d	0.0061190636
60	0xbc41cd11	-0.011828677
61	0xbe385990	-0.18002915
62	0xbcc13fbf	-0.023589967
63	0xbcc8198e	-0.024426248
64	0x3e208860	0.15677023
65	0xbd243390	-0.040088236
66	0xbe438ee8	-0.19097483
67	0x3d38c9b7	0.045114245
68	0x3db31f88	0.087462485
69	0xbe1ca98b	-0.1529905
70	0xbe2ddef9	-0.16979589
71	0x3e29f32b	0.16596667
72	0x3e37e441	0.17958166
73	0xbca502bc	-0.020142905
74	0x3d38e09d	0.045136083
75	0xbc1f7322	-0.00973204
76	0xbda27411	-0.07932294
77	0xbe21552b	-0.15755145
78	0xbe2c83b3	-0.16847114
79	0x3d7fb11d	0.062424768
80	0xbddcf640	-0.10789156
81	0x3e0a8be2	0.13529924
82	0xba11defe	-0.00055645395
83	0xbe067f38	-0.13134468
84	0xbdbbb2d0	-0.09164965
85	0xbd19923b	-0.037492972
86	0xbd624ffe	-0.055252068
87	0x3e1fed74	0.15617925
88	0x3c36dbce	0.011160804
89	0xbe20b7ff	-0.15695189
90	0xbd1c2029	-0.038116608
91	0xbe656297	-0.2240089
92	0x3ceabe74	0.028655268
93	0xbcbb7a78	-0.022885546
94	0xbcbd86b4	-0.02313552
95	0xbcc7c851	-0.02438751
96	0xbd9dcd5f	-0.07705187
97	0x3dafdb9f	0.08586811
98	0xbd6e694d	-0.05820589
99	0xbdab6174	-0.08368197
100	0xbd95a91e	-0.07307647
101	0xbe2d41e9	-0.16919674
102	0x3c0dca93	0.0086542545
103	0xbdcc6062	-0.09979321
104	0xbe441aa6	-0.1915079
105	0xbdcb4197	-0.0992462
106	0xbd0ffb84	-0.035151973
107	0xbe49b738	-0.19698799
108	0x3e2fe6fc	0.17177957
109	0x3e4e118a	0.20123878
110	0xbda3a57a	-0.079905465
111	0x3dd218f0	0.10258663
112	0xbcd02d3c	-0.025412194
113	0xbdbd1b10	-0.092336774
114	0x3db5d817	0.088791065
115	0xbdf1455c	-0.117808074
116	0x3c61b9f5	0.013777246
117	0x3ddff0e0	0.10934615
118	0x3dcfdc66	0.101494595
119	0x3dab2ab2	0.08357753
120	0x3e14220b	0.14466111
121	0xbe33565a	-0.1751341
122	0xbe509372	-0.20368746
123	0x3be6d9d6	0.007045011
124	0x3d5e7dc5	0.054319162
125	0xbb1afc1d	-0.0023648806
126	0x3e0369da	0.12833348
127	0x3d247824	0.040153638
128	0xbe0a5e6d	-0.13512583
129	0xbd700a82	-0.05860377
130	0x3df40236	0.11914484
131	0xbd9a9bc1	-0.07549239
132	0xbd259cf3	-0.04043288
133	0xbd898aaf	-0.06715905
134	0xba877194	-0.0010333532
135	0xbe22cb6e	-0.15897915
136	0x3d17e1c5	0.037080545
137	0xbdca6a6e	-0.09883581
138	0x3d867e9d	0.06567118
139	0xbe37c221	-0.17945148
140	0xbdff9bd7	-0.12480896
141	0xbdb29e0a	-0.0872155
142	0x3d246d08	0.040143043
143	0xbcca1067	-0.024666024
144	0x3d1287e3	0.035774123
145	0x3c8743f3	0.016511893
146	0xbdd1b7ba	-0.10240121
147	0x3e22a527	0.15883313
148	0xbdd1744d	-0.10227261
149	0xbd847f36	-0.06469576
150	0xbd278677	-0.04089972
151	0x3a802c3b	0.0009778807
152	0xbcd38995	-0.02582244
153	0x3ddb380c	0.107040495
154	0x3e057879	0.13034238
155	0x3d9dbebc	0.07702395
156	0x3e67539e	0.22590491
157	0x3d57ef70	0.05271858
158	0xbde30aa7	-0.11086016
159	0x3e2a48b0	0.1662929
160	0x3d805b92	0.06267466
161	0xbde114c8	-0.10990292
162	0x3bb87afc	0.0056298953
163	0x3d61e33f	0.05514836
164	0x3d94ea2d	0.07271228
165	0xbe35598e	-0.17709944
166	0xbe062cc7	-0.13103019
167	0xbd6e3b65	-0.05816211
168	0xbd042029	-0.032257233
169	0xbd017ea1	-0.031614903
170	0xbc66d583	-0.014088991
171	0x3e14420e	0.14478323
172	0xbde4730c	-0.11154756
173	0xbe312530	-0.17299342
174	0xbd02b9dd	-0.031915534
175	0xbdb1dbfb	-0.08684536
176	0xbe1f422b	-0.15552585
177	0x3d865ecd	0.065610506
178	0xbcbf2457	-0.023332758
179	0xbe56b68d	-0.20968075
180	0xbdc44b3b	-0.095846616
181	0xbdc7b724	-0.09751728
182	0xbd9785ef	-0.07398593
183	0xbd84fc00	-0.06493378
184	0xbdb07d9c	-0.08617708
185	0x3e02093f	0.1269884
186	0xbbbfc9ed	-0.005852929
187	0xbda19746	-0.07890181
188	0xbcad200c	-0.021133445
189	0xbd1f0b60	-0.038829207
190	0x3e22814c	0.15869635
191	0xbe4c9011	-0.19976832
192	0xbdbbe1e5	-0.09173945
193	0x3e1bfec8	0.1523391
194	0xbdcf2e5a	-0.10116263
195	0xbdc280c7	-0.094972186
196	0x3dffbe87	0.12487512
197	0x3cc3c304	0.023896702
198	0x3c40e291	0.011772768
199	0x3d289cec	0.041165277
200	0xbbb5eb9d	-0.005551769
201	0x3e2719c6	0.16318426
202	0xbd9cc6d0	-0.07655108
203	0x3e153c32	0.14573744
204	0xbe071ca5	-0.13194521
205	0x3a845deb	0.001009879
206	0xbde04db1	-0.109523185
207	0x3d03dcca	0.032192983
208	0xbe20e7ee	-0.15713474
209	0x3cb1df48	0.021712914
210	0xbd891ce7	-0.06694966
211	0xbdbfc6a0	-0.093640566
212	0xbdab391e	-0.083605036
213	0x3d9d33b2	0.07675876
214	0x3e44590b	0.19174592
215	0xbdc3429e	-0.095341906
216	0xbe800660	-0.25004864
217	0xbc1f511f	-0.009723931
218	0x3d2973a7	0.04137006
219	0x3d998a97	0.07497137
220	0xbc01588b	-0.007894645
221	0xbdc33f80	-0.09533596
222	0x3ca40a63	0.020024484
223	0x3d3021cd	0.043000985
224	0xbe0049a6	-0.12528095
225	0x3ddfe434	0.10932198
226	0x3db8e5b1	0.09028185
227	0xbe3ab4e4	-0.18233067
228	0xbe39471e	-0.18093535
229	0xbe07069f	-0.1318612
230	0xbe6e34f1	-0.23262383
231	0xbd382b16	-0.044962965
232	0xbe28b451	-0.16475035
233	0x3e076940	0.13223743
234	0xbe612e0f	-0.21990226
235	0x3e050ec5	0.12993915
236	0xbe4ff8b8	-0.20309722
237	0xbdc6f155	-0.09713999
238	0x3d12d606	0.03584864
239	0xbe149afb	-0.14512245
240	0x3d9224bc	0.07135913
241	0x3da34465	0.079720296
242	0x3df854f0	0.121255755
243	0xbe4c1bc4	-0.19932467
244	0xbd8155a4	-0.06315163
245	0xbe2b6afe	-0.16740033
246	0x3dc23e5f	0.094845526
247	0xbe4de1f7	-0.2010573
248	0xbe4fe3af	-0.20301698
249	0x3d9df41f	0.07712578
250	0xbdc38d2d	-0.095484115
251	0xbe58016c	-0.21094292
252	0xbd0d3ebc	-0.034483656
253	0x3b3952b8	0.0028278064
254	0xbe56bb05	-0.2096978
255	0x3d09384d	0.03350096

bias f4 [3]
0	0xbda97ea3	-0.08276107
1	0x3d9f4f19	0.077787586
2	0xbe945dfe	-0.2897796
