inpatinign diagrams/lama_denoising_model.pth (torch, 60418 bytes, 12 tensors)

weight f4 [32, 3, 3, 3]
000000 62 48 94 3d 6c 09 34 3e df 66 37 be 37 fd ec bd
       0.072403684 0.17581719 -0.17910336 -0.115717344
000010 a3 89 bd 3d f8 52 05 3e 7e c2 a9 bd be a4 2c 3e
       0.09254768 0.13019931 -0.082890496 0.16859719
000020 7c 6c 75 3d b5 81 be bd 90 6b a9 3d f4 97 9c 3d
       0.059917912 -0.093020834 0.08272469 0.0764617
000030 b8 f8 1f 3d dc a6 f4 3d 59 de 1d be 82 71 1b 3e
       0.039055556 0.119458884 -0.1541685 0.15180019
000040 76 ca 3b 3c ca 19 75 bd e4 71 e9 bd 1b 23 2c bd
       0.011461845 -0.059839047 -0.11398676 -0.042025667
000050 d6 88 12 be a0 e2 d2 3d 6e 65 08 3d da 2e 3b be
       -0.14310011 0.102971315 0.033299856 -0.18279591
000060 a3 c6 19 3d 65 90 5b bd 84 7d b4 3d 7e 03 05 3e
       0.03754295 -0.053604502 0.08813003 0.12989613
000070 62 90 42 3e f4 0e 7c ba 00 2b 0c be d0 02 e4 3d
       0.1900039 -0.00096152653 -0.13688278 0.11133349
000080 0c 12 a6 3b 2d 3d df bd 26 4f 7b bd 23 aa fb 3c
       0.0050680693 -0.1090034 -0.06135478 0.030720776
000090 c9 46 13 be 47 d8 2a 3d a0 a2 35 3c 8f 34 06 be
       -0.14382471 0.041710164 0.011086136 -0.13105987
0000a0 dc f0 24 be f9 8c 30 3c b3 a0 74 3d ae 0b 17 3d
       -0.16107506 0.010775798 0.059723567 0.036876373
0000b0 e4 3f 29 be 56 45 b4 bc 24 6f 85 3d f7 58 ad bd
       -0.16528279 -0.022005718 0.06515339 -0.08464234
0000c0 f9 a2 63 bd ba 20 3c be 1d 7f 91 bd 7d 7c 9d 3c
       -0.055575345 -0.18371859 -0.07104323 0.0192244
0000d0 9b 76 e8 bd b1 b6 06 be 93 f9 1d be 65 2d 12 3c
       -0.11350747 -0.13155629 -0.15427236 0.008921956
0000e0 86 5f 67 bc b0 24 48 3e d6 00 cd bd 4c e9 4a 3e
       -0.014121896 0.19545245 -0.10009925 0.19815558
0000f0 4f e5 a0 bd 41 8c 3b 3d 54 d0 bd bd c9 8a 21 3e
       -0.07856237 0.045788053 -0.09268251 0.15775599
000100 93 ff 37 3e b5 d0 52 3d d7 97 a8 bd 7f e4 b4 3d
       0.17968588 0.05146857 -0.08232086 0.08832645
000110 fc 64 2b be 38 ef 7b bd 8c c5 e9 bd 62 5f 75 be
       -0.16737741 -0.061507434 -0.11414632 -0.23962167
000120 95 cb ff bc 0b c8 a9 bd 7a fc f2 3c 3f 31 0f 3d
       -0.031225005 -0.08290108 0.029661406 0.034959074
000130 17 21 33 3d 56 64 04 3e 5e 1b b9 3c 4a f4 51 bb
       0.04373273 0.129289 0.022596058 -0.0032036477
000140 ce 26 47 be e0 5b d5 3d 9e 3b 23 3e d8 04 22 bd
       -0.19448397 0.104179144 0.15940711 -0.0395554
000150 4a f0 21 be e9 8a 3c 3d 07 e4 d2 3d 30 3c 0d be
       -0.15814319 0.046030913 0.10297399 -0.13792491
000160 1c 7c c5 bd ff 5f 0f be 9a 45 f6 bd 10 37 28 be
       -0.096428126 -0.14001463 -0.12024994 -0.16427255
000170 9c 7b 5f bd 1d c4 a5 bd ef 51 c2 bd 0d 88 0b 3e
       -0.054561242 -0.08094046 -0.09488284 0.13626118
000180 58 9c d0 3d c5 6b b1 bc 35 d3 13 be f0 96 78 bc
       0.1018607 -0.021657834 -0.14436038 -0.015172705
000190 85 da a6 3d 24 d9 7c bd 69 32 1a be 01 11 97 bd
       0.08147148 -0.06173052 -0.15058292 -0.0737629
0001a0 16 32 0b be 4b 0e 70 bd 57 07 e4 3d cf 8a 0a 3e
       -0.13593325 -0.05860738 0.111342125 0.13529514
0001b0 0a ba 79 bb 3e 6b 63 bd 6b 9d 17 3d bc f1 1b 3d
       -0.0038105273 -0.055522196 0.03701536 0.038072333
0001c0 29 b6 37 3e b5 6f 61 bc a5 7c cb bd 18 51 2e 3e
       0.17940582 -0.013759543 -0.099358834 0.17023122
0001d0 39 29 b8 3d 61 93 9e bd cc 5f ef 3d 64 51 e1 3d
       0.089922376 -0.07742954 0.11688194 0.11001852
0001e0 ec 56 a4 3c 8e 7b 58 bd f6 a0 2f 3d 12 99 09 3d
       0.020060979 -0.052852206 0.042878114 0.033593245
0001f0 13 e2 30 be f4 c2 38 be a0 c4 7e bd 15 9c 15 be
       -0.1727374 -0.18043119 -0.062199235 -0.14610322
000200 b6 a7 20 be 86 5f 70 bd 0c e5 c1 bd 03 ec 22 3d
       -0.15688977 -0.05868485 -0.09467515 0.03977586
000210 b8 6c ae bd 4e be bc 3c 2e 57 2f 3e 92 85 bd bd
       -0.0851683 0.023039963 0.171231 -0.09253992
000220 95 d8 2a be 30 c1 00 be c0 37 bb 3d 09 ca 05 be
       -0.16684182 -0.12573695 0.09141493 -0.13065352
000230 20 5a 8a bd 3c 1a 17 be 33 90 8e bd 9c 2f dd 3c
       -0.06755471 -0.14756101 -0.069610976 0.027000241
000240 16 25 52 39 12 b0 07 3e c7 ac 8d bc c7 e9 ad 3d
       0.00020040976 0.13250759 -0.0172943 0.08491855
000250 1b 75 97 3b 9c 56 7a bc f7 bd 00 be dd 1e a3 3d
       0.0046221144 -0.015279438 -0.12572466 0.07964871
000260 af 52 e3 3b bf c3 d4 3d 76 17 0f be b3 ca e3 3d
       0.006937347 0.10388898 -0.13973793 0.11122646
000270 ad 15 cc bd 9e 8b cf 3d f5 b0 19 3e 5e 41 bc bd
       -0.09965072 0.10134052 0.1500891 -0.09192155
000280 be 95 d3 3d b2 54 08 bd 90 c7 91 3d 98 49 d8 3d
       0.103312954 -0.033283897 0.07118142 0.10560912
000290 4f 17 49 be cd 8e 79 3d 1c ab 43 be 86 e8 a3 3d
       -0.19637798 0.0609272 -0.19108242 0.08003335
0002a0 03 d1 36 3e 4a 68 04 3d 50 7a 20 be cb a5 c3 bc
       0.17853169 0.03232602 -0.15671659 -0.023882767
0002b0 9f 21 ef 3d 7c 57 85 3d 4e e2 07 be 44 cf 93 bd
       0.116763346 0.06510827 -0.13269922 -0.07217267
0002c0 c2 e1 67 3d 7b 1b 34 3c 31 87 8b 3d 31 64 bd 3d
       0.056611784 0.01099288 0.06812895 0.092476256
0002d0 17 7f f0 3c 66 b2 34 bc 69 71 0d be c4 f6 89 3d
       0.029357476 -0.011028862 -0.13812794 0.0673652
0002e0 a8 11 ea 3d 22 7d 33 be 28 a5 1f be 92 33 a1 3d
       0.11429149 -0.17528203 -0.15590346 0.078711644
0002f0 7d f0 5c bd fc 79 01 be ed 9c 83 bd 18 b6 17 3e
       -0.053940285 -0.1264419 -0.064264156 0.14815557
000300 a5 54 08 3d c0 7d 47 3c c7 38 96 bd 5a bb 0d be
       0.03328385 0.012175977 -0.07335048 -0.13841
000310 be 9e ef bd 26 be cd bd d2 14 2d 3d ae 67 b0 3c
       -0.117001995 -0.100460336 0.042256184 0.021533813
000320 2e f9 bf 3d 37 f5 22 3d 71 cd e3 3d 94 08 8b bd
       0.09373699 0.039784636 0.11123169 -0.067887455
000330 9a e0 4e bd 94 e9 09 bb d4 b2 07 3e 1f ec 2f 3e
       -0.050507165 -0.0021043764 0.13251811 0.17179917
000340 de 26 03 3e a6 b2 46 bd 5f 13 9f bd 31 c5 58 bd
       0.12807795 -0.048510216 -0.077673666 -0.05292243
000350 f5 b3 3e 3d 49 14 e2 3a 17 f4 b4 bd cb 2e 27 3e
       0.04655834 0.0017248477 -0.08835619 0.16326444
000360 38 3d 3b be f0 7e 91 bd fb 99 df 3c c5 90 6c 3d
       -0.18285072 -0.071042895 0.027295103 0.05775525
000370 83 87 6a bd 0d 0c 02 3c 36 56 12 3d 50 dc c7 3d
       -0.05725814 0.007937443 0.03572675 0.09758818
000380 85 19 2e 3c 9d af bf 3d f3 87 c1 3c 48 7e 39 bc
       0.0106262015 0.093596675 0.023624396 -0.011321612
000390 9b 28 4d 3d e7 01 3e 3d 5b 28 15 3e eb a3 5e 3d
       0.050087553 0.046388533 0.14566176 0.054355543
0003a0 b8 8c 34 be 59 ad 10 be 8b 76 15 3e 00 81 70 3c
       -0.17631805 -0.14128627 0.14596002 0.0146791935
0003b0 c1 d1 dc 3d 77 0b 1f 3d 58 09 b9 bd 97 44 eb bd
       0.10782195 0.038829293 -0.09034985 -0.11487692
0003c0 f0 c2 86 3b 6f da e7 bd 37 8d c7 3d 13 ad d0 bd
       0.004112594 -0.1132096 0.097437315 -0.10189261
0003d0 4f cb 38 3e 55 86 aa bd 75 60 10 3e 73 6a 38 be
       0.18046306 -0.08326403 0.14099295 -0.18009357
0003e0 c7 8d 12 be 86 17 0c bd cb 3c ae 3d de b6 86 bd
       -0.14311896 -0.03420212 0.08507689 -0.06577848
0003f0 4d 5e b2 bd a1 b4 33 be c3 32 0b 3e 66 4a e3 3d
       -0.08709393 -0.17549373 0.13593583 0.11098175

bias f4 [32]
000000 ac 6d 07 bd 99 43 07 3e 80 8b 12 be 8f b6 e5 bd
       -0.033063576 0.1320938 -0.14311028 -0.11216461
000010 9f 23 94 3e 3f 91 8f 3e 3c ef 88 3e 0d 77 80 3e
       0.28933427 0.280405 0.2674502 0.2509083
000020 d9 10 43 3e 87 d1 9f 3c 2e 66 2f be 63 f2 a2 bd
       0.19049396 0.01950909 -0.17128822 -0.07956388
000030 ad a3 ec 3d f1 04 30 3e a9 f5 ad 3d 3e 7b e5 bd
       0.11554656 0.17189385 0.084941216 -0.11205147
000040 01 3d 4a 3e a6 8f 1a bd dc 82 0c bd 96 02 01 3e
       0.19749834 -0.03773465 -0.034304485 0.12598643
000050 ba 2e 1a 3e ef a9 9f be 48 bf b3 3a 2b 40 95 be
       0.15056887 -0.31184337 0.0013713622 -0.2915052
000060 95 05 28 3e 5d 37 1c bd e1 28 28 be ac d0 ac bd
       0.1640838 -0.038138736 -0.16421844 -0.084382385
000070 c6 d7 2f bd a8 9c 45 3e bd 59 10 be 41 20 b5 3d
       -0.042930387 0.19298041 -0.14096732 0.088440426

weight f4 [16, 32, 3, 3]
000000 78 ab 31 bd 3f 7d 7e bc 6c b8 d5 3c 04 c3 fe 3c
       -0.043376416 -0.015532791 0.026088916 0.03109885
000010 6e f7 0c 3d 05 d5 b6 b8 84 50 12 3d 3f 2c 30 3c
       0.034415655 -8.718114e-05 0.035721317 0.010752737
000020 a4 a4 70 3c 12 5f a1 bc 71 81 38 3b a1 84 02 bc
       0.014687691 -0.019698653 0.0028153325 -0.0079661915
000030 51 91 8f 3c 7b e9 a9 3c 84 28 88 3d 64 a5 9b bb
       0.017525347 0.020741215 0.06648353 -0.0047499407
000040 32 be 16 3d e3 b8 0a 3d 09 11 4d 3d 12 89 32 3c
       0.036802478 0.033867728 0.050065074 0.010896938
000050 a5 eb 16 bd 69 9b ab 3b a9 f0 01 3c f5 d2 40 3b
       -0.036845822 0.005237032 0.007930913 0.0029422615
000060 07 39 9f bc 33 d4 0f bc 31 60 ca 3b ff af 27 3d
       -0.019436372 -0.00877862 0.0061760177 0.040939327
000070 b0 af 59 3d c8 cb f8 bc 63 a2 2d bd 06 91 34 bd
       0.053146064 -0.030370608 -0.042391192 -0.044083618
000080 48 5a a7 3c 7a dd 29 bd 72 e9 14 bd b0 44 85 3d
       0.020428792 -0.041470982 -0.036355443 0.06507242
000090 c6 97 12 bd f4 6b a9 bc bb 20 58 bc b8 94 d8 3c
       -0.035789274 -0.020681359 -0.013191397 0.026438102
0000a0 8d 34 1d 3d fb c6 c8 3c 04 42 6e bd 54 bf 8e 3c
       0.038380194 0.024508944 -0.058168426 0.017425217
0000b0 92 2f e4 bc 43 c7 86 bd ae bd 3a bd e4 a5 07 bc
       -0.027854715 -0.06580975 -0.04559105 -0.0082792975
0000c0 b7 47 4d bd cf b3 39 bd 86 b5 e1 bc d1 c9 bc 3b
       -0.05011722 -0.045337494 -0.027552377 0.005761363
0000d0 af 7a 17 bd b9 c1 bb 3c cc d6 6c bd 11 64 13 3d
       -0.036982235 0.022919523 -0.057822034 0.035984103
0000e0 ae 2f b3 bc cf f4 88 bd d3 e5 32 bd 25 6b 9b 3c
       -0.021873321 -0.066873185 -0.04367621 0.018971989
0000f0 a1 d3 12 3c 1b c9 8e 3c 99 76 85 bc 04 e9 01 bd
       0.008961589 0.017429879 -0.016291903 -0.03171636
000100 ce ad 48 bd e5 3e 5c bd d2 c2 13 bd 43 4d c1 3c
       -0.048993878 -0.05377092 -0.036074467 0.023596412
000110 10 d2 c6 3c 09 1c 2e 3d 9d 40 df bc be ad e6 bb
       0.024270087 0.042507205 -0.02725249 -0.0070397547
000120 5f c7 5c bd 53 b9 47 bd 41 82 4e bd ce c5 58 bd
       -0.053901073 -0.048760723 -0.05041719 -0.052923016
000130 75 35 85 3c 8c 6f 08 3c 6d e3 1e bd bf 40 77 bd
       0.016260842 0.008327376 -0.03879111 -0.06036448
000140 cb 4f fb 3c f0 5c 18 bd 3c 54 b0 3c 5d 6d da 3c
       0.030677697 -0.037198007 0.021524541 0.026663477
000150 14 0f 8d bd df 7c 02 3d f7 d7 a6 bc b2 52 61 bd
       -0.068876415 0.031857368 -0.020366652 -0.055010505
000160 43 e6 9d bc 62 07 75 3c ed 63 bc bc 8f 36 0a bd
       -0.019274836 0.0149553735 -0.022996867 -0.033743437
000170 2d 88 07 bd 12 b3 35 3c e1 ec 3e 3d 13 8a d1 3c
       -0.03308885 0.011090057 0.046612624 0.025578534
000180 d1 de 70 ba c9 2a 0d 3c 10 99 e3 bb f3 01 42 3d
       -0.00091884757 0.008616158 -0.0069457367 0.04736514
000190 6a 75 92 bd 84 63 23 3d 29 ee f7 3c ba 9c 9e bd
       -0.07151301 0.039889827 0.03026493 -0.07744737
0001a0 dc 4f b4 bc d1 76 01 3d 3a 1f 1d 3c 91 34 e9 3c
       -0.022010736 0.031607453 0.0095899645 0.028467448
0001b0 d9 c9 0b bd fc de 16 3d 81 e6 85 3b 87 88 79 bd
       -0.034128044 0.03683375 0.004086316 -0.06092122
0001c0 61 67 4f 3b ca a8 3a bd 3c 3e 09 3c ee 3e 46 bd
       0.0031647312 -0.045571126 0.008376654 -0.04839986
0001d0 91 90 76 bd 3f 79 b6 bb 4b b8 24 3d 0c 9d a3 3c
       -0.060196463 -0.005568653 0.040214818 0.019972347
0001e0 d7 ba 27 bd 81 1b fe bc 77 94 e4 3b 18 58 97 ba
       -0.04094967 -0.031018974 0.006975706 -0.001154664
0001f0 83 53 79 bd 69 8c 38 bd c9 8d 43 3c 46 ef 90 bd
       -0.06087066 -0.04505578 0.01193566 -0.07076888
000200 89 2e f2 bb 81 43 8e bd 1d 02 ad bb 93 55 9d bd
       -0.0073908013 -0.06946469 -0.005279793 -0.076823376
000210 46 09 a9 3c 1c 41 ab bc 01 64 46 bd d7 f1 c1 bc
       0.020634305 -0.02090507 -0.048435215 -0.023674889
000220 16 41 d3 3c 77 4f db 3c cb 53 a0 bc 1f 62 42 bd
       0.025787871 0.02677129 -0.019571206 -0.047456857
000230 e9 33 50 bd e6 3d 5f 3c 0d 67 85 bc 65 c5 5c 3c
       -0.050830755 0.013625598 -0.01628449 0.013474797
000240 87 f5 40 3d 7a c4 0d bc ea 5d a1 3c f9 05 ce bb
       0.047109153 -0.008652801 0.019698102 -0.006287333
000250 33 57 3b 3d e4 ad 59 bd c7 58 ed bc d6 6b 87 bd
       0.045737457 -0.05314435 -0.028972996 -0.06612365
000260 58 65 f4 3c 5e 54 99 3c 35 27 60 3d 1f 23 e8 3b
       0.02983348 0.018716987 0.05472489 0.007084265
000270 af 79 2f 3d 3b 4b ef 3c 33 25 13 bc bc 55 1a 3d
       0.042840656 0.029210677 -0.008981037 0.03767942
000280 46 4b 5a 3c 1b 68 38 bd f1 3f 7e bd ad 15 25 bd
       0.013323611 -0.045021158 -0.062072698 -0.040303875
000290 82 28 0f 3d 8a 2d b2 3c cd 43 46 39 d6 ae 82 bd
       0.03495074 0.02175023 0.00018908009 -0.063810036
0002a0 26 00 36 3d 2e 7b a1 bc 39 10 d3 3c 51 15 18 3c
       0.044433735 -0.019712057 0.025764572 0.009282426
0002b0 34 ee cb 3b 12 20 f8 3c 84 93 cc 3b 56 b1 26 bd
       0.0062234644 0.03028873 0.006243171 -0.040696464
0002c0 4b 65 d8 3c 8f a6 c7 3c 18 a0 fb 3c ae c0 2e bd
       0.026415488 0.024371414 0.030715987 -0.042664222
0002d0 9c a6 72 bd 16 4e ad bc f7 c3 6e bd 20 f3 d5 3c
       -0.059240922 -0.021155398 -0.058292355 0.026116908
0002e0 d1 d2 92 3c 2b 9a 40 bc be ed 57 bd 06 7a 0c bb
       0.01792279 -0.0117555065 -0.052716963 -0.0021435036
0002f0 fe 0e 31 3d 96 05 34 3d 04 74 bf 3b e0 30 48 bd
       0.04322719 0.04395064 0.0058426876 -0.048874736
000300 20 91 b0 3c b4 3c c7 bb 2b a7 ec 3c 2f 7a e5 3c
       0.021553576 -0.0060802344 0.028888306 0.028012363
000310 7b b7 ba 3b 1f 9a 78 bd 48 28 ce 3c df b4 b2 3c
       0.005698142 -0.060693856 0.025165692 0.021814762
000320 5c 44 c1 3c c4 be a5 3c fb d8 1f bd db 9a 4c bc
       0.023592167 0.020232566 -0.039025288 -0.012488092
000330 9c 66 3a bc fe a6 27 3d b2 56 bc 3b c1 9b 37 3d
       -0.011377003 0.04093074 0.0057476396 0.044826273
000340 9d 58 30 3d 6a 3c 76 3b e1 57 9c bc 81 60 23 3d
       0.04305326 0.003757263 -0.019084873 0.039886955
000350 8c 6c c7 bb 2d 89 6b bd 6e 91 51 bd 2d f3 d5 3c
       -0.006085938 -0.057503868 -0.051164083 0.026116932
000360 a3 d0 79 3d 17 ea 99 3c 6b 6d 08 bd e1 bb d9 3c
       0.060989987 0.01878838 -0.033307474 0.026578845
000370 31 6f 97 3b 78 60 9d 3a 95 7e 01 3d 6e 89 3a 3d
       0.0046214093 0.0012006899 0.03161486 0.04554122
000380 8d b1 ac bc af 50 d5 bb 12 1b 20 bd d0 20 ec 3b
       -0.021080757 -0.0065098624 -0.039088316 0.00720606
000390 cd 07 04 3d f8 cd 49 3d de 5c da 3c 58 d3 69 bb
       0.032234002 0.049268693 0.02665561 -0.003567895
0003a0 ec 1b 62 bc 43 85 48 bd c0 fc 3f bd 2b ba 42 3c
       -0.013800602 -0.048955213 -0.0468719 0.011885206
0003b0 5d 3f 2f 3c 38 da 48 3d 7f 91 ae 3c 10 8c 0a 3c
       0.010696259 0.049036235 0.021309612 0.008456245
0003c0 32 89 26 3d 80 49 1e bd 51 51 a1 bc bb 89 fd 3c
       0.040658183 -0.038644314 -0.019692095 0.030949464
0003d0 93 7c dd ba 3b f1 4e bd 82 46 ae 3c 75 ba ba bc
       -0.0016898088 -0.050523024 0.021273855 -0.022793988
0003e0 4b 85 7f bd 2c 33 0c bd c1 ba 8e bb 45 e6 00 3b
       -0.062382977 -0.03422849 -0.004355759 0.0019668501
0003f0 8a 0a af bb 26 9b 9e 3c cc 8c fb bc 0f 15 4e bd
       -0.0053418325 0.01936109 -0.030706786 -0.05031305

bias f4 [16]
000000 63 78 86 bd 57 95 51 bd 94 14 f2 3c 67 44 a5 bd
       -0.06565931 -0.051167812 0.029550828 -0.08069687
000010 85 45 11 3d 56 65 fb bd 22 1c 62 bd 1f 34 dc 3c
       0.03546669 -0.12275188 -0.05520261 0.026880322
000020 d2 63 3e 3e 58 a4 24 bc 28 47 99 bd d8 87 2b 3e
       0.18592766 -0.010048948 -0.07484275 0.16751039
000030 3a bd f1 bd 15 66 3b 3e 0e 45 de 3d 41 ed c8 bc
       -0.1180367 0.1830066 0.10853015 -0.024527194

weight f4 [8, 16, 3, 3]
000000 a3 8a 6d 3d ab c7 ac bd 99 02 69 3b a3 5d 90 bd
       0.057993542 -0.08436521 0.0035554527 -0.0704911
000010 df 16 83 3d a8 93 9b bd 85 f2 a3 3d a4 11 1f bd
       0.06400847 -0.075965226 0.08005241 -0.038835183
000020 7c 23 8c 3d fd ab 74 bd a1 e7 93 3c 84 df 38 3d
       0.068427056 -0.059734333 0.018054785 0.045135036
000030 b3 4f af 3c 85 b4 3b bd 32 d4 5d 3b e8 bc 03 3d
       0.021400308 -0.045826454 0.0033848402 0.032162577
000040 0c 8e a9 bc af 11 35 3c 5e 03 b8 3c 09 6d 16 bd
       -0.020697616 0.011051579 0.022462543 -0.036725078
000050 56 7d 14 bd 4e 29 9d bd d9 68 fa bc 7e 85 3b bd
       -0.036252342 -0.07673894 -0.030567573 -0.045781605
000060 10 a3 11 bc d6 1f f6 3c ad 29 f6 3c 4b 0a ae bc
       -0.008888975 0.030044477 0.03004917 -0.021245142
000070 9e b9 7b bd 38 2f 3f bd f1 37 19 3d ec ed a4 bd
       -0.061456315 -0.04667589 0.037406866 -0.080531925
000080 8b ef 02 bd 25 57 46 3d 0a d3 09 3d 9a 18 06 3d
       -0.031966727 0.04842295 0.03364853 0.032738306
000090 cc 5d a5 3b 5f 07 0b bd e3 c1 86 bd 4d 8a dd b9
       0.005046582 -0.033942576 -0.0657995 -0.00042255447
0000a0 f7 3f 84 bb f8 38 2d bd ea 96 95 3d 61 7c 21 3d
       -0.0040359455 -0.042290658 0.07304175 0.039425258
0000b0 7b 9a 5d bd 57 8d 32 bc 0f a0 5e 3d 79 61 4a bd
       -0.054102402 -0.010897956 0.054351863 -0.049409363
0000c0 a1 b7 7e bd e2 11 2a 3c 07 fd f9 3c 06 3c 04 bd
       -0.06218684 0.01038024 0.03051616 -0.032283805
0000d0 ac 61 e6 bc 1d 99 42 3d 6e 91 40 3d 48 80 c4 3d
       -0.028122745 0.0475093 0.047013693 0.0959478
0000e0 ea d2 89 3d 58 c0 58 3d 3e 60 03 3d 50 e3 bb 3d
       0.06729682 0.05291781 0.032074206 0.09174216
0000f0 9d d3 95 3d 17 04 12 3d 50 e7 0b 3d d4 b6 69 bd
       0.07315753 0.03564843 0.034156144 -0.057059124
000100 78 f5 14 bd 9b 93 c2 3d 42 f8 94 bd ed da bb 3c
       -0.03636691 0.0950081 -0.07273914 0.02293154
000110 96 a3 9d bd dc ba b4 3d 5b f7 6e bd 7f 4c 65 bd
       -0.07697217 0.08824703 -0.058341365 -0.055981155
000120 2b db d0 3c fe 1f a5 3d 93 89 85 3d ff c7 08 bd
       0.025495132 0.08062743 0.06520381 -0.033393856
000130 1b b1 1b 3d 23 9d df 3b 0c e7 58 3d 98 1a 5a 3b
       0.038010698 0.006824152 0.05295472 0.0033280011
000140 97 b3 ac 3d 15 53 bb 3c 88 0f a4 bd f8 a6 13 bd
       0.084326915 0.022866765 -0.08010775 -0.036047906
000150 cb 89 fb bb 26 2c 65 bd cf b4 17 bd fc 85 23 3d
       -0.0076763383 -0.055950306 -0.037037667 0.0399227
000160 55 95 2a 3c 55 7b 70 3d 90 99 b3 bd 02 c7 a4 bd
       0.01041158 0.05871137 -0.08769524 -0.0804577
000170 ce 85 1a 3d 3c 6c 61 3d 53 82 82 3d ad 3d 79 bd
       0.037725262 0.05503486 0.063725136 -0.060849834
000180 0b ba b4 bd 48 f9 e9 bc 39 d7 7c bd ed 75 10 3d
       -0.088245474 -0.02856125 -0.06172869 0.035268713
000190 9a 46 0c 3d 39 3b a2 bd 65 7f a3 bd 4b 90 6f 3d
       0.03424702 -0.07921452 -0.07983283 0.058487218
0001a0 e7 e4 41 3c 21 e2 50 3c e8 29 8c 3c 3f 0d a5 bd
       0.01183436 0.012749226 0.017109826 -0.08059167
0001b0 09 37 aa bc 96 f1 93 bb 5e 70 ba 3c 3f 9a 5e 3d
       -0.020778196 -0.0045148833 0.022758659 0.05434632
0001c0 d7 b3 a8 bd 79 e6 5a bd f1 c1 63 bd 01 6d 61 3c
       -0.08237427 -0.053442452 -0.05560488 0.013758899
0001d0 76 ad 55 bd 47 13 b2 3d e9 62 54 bd 7d e8 ea 3c
       -0.05216738 0.08695083 -0.05185214 0.028675312
0001e0 b9 17 22 3d 76 2f e8 3c 36 b3 01 3c 06 f4 52 3a
       0.039573405 0.028342944 0.007916262 0.00080472266
0001f0 86 7f c6 3d ff 94 c4 bb 15 55 41 3c 62 3c 8d 3d
       0.09692292 -0.005999207 0.01180007 0.06896283
000200 ba 68 5f bc 8d b2 55 bc 29 fe a0 bc fc 03 d0 bc
       -0.013635809 -0.013043058 -0.019652443 -0.025392525
000210 2d ad 18 3d 1b 1d 89 3d dc 42 f9 3d d9 5b 30 3c
       0.03727453 0.066950046 0.121709555 0.010764086
000220 ac 5a 2b 3d 50 4e b2 bc 7e 01 6e bd 9c be ae bb
       0.04183452 -0.021765858 -0.05810689 -0.005332781
000230 9a a6 43 bd 34 02 35 bd ce a3 f5 3c 8e 33 07 3d
       -0.047766306 -0.044191554 0.029985335 0.03300815
000240 fd 8c c3 bb a5 57 d1 bb 35 fd 23 bc f4 7e 88 bc
       -0.005967735 -0.006388622 -0.0100091 -0.016662098
000250 b6 bf 88 3d 91 11 62 3c f4 d9 0c bd 58 8e 27 bd
       0.06677191 0.0137981335 -0.034387544 -0.040907234
000260 13 75 83 bd 7c 82 d8 3c ab 26 2f bd 9d 71 91 bd
       -0.064188145 0.026429407 -0.042761486 -0.07101748
000270 2e e7 51 bb d0 0e 82 3d b4 f3 69 bd bd f7 56 bd
       -0.0032028663 0.063504815 -0.05711718 -0.052482355
000280 2b 4e 0f bd 94 aa 3e 3d 53 3b 2b bd 02 2e 8f bd
       -0.034986656 0.046549395 -0.041804623 -0.06991197
000290 bd b9 64 bc fe f6 70 3d d4 ee 34 3c 99 30 52 bd
       -0.013960299 0.0588293 0.011043269 -0.051315878
0002a0 ba 98 70 bd ea 10 96 bc 05 79 0e bd f9 20 6a 3d
       -0.0587394 -0.018318612 -0.034783382 0.05716035
0002b0 c4 ba a1 bd 9b 09 9d bd 6b 85 2e 3d b7 7e a3 3d
       -0.07896951 -0.07667848 0.042607706 0.07983153
0002c0 99 65 5b bd ed 8a af 3c 5f 91 53 3d 28 c6 eb 3c
       -0.053563688 0.02142855 0.05165231 0.028781012
0002d0 af 53 8b 39 ee ab e7 3b ea f2 ce bc 25 59 1d 3d
       0.00026574495 0.007070056 -0.025262315 0.038415093
0002e0 53 a8 a9 3c d4 dd 69 bd 92 2f 3f bc f1 18 36 bd
       0.020710146 -0.057096317 -0.0116690565 -0.04445738
0002f0 82 74 22 bb b7 9b 60 3c 52 44 33 bd 83 cc 7c bd
       -0.0024788682 0.013709 -0.043766327 -0.061718475
000300 ca 4b b3 b9 9d 72 63 3d a5 b0 a9 3d 9d 69 49 3d
       -0.00034198008 0.055529226 0.082856454 0.049172986
000310 c0 81 15 39 15 bd 1b 3d 58 98 28 3d f9 3f 6c 3d
       0.00014258083 0.03802212 0.04116091 0.057678197
000320 ac a3 92 bb 7f 9a 2b bd da 0d ce 3c 58 a4 0a bd
       -0.0044750776 -0.041895386 0.02515309 -0.033848137
000330 5b d6 22 bb f3 8a 88 bd 74 44 87 bd 65 61 9d bd
       -0.0024847004 -0.066671275 -0.06604853 -0.07684592
000340 d5 32 1d bd 23 67 b1 3d 9e 10 a9 3d fa 48 d4 bc
       -0.038378555 0.0866225 0.082551226 -0.025913704
000350 d2 a3 f3 bc f6 19 8d 3d d7 64 0f 3d d5 c0 78 3c
       -0.029741202 0.06889717 0.035008278 0.0151826935
000360 3c b2 98 bc ac 42 1a bd c8 c4 7d bd 3d e4 72 3d
       -0.018639676 -0.03766124 -0.061955243 0.059299696
000370 a0 da 3e bc aa 00 64 3c d3 9e 3e 3c fe c6 06 3d
       -0.011648804 0.013916174 0.011634546 0.032904617
000380 f5 63 76 ba 0e fe 4f 3d 38 6e 82 bc e3 1e 9a 3d
       -0.000939905 0.050779395 -0.015921697 0.075254224
000390 5a 03 b0 3d 85 88 57 3d a7 2d eb 3c 4f 55 98 3d
       0.08594389 0.05262043 0.028708292 0.07438146
0003a0 55 13 0c 3d 5d 06 e0 3b fd cc 83 3d c6 8f 51 bc
       0.034198124 0.006836696 0.06435583 -0.012790626
0003b0 20 92 56 bd e4 bc 79 3c 0f a6 d7 bc 51 f8 2c 3d
       -0.05238545 0.015242789 -0.0263243 0.042229
0003c0 db 00 84 bb 5e dc a0 bd aa ea c1 bc a7 b7 d5 bc
       -0.0040284223 -0.07854532 -0.023671467 -0.026088549
0003d0 21 95 86 bd ac 35 b7 bd 32 fb bd 3c ae 20 ce bc
       -0.06571413 -0.08945784 0.023191068 -0.025162067
0003e0 7b 9b 9f bd 4e e7 6f 3d c5 77 42 bd 50 21 ed 3c
       -0.077933274 0.0585702 -0.047477502 0.028946549
0003f0 09 b3 2f bc fd 96 90 bd 7c 3b 8c bd 78 39 83 3d
       -0.010723838 -0.07060049 -0.06847283 0.06407446

bias f4 [8]
000000 e3 da f9 3d 7c 1f de bc f5 35 30 bd d0 2a 15 be
       0.121999525 -0.027114622 -0.043020207 -0.14567113
000010 d2 c6 15 3e 95 48 9a 3d f3 21 a1 3d de db 7e 3d
       0.14626625 0.07533375 0.078678034 0.0622214

weight f4 [8, 16, 3, 3]
000000 57 5d 5a bd ed 97 b3 3d db fb 19 3d dd d3 e2 ba
       -0.053311672 0.08769212 0.037593704 -0.0017305572
000010 c1 a0 64 3c 67 d7 4c 3d ff 1d 63 3c 7a b4 b1 3d
       0.013954342 0.05001011 0.013862132 0.08677001
000020 20 43 b4 3c 1a 17 84 bd 9b 49 38 bd e1 2e 95 3d
       0.022004664 -0.06449719 -0.04499207 0.07284332
000030 d3 f7 f2 bc 29 c3 58 3d 3d 1f 95 bd fd eb 88 39
       -0.029659187 0.052920494 -0.07281349 0.00026115766
000040 ba 44 d6 3b 7f 07 9e 3c f7 10 92 3d 5c 67 99 bd
       0.0065389546 0.019290684 0.07132142 -0.07490417
000050 ed 8a fe 3b 49 e0 13 3c 43 da 70 3b 9c ff 3e 3d
       0.007768026 0.009025642 0.0036751188 0.046630487
000060 b9 cc 35 bc 23 14 97 bd 5b 0c a3 bc e2 b3 3c bc
       -0.011096173 -0.07376888 -0.019903352 -0.011517497
000070 d0 5b 42 bc ae b9 e4 bc d0 0e 48 bd 7d 4f a2 3d
       -0.01186271 -0.02792057 -0.04884225 0.079253174
000080 7f 16 00 bd 6d 48 53 bd 16 1d 9b bc 85 5c 8a 3d
       -0.031271454 -0.051582742 -0.018934768 0.06755928
000090 5d 48 9b bc b6 41 3d bd 51 56 c1 3c 34 d6 82 3d
       -0.018955404 -0.046205245 0.02360073 0.06388512
0000a0 00 10 27 bc c3 84 f4 bb 41 c6 13 3d 6f 4a d9 bc
       -0.010196686 -0.0074621155 0.03607774 -0.02652475
0000b0 2f 34 93 bd 12 ba 2c 3c 3a b0 3a 3d 6f 89 00 bd
       -0.071876876 0.0105424095 0.04557822 -0.031381067
0000c0 33 ee 8a bd c0 53 da 3c 88 97 f9 bc ee 10 e6 3c
       -0.06783714 0.026651263 -0.030467764 0.028084245
0000d0 b9 2e 90 bd e6 11 44 bd f9 a2 e6 3c 90 50 d0 3c
       -0.07040162 -0.04786863 0.028153883 0.02542904
0000e0 1c e8 5d bd a0 bd 19 3d 61 27 e7 bc 31 fc a5 3b
       -0.054176435 0.037534356 -0.02821702 0.005065464
0000f0 27 14 3c 3d 2b 21 94 3c 23 55 d1 3d c0 c0 99 3d
       0.045917656 0.018082222 0.10221317 0.07507467
000100 86 20 38 bd ef af 03 bd 74 f2 1a bb 62 91 91 bc
       -0.04495289 -0.032150205 -0.0023643048 -0.01776952
000110 9c c9 b8 bc 04 0e 39 bd 10 6f 44 3d af cb 33 bd
       -0.022557072 -0.045179382 0.04795748 -0.04389542
000120 dd be 36 3d ba 2a 07 bd 84 c2 25 3d 89 dc 85 bd
       0.044615615 -0.03299973 0.040468708 -0.06536204
000130 3c 4e 44 bd e3 d6 80 3d f7 50 7e bd 6e 43 d4 bc
       -0.047926173 0.062909864 -0.062088933 -0.02591106
000140 59 3c cf ba 0f 6c 82 3c 30 db 84 3d 8e 6a 7d 3d
       -0.0015810832 0.015920667 0.06487119 0.061869197
000150 18 0c 3f bd b6 0e f0 3b 7e a1 08 bc d4 ca 98 3d
       -0.046642393 0.0073259724 -0.008339284 0.074605614
000160 6c b5 99 3d d2 05 81 bd ad 38 5c 3d df dc 24 bd
       0.075053066 -0.06299938 0.053764988 -0.0402497
000170 88 51 91 3c 72 fe 7e bc 68 93 86 3d a6 db 2a 3d
       0.017739072 -0.015563594 0.06571084 0.04171338
000180 73 09 17 3c e3 c5 8b 39 c8 9c 1d 3d 9e 56 81 bd
       0.009218561 0.00026659583 0.038479596 -0.06315349
000190 99 58 67 bd 4e e4 d1 3d c8 2b 91 3d 4f f4 94 3b
       -0.056480978 0.10248624 0.07088429 0.0045457254
0001a0 05 65 b4 bc d7 18 45 3d 22 12 68 bc 97 bf 9a 3c
       -0.022020826 0.048119392 -0.014164479 0.018890185
0001b0 1d 27 55 3d 1c 03 bb bd 90 c8 a5 bd 22 3e 7b bd
       0.052039254 -0.091314524 -0.08094895 -0.06133855
0001c0 7c c1 bf 3c 72 4e 41 3d bf b4 e7 bc f3 cb 65 3c
       0.02340769 0.047193952 -0.028284429 0.014025676
0001d0 22 e4 44 bb 9a 7c 2a bd cc e9 68 bd c3 9e 92 bd
       -0.0030043204 -0.041622736 -0.05686359 -0.07159188
0001e0 a9 6e ca 3c 24 cd 6d bc 2d 79 01 bd 4b e5 47 bd
       0.02471097 -0.014514241 -0.031609703 -0.048802655
0001f0 17 1f e8 3b df c8 e1 3c ca 8a 80 3d 47 36 e7 bc
       0.0070837843 0.027561603 0.06276472 -0.028224124
000200 44 44 ae bb 7b d1 df 39 71 6a 1a bd 77 51 3c bd
       -0.0053181965 0.0004268995 -0.037699167 -0.04597613
000210 64 3b 5c 3d ea 3e ba bd dc 69 13 bc 15 4b 5e 3d
       0.053767577 -0.09094031 -0.008997407 0.054270823
000220 ba 03 a5 3d ac 49 5c 3d e1 83 13 3d ee 19 ad 3d
       0.080573514 0.053781196 0.03601444 0.08452211
000230 d0 d5 0e b9 41 9c cf 3b 71 0b ac bc 3b 39 89 3d
       -0.00013621827 0.0063357656 -0.02100155 0.06700369
000240 f0 83 da 3c 6c c9 4b 3d ba a2 ec 3c 93 ef 93 3d
       0.02667424 0.049752638 0.028886188 0.072234295
000250 e4 36 7d bc d2 db b0 bd 85 9a a0 bc 0c e2 05 3d
       -0.0154549815 -0.086356774 -0.01960493 0.03268628
000260 c0 2c 65 bd 15 d3 83 bd 51 c1 85 3d 74 82 11 3d
       -0.05595088 -0.06436745 0.06531013 0.0355248
000270 50 38 5e bd 42 dd 3a 3d 64 51 b0 bd 85 20 79 3c
       -0.054252923 0.045621164 -0.08609274 0.015205507
000280 74 9d 94 bd da 8f ea 3c 3c 05 84 bd 6b 02 0f 3d
       -0.07256594 0.028633047 -0.06446311 0.034914415
000290 e8 03 5f 3d 02 20 97 bd 34 a1 8d 3c f7 3f 20 3c
       0.054447085 -0.07379152 0.017288782 0.009780875
0002a0 3f 92 b1 bd 67 59 55 bd 96 74 bb bc 1b cf 75 bc
       -0.08670472 -0.052087214 -0.022882741 -0.015002991
0002b0 14 60 06 3c cf 24 de 3c 05 f9 4f bd 9e 61 5b bd
       0.008201618 0.027117161 -0.050774593 -0.053559892
0002c0 ad 08 d0 3c a2 7c 6d bd c0 22 a6 bc e6 78 8d bd
       0.025394762 -0.057980187 -0.020280242 -0.06907825
0002d0 8d 50 98 3d 49 86 f2 3c a8 b4 35 bd b6 13 aa 3d
       0.07437239 0.029605048 -0.04436174 0.08304541
0002e0 ce 5b ef bc 99 ba 49 bd 43 f1 38 3d 03 35 34 3b
       -0.02921858 -0.04925022 0.04515196 0.0027497418
0002f0 e7 dd 96 bd 6a 19 a1 3d e5 a5 4d 3d 28 ac e7 3c
       -0.07366543 0.078661755 0.050207037 0.028280333
000300 31 94 3f 3d 95 bc a7 bb 2c 72 a5 bd ae 4f 8c 3d
       0.046772186 -0.0051189163 -0.08078417 0.06851135
000310 d8 d9 08 3d de d0 20 bc a7 61 f9 bb 3b f5 ae bd
       0.033410877 -0.009815423 -0.007610518 -0.08542868
000320 45 6e 7d bd c0 a9 96 3b 9d ad 14 3d 04 6b b6 bd
       -0.06187274 0.0045978725 0.036298383 -0.0890713
000330 4d 0c 00 3d 5a fb b8 3c 67 89 98 bd 05 b3 89 bc
       0.03126173 0.022580791 -0.074480824 -0.016808996
000340 dd 98 15 3d e6 8a af 3d 10 70 4d 3d 43 43 18 3c
       0.036522735 0.08571415 0.0501557 0.00929338
000350 0d b3 44 3b f9 d9 ec bc 3d cc 31 bd 42 30 8d bd
       0.003001395 -0.028912531 -0.043407667 -0.0689397
000360 d3 f6 98 bd 8e ca 85 bd 9b 3b 83 3c f9 b4 1f 3d
       -0.07468953 -0.06532775 0.016019633 0.03899095
000370 9f d5 67 bd 48 1a 63 bd a9 6f ae bd 25 62 bf 3b
       -0.05660021 -0.055444986 -0.08517391 0.005840557
000380 83 dc af bd 52 d6 7d bc 83 d2 82 3d 43 3d 94 bc
       -0.08586981 -0.0154929925 0.06387808 -0.018095618
000390 3b f9 97 3d eb e9 dd 3c d7 16 51 bc 71 8d 89 3d
       0.07420584 0.02708908 -0.012761793 0.06716431
0003a0 c5 d6 df bc b7 ad 08 bc f7 59 57 bd d5 e4 05 bd
       -0.02732409 -0.008342198 -0.05257603 -0.032688934
0003b0 f6 5d 79 bd 00 c4 ec 3c d1 3f 40 bd 24 68 6b 3d
       -0.060880624 0.028902054 -0.04693586 0.057472363
0003c0 48 42 89 bb b4 35 5d 3d 5a 03 d8 bc c3 be 5f bc
       -0.0041888095 0.054006293 -0.026368786 -0.013656321
0003d0 54 bb 67 3c c3 f0 88 3d ea aa ac bd 03 d2 5f 3d
       0.014143784 0.06686547 -0.08431037 0.054643642
0003e0 26 19 63 bd e5 1a 63 bd 07 e7 48 bd 37 f4 2b 3c
       -0.055443905 -0.05544557 -0.04904845 0.010495237
0003f0 6b 10 ac bb 12 18 03 bc 32 12 90 3d a6 fb 59 3d
       -0.0052509806 -0.008001344 0.070347205 0.053218506

bias f4 [16]
000000 f6 35 46 3e 10 7d b3 3d ea ca 75 bd c9 d9 ca bd
       0.19356522 0.08764088 -0.060007967 -0.099048205
000010 f7 78 b7 bd a0 e8 32 be f6 46 be 3d cf 75 4a 3e
       -0.08958619 -0.17471552 0.092908785 0.19771503
000020 60 e0 62 3e cc 0c 45 3e 52 e8 d1 3d 19 0d 55 3e
       0.22155905 0.19243163 0.1024939 0.20805778
000030 04 b8 6c bd 10 96 8a bc c5 d4 8e bd 63 39 52 3e
       -0.05779268 -0.016917259 -0.06974176 0.20529704

weight f4 [16, 32, 3, 3]
000000 88 bd 0f 3d cb e3 c1 bc c8 61 2f bd be 09 16 3d
       0.03509286 -0.02366819 -0.04281786 0.036630385
000010 85 ed ea bb b2 4a 82 bd 35 c4 9a bd 82 92 89 bd
       -0.007169428 -0.06361903 -0.07556955 -0.06717397
000020 eb 11 ec bc 31 11 f5 bc 6b 78 00 bc cb 3d c8 3c
       -0.028817138 -0.029915424 -0.00784121 0.024443528
000030 ff 20 90 bd e8 c3 06 3d 39 9f 0a bd 0b 79 74 bd
       -0.070375435 0.032901675 -0.033843253 -0.059685748
000040 ad 39 d5 bc 49 c2 a3 bd 21 d7 bc bc 51 03 53 bc
       -0.026028479 -0.07996041 -0.0230518 -0.012879209
000050 62 2c 52 3c 2b dc d1 bc 58 6a bb bc f9 57 38 bd
       0.0128279645 -0.02561768 -0.022877857 -0.045005772
000060 c0 cf ee bc 92 79 4d 3d 88 68 51 bd 65 63 87 3a
       -0.029151797 0.050164767 -0.05112508 0.0010329304
000070 72 32 75 3d ad f4 4a bd 42 9b b1 bc 2b 75 02 3d
       0.05986256 -0.049549747 -0.021680478 0.03185002
000080 60 29 64 3c b2 d1 5c bd 61 67 a4 bb 4d 7c 63 bd
       0.01392588 -0.05391092 -0.0050172065 -0.055538464
000090 71 ef 8e bb 7b 1d 0c bd f9 44 11 bc 4f a5 17 3d
       -0.0043620397 -0.034207802 -0.008866542 0.037022885
0000a0 19 b5 4a bc 3e 08 3c 3c 22 b2 25 ba 24 e2 c1 bb
       -0.012372279 0.011476574 -0.00063207943 -0.0059168506
0000b0 ba d0 53 3d 2a 44 5f 3d 6c eb da 3d 7a ea 8b 3d
       0.05171273 0.054508366 0.106894344 0.06831832
0000c0 37 d5 ce 3d 29 a2 b7 3c 0d d1 c5 3c 75 2d 59 3d
       0.10099261 0.022416191 0.024147535 0.053021867
0000d0 4b 55 8c 3d bb 4e 1a 3d 51 ef 2a bd 5d 28 06 3c
       0.06852206 0.03767274 -0.041732136 0.008188334
0000e0 39 7d ed bc 34 70 29 3d 0c 1d 13 3d 45 a8 7c bc
       -0.028990375 0.04136677 0.035916373 -0.015420978
0000f0 56 52 8f 3c 98 87 fb 3c 1d bd 66 3d 11 3c 4f 3d
       0.017495316 0.030704305 0.056332696 0.050594393
000100 f4 2a 08 3d 28 83 37 3d d0 51 ca 3c 42 8f 6b 3d
       0.03324409 0.044802815 0.024697214 0.05750967
000110 54 f2 07 bd c3 b6 b2 bb b7 c5 cc 3c 30 3a 2a bc
       -0.033190086 -0.005453916 0.024996622 -0.01038985
000120 80 ce 17 bd 7e 55 d6 bc 4f cb 4f 3d 3d 7b 08 3d
       -0.037062168 -0.026163813 0.050731 0.033320654
000130 cf 7f 43 bd 03 9a 64 bd 8a c6 1c bd ad e9 6d bd
       -0.04772931 -0.05581094 -0.03827528 -0.05808418
000140 62 44 0c bd 40 b0 8f bd 71 99 29 3d 71 29 cc bd
       -0.034244902 -0.07016039 0.0414061 -0.09968842
000150 9b 35 48 bd 99 97 2c bc 7a e0 85 bd 5e 2a cc bd
       -0.048879247 -0.010534191 -0.06536956 -0.099690184
000160 5d 07 b4 bc e2 2e 11 bd ca e4 e6 3c 2e 53 f1 bb
       -0.021976167 -0.0354451 0.028185267 -0.007364652
000170 91 5c 31 bd e8 16 1e 3c 0c 9e 4c bd 03 73 a3 3c
       -0.04330117 0.009649016 -0.049955413 0.019952303
000180 63 f8 22 bc 4c 50 24 3d 87 90 0f bb 49 60 bb bb
       -0.009946915 0.04011564 -0.0021906213 -0.005718265
000190 92 a6 3c 3d 38 1b 5f bc 9b 4d 51 bd f7 f2 72 3c
       0.04605729 -0.013617329 -0.0510994 0.014828435
0001a0 f3 a9 f3 bc 55 ee 49 3d 62 7f cf 3c cd 8c 01 3d
       -0.029744124 0.049299557 0.025329296 0.03162842
0001b0 b8 88 61 3d c1 82 06 3d 0d 9f 29 3d 79 d0 39 3c
       0.055062026 0.03283954 0.04141145 0.011341208
0001c0 3a 8a 03 3d 26 e4 22 3c 3b e3 1a bd 92 f3 00 3d
       0.032114245 0.00994209 -0.03781436 0.031482287
0001d0 4f bb 7d 3d c1 0e 10 3d a6 69 fb 3b 83 3d c4 3c
       0.06194621 0.03517032 0.0076725064 0.023955112
0001e0 b9 7b 2d 3d af c8 46 3d 70 f2 a9 bc 54 3d 92 3b
       0.04235432 0.04853123 -0.020745486 0.0044628773
0001f0 74 ee 4e 3d 66 2f 2a 3d e2 fb 6e 3c 0e 04 6a 3a
       0.050520375 0.04154911 0.014586421 0.0008926996
000200 1b 66 05 3c 53 8e 04 3d d9 82 36 bb 9d e9 a3 3d
       0.00814202 0.032362293 -0.0027848987 0.080035426
000210 57 d7 88 3c 12 ef 53 3d 11 41 ac 3c f5 a7 61 bc
       0.016704245 0.051741667 0.02102712 -0.013772954
000220 2a 9d 69 3c 79 61 dc 3c af 32 3b 3d 3f ef 5c 3c
       0.014258662 0.026901947 0.045702633 0.013484775
000230 39 1b 8c bc d5 ce 44 3d b6 ee 30 3d 53 a4 15 3d
       -0.017102825 0.048048813 0.043196402 0.036533665
000240 95 29 02 bc 0a 17 9f bb 76 c0 5d bb a5 ea ad 3c
       -0.007944484 -0.0048550414 -0.003383664 0.021230051
000250 91 1b ee 3b b7 bf f2 bc 13 0e 07 3d d7 60 50 3b
       0.0072664698 -0.029632432 0.032972407 0.0031796002
000260 4d 7d 42 3d bf 90 a8 3c 91 50 b2 3c e7 0a 05 bc
       0.047482777 0.020576833 0.021766933 -0.008120275
000270 17 b9 ca 3c 30 01 f9 3c bf 38 15 3d b3 a3 b5 3b
       0.02474646 0.030396074 0.03643107 0.005543196
000280 c7 b2 31 3d 11 d3 5c 3c 79 a6 c7 bc 04 ba c4 3c
       0.043383386 0.0134780565 -0.024371373 0.02401448
000290 7c cd c8 39 21 5a 18 3d 4a bb 97 3c 23 f3 78 bd
       0.0003830007 0.03719533 0.018521924 -0.06077875
0002a0 7c 58 1e 3d 1d 04 1f 3d 4b 1e 5b 3c b0 4b 46 bd
       0.038658604 0.038822282 0.013373922 -0.048412025
0002b0 aa 32 51 bd 1f 1f b4 3c 42 6b a9 bc 16 73 14 3d
       -0.051073708 0.021987496 -0.020681027 0.036242567
0002c0 26 68 2c bd 3d 37 be bb 5f 68 67 b9 6a 19 1a bd
       -0.04209151 -0.0058049248 -0.00022068758 -0.037621893
0002d0 f5 56 91 3c 72 a5 38 3d 45 19 97 bc 05 f4 6e bd
       0.01774166 0.045079656 -0.018444667 -0.058338184
0002e0 4a b1 12 bc 08 29 85 38 54 8d 52 bc 66 76 5f bd
       -0.008953402 6.349577e-05 -0.012851078 -0.054556273
0002f0 9f 82 ed 3b ac 17 89 bb 03 79 1b 3c 21 b3 c8 bc
       0.0072482373 -0.00418373 0.009489301 -0.024499478
000300 c4 30 73 bd 36 8b 21 bd fe db 7a ba a6 df 07 bd
       -0.05937268 -0.039439403 -0.00095695246 -0.033172272
000310 60 d0 79 bd cb 57 50 bd 9a 67 e7 3c df 2c dc bb
       -0.060989738 -0.050864976 0.028247643 -0.0067192162
000320 89 bf 66 3d 91 7c 93 3d d9 4b 00 3c 57 65 cf 3c
       0.056335006 0.072014935 0.0078305835 0.025316877
000330 bd 3f 77 3d 22 0e 02 bc 1b 0d 5e 3d bd d5 1d 3d
       0.06036352 -0.00793794 0.054211717 0.038533915
000340 43 23 d3 3c c9 96 3f 3d 82 79 05 bd ec 76 2f 3c
       0.02577365 0.04677466 -0.032586582 0.0107095055
000350 c0 a6 d5 bc 54 41 55 bc 2e 72 12 bc 04 6e 71 3b
       -0.02608049 -0.013016064 -0.008938355 0.0036839256
000360 cc 75 61 bc 77 99 80 bc 89 35 04 3d 85 2c 0c 3d
       -0.013760995 -0.015698178 0.032277618 0.034222145
000370 61 30 88 3d 6a 16 cf bc 20 8d 03 bd 7d e6 7b 3d
       0.066498525 -0.025279243 -0.03211701 0.061499108
000380 b7 10 cc 3c 9f 6f 24 bd 70 83 9a 3c 1a 4f 38 3d
       0.024910314 -0.040145513 0.018861502 0.044997312
000390 4a f3 21 bd ad 43 f3 bc 87 3f 44 3d a0 95 b0 bc
       -0.03953866 -0.029695356 0.047912147 -0.021555722
0003a0 15 65 01 3d b8 8c 46 bd f7 03 66 3b a3 10 54 bd
       0.03159054 -0.048474044 0.0035097578 -0.05177368
0003b0 f3 5d 0c bd 98 50 e5 bc 9d 9a 68 bb 31 67 f1 3c
       -0.034269284 -0.027992532 -0.0035492547 0.02946815
0003c0 48 3d 2c bd 52 ed e6 bc b8 51 9b 3b 22 2b c9 bc
       -0.04205063 -0.028189335 0.0047399662 -0.0245567
0003d0 f4 c6 9c 3c 8a 44 a8 3c bb 70 2a 3d 76 02 3b 3b
       0.019137837 0.020540494 0.041611414 0.0028535402
0003e0 a3 55 a5 bc e7 bc bf 3c a1 cb 14 3c 2d ea 64 3c
       -0.020182436 0.023405505 0.009081752 0.0139718475
0003f0 e6 c9 2e 39 89 53 b1 3c b7 8d d3 ba 16 94 70 bd
       0.00016669146 0.021646278 -0.0016140257 -0.058734976

bias f4 [32]
000000 59 1f 97 bd 44 ef 30 bc df 3c e5 bc 47 71 f4 bd
       -0.07379026 -0.010799233 -0.027983127 -0.119356684
000010 98 c0 60 3d e5 29 0c 3e e3 64 c6 3d 9d 1b 1f 3e
       0.05487117 0.13687856 0.09687211 0.15537877
000020 eb 76 5d bd ee b7 fc bd 55 07 f3 3d d2 4c 1f be
       -0.054068487 -0.12339769 0.11866633 -0.15556648
000030 16 be 0f be 88 72 c8 bc 7f a8 3a 3e 59 5f 25 3e
       -0.14037356 -0.024468675 0.18228339 0.16149653
000040 90 46 24 3e 4f c7 22 be f7 ee 30 bd 47 f3 f5 bc
       0.16042542 -0.15896343 -0.043196645 -0.03002323
000050 9e 0f a6 bd 14 fb 9e 3c d3 f8 84 3d 56 d6 0f be
       -0.081084475 0.019406833 0.06492772 -0.14046606
000060 fb 13 2d bd 5b b4 13 3e 01 6c bb bd 98 1d c9 bd
       -0.042255383 0.14424269 -0.091514595 -0.09820098
000070 b1 24 97 3c 87 1d 13 be b1 10 f7 bd d2 bb 5d bd
       0.018450113 -0.14366733 -0.120637305 -0.054134198

weight f4 [32, 3, 3, 3]
000000 b2 66 d3 3d a7 cf d2 3b ca c8 35 3e 95 df 18 be
       0.10322322 0.0064334455 0.17752376 -0.1492904
000010 0e 5b 51 3e 2a 95 71 3e 58 e0 b8 bd ce fa 94 3e
       0.20444891 0.23592058 -0.09027165 0.290976
000020 76 82 76 3e 58 d1 94 bd 28 97 50 3e 92 e8 1d 3e
       0.24073204 -0.07266492 0.20370162 0.1542075
000030 e6 2c 14 bd e4 96 b4 3d c6 33 28 3e 6b 75 0e 3d
       -0.03617563 0.088178426 0.16426 0.034779947
000040 52 24 67 3e 9f 03 43 3d 5c 13 0d 3e b7 07 78 bd
       0.22572449 0.047610875 0.13776916 -0.060554232
000050 af 6c 3a 3e 05 5d 4d be d8 7e 61 3e 81 d1 fd 3d
       0.18205522 -0.20055015 0.22021043 0.12393475
000060 28 45 d7 3d 4b ff b2 3d 0e 79 d3 3d fb ba 40 3e
       0.105112374 0.087400995 0.10325824 0.18821327
000070 f1 96 20 3e c0 51 33 bd e8 de 2a be fd 2d 24 3e
       0.1568258 -0.043779135 -0.16686594 0.16033168
000080 0a 3d 63 3d 30 e5 8a 3d 9e de cb 3d 03 ca c9 bd
       0.055478133 0.06781995 0.0995457 -0.09852984
000090 66 f7 32 be 79 38 79 bd 64 ad 3e 3e 75 49 29 bd
       -0.17477188 -0.060844872 0.18620831 -0.04132982
0000a0 4e ae ae bc 62 8d 37 be 1f c1 3a 3e e5 93 b9 3c
       -0.02132335 -0.17925027 0.18237732 0.02265353
0000b0 95 1b 10 be 5a f7 95 bd f2 6b c9 bb af 8d 05 3e
       -0.14073022 -0.07322569 -0.0061469013 0.13042329
0000c0 a5 01 a2 bd c3 2a 04 be 10 66 2c 3e 92 5f 18 3d
       -0.0791047 -0.12906937 0.16835809 0.037200518
0000d0 a0 f2 d9 3d c9 85 c4 3b 7a 0b 4f 3e aa 7d 50 bd
       0.1064198 0.0059973937 0.20219222 -0.050901093
0000e0 2b d6 b2 3b de b7 2d 3e 44 42 0b be c6 51 16 be
       0.0054576597 0.16964671 -0.13599497 -0.14679632
0000f0 22 d6 17 3e 52 a7 2a be 46 a6 36 3d c8 11 1f 3d
       0.14827779 -0.1666539 0.044592164 0.038835317
000100 61 f5 3a bc 04 2b 24 3e 37 40 d1 bc a3 96 69 bd
       -0.011411042 0.16032034 -0.025543315 -0.057028424
000110 1a f7 f8 3d f2 71 8c bd f5 30 6c bd 85 72 8a 3d
       0.12156506 -0.06857671 -0.057663877 0.06760124
000120 2d ef 00 bc 2d 71 0c be f4 c5 fe bd 2a 80 27 3e
       -0.007869524 -0.13715048 -0.124401 0.16357484
000130 35 a2 40 bb 03 75 0d be 7b 83 ec 3d 71 5d a5 bb
       -0.0029393558 -0.13814168 0.115485154 -0.0050465395
000140 4d 4c b7 bb e9 ed 36 3e 4e 8f 05 3e 05 f7 0f bd
       -0.0055938126 0.17864193 0.13042948 -0.035147686
000150 59 dc a6 bd 7e 62 13 3b 51 f5 31 3e e7 29 14 bd
       -0.08147497 0.0022489126 0.17378737 -0.036172774
000160 3c ec e8 bd ec ba 8d bc 00 e1 6a bd e9 c4 4a 3d
       -0.11373183 -0.017301045 -0.057343483 0.049504194
000170 ae 7d 0b 3e 4c b8 3e 3e 7b 6c 3c b9 8b 99 76 bd
       0.13622162 0.18624991 -0.00017969489 -0.060205024
000180 ba 0b b1 3c 5a d4 b1 bd 5a 94 42 3e 44 ef 08 3d
       0.021612037 -0.08683081 0.19001904 0.033431306
000190 69 cc 8d 3d 59 17 0d 3b fd 00 8b 3c e0 23 51 3e
       0.06923754 0.002152881 0.016968245 0.20423841
0001a0 bb fa e5 3d 52 0a 0c 3e 27 bb 32 be 12 37 02 bd
       0.11229464 0.13675812 -0.17454205 -0.0317908
0001b0 7f 3c 81 3d 72 22 a3 bd 2b b9 00 be d7 05 25 bd
       0.06310367 -0.07965554 -0.12570636 -0.040288772
0001c0 91 5c 59 3e bd c6 05 3e 1d 42 4a 3d 04 51 a4 3d
       0.21226718 0.13064094 0.049379457 0.08023265
0001d0 30 ff 21 be 7c ba e8 3d f2 ad a4 bd d2 fd 70 3d
       -0.15820003 0.11363694 -0.0804099 0.058835812
0001e0 3a 8c e7 bd 1a 90 0a 3e 3b 72 91 3d 22 6f 82 bd
       -0.11306043 0.13531533 0.07101866 -0.06368853
0001f0 6f 33 31 be e7 23 22 3d 0f fa 6e 3d de 7b 4d be
       -0.17304777 0.03958502 0.058343943 -0.20066783
000200 80 db 0f 3d 26 e2 13 be 20 36 c1 3d 28 11 f6 bd
       0.03512144 -0.14441738 0.09434152 -0.12014991
000210 f4 ae 8b 3d 2a ff c1 3b 76 86 b8 bd 3d cb 1a be
       0.06820479 0.0059203105 -0.090100214 -0.15116592
000220 5f 69 3d 3d f9 1a 46 be dd 37 aa 3d 63 44 bc 3b
       0.046243068 -0.19346227 0.08311436 0.005745457
000230 b3 61 81 bd 58 2d 94 3d 66 01 e0 bd 9d 78 4d 3d
       -0.06317463 0.07235211 -0.10937767 0.050163854
000240 ff 49 31 be b4 32 f1 3d 78 68 94 bd 1d 55 0d be
       -0.17313384 0.11777249 -0.07246488 -0.13802
000250 f3 b7 3e be 62 e6 b2 bd 12 b5 47 be a2 52 e3 3d
       -0.18624859 -0.08735348 -0.19502667 0.11099745
000260 4a 55 b0 3d 3c f0 1d be 33 b7 54 be c6 32 87 3d
       0.086100176 -0.15423673 -0.2077301 0.06601481
000270 6d 5a 92 bc fb 1d 29 bd 44 4d 3b be 67 30 3d be
       -0.017865384 -0.041288357 -0.18291193 -0.18475495
000280 07 49 4c be 9d fa f2 3c 86 ba aa bd 6b 57 8a bd
       -0.19949733 0.029660517 -0.08336358 -0.06754955
000290 fa 6c ec bd e4 a7 3d 3d d3 19 5c be 10 29 32 3c
       -0.11544223 0.04630269 -0.21494226 0.010874048
0002a0 4d 88 ba 3a a1 db c7 3d 7f 07 f0 3d 6a 97 18 be
       0.0014231295 0.09758688 0.1172018 -0.1490151
0002b0 99 92 ca 3d 6f 5b 69 bb 2b c6 33 be 12 8d 77 be
       0.098912425 -0.0035607477 -0.17556064 -0.24174908
0002c0 9d 1c a7 bd 6f 72 f4 bd 46 8b ce bd 24 c8 49 be
       -0.081597544 -0.11935889 -0.10085158 -0.19705254
0002d0 13 36 02 be c4 bd c7 3d a4 c9 2e 3e d6 16 6a bd
       -0.1271594 0.09752992 0.17069107 -0.057150684
0002e0 5a a1 0b be 8a cc 1a be e6 8b 17 be 80 7b 27 3e
       -0.1363577 -0.15117088 -0.14799461 0.16355705
0002f0 d9 ce 17 3e 34 5a 06 3e 60 07 67 3d 05 37 fc bd
       0.14825 0.13120347 0.056403518 -0.12315182
000300 6f ac 76 be 84 03 78 be 87 a0 17 be 6d d7 20 be
       -0.24089216 -0.24220091 -0.1480733 -0.15707178
000310 7c b3 50 be 8e a7 73 3c 81 87 2e 3c 85 ec 56 be
       -0.20380968 0.014871491 0.010652424 -0.20988663
000320 7d fd a3 bd 4a 09 47 3c fe a7 33 be 62 45 c5 bc
       -0.080073334 0.012148211 -0.17544553 -0.024080936
000330 fc 98 2e be 0f c6 1a be 5f 1f d5 bd 3e 67 89 3d
       -0.17050546 -0.15114616 -0.10406374 0.06709145
000340 aa 58 ce 3d e6 a0 7c bd e0 44 6a 3d 69 7e 42 3d
       0.10075505 -0.061676882 0.05719459 0.047483835
000350 20 68 9d bd 08 f1 4d be bf fe 1c bd d1 6d 86 bd
       -0.07685876 -0.20111477 -0.038328882 -0.065639146
000360 ab df 2b 3d bb af 1a 3e 42 17 c5 bd 93 48 2a 3e
       0.041961353 0.15106098 -0.09623577 0.16629247
000370 70 b0 43 3d ae 17 b0 3c 60 0a 32 3e ad f1 c2 bd
       0.047775686 0.021495666 0.1738677 -0.09518752
000380 e0 4f 36 3e 79 d6 fd 3c c7 91 f4 3d e9 ba 1f 3d
       0.17803907 0.030986058 0.11941867 0.03899661
000390 6d 95 91 ba 85 01 1c 3e 2c 98 c2 bd b2 3c ef bd
       -0.0011107154 0.15234955 -0.09501681 -0.116814986
0003a0 70 3b e9 bd 6f f3 d7 3c ea 81 2a 3c 78 c1 b1 bd
       -0.1138829 0.026361195 0.0104069505 -0.08679479
0003b0 ec 16 b8 3d a9 64 28 3e 4a 8a 7d bc af 17 8e bc
       0.08988747 0.16444649 -0.015474865 -0.017345278
0003c0 97 b5 08 3e 3f ea ea bd 81 21 b7 3d a4 d3 93 bc
       0.13350521 -0.1147046 0.08941937 -0.018045254
0003d0 e5 5f 25 bd 87 1a 1c be 20 57 06 3e 3a b2 f9 bd
       -0.040374655 -0.15244494 0.13119173 -0.12192197
0003e0 a7 cb 1c 3e ae 54 08 be 54 20 fa 3d 56 52 09 be
       0.15312062 -0.13313553 0.12213197 -0.13410315
0003f0 b0 e4 0e 3e c7 96 8b bd d4 cb 21 3e 9d d1 ca 3d
       0.13954425 -0.06815868 0.1580041 0.09903262

bias f4 [3]
000000 a5 a8 86 be 9d d5 03 be 03 b9 f4 bd
       -0.2630054 -0.12874456 -0.11949351
