inpatinign diagrams/lama_denoising_model_10_1500.pth (torch, 60610 bytes, 12 tensors)

weight f4 [32, 3, 3, 3]
-0.017994242 -0.03628362 -0.026103936 -0.1728553 0.14914995 -0.0040388256 -0.028115356 -0.12011244
-0.16952099 -0.08713774 -0.15162788 -0.10231984 -0.12871116 0.060742628 0.025691628 -0.029112814
-0.12090599 0.04281347 -0.11755237 -0.11016281 -0.029547453 0.019680705 -0.08791038 0.024791287
0.16409123 0.14567402 0.16069953 0.10599867 0.18092166 -0.17545387 0.013686152 0.07352229
-0.16530555 0.009587899 0.027739722 -0.12126175 0.07068122 -0.03084922 -0.17553717 0.0652497
0.15179594 0.13536432 0.15494744 -0.11264865 0.016825767 0.04761159 -0.05585505 0.17624907
-0.19853431 -0.14447328 -0.10129968 0.118253164 0.003325474 0.051698722 0.05223692 0.092242956
0.099444814 0.014428853 0.10691099 0.03981886 0.050195683 0.029243018 -0.12036383 -0.046440206
0.06410943 0.033608463 -0.14418794 -0.17191653 -0.0637437 -0.109945394 -0.15467696 -0.016659586
0.0199785 -0.18044637 0.11603811 -0.057257187 -0.08004344 -0.15465726 0.1802923 0.1576386
-0.02133643 0.06359692 -0.009941235 -0.068778284 0.031421766 0.06514475 -0.017510692 0.013696557
0.12872817 -0.07088885 -0.005683312 -0.16670334 0.112296805 -0.16152787 0.17928286 0.10827791
-0.12194998 0.107463576 0.093508184 0.1431512 0.058528636 -0.10258961 -0.14588505 -0.093662575
-0.15194117 -0.014747692 0.08546085 0.05061818 0.0689174 0.16934168 -0.08140226 0.12453276
0.08997274 -0.11947997 -0.07151102 -0.1432448 0.030240154 0.07535729 -0.17008767 -0.08092598
-0.074034154 -0.20600891 -0.056619365 -0.14776331 0.1552954 -0.18087965 0.13670155 -0.13301107
0.12580013 0.14871018 0.012973967 -0.058410853 -0.03848465 -0.09697392 -0.033227216 0.028235506
0.027058959 -0.13602212 0.022622745 -0.19698097 0.014124223 0.064780675 0.1632241 0.042136725
-0.14024545 0.09557273 0.028138548 0.07575858 0.123353995 0.09988865 -0.10028874 -0.06260279
-0.11764196 0.021599699 0.00603479 0.0735484 -0.10923868 -0.11536423 0.009918644 -0.15326452
0.10809026 0.084408514 -0.10878553 0.10802445 0.09669261 0.21990815 -0.10051304 -0.11232445
0.028471252 -0.061061386 -0.15022291 0.035897475 0.008272451 0.11987815 -0.16033767 0.0019718097
-0.10830721 0.18607068 0.118255965 0.036425646 0.029807715 -0.17557749 -0.14448774 -0.1739191
-0.074286014 0.017062273 0.022877047 -0.09280935 0.012449639 0.14285198 0.07430447 0.13731436
-0.15950394 -0.033373743 0.045369063 -0.10303922 0.11340153 -0.1781264 0.11786775 0.1341098
-0.18918067 -0.15385132 0.10173247 -0.19009489 0.0204036 -0.113394156 -0.096351705 -0.11381255
-0.06790565 0.16389172 0.12590232 -0.0036696438 -0.15813664 0.053935103 0.1959087 -0.17396829
-0.041172 0.04721148 0.096780606 -0.032447908 0.14641958 -0.1963474 0.016613698 -0.18207082
-0.1310451 -0.1469571 -0.16173957 0.063565224 -0.16610329 -0.0036588488 0.022998367 -0.20921896
0.16522947 -0.020758446 -0.031781934 0.13006207 0.12233911 0.069404855 -0.08324784 -0.17330596
-0.11789396 0.15039921 -0.016477723 0.09162106 -0.0955924 -0.15788665 -0.04317699 0.043824986
-0.046110656 0.1766654 0.1526405 0.023370003 0.038304362 -0.043100547 -0.10543073 -0.17445618
00000000: a968 93bc 229e 14bd ecd7 d5bc fb00 31be
00000010: c4ba 183e 2058 84bb 2d52 e6bc 83fd f5bd
00000020: e996 2dbe 4575 b2bd 5744 1bbe 108d d1bd
00000030: dccc 03be 43cd 783d 4077 d23c ff7d eebc
00000040: 8f9d f7bd 2d5d 2f3d 4cbf f0bd 0a9d e1bd
00000050: 800d f2bc 6e39 a13c 5b0a b4bd 1917 cb3c
00000060: 8807 283e 922b 153e 6b8e 243e d515 d93d
00000070: 8743 393e 2eaa 33be e23b 603c db92 963d
00000080: dc45 29be 9016 1d3c 6a3e e33c 1558 f8bd
00000090: 51c1 903d 81b7 fcbc 04c0 33be a2a1 853d
000000a0: 6570 1b3e f29c 0a3e 8baa 1e3e 56b4 e6bd
000000b0: 31d6 893c 5f04 433d 44c8 64bd a37a 343e
000000c0: 944c 4bbe cef0 13be 3576 cfbd b72e f23d
000000d0: 32f0 593b 0ac2 533d 61f6 553d e0e9 bc3d
000000e0: b9a9 cb3d ff66 6c3c 26f4 da3d 1a19 233d
000000f0: fd99 4d3d 0e8f ef3c 5081 f6bd 1638 3ebd
00000100: ce4b 833d 07a9 093d 01a6 13be e30a 30be
00000110: 0f8c 82bd 0d2b e1bd a363 1ebe af79 88bc
00000120: f4a9 a33c efc6 38be 63a5 ed3d 8386 6abd
00000130: d1ed a3bd 795e 1ebe 8b9e 383e 036c 213e
00000140: bdc9 aebc 1a3f 823d 90e0 22bc a1db 8cbd
00000150: 1cb4 003d 9c6a 853d 9572 8fbc 8667 603c
00000160: 51d1 033e 2c2e 91bd 143b babb 48b4 2abe
00000170: defb e53d 9067 25be ed95 373e cfc0 dd3d
00000180: e9c0 f9bd dd15 dc3d 3881 bf3d 3a96 123e
00000190: b9bb 6f3d 801a d2bd e462 15be 2ad2 bfbd
000001a0: 7796 1bbe 4ea0 71bc 1906 af3d 0255 4f3d
000001b0: 9124 8d3d e867 2d3e 3ab6 a6bd 080b ff3d
000001c0: a143 b83d eab1 f4bd 5f74 92bd c4ae 12be
000001d0: 33ba f73c ec54 9a3d 762b 2ebe 85bc a5bd
000001e0: 389f 97bd 00f4 52be b5e9 67bd 444f 17be
000001f0: c205 1f3e 8438 39be 7efb 0b3e 0e34 08be
00000200: c0d1 003e 7b47 183e c390 543c 3840 6fbd
00000210: 15a2 1dbd 439a c6bd 4319 08bd 264e e73c
00000220: c0aa dd3c 6249 0bbe 5653 b93c 61b5 49be
00000230: 4969 673c bbab 843d 3824 273e 8f97 2c3d
00000240: 819c 0fbe a3bb c33d d082 e63c 5027 9b3d
00000250: 05a1 fc3d 6c92 cc3d 2f64 cdbd e435 80bd
00000260: 45ee f0bd daf1 b03c 7dbf c53b 8ba0 963d
00000270: 87b8 dfbd 1544 ecbd cf81 223c 60f1 1cbe
00000280: 6d5e dd3d 5fde ac3d f3ca debd ec3b dd3d
00000290: c606 c63d 9a2f 613e c8d9 cdbd 5c0a e6bd
000002a0: 8b3c e93c 811b 7abd 09d4 19be 3b09 133d
000002b0: 2d89 073c ad82 f53d 8f2f 24be 7a39 013b
000002c0: 2cd0 ddbd 5089 3e3e 2f30 f23d 0f33 153d
000002d0: 4f2f f43c 96ca 33be 98f4 13be d917 32be
000002e0: 4423 98bd 2ec6 8b3c a568 bb3c d412 bebd
000002f0: 92f9 4b3c ca47 123e f12c 983d 239c 0c3e
00000300: 0055 23be e8b2 08bd e9d4 393d 3a06 d3bd
00000310: 103f e83d c466 36be a664 f13d 1454 093e
00000320: 94b8 41be 338b 1dbe 1d59 d03d 3ca8 42be
00000330: 7325 a73c 323b e8bd 0b54 c5bd 8e16 e9bd
00000340: 1e12 8bbd 3bd3 273e 8aec 003e 687e 70bb
00000350: 92ee 21be 0eeb 5c3d 4a9c 483e be24 32be
00000360: f9a3 28bd d360 413d e934 c63d 19e8 04bd
00000370: 04ef 153e 4b0f 49be 7319 883c c670 3abe
00000380: b030 06be ec7b 16be 0f9f 25be 7c2e 823d
00000390: fb16 2abe 4cc9 6fbb 1267 bc3c 7f3d 56be
000003a0: ea31 293e 9e0d aabc c62d 02bd fe2e 053e
000003b0: ed8c fa3d 2224 8e3d d87d aabd 1e77 31be
000003c0: 6372 f1bd 4002 1a3e 4afc 86bc d3a3 bb3d
000003d0: f3c5 c3bd 0aad 21be 5bda 30bd d481 333d
000003e0: 87de 3cbd c6e7 343e cb4d 1c3e 7372 bf3c
000003f0: 09e5 1c3d 338a 30bd 11ec d7bd a4a4 32be

bias f4 [32]
0.19705234 -0.19805306 0.05035634 0.07156952 0.13144113 -0.13517143 0.1429743 -0.111020714
0.06826735 0.1251129 0.03481575 0.0579988 -0.17291766 -0.20532463 -0.024148447 -0.22545752
-0.05047397 0.20507689 -0.22125633 -0.1837828 0.16483313 0.07486191 0.09111718 0.036847547
-0.05576288 -0.09808143 -0.19740614 0.05891597 -0.040540837 0.16452584 0.20311049 0.048279714
00000000: 17c8 493e 6cce 4abe 7342 4e3d 0a93 923d
00000010: 8198 063e 616a 0abe db67 123e d45e e3bd
00000020: c1cf 8b3d 991d 003e f69a 0e3d 2690 6d3d
00000030: 5411 31be 9f40 52be f7d2 c5bc 56de 66be
00000040: cbbd 4ebd adff 513e 0591 62be 8f31 3cbe
00000050: 04ca 283e 3351 993d a59b ba3d 74ed 163d
00000060: 9e67 64bd ebde c8bd d624 4abe df51 713d
00000070: 260e 26bd 7679 283e 32fc 4f3e f3c0 453d

weight f4 [16, 32, 3, 3]
0.041883573 0.02252973 -0.023090037 0.010947211 -0.027107194 0.035955653 -0.022040455 0.030642608
-0.038307272 0.0054482226 0.029692492 0.041828256 0.011254262 0.009054318 -0.03966307 -0.028424995
-0.026318964 -0.0020518452 -0.030849583 -0.057343114 -0.0749871 -0.04727226 -0.04432522 -0.042001553
0.011703141 -0.022685371 -0.04066211 0.045201655 0.010964494 -0.05039178 -0.056382637 0.025033563
-0.026561057 0.047208924 -0.031375512 -0.002018555 0.02507957 -0.047202036 -0.028854234 0.011349652
-0.0038690635 0.0054708207 0.027996164 0.022101587 -0.0037063991 -0.028666789 0.024625206 0.04678273
-0.04140457 0.01639365 -0.04245399 -0.007950709 -0.04808424 -0.025127793 0.047941327 -0.033193283
0.018154403 -0.03265233 -0.054356016 0.06403576 0.026393082 -0.036193654 -0.03674882 0.042930357
-0.033047114 -0.013272006 -0.0038080437 -0.06275836 0.043521535 -0.0034273916 0.0012261106 -0.04423994
-0.017696878 -0.01686212 0.015322801 -0.019394947 0.03142254 0.053070325 0.03106663 -0.061506532
0.037241668 -0.008301385 0.015997771 0.034882396 -0.012478772 -0.040003207 0.0052656373 0.018415533
-0.018923823 -0.060616802 -0.016609566 0.014233572 -0.0441522 -0.01636122 -0.01886728 -0.0455877
0.009327813 -0.031821962 -0.014880159 -0.06040875 0.031906147 -0.05636435 -0.07444884 -0.016270086
-0.025017317 0.00071917905 -0.09670991 0.009971639 0.036160167 0.002416995 0.010487947 0.0157801
0.039618634 -0.06454891 -0.036252223 0.03705403 -0.044543274 0.045717135 -0.04551698 -0.050203286
0.067219526 -0.019604938 -0.007841713 -0.030069776 0.016563136 0.024380127 -0.0041067665 -0.04897792
0.004070247 -0.05675271 -0.010385616 0.04283901 -0.009975031 0.023648852 -0.02405804 0.008924953
-0.040878728 0.032791477 -0.022936298 0.045942135 -0.012948892 0.04412708 -0.02248378 -0.002367685
0.040564083 0.05036203 0.027389994 0.03125295 -0.011717906 0.011352789 -0.019096144 0.016366765
0.02214728 -0.015112877 -0.018427644 -0.042779557 0.043406352 -0.008502168 0.018907208 -0.035126373
0.008306024 0.008692991 -0.025388574 0.029113758 -0.01073002 0.023659777 0.00031299572 -0.01990095
-0.054562923 0.03812084 0.008426945 -0.058542293 0.03323498 0.01922022 -0.039797284 -0.037107762
0.021465303 0.0046766847 0.0060813506 -0.009513148 0.021501219 -0.025163623 0.023683762 0.02273757
-0.030021986 -0.034480866 0.023456154 0.024910662 0.027913617 -0.0076538417 0.019601474 0.020423364
0.06288986 -0.05020922 0.04053204 0.0062887236 -0.028939921 -0.045599326 0.0047970405 0.039924383
-0.0056341393 -0.015828535 0.023778481 0.01678011 0.023963572 -0.023055486 -0.021314437 -0.019065058
-0.071134396 -0.057869777 0.019393336 -0.06561178 -0.011039017 0.036147613 -0.050006617 -0.09336593
-0.013020152 -0.033099562 0.050716255 0.046983365 0.029858198 0.046980187 0.019393725 0.029165547
0.019745281 -0.03843265 0.0411067 0.04401176 -0.0081808 -0.043932214 -0.0021717218 0.0003361033
-0.01684297 -0.02640016 0.048147496 -0.000803676 0.057132777 0.052619096 -0.052662566 0.0075966413
-0.013117673 0.04850294 -0.018024463 0.037177563 -0.018825794 -0.024054825 -0.016547354 -0.023200912
-0.025016973 -0.045102853 -0.031897116 0.008859398 0.047853403 -0.012998386 0.061710194 0.05518924
00000000: 1c8e 2b3d 4590 b83c 5127 bdbc ee5b 333c
00000010: e80f debc 3c46 133d 2f8e b4bc 3506 fb3c
00000020: 16e8 1cbd 0187 b23b ab3d f33c 1b54 2b3d
00000030: cc63 383c 9058 143c be75 22bd 89db e8bc
00000040: de9a d7bc 4078 06bb 44b8 fcbc 9de0 6abd
00000050: d692 99bd 8fa0 41bd 5d8e 35bd d209 2cbd
00000060: 88be 3f3c acd6 b9bc 508d 26bd 5f25 393d
00000070: 6ca4 333c 9c67 4ebd 7bf1 66bd 3013 cd3c
00000080: 9396 d9bc 255e 413d 9c83 00bd bc49 04bb
00000090: ac73 cd3c ec56 41bd b75f ecbc e4f3 393c
000000a0: 1d90 7dbb 9244 b33b 3658 e53c 630e b53c
000000b0: 0fe7 72bb 9dd6 eabc cdba c93c 3f9f 3f3d
000000c0: d797 29bd fa4b 863c 3ce4 2dbd b143 02bc
000000d0: fbf3 44bd cdd8 cdbc 205e 443d aef5 07bd
000000e0: 8bb8 943c 73be 05bd 6aa4 5ebd 2e25 833d
000000f0: 4e36 d83c cc3f 14bd ee85 16bd bed7 2f3d
00000100: 695c 07bd d472 59bc 5f90 79bb 7487 80bd
00000110: a343 323d 179e 60bb 72b5 a03a f034 35bd
00000120: 0bf9 90bc 6e22 8abc 7c0c 7b3c 27e2 9ebc
00000130: ecb4 003d 4560 593d 727f fe3c 46ee 7bbd
00000140: b88a 183d 8802 08bc c20d 833c d8e0 0e3d
00000150: c373 4cbc 67da 23bd 5e8b ac3b 2cdc 963c
00000160: 2206 9bbc 5349 78bd c910 88bc ee33 693c
00000170: f0d8 34bd f707 86bc 8e8f 9abc 2bba 3abd
00000180: afd3 183c bf57 02bd e9cb 73bc 2a6f 77bd
00000190: 05b0 023d 4ede 66bd a278 98bd d848 85bc
000001a0: 1ef1 ccbc 4a87 3c3a d80f c6bd 1660 233c
000001b0: af1c 143d 7266 1e3b a3d5 2b3c 4545 813c
000001c0: 2647 223d 3832 84bd 367d 14bd f7c5 173d
000001d0: 0273 36bd e441 3b3d 0370 3abd f6a1 4dbd
000001e0: 64aa 893d 899a a0bc 877a 00bc e454 f6bc
000001f0: 6aaf 873c d5b8 c73c 0e92 86bb 129d 48bd
00000200: b55f 853b 8875 68bd 6e28 2abc f577 2f3d
00000210: 506e 23bc 3dbb c13c 5e15 c5bc f739 123c
00000220: 7470 27bd 5b50 063d e7e4 bbbc d22d 3c3d
00000230: 9727 54bc 99be 343d e72f b8bc 2a2b 1bbb
00000240: 8626 263d 6a48 4e3d fb60 e03c 1803 003d
00000250: 76fc 3fbc 0c01 3a3c 846f 9cbc 9813 863c
00000260: 366e b53c 009c 77bc 92f5 96bc 9e39 2fbd
00000270: dcca 313d ad4c 0bbc 4ae3 9a3c ace0 0fbd
00000280: fd15 083c 0c6d 0e3c b3fb cfbc fa7f ee3c
00000290: f7cc 2fbc 26d2 c13c 9319 a439 5107 a3bc
000002a0: 5f7d 5fbd 9924 1c3d 2b11 0a3c 0bca 6fbd
000002b0: 6721 083d b973 9d3c 7a02 23bd 4ffe 17bd
000002c0: 01d8 af3c e03e 993b 1146 c73b 09dd 1bbc
000002d0: 5323 b03c f123 cebc 7304 c23c 2444 ba3c
000002e0: abf0 f5bc cf3b 0dbd 1f27 c03c 7211 cc3c
000002f0: 19ab e43c 14cd fabb 4593 a03c e64e a73c
00000300: 66cc 803d 2fa8 4dbd ed04 263d a311 ce3b
00000310: 6a13 edbc 5cc6 3abd 7e30 9d3b c087 233d
00000320: 969e b8bb d8aa 81bc 17cb c23c 7176 893c
00000330: 414f c43c dcde bcbc 9d9b aebc 532e 9cbc
00000340: e9ae 91bd dc08 6dbd c6de 9e3c 785f 86bd
00000350: fedc 34bc 850f 143d bdd3 4cbd a336 bfbd
00000360: 7a52 55bc 6893 07bd d9bb 4f3d a171 403d
00000370: 2e99 f43c 4c6e 403d 97df 9e3c 96ec ee3c
00000380: dbc0 a13c 8e6b 1dbd 805f 283d ad45 343d
00000390: c308 06bc 44f2 33bd 7253 0ebb 0537 b039
000003a0: 45fa 89bc 2645 d8bc 4f36 453d c9ad 52ba
000003b0: 0f04 6a3d 1f87 573d b4b4 57bd 3fed f83b
000003c0: 82eb 56bc 05ab 463d 0aa8 93bc 8047 183d
000003d0: 8d38 9abc a00e c5bc 518e 87bc d70f bebc
000003e0: 65f0 ccbc c5bd 38bd 8da6 02bd 0227 113c
000003f0: ee01 443d 2ff7 54bc d4c3 7c3d 1d0e 623d

bias f4 [16]
-0.10106145 0.16681498 -0.121141754 0.059972044 -0.04107404 0.12282461 -0.028970892 -0.12213202
0.07442424 -0.07919281 0.08975743 -0.0023363642 0.082045645 0.17033072 -0.061525848 0.1145041
00000000: 4ef9 cebd 8cd1 2a3e 2b19 f8bd 3fa5 753d
00000010: 413d 28bd 788b fb3d 5d54 edbc 5a20 fabd
00000020: bc6b 983d d72f a2bd bed2 b73d b01d 19bb
00000030: 8c07 a83d 2d6b 2e3e 8702 7cbd 2081 ea3d

weight f4 [8, 16, 3, 3]
0.032494858 0.019328129 0.009247956 -0.026524896 -0.056647874 -0.05201345 -0.015529228 0.055304278
0.054099247 -0.18044183 -0.11373204 -0.23213314 -0.25373366 -0.12695545 -0.14429535 -0.18040979
-0.05526517 0.0076755416 -0.03763844 0.010236908 0.03240243 -0.060003925 0.050350405 -0.079443544
-0.0225241 0.019232977 0.067039035 0.06435562 -0.07933458 0.026532011 -0.021337898 -0.09277302
0.038665064 -0.09030568 0.039606605 -0.061206583 0.014374938 -0.08582247 -0.0016055744 -0.09399982
-0.00063473673 -0.031616513 0.06047628 0.032358367 -0.02437972 -0.05943327 0.013027477 -0.030766947
0.04332529 0.077978075 -0.06076738 0.07808427 0.050324343 -0.037122726 0.052164547 0.03192241
-0.06501551 -0.029344326 -0.036517188 -0.018842902 0.06653667 -0.031475622 -0.090832695 0.03814656
0.031690322 -0.0035474556 -0.054629292 0.03485121 -0.05821337 -0.08078929 0.0719194 -0.038611073
0.027608339 0.08198448 -0.053639982 0.0416657 0.005471008 0.01623209 0.0032853812 0.04295244
0.047391005 -0.06270055 -0.044169027 -0.09430606 -0.088790186 0.00019411182 -0.0112320315 -0.071651444
-0.0637859 -0.000574615 0.027478958 -0.048306137 -0.009559281 0.051303238 0.048050493 0.015892752
-0.07076552 -0.014717358 0.04556853 -0.033527803 -0.005909635 0.03161804 0.06444314 0.03560687
0.07435178 -0.012612187 -0.02781711 -0.085204944 -0.012258007 -0.08567693 0.042634662 -0.061824467
0.01801911 0.047962792 -0.019382613 -0.079924844 -0.042487543 -0.043352887 -0.05591699 -0.054711312
-0.07945755 -0.07273621 -0.0523728 0.025567438 -0.0944875 0.031288296 -0.043242183 -0.04145263
-0.01909293 -0.05080464 -0.0564223 -0.0031354998 0.040564492 0.0750849 -0.017458232 -0.023300108
-0.074170165 0.049235236 -0.07000349 0.07343557 -0.046625495 -0.013851698 0.06221772 -0.005911812
0.063941054 0.033464372 -0.0067061083 -0.07027971 0.0072903004 0.036183447 0.066217296 0.017479897
-0.030666804 0.041835923 0.0008465901 -0.000437669 -0.004950095 -0.028237991 -0.09113863 0.0039154203
0.0025099001 -0.023680763 -0.015395874 0.025976866 0.039532583 -0.01569509 -0.057715416 0.052785195
0.05426532 -0.07048332 -0.044990063 0.01659327 -0.075267844 0.07392389 -0.032458518 -0.016337035
-0.0988861 0.031804778 0.03211224 -0.055022415 -0.055477887 -0.07222947 0.037389353 0.034707833
-0.020803995 0.072483785 0.009970813 -0.024569713 -0.01789202 -0.033710673 0.02274082 -0.010796598
0.052315548 0.072629824 0.014636424 0.07382574 0.10717202 -0.020931005 -0.029713769 0.02931525
-0.080292314 -0.08017769 0.003557142 0.055867497 0.011456787 -0.03489061 0.0033469838 -0.07093537
0.0579551 -0.021188041 -0.008997359 0.03864136 -0.042524956 0.043963373 0.033311453 0.028800074
-0.018171525 -0.014477617 0.03190688 0.0042581824 0.012992065 0.00030410968 -0.046037193 -0.039473634
-0.08073668 -0.05514024 -0.06934938 0.06250013 0.04004308 0.06182432 0.060048193 -0.030696979
-0.06601934 0.011582975 -0.08583593 0.07149396 0.04838882 -0.066987954 -0.0606036 0.03541124
0.07205306 -0.06340321 -0.06536191 -0.029786188 -0.05210601 0.0023046257 0.043596663 -0.007228662
-0.04242163 0.055484846 0.0030576885 0.013281764 -0.049537256 0.023859566 -0.009481292 0.023773473
00000000: 5419 053d 0656 9e3c bd84 173c bd4a d9bc
00000010: 9a07 68bd 0e0c 55bd 4e6e 7ebc bd86 623d
00000020: 2c97 5d3d bec5 38be 58ec e8bd 4fb4 6dbe
00000030: 61e9 81be 9c00 02be 29c2 13be 58bd 38be
00000040: bb5d 62bd 1c83 fb3b c42a 1abd b4b8 273c
00000050: 69b8 043d adc6 75bd 3a3c 4e3d 4cb3 a2bd
00000060: 7684 b8bc 7a8e 9d3c c34b 893d e1cc 833d
00000070: 2b7a a2bd a959 d93c d1cc aebc c8ff bdbd
00000080: 425f 1e3d 2ff2 b8bd 893a 223d c1b3 7abd
00000090: dc84 6b3c b1c3 afbd 2372 d2ba fa82 c0bd
000000a0: 7664 26ba 5180 01bd fab5 773d 358a 043d
000000b0: fbb7 c7bc 4d70 73bd 3371 553c f70a fcbc
000000c0: dc75 313d f8b2 9f3d 37e7 78bd a5ea 9f3d
000000d0: e620 4e3d 000e 18bd 7eaa 553d 13c1 023d
000000e0: da26 85bd 8363 f0bc 0c93 15bd 6e5c 9abc
000000f0: 6144 883d 95ec 00bd 7e06 babd 913f 1c3d
00000100: b6cd 013d 6e7c 68bb f7c2 5fbd 24c0 0e3d
00000110: 2571 6ebd db74 a5bd 7a4a 933d a526 1ebd
00000120: e22a e23c 7be7 a73d 99b5 5bbd a7a9 2a3d
00000130: 2446 b33b 29f9 843c 8d4f 573b e6ee 2f3d
00000140: 121d 423d 2569 80bd 95ea 34bd 8923 c1bd
00000150: a1d7 b5bd 7f8a 4b39 8e06 38bc febd 92bd
00000160: 2fa2 82bd c3a1 16ba 8d1b e13c a8dc 45bd
00000170: 889e 1cbc 5823 523d 98d0 443d 8431 823c
00000180: 83ed 90bd 1321 71bc 11a6 3a3d 7354 09bd
00000190: 9da5 c1bb eb81 013d c4fa 833d 82d8 113d
000001a0: bf45 983d 59a3 4ebc b5e0 e3bc ee7f aebd
000001b0: cfd5 48bc 6377 afbd afa1 2e3d a73b 7dbd
000001c0: d09c 933c a274 443d 49c8 9ebc a3af a3bd
000001d0: 6b07 2ebd cc92 31bd 3709 65bd f818 60bd
000001e0: a4ba a2bd b9f6 94bd dc84 56bd ce72 d13c
000001f0: aa82 c1bd 2828 003d b71e 31bd 3cca 29bd
00000200: c768 9cbc 8718 50bd 121b 67bd f57c 4dbb
00000210: f426 263d 1dc6 993d 9104 8fbc dedf bebc
00000220: 87e6 97bd e3aa 493d fd5d 8fbd 6365 963d
00000230: 60fa 3ebd 3bf2 62bc 02d8 7e3d e0b7 c1bb
00000240: 87f3 823d f011 093d eabe dbbb cfee 8fbd
00000250: 79e3 ee3b 1835 143d ef9c 873d 0032 8f3c
00000260: f338 fbbc 255c 2b3d b3ed 5d3a f076 e5b9
00000270: 6834 a2bb 5c53 e7bc e4a6 babd ed4c 803b
00000280: 237d 243b 29fe c1bc fa3e 7cbc 70cd d43c
00000290: ebec 213d fd92 80bc 0067 6cbd 4a35 583d
000002a0: 5045 5e3d 8f59 90bd 8047 38bd 9cee 873c
000002b0: 0726 9abd 6965 973d 39f3 04bd 3fd5 85bc
000002c0: cc84 cabd ba45 023d 2088 033d 2f5f 61bd
000002d0: c83c 63bd 0bed 93bd 9425 193d cd29 0e3d
000002e0: 246d aabc 6172 943d 9f5c 233c 6c46 c9bc
000002f0: 4992 92bc 3414 0abd f54a ba3c 37e4 30bc
00000300: d448 563d f2be 943d 9dcd 6f3c f331 973d
00000310: 017d db3d 8077 abbc 4a6a f3bc 8926 f03c
00000320: 4c70 a4bd 3334 a4bd f11e 693b 51d5 643d
00000330: 3fb5 3b3c 75e9 0ebd 1259 5b3b 9046 91bd
00000340: 5462 6d3d 8b92 adbc a969 13bc 6746 1e3d
00000350: a62e 2ebd f012 343d 9771 083d 22ee eb3c
00000360: 73dc 94bc 8733 6dbc cab0 023d 3988 8b3b
00000370: acdc 543c e970 9f39 7f91 3cbd 1baf 21bd
00000380: 4659 a5bd bbda 61bd 0c07 8ebd 1100 803d
00000390: 3604 243d 803b 7d3d 18f5 753d 3b78 fbbc
000003a0: 2635 87bd 85c6 3d3c c0ca afbd 6d6b 923d
000003b0: 5b33 463d fb30 89bd 7b3b 78bd 600b 113d
000003c0: 8e90 933d 8bd9 81bd 77dc 85bd 2a02 f4bc
000003d0: 1d6d 55bd 3409 173b 6a92 323d 69de ecbb
000003e0: 4ec2 2dbd 1444 633d 8063 483b c29b 593c
000003f0: 94e7 4abd 2375 c33c 6c57 1bbc 96c0 c23c

bias f4 [8]
0.0186455 -0.19027698 -0.027096368 -0.015911097 0.07967251 0.24224408 0.16856621 0.16335548
00000000: 73be 983c f8d7 42be 34f9 ddbc fd57 82bc
00000010: 572b a33d d50e 783e 9f9c 2c3e a946 273e

weight f4 [8, 16, 3, 3]
0.0022663095 -0.029837947 -0.087339096 0.015408594 -0.11380604 -0.095696755 -0.04971455 -0.10309788
0.0031460347 -0.044963434 -0.04169098 -0.050026406 -0.032083806 -0.0521714 -0.0049939416 -0.051065348
0.0607242 0.020200355 -0.034563795 -0.02837886 -0.0787446 -0.07216023 0.03973016 0.06920777
-0.034059525 0.03687255 0.021275666 -0.10057424 -0.022498064 -0.10096004 -0.02416156 0.015562262
-0.03282111 0.036904626 -0.04962041 -0.06850972 -0.06307155 -0.06630679 -0.09028329 0.07119183
-0.023254782 0.016412986 -0.06225789 -0.034197748 -0.09166429 -0.10944512 -0.19450372 -0.18587019
-0.2001911 -0.19627042 -0.07073082 -0.18950374 -0.121486776 -0.111039825 -0.00888985 0.080081746
-0.038393416 0.02588442 0.04669278 0.043205217 -0.046910543 -0.010607296 0.09560384 0.06590304
0.08461343 -0.0011371196 -0.050846227 -0.032036517 0.10272188 -0.013245595 -0.055851165 0.06001454
0.101316564 0.04624278 0.046487015 0.08071489 -0.04187046 0.045964155 0.050732292 -0.049602795
-0.042054977 0.055894397 -0.09189458 -0.06605008 0.032431312 -0.07544284 -0.0162704 0.020460222
-0.08088518 0.021451438 -0.03915474 -0.003392643 -0.0059599187 -0.07985638 -0.021578953 -0.00045464956
0.025046198 0.068931915 -0.03114602 0.02717044 0.048602812 0.022872107 -0.06115243 0.048891522
-0.03833013 0.029339548 -0.06388956 0.004480874 -0.053692162 0.061218563 0.008975829 0.048542727
0.053299125 0.018729448 0.062015448 0.011387806 -0.032325823 0.07746662 -0.020192923 0.05375976
-0.020279594 0.022484679 -0.042531114 -0.06245643 -0.10108308 -0.09320557 -0.043514412 0.028625663
-0.017913818 0.09233346 0.0923325 -0.024092227 0.01631839 0.042171914 -0.041575722 0.052462965
0.034890536 0.045201253 0.04052249 -0.010292119 -0.05458069 0.024423378 -0.077322476 0.009057272
0.010810218 0.042709697 0.011656185 -0.03360725 0.00029727077 0.025996525 0.018499525 -0.06645582
0.060148224 0.04226319 -0.07620049 0.059057206 -0.09051692 -0.05286958 -0.005616313 -0.055788986
-0.025084851 -0.055714834 0.0009985266 -0.0636082 0.09365223 -0.023607532 0.025452213 -0.07229973
-0.04501722 0.056879662 0.03833138 0.00063881476 0.018340904 -0.03577402 0.04658597 0.064257264
0.01770348 -0.07239141 0.07240106 0.016231887 0.059537165 0.06167214 0.076126575 -0.00047128767
0.016381253 -0.037431855 -0.04056079 0.015758932 0.06526114 -0.12180686 -0.025583966 -0.09121156
-0.02752624 -0.0056993156 -0.16294402 -0.0747308 -0.112532824 -0.09102385 0.016552888 -0.014898046
-0.095610194 -0.025433592 -0.031193588 0.0024496242 -0.024099464 0.057856802 0.013498612 0.04532536
-0.07144779 -0.0054871715 -0.019508827 0.022828488 -0.0022757284 0.06218549 -0.05472123 0.041927032
-0.014075815 0.00654628 -0.0017407235 -0.03703123 0.033669766 -0.024664404 -0.07775601 0.061389536
0.03233769 -0.01751197 -0.02242369 0.002165678 -0.0045617055 0.063176565 0.04409367 -0.08749449
-0.06707774 0.00095380284 0.025602018 -0.060102835 0.030800257 0.033404298 -0.009336109 0.006766954
-0.038978543 -0.012942702 0.007946413 0.064887725 -0.069434665 0.075210504 0.058624234 -0.064030126
-0.04601543 -0.058556188 0.008130272 -0.006621724 -0.0579589 0.026128542 -0.040179394 -0.03969176
00000000: 5d86 143b b66e f4bc d7de b2bd 5474 7c3c
00000010: 2413 e9bd a9fc c3bd 7ca1 4bbd fb24 d3bd
00000020: b42d 4e3b 942b 38bd 29c4 2abd 7de8 4cbd
00000030: 4f6a 03bd aeb1 55bd 38a4 a3bb e629 51bd
00000040: f0b9 783d 377b a53c c492 0dbd c87a e8bc
00000050: d944 a1bd bec8 93bd 18bc 223d cebc 8d3d
00000060: 0082 0bbd ac07 173d 4e4a ae3c def9 cdbd
00000070: dc4d b8bc 23c4 cebd 77ee c5bc dcf8 7e3c
00000080: 6e6f 06bd 4e29 173d c53e 4bbd d34e 8cbd
00000090: a82b 81bd dbcb 87bd 72e6 b8bd 06cd 913d
000000a0: d080 bebc 8774 863c 2102 7fbd f012 0cbd
000000b0: 7dba bbbd c324 e0bd fc2b 47be c154 3ebe
000000c0: e5fe 4cbe 1dfb 48be 52db 90bd 450d 42be
000000d0: 0fce f8bd d968 e3bd bca6 11bc e601 a43d
000000e0: 6a42 1dbd 900b d43c ee40 3f3d f4f7 303d
000000f0: 4525 40bd 39ca 2dbc f2cb c33d 2cf8 863d
00000100: ce49 ad3d 670b 95ba 2244 50bd b938 03bd
00000110: d95f d23d 0d04 59bc 31c4 64bd ced1 753d
00000120: 0f7f cf3d 1269 3d3d 2b69 3e3d d94d a53d
00000130: 5c80 2bbd e944 3c3d aacc 4f3d 4d2c 4bbd
00000140: d741 2cbd 86f1 643d 3a33 bcbd 4445 87bd
00000150: b2d6 043d c781 9abd 8049 85bc 329c a73c
00000160: 21a7 a5bd edba af3c b860 20bd 1b57 5ebb
00000170: 6c4b c3bb be8b a3bd 58c6 b0bc 085e eeb9
00000180: af2d cd3c 2d2c 8d3d f025 ffbc 8b94 de3c
00000190: be13 473d 495e bb3c f87a 7abd 7a42 483d
000001a0: 0e00 1dbd 7e59 f03c 88d8 82bd 4cd4 923b
000001b0: 50ec 5bbd 51c0 7a3d 5b0f 133c bdd4 463d
000001c0: 2f50 5a3d 806e 993c e903 7e3d ec93 3a3c
000001d0: 1568 04bd d2a6 9e3d a16b a5bc 3233 5c3d
000001e0: 6421 a6bc ca31 b83c 1b35 2ebd 50d2 7fbd
000001f0: a504 cfbd 90e2 bebd 2b3c 32bd 5e80 ea3c
00000200: 00c0 92bc 5319 bd3d d218 bd3d 105d c5bc
00000210: 25ae 853c 75bc 2c3d 4e4b 2abd 68e3 563d
00000220: 61e9 0e3d f324 393d e9fa 253d 47a0 28bc
00000230: 0090 5fbd 8913 c83c 3f5b 9ebd f464 143c
00000240: 571d 313c 5df0 2e3d 95f9 3e3c c1a7 09bd
00000250: 02db 9b39 aaf6 d43c 518c 973c fd19 88bd
00000260: fc5d 763d 2b1c 2d3d 010f 9cbd f8e5 713d
00000270: ef60 b9bd c68d 58bd 0c09 b8bb fe82 64bd
00000280: bf7e cdbc 3d35 64bd fee0 823a 0445 82bd
00000290: becc bf3d 9564 c1bc 2981 d03c e111 94bd
000002a0: fa63 38bd a6fa 683d 5d01 1d3d 2276 273a
000002b0: aa3f 963c c787 12bd eed0 3e3d 5099 833d
000002c0: e306 913c f341 94bd 0247 943d bcf8 843c
000002d0: 3edd 733d ed9b 7c3d 40e8 9b3d 2917 f7b9
000002e0: fa31 863c 2552 19bd 1223 26bd e018 813c
000002f0: a2a7 853d e075 f9bd 7795 d1bc 20cd babd
00000300: b67e e1bc 53c1 babb ccda 26be 760c 99bd
00000310: 9c77 e6bd b66a babd ec99 873c ef16 74bc
00000320: 47cf c3bd 1c5a d0bc b289 ffbc e089 203b
00000330: 3d6c c5bc 41fb 6c3d 4829 5d3c 16a7 393d
00000340: 3853 92bd bbcd b3bb fad0 9fbc cf02 bb3c
00000350: 6324 15bb 36b6 7e3d 5e23 60bd aebb 2b3d
00000360: 3f9e 66bc 2d82 d63b fd28 e4ba 0fae 17bd
00000370: 4fe9 093d 010d cabc 8b3e 9fbd 9873 7b3d
00000380: 8774 043d 4375 8fbc e3b1 b7bc 0cee 0d3b
00000390: 5c7a 95bb b762 813d 909b 343d 5030 b3bd
000003a0: 0e60 89bd a008 7a3a 53bb d13c 642e 76bd
000003b0: d250 fc3c f2d2 083d 7bf6 18bc 53bd dd3b
000003c0: f7a7 1fbd a00d 54bc ac31 023c dbe3 843d
000003d0: c333 8ebd f707 9a3d f71f 703d 3a22 83bd
000003e0: ad7a 3cbd 9dd8 6fbd d534 053c 0cfb d8bb
000003f0: 5066 6dbd 860b d63c 2693 24bd d493 22bd

bias f4 [16]
-0.119997844 0.15761398 0.18660203 0.012620989 -0.021118684 0.20101951 0.18616259 0.10194477
0.10141262 -0.06685313 0.20627813 0.20169093 0.15752277 0.0634724 -0.16350305 -0.15277356
00000000: 6ec1 f5bd 8f65 213e 9a14 3f3e 44c8 4e3c
00000010: 1701 adbc 0fd8 4d3e 68a1 3e3e 6bc8 d03d
00000020: 6bb1 cf3d 4bea 88bd 933a 533e 1188 4e3e
00000030: a64d 213e d1fd 813d 586d 27be ac70 1cbe

weight f4 [16, 32, 3, 3]
-0.080450244 -0.045633856 -0.067583464 -0.008978257 -0.018785665 -0.010424496 -0.07491208 -0.0009259151
-0.04251939 -0.043939594 -0.03692255 -0.0008263436 -0.08056467 -0.009963173 0.027250022 0.024393078
-0.008935341 -0.04424931 -0.05874475 0.019301277 -0.005268441 -0.0015700908 0.0075467397 0.06355794
0.002594503 0.03711694 -0.027364483 -0.05189976 -0.04122778 0.047105953 0.038363114 0.012488379
0.054809127 0.019781098 0.002934628 0.009827892 -0.0055093206 0.038504463 -0.060014322 0.04959584
0.030532498 0.031160466 -0.0040122895 0.030766845 0.0035518748 -0.0072531914 0.016704772 -0.004800638
-0.044170987 0.0626531 0.06318472 -0.05792779 0.0046992893 -0.012800229 -0.031633653 0.03381463
0.04595866 0.048802804 -0.044544466 -0.039983895 -0.022211146 0.0507212 0.0042278413 0.033074077
-0.0019186704 0.044804085 0.0025654011 -0.034936033 -0.0010079755 0.050038468 -0.054662958 0.025408696
-0.011819203 0.017349737 -0.049705744 0.043721557 0.030647077 0.008197917 0.044428598 0.053233486
0.021183286 -0.058081284 -0.021881457 -0.05740758 0.012713027 -0.020458655 -0.0076451316 -0.021559963
0.033551592 0.010712569 -0.062039867 -0.0381688 0.030795394 -0.047973223 0.00043371718 0.00323548
-0.0022609248 0.028818937 -0.015988199 -0.040778957 0.046652842 0.051838875 -0.0465656 0.02688497
-0.050728552 -0.05849755 -0.00540519 -0.0564062 0.06561019 0.049417164 -0.039465055 0.034211278
0.03632182 -0.024964942 0.02110512 -0.007099259 -0.032341756 -0.039863296 -0.044348396 -0.042215902
-0.025063496 0.0028929012 -0.021962542 0.0433999 -0.037580777 -0.01082703 0.072257414 0.069104195
0.026359236 0.038839437 -0.039720375 -0.0073713907 -0.04324086 0.043217745 -0.019534433 0.029171845
0.053657524 0.051759653 -0.0050625866 -0.03151609 -0.004115617 -0.0183699 -0.039975375 -0.006166926
0.017522933 -0.04790897 0.016142413 -0.036052346 0.026474321 0.037590154 0.0007547229 0.05600155
-0.033333007 0.00295492 0.029084416 -0.0377935 -0.037517827 0.026880335 -0.027289681 -0.004022653
0.036355194 -0.023157537 -0.03784528 0.06417895 0.02572358 0.037909374 -0.039904274 -0.002646894
-0.056840997 -0.04322251 0.04979991 -0.02415245 -0.063642226 -0.055589423 0.04087991 0.034375556
-0.047153145 -0.055017404 -0.056789577 -0.009130456 -0.030525573 -0.005185395 -0.00322862 -0.0014420565
-0.020690978 0.02568389 -0.06325424 -0.020812858 0.04648602 -0.05663697 -0.040560734 0.007801157
0.006923128 -0.032839622 0.04606268 0.030224828 -0.0041635106 -0.022283427 -0.015240579 0.043979492
-0.028969208 0.02029424 0.04543392 -0.0055817254 -0.033785332 -0.03575905 -0.035687 0.016659245
-0.011478326 0.05850401 0.064474076 0.05497397 0.021149272 0.008216899 0.023209464 -0.012237553
0.017222198 -0.011456204 0.025319912 -0.04990641 0.028888239 0.048046574 0.03670268 0.00034725518
-0.028206293 0.05183526 0.059121378 0.026562845 0.06594467 0.041614827 -0.010324322 -0.0018829103
0.03845915 -0.021773748 -0.030961687 0.033944044 0.04749045 0.00081263704 0.049612857 -0.059352163
0.03756024 -0.029036086 0.042726487 0.049105592 -0.014567477 0.013285652 -0.0033666636 0.026929833
0.027898462 -0.060768817 0.0011616588 0.0003012814 -0.03532437 -0.008441597 -0.050156835 0.043203227
00000000: 19c3 a4bd 91ea 3abd 3369 8abd 8a19 13bc
00000010: 65e4 99bc 81cb 2abc 816b 99bd 1cb9 72ba
00000020: d028 2ebd 01fa 33bd 1a3c 17bd fb9e 58ba
00000030: 17ff a4bd 943c 23bc 703b df3c fed3 c73c
00000040: 8965 12bc c43e 35bd 569e 70bd b61d 9e3c
00000050: e3a2 acbb 81cb cdba a44a f73b aa2a 823d
00000060: 8a08 2a3b ef07 183d 7b2b e0bc d894 54bd
00000070: 76de 28bd 2cf2 403d a422 1d3d 0f9c 4c3c
00000080: 897f 603d f80b a23c e352 403b 2b05 213c
00000090: 8887 b4bb dbb6 1d3d 94d1 75bd 0225 4b3d
000000a0: 4a1f fa3c 3c44 ff3c 8679 83bb c00a fc3c
000000b0: 92c6 683b 2eac edbb 72d8 883c ac4e 9dbb
000000c0: a3ec 34bd 4550 803d fe66 813d b145 6dbd
000000d0: 7ffc 993b 0db8 51bc 4a92 01bd 3681 0a3d
000000e0: 263f 3c3d 73e5 473d 4274 36bd 27c6 23bd
000000f0: 26f4 b5bc 08c1 4f3d b489 8a3b af78 073d
00000100: e57b fbba 7d84 373d 4a20 283b 1619 0fbd
00000110: 0c1e 84ba 23f5 4c3d 44e6 5fbd e625 d03c
00000120: 55a5 41bc 0921 8e3c 4098 4bbd 6015 333d
00000130: 940f fb3c 8e50 063c c3fa 353d 5b0b 5a3d
00000140: 9288 ad3c a4e6 6dbd be40 b3bc 3624 6bbd
00000150: 4d4a 503c e998 a7bc 0384 fabb 859e b0bc
00000160: 656d 093d c583 2f3c 841d 7ebd e356 1cbd
00000170: 9f46 fc3c 927f 44bd 8964 e339 590a 543b
00000180: 062c 14bb b115 ec3c aff9 82bc d607 27bd
00000190: 0d17 3f3d 0055 543d 92bb 3ebd de3d dc3c
000001a0: bec8 4fbd 219b 6fbd 051e b1bb 300a 67bd
000001b0: a35e 863d a769 4a3d 1ca6 21bd 2021 0c3d
000001c0: 30c6 143d 4783 ccbc a5e4 ac3c e7a0 e8bb
000001d0: ca78 04bd b247 23bd aaa6 35bd 95ea 2cbd
000001e0: f651 cdbc d496 3d3b caea b3bc 18c4 313d
000001f0: 4dee 19bd db63 31bc b2fb 933d 8086 8d3d
00000200: 53ef d73c 1a16 1f3d d5b1 22bd b58b f1bb
00000210: 541d 31bd 1705 313d ad06 a0bc cbf9 ee3c
00000220: fec7 5b3d ee01 543d 0ee4 a5bb 0417 01bd
00000230: 4cdc 86bb 797c 96bc 38bd 23bd ed13 cabb
00000240: 418c 8f3c 323c 44bd 183d 843c a0ab 13bd
00000250: ade0 d83c 22f8 193d 99d8 453a e261 653d
00000260: 3188 08bd 55a7 413b 7142 ee3c 5bcd 1abd
00000270: 4bac 19bd 2634 dc3c 9c8e dfbc 76d0 83bb
00000280: 2fe9 143d e0b4 bdbc a703 1bbd 4170 833d
00000290: 42ba d23c dc46 1b3d aa72 23bd 8377 2dbb
000002a0: 1bd2 68bd 160a 31bd fefa 4b3d 5cdb c5bc
000002b0: db56 82bd bcb1 63bd b171 273d 62cd 0c3d
000002c0: a823 41bd ee59 61bd 309c 68bd e897 15bc
000002d0: c410 fabc 3fea a9bb 4197 53bb 6303 bdba
000002e0: 2080 a9bc 0567 d23c 708b 81bd ba7f aabc
000002f0: 2068 3e3d 2bfc 67bd 0323 26bd d9a0 ff3b
00000300: 68db e23b d782 06bd 39ac 3c3d 0f9a f73c
00000310: 0f6e 88bb bc8b b6bc 9fb3 79bc d723 343d
00000320: d550 edbc 1b40 a63c eb18 3a3d e8e6 b6bb
00000330: 7d62 0abd 1578 12bd 882c 12bd f878 883c
00000340: 970f 3cbc e7a1 6f3d fc0a 843d 632c 613d
00000350: 3d41 ad3c 2ca0 063c c621 be3c 0480 48bc
00000360: 9115 8d3c cdb2 3bbc b46b cf3c aa6a 4cbd
00000370: 07a7 ec3c 7ccc 443d 8d55 163d cd0f b639
00000380: e210 e7bc 3651 543d 4229 723d 539a d93c
00000390: 000e 873d 4f74 2a3d 5827 29bc fccb f6ba
000003a0: 5787 1d3d dc5e b2bc 5da3 fdbc e908 0b3d
000003b0: 5985 423d 2607 553a da36 4b3d 411b 73bd
000003c0: c4d8 193d 16dd edbc f801 2f3d f222 493d
000003d0: 6dac 6ebc 10ac 593c 3ea3 5cbb f49b dc3c
000003e0: 518b e43c b9e8 78bd cd42 983a 4ef5 9d39
000003f0: 49b0 10bd a04e 0abc 4171 4dbd def5 303d

bias f4 [32]
0.08282317 0.02970121 0.18258213 -0.06575634 0.07947421 -0.14369777 0.18252704 0.08066502
-0.02717612 0.03939402 0.07544097 -0.054020956 -0.036144894 -0.02157847 -0.18070775 0.11771307
-0.113725774 -0.13607746 -0.08645262 0.02802726 0.0501387 -0.029287592 0.051975757 0.07459195
-0.08044949 -0.14154266 -0.0067388318 -0.091866866 0.13982134 -0.0021490168 -0.08107285 -0.050052844
00000000: 329f a93d f44f f33c cff6 3a3e 43ab 86bd
00000010: 60c3 a23d 8225 13be 5ee8 3a3e b433 a53d
00000020: 74a0 debc a05b 213d cc80 9a3d 1445 5dbd
00000030: ab0c 14bd 55c5 b0bc 740b 39be 8d13 f13d
00000040: 0fe9 e8bd e457 0bbe 120e b1bd 6d99 e53c
00000050: 3d5e 4d3d 88ec efbc 88e4 543d aac3 983d
00000060: b4c2 a4bd 8ff0 10be 6bd1 dcbb b224 bcbd
00000070: 532d 0f3e 85d6 0cbb 8609 a6bd 3604 4dbd

weight f4 [32, 3, 3, 3]
-0.12643117 0.06680515 -0.15403189 -0.112223335 0.113585494 -0.22688091 -0.20861912 -0.10609575
-0.2095654 0.07382507 0.14046195 -0.1964614 -0.1562993 -0.18800384 0.038829923 0.046491805
0.068020135 0.0044273105 0.105422206 -0.17310663 0.06979088 -0.081264675 0.12960222 -0.1619807
-0.14603901 0.17228885 -0.10831403 0.16620782 -0.16037355 -0.0679022 -0.07205656 0.07923962
-0.060787346 -0.18788983 -0.0764977 -0.022997834 0.14108096 -0.110857666 -0.07937948 0.09391354
0.12936302 -0.1606014 0.028187647 -0.10482053 0.10071159 0.1276807 -0.08360791 -0.009640084
-0.026383404 -0.15009327 -0.12123099 0.17286941 -0.047174968 0.14997752 -0.18878314 -0.16027635
-0.100512564 -0.070995435 -0.08492124 -0.0067328946 0.15704727 0.17409499 0.07457507 -0.02863662
0.05761956 -0.1465067 0.043027714 0.13381375 -0.18516225 -0.09337898 0.016757434 -0.14649604
-0.1423589 -0.24500361 -0.26563123 0.05660884 -0.013209451 -0.1040785 0.019658191 0.13195713
-0.08069462 -0.1907477 0.1608579 -0.102125734 0.014009806 -0.12378917 0.09132679 -0.058668394
-0.17317031 0.05305554 -0.03560799 -0.10406595 -0.049450807 0.056993954 -0.0029488162 0.18674047
0.05808735 0.14611006 -0.01027628 -0.17163932 0.07428249 0.11161594 0.17801003 0.08548672
0.14032921 0.16114998 -0.16141303 -0.04965153 -0.15018857 -0.10714559 -0.17455468 -0.105174124
-0.03687849 -0.18667449 0.006492643 -0.06874476 -0.21087915 0.009095702 -0.19581912 0.084946126
-0.11287921 -0.036921557 -0.17555542 0.06184885 -0.05446732 0.073908396 0.08772357 0.109639026
-0.05853827 -0.06859271 -0.10682587 -0.1853401 -0.033915102 -0.11279858 -0.15258364 0.08041131
0.019662784 0.050193734 0.015354766 0.024491096 0.002299434 -0.07661204 -0.08080844 -0.056876402
0.0982574 0.059288643 -0.103551805 -0.030812744 0.19969256 0.16508977 -0.13274263 0.09908089
-0.054923035 0.120589405 -0.0371167 -0.07569296 -0.0991192 0.07259739 0.12529399 0.029871715
0.051303733 0.19346672 0.034653585 -0.06501336 -0.036546145 -0.16163841 -0.16986385 0.08719621
-0.23842157 -0.17162593 -0.039962985 0.027687136 0.0020730041 -0.16737531 -0.056544174 -0.012312447
0.01812399 -0.066580325 -0.24004968 0.02853377 0.0048191743 -0.051963456 0.13279979 -0.08445847
-0.048414536 -0.2098861 0.05312132 -0.16311496 -0.03793557 -0.001321965 0.017781684 -0.09716499
0.18850477 -0.009478899 -0.15925892 0.19473836 0.067701474 -0.061229486 -0.052724883 -0.08409532
-0.15980147 -0.15538692 0.020347277 -0.10846688 -0.033756804 -0.16926353 -0.037802935 -0.09040539
0.12388896 0.0126195485 -0.056654185 -0.124233246 -0.1350952 0.19768497 -0.0026027134 0.11556051
0.06937188 -0.1453848 -0.07025677 0.040876895 0.18615566 -0.15145719 -0.064418316 -0.06257037
0.07703772 -0.100776665 -0.16227533 0.002977913 0.075459935 -0.090037405 -0.004748296 -0.14214778
-0.1847647 0.13905264 0.1776859 0.08736008 0.20062844 -0.045427114 0.024325265 0.09138732
0.20043698 -0.022623582 0.19517848 -0.07486652 0.11764553 -0.17481989 0.03163275 0.023132429
0.014351933 -0.1493501 0.051893495 0.052117903 -0.14217718 -0.14223611 -0.11985034 0.00019141099
00000000: 2c77 01be 23d1 883d 89ba 1dbe 59d5 e5bd
00000010: 839f e83d 7853 68be 40a0 55be bb48 d9bd
00000020: 5098 56be 9931 973d 42d5 0f3e 2d2d 49be
00000030: ec0c 20be 1484 40be 200c 1f3d 316e 3e3d
00000040: 244e 8b3d f912 913b 99e7 d73d dd42 31be
00000050: 85ee 8e3d 186e a6bd 72b6 043e 45de 25be
00000060: 408b 15be 7d6c 303e bfd3 ddbd 6232 2a3e
00000070: f738 24be 4f10 8bbd 6492 93bd 6248 a23d
00000080: 27fc 78bd 3166 40be d3aa 9cbd f465 bcbc
00000090: 8777 103e 5809 e3bd b591 a2bd be55 c03d
000000a0: bd77 043e b274 24be c8e9 e63c 25ac d6bd
000000b0: e141 ce3d bbbe 023e a03a abbd 71f1 1dbc
000000c0: 0222 d8bc 0db2 19be f447 f8bd ae04 313e
000000d0: 8a3a 41bd b593 193e 5e50 41be 7c1f 24be
000000e0: 88d9 cdbd 0e66 91bd 30eb adbd 9d9f dcbb
000000f0: 00d1 203e f545 323e d0ba 983d 5897 eabc
00000100: 7d02 6c3d da05 16be d43d 303d 7906 093e
00000110: 2c9b 3dbe 7b3d bfbd e346 893c 0f03 16be
00000120: 88c6 11be 3ae2 7abe d100 88be acde 673d
00000130: 746c 58bc 1c27 d5bd 370a a13c c51f 073e
00000140: 3943 a5bd 5d53 43be efb7 243e 4c27 d1bd
00000150: 6389 653c 2d85 fdbd 8a09 bb3d 454e 70bd
00000160: 8f53 31be c450 593d afd9 11bd 8720 d5bd
00000170: ee8c 4abd 7e72 693d ed40 41bb e538 3f3e
00000180: 00ed 6d3d e09d 153e d85d 28bc 38c2 2fbe
00000190: 6b21 983d e696 e43d 4348 363e a913 af3d
000001a0: 76b2 0f3e 8004 253e 7549 25be 675f 4bbd
000001b0: 08cb 19be 266f dbbd 76be 32be 8865 d7bd
000001c0: e60d 17bd 9927 3fbe 3dc0 d43b 0dca 8cbd
000001d0: b4f0 57be 2406 153c cf84 48be 3cf8 ad3d
000001e0: 372d e7bd 0f3b 17bd cdc4 33be 3855 7d3d
000001f0: 2019 5fbd 495d 973d 6aa8 b33d 6d8a e03d
00000200: d3c5 6fbd 567a 8cbd 86c7 dabd ccc9 3dbe
00000210: 90ea 0abd f102 e7bd e33e 1cbe afae a43d
00000220: d913 a13c f297 4d3d 8e92 7b3c 8da1 c83c
00000230: 1ab2 163b c6e6 9cbd e57e a5bd 3bf7 68bd
00000240: 2d3b c93d a6d8 723d f812 d4bd 026b fcbc
00000250: 357c 4c3e 4b0d 293e afed 07be ecea ca3d
00000260: faf6 60bd 94f7 f63d ae07 18bd e904 9bbd
00000270: 02ff cabd f1ad 943d 114d 003e 87b5 f43c
00000280: dd23 523d 241c 463e ebf0 0d3d b925 85bd
00000290: 69b1 15bd 8a84 25be caf0 2dbe ed93 b23d
000002a0: c924 74be b5be 2fbe 3ab0 23bd 22d0 e23c
000002b0: 3ddb 073b 6f64 2bbe dd9a 67bd 25ba 49bc
000002c0: c378 943c 445b 88bd 95cf 75be a7bf e93c
000002d0: 2aea 9d3b a2d7 54bd abfc 073e 90f8 acbd
000002e0: 524e 46bd 62ec 56be be95 593d 9c07 27be
000002f0: 5462 1bbd c945 adba e5aa 913c 70fe c6bd
00000300: 6507 413e 624d 1bbc c514 23be 7e69 473e
00000310: 12a7 8a3d c5cb 7abd 0cf6 57bd 2b3a acbd
00000320: ffa2 23be c01d 1fbe 55af a63c e223 debd
00000330: 9344 0abd 6b53 2dbe 40d7 1abd 7626 b9bd
00000340: 7fb9 fd3d 39c2 4e3c 380e 68bd 006e febd
00000350: 6556 0abe ee6d 4a3e 4992 2abb fdaa ec3d
00000360: d812 8e3d c1df 14be c8e2 8fbd 886e 273d
00000370: 979f 3e3e 9817 1bbe c0ed 83bd e524 80bd
00000380: f4c5 9d3d ff63 cebd 812b 26be 1729 433b
00000390: bd8a 9a3d 8865 b8bd 9897 9bbb 308f 11be
000003a0: f532 3dbe d163 0e3e 4bf3 353e d7e9 b23d
000003b0: 8b71 4d3e c811 3abd c745 c73c 4629 bb3d
000003c0: 5a3f 4d3e 1755 b9bc dedc 473e 9e53 99bd
000003d0: 24f0 f03d fc03 33be 5891 013d 3880 bd3c
000003e0: 5f24 6b3c 3cef 18be 468e 543d 9579 553d
000003f0: e596 11be 58a6 11be 1874 f5bd 7fb5 4839

bias f4 [3]
-0.26560396 0.016294686 -0.005828273
00000000: 3efd 87be 6f7c 853c 19fb bebb
