inpatinign diagrams/till_now_best_denoising_lama.pth (torch, 60610 bytes, 12 tensors)

weight f4 [32, 3, 3, 3]
0	0x3cd6c8e6	0.026218843
1	0x3e0dfdb8	0.13866317
2	0x3c8505bc	0.016238086
3	0x3e151200	0.14557648
4	0x3d115df2	0.035489984
5	0x3c972e30	0.018454641
6	0xbd8f57b9	-0.06999154
7	0x3e1b9e68	0.15197146
8	0x3d1c3e9a	0.03814564
9	0xbd9beec5	-0.07613901
10	0x3dc3f330	0.09567869
11	0xbc58c52a	-0.013230601
12	0xbe46c9fe	-0.19412991
13	0xbe0b5d9e	-0.13609931
14	0xbe21b9f2	-0.15793589
15	0xbdff3abe	-0.12462376
16	0xbe21f57c	-0.15816301
17	0x3d7846a2	0.060614236
18	0xbd2dffe0	-0.04248035
19	0xbdb9420a	-0.09045799
20	0x3d1f6e57	0.038923588
21	0xbca27cf3	-0.019834971
22	0x3e39788e	0.18112394
23	0xbdaf5d50	-0.0856272
24	0x3ddae661	0.106884725
25	0x3d8cbabf	0.068715565
26	0x3ddbe685	0.107373275
27	0xbd9b75ef	-0.075908534
28	0x3e1c3ef7	0.15258394
29	0xbdda5a06	-0.10661702
30	0xbdab79ae	-0.08372818
31	0xbe33bf9b	-0.1755356
32	0xbe4783c2	-0.19483855
33	0x3dbcd290	0.09219849
34	0x3df09de8	0.11748868
35	0x3e13c9cf	0.14432453
36	0x3e65623c	0.22400755
37	0xbe163421	-0.14668323
38	0xbe3a4c93	-0.18193273
39	0x3e503566	0.2033287
40	0xbde04521	-0.10950685
41	0x3d76afb8	0.060226172
42	0xbd9dbac3	-0.077016376
43	0xbe060651	-0.13088347
44	0x3d3f773c	0.04674457
45	0x3d393f90	0.045226634
46	0xbe2256dc	-0.15853447
47	0xbdb5e3b6	-0.08881323
48	0xbe019d4d	-0.12657662
49	0x3e26a655	0.16274388
50	0x3e0ef1a4	0.13959366
51	0x3d51bf8f	0.051208075
52	0x3df42ade	0.11922239
53	0xbe33c62c	-0.17556065
54	0xbe460fd8	-0.19341981
55	0xbd89653c	-0.06708762
56	0x3da7554a	0.081705645
57	0x3d0a3919	0.03374586
58	0x3dcc5dfe	0.09978865
59	0x3bff9b8a	0.007800524
60	0x3ce9fc03	0.028562551
61	0x3e3135a5	0.1730562
62	0xbdc03303	-0.0938473
63	0xbdf5dfbe	-0.12005566
64	0x3e2a8081	0.16650583
65	0xbd0f4715	-0.0349799
66	0xbe2cab4c	-0.1686222
67	0xbe48ce23	-0.19609885
68	0x3e063ecf	0.13109897
69	0x3d88d194	0.06680599
70	0xbb6f65cd	-0.0036529184
71	0x3d0cd43d	0.034382094
72	0xbdda3ba3	-0.10655906
73	0xbdb9bf97	-0.09069746
74	0x3da0aee4	0.07845858
75	0xbe3c0542	-0.1836138
76	0xbd6b1d14	-0.057400778
77	0xbe441023	-0.1914678
78	0xbde78df4	-0.11306372
79	0x3cae116e	0.021248545
80	0xbe41a6a5	-0.18911226
81	0xbb390510	-0.0028231777
82	0xbd7e8101	-0.062134746
83	0x3dfe7771	0.124251254
84	0xbd7088cb	-0.058724206
85	0xbdea3010	-0.114349484
86	0x3e00f930	0.12595057
87	0xbc0b01be	-0.008484302
88	0x3d2c7ceb	0.04211132
89	0xbca4e775	-0.020129899
90	0x3e1d53ee	0.15364048
91	0xbdf5082d	-0.1196445
92	0x3e2d100a	0.1690065
93	0x3e2ffef6	0.17187104
94	0x3e2dafd9	0.16961612
95	0x3df68a9c	0.120381564
96	0x3e3861be	0.18006036
97	0xbd35cc4d	-0.04438429
98	0xbe23be27	-0.15990506
99	0x3e381bd0	0.1797936
100	0xbd176532	-0.03696174
101	0xbe229f2a	-0.15881029
102	0xbdc9ffd1	-0.09863246
103	0x3c97f12a	0.018547613
104	0xbd466950	-0.048440278
105	0xbd9dc7b5	-0.07704107
106	0x3bacf933	0.0052787303
107	0x3e22e47a	0.1590747
108	0xbe057c00	-0.13035583
109	0xbd8526fa	-0.06501575
110	0xbb0ae685	-0.002119453
111	0xbd79c072	-0.060974546
112	0xbe0e1ac4	-0.13877398
113	0x3e2db062	0.16961816
114	0x3e254733	0.16140442
115	0x3cdfa897	0.02730207
116	0x3d7426ec	0.05960743
117	0xbc09b2fc	-0.00840449
118	0xbd8b8622	-0.06812693
119	0xbdf718fe	-0.12065314
120	0x3e39fe31	0.18163373
121	0x3ddab7fc	0.106796235
122	0xbda906c7	-0.08253246
123	0x3da3f3df	0.08005499
124	0x3e194a78	0.14969814
125	0xbe0d5d3e	-0.138051
126	0xbd9e14f2	-0.07718839
127	0x3d825c71	0.06365288
128	0xbe22fd14	-0.15916854
129	0xbe374cb2	-0.1790035
130	0xbe2051d3	-0.15656213
131	0xbdf8c48b	-0.121468626
132	0xbe369658	-0.17830789
133	0x3d846648	0.06464821
134	0x3d967d50	0.0734812
135	0x3d62be70	0.055357397
136	0x3dbe5530	0.09293592
137	0x3db3c772	0.087782755
138	0x3dfbe0fa	0.1229877
139	0xbcae4506	-0.021273147
140	0x3c898679	0.016787754
141	0x3b4328fe	0.0029779072
142	0xbca4c88b	-0.020115158
143	0x3d1f62f0	0.038912714
144	0x3ca489ca	0.020085234
145	0x3b901924	0.0043975282
146	0x3c6b4d6b	0.01436172
147	0x3db78144	0.08960202
148	0x3d25ac9e	0.040447824
149	0x3dd9c21c	0.106327266
150	0x3dd51cbd	0.10405872
151	0xbe412464	-0.18861538
152	0x3ceabf6a	0.028655726
153	0x3dd76052	0.105164185
154	0x3dcd1dcd	0.1001545
155	0xbe34a9b9	-0.17642869
156	0x3d550873	0.05201001
157	0x3c058eca	0.008151719
158	0xbdaa98f5	-0.083299555
159	0x3d136ac4	0.03599049
160	0xbd38af54	-0.04508908
161	0xbe1719fe	-0.14756009
162	0x3d87bb8a	0.06627567
163	0x3e24e0f8	0.16101444
164	0x3da4dc69	0.080498524
165	0x3d7c8641	0.061651472
166	0x3daacc91	0.08339799
167	0x3c3758d9	0.0111906165
168	0xbc1ba368	-0.009499408
169	0x3dc41e47	0.095760874
170	0xbe104b3e	-0.14091203
171	0x3cd76c7e	0.02629685
172	0xbe03e3b1	-0.12879826
173	0x3d1c328b	0.03813414
174	0x3e00b69e	0.12569663
175	0x3dc52448	0.09626061
176	0xbd2e3f17	-0.042540636
177	0xbe1ffa34	-0.15622789
178	0x3e1120ed	0.14172716
179	0xbdb6e3df	-0.08930182
180	0x3d5e8483	0.05432559
181	0x3e483ef8	0.1955527
182	0xbe233679	-0.15938748
183	0xbe10028c	-0.14063472
184	0xbc4ccebe	-0.012500463
185	0x3e2b9006	0.1675416
186	0x3e00a459	0.12562694
187	0x3c72f375	0.0148285525
188	0xbe0a1482	-0.13484386
189	0x3d84b2ab	0.06479391
190	0xbdfbaf3d	-0.122892834
191	0x3d9bcec7	0.07607799
192	0xbdccce8d	-0.10000334
193	0xbe11c598	-0.14235532
194	0x3e243ea0	0.16039515
195	0x3d03aa1d	0.032144655
196	0xbe078af3	-0.13236599
197	0xbd3c7df9	-0.046018574
198	0x3c037c6d	0.008025271
199	0x3dc09584	0.09403518
200	0x3d721478	0.05910155
201	0x3dbc8249	0.092045374
202	0x3c479e32	0.012183713
203	0xbe1f45a9	-0.15553917
204	0xbd73b1cd	-0.059495736
205	0xbd967d55	-0.07348124
206	0x3cb481b9	0.022034513
207	0xbd560d08	-0.05225852
208	0xbdf25cc7	-0.11834102
209	0xbe3a04e5	-0.1816593
210	0x3e062fc5	0.1310416
211	0x3dd2b059	0.10287542
212	0x3d2e17bb	0.0425031
213	0x3dd3b542	0.103373066
214	0x3d566fa6	0.05235257
215	0x3df3a770	0.118971705
216	0xbd41e7ea	-0.04734031
217	0xbdea5c95	-0.1144344
218	0xbe0615d3	-0.13094263
219	0xbd8f4cd2	-0.06997074
220	0x3d6e19cf	0.05813008
221	0x3e0dc3de	0.13844249
222	0x3cf67a3e	0.030087586
223	0xbe25c5fa	-0.16188803
224	0x3d627011	0.055282656
225	0x3d45114c	0.0481122
226	0x3de59bfe	0.11211394
227	0x3dad2352	0.084540024
228	0x3d393b69	0.045222674
229	0xbbd46867	-0.0064821723
230	0xbdbfaf49	-0.09359605
231	0x3d91a882	0.071122184
232	0x3e22bc36	0.1589211
233	0xbd16942b	-0.036762398
234	0x3d9fd9f9	0.07805247
235	0xbe4447c2	-0.19167998
236	0x3e162abf	0.14664744
237	0x3bb32dc2	0.0054681012
238	0xbd8d0983	-0.0688658
239	0x3bfc3cbd	0.0076976703
240	0x3c0adefe	0.008476017
241	0xbe3ac397	-0.18238674
242	0xbe10ea0c	-0.14151782
243	0xbdd9e920	-0.10640168
244	0xbe2e6859	-0.17031993
245	0xbe4fe00a	-0.20300308
246	0xbe3c0bd4	-0.18363887
247	0xbc6ba1fc	-0.014381882
248	0x3de74e2b	0.11294206
249	0x3d855e79	0.0651216
250	0xbe002133	-0.12512664
251	0xbe06914d	-0.13141365
252	0x3db9c56c	0.09070858
253	0xbd78997a	-0.06069324
254	0x3e2f09a6	0.17093524
255	0x3e060f0d	0.13091679

bias f4 [32]
0	0xbeab9696	-0.33513325
1	0xbdaa9fc3	-0.083312534
2	0x3dd87df8	0.10570902
3	0xbe009306	-0.12556085
4	0xbd703b99	-0.058650587
5	0xbe46f032	-0.19427565
6	0xbe8b918e	-0.27259487
7	0x3d9585b2	0.07300891
8	0x3de6e9fb	0.11275097
9	0x3e18fe4c	0.14940757
10	0xbd942f5b	-0.07235595
11	0x3d3d60ee	0.046235017
12	0xbcdf77e2	-0.027278844
13	0xbe129baa	-0.14317194
14	0x3c99b380	0.01876235
15	0x3e5ebb2d	0.2175109
16	0x3dfebdc8	0.12438542
17	0x3deffab0	0.11717737
18	0xbc8266ec	-0.015918218
19	0xbe068cd5	-0.1313966
20	0x3dc9701c	0.09835836
21	0xbcf473ac	-0.029840313
22	0xbca06c8c	-0.01958301
23	0xbd03b0b7	-0.03215095
24	0xbe00023d	-0.12500854
25	0xb97deb5e	-0.00024215641
26	0x3e575315	0.21027787
27	0xbdbc27f5	-0.09187309
28	0x3e84b36c	0.25918138
29	0xbda11418	-0.07865161
30	0x3d34ec93	0.044170927
31	0x3e86c22c	0.26320016

weight f4 [16, 32, 3, 3]
0	0xbcb0d019	-0.021583604
1	0x3cd922e0	0.026505888
2	0xbcf509fc	-0.029911987
3	0xba27159c	-0.00063737645
4	0x3d465cbb	0.04842828
5	0x3d02597f	0.03182363
6	0xba1b5f28	-0.000592696
7	0xbc468911	-0.01211764
8	0x3d44c8ad	0.04804294
9	0x3bf473ec	0.007460108
10	0xbd87c87c	-0.06630036
11	0xbd7b0df7	-0.061292615
12	0x3c89678a	0.016773004
13	0xbd6b1d6c	-0.057401106
14	0x3c4cf660	0.012509912
15	0x3dc3ecaf	0.09566628
16	0x3ce48c82	0.02789903
17	0xbcc58b26	-0.024114203
18	0xbcaf9a88	-0.02143599
19	0x3d2362a1	0.03988898
20	0x3d2ebdd9	0.04266152
21	0xbd9ccc9d	-0.076562144
22	0x3d429e87	0.047514465
23	0xbcfb1d0b	-0.030653497
24	0x3d168751	0.03675014
25	0xbcbfe33d	-0.023423785
26	0x3da7072e	0.08155666
27	0xbd308161	-0.043092135
28	0xbd15f10b	-0.03660683
29	0x396d9e6e	0.00022661101
30	0x3c27fbe9	0.010252931
31	0xbd6502b8	-0.055910796
32	0xbd683759	-0.05669341
33	0xbd32cd85	-0.04365303
34	0xbba891dc	-0.005144341
35	0x3d0fcd92	0.035108157
36	0x3cc532d0	0.02407208
37	0x3cc9a0da	0.024612833
38	0x3b6e74a4	0.0036385441
39	0x3caa8625	0.020815918
40	0x3c8c9733	0.017161941
41	0x3a88d5b6	0.0010439667
42	0xbc210591	-0.009827987
43	0xbb04e3ce	-0.0020277384
44	0xbcb4a3a3	-0.022050684
45	0xbd597524	-0.05309023
46	0xbcac8810	-0.021060973
47	0x3d0bd6cf	0.034140404
48	0xbc9da0fe	-0.019241806
49	0x3d35ec91	0.04441506
50	0xbc936a2e	-0.017994966
51	0x3b9809eb	0.004639854
52	0xbd17ed89	-0.037091766
53	0xbb3f05c7	-0.002914773
54	0x3d480f32	0.048842616
55	0x3c2d7e8a	0.010589251
56	0xbce80e7b	-0.028327217
57	0xbccb27fb	-0.024799338
58	0xbd91e3d4	-0.07123533
59	0x3d16a08c	0.036774203
60	0xbd319d55	-0.043362934
61	0x3cea6952	0.028614674
62	0xbd25a52b	-0.04044072
63	0xbd77fa77	-0.060541596
64	0x3d1a229b	0.03763066
65	0xbd0094c7	-0.031391885
66	0x3cca89f7	0.02472399
67	0x3ad08170	0.0015907716
68	0x3d341767	0.04396763
69	0x3d190612	0.037359305
70	0x3cf405d8	0.029787943
71	0x3d2fb7c9	0.04289988
72	0xbc52f7e0	-0.012876481
73	0x3c6281e5	0.013824915
74	0x3d0177e2	0.03160847
75	0x3d7dfa1c	0.0620061
76	0x3d754552	0.059880562
77	0x3c6132f0	0.013745055
78	0x3d104bce	0.035228543
79	0x3d25a7c3	0.040443193
80	0xbc9b045e	-0.01892298
81	0x3cfa6fd9	0.030570911
82	0xbd839c47	-0.06426292
83	0x3cd16b02	0.02556372
84	0x3db5641f	0.08856987
85	0x3d1878c7	0.037224557
86	0x3cc0e977	0.023548825
87	0x3cd53046	0.026023995
88	0x3ba85f41	0.0051383083
89	0x3b74715d	0.0037299015
90	0xbb9f2535	-0.0048567303
91	0x3c96d6a1	0.01841289
92	0x3c8d0cbe	0.01721799
93	0xbd240f0f	-0.040053423
94	0xbbf83e64	-0.007575797
95	0x3c4f4890	0.012651578
96	0xbd245a33	-0.040125083
97	0x3c9a73af	0.01885399
98	0x3c9282e5	0.017884681
99	0x3955eb4a	0.00020400915
100	0x3d0f78c8	0.035027295
101	0xbbd4d28d	-0.006494826
102	0x3d49a557	0.049229946
103	0x3cca2c39	0.02467929
104	0x3d04bc7f	0.032406326
105	0x3d4d0503	0.050053608
106	0x3cb977a1	0.022640051
107	0x3cbf210d	0.02333119
108	0xbb6a351b	-0.003573722
109	0x3d0ea40d	0.03482442
110	0xbcbb50bc	-0.022865646
111	0xbd181954	-0.03713353
112	0xbb904d93	-0.004403779
113	0xbd213f2b	-0.039366882
114	0xbaa137f2	-0.0012299998
115	0xbd1c0fea	-0.038101114
116	0xbd5d6de2	-0.05405987
117	0xbd39b135	-0.045335013
118	0xbd352785	-0.044227142
119	0xbd0ae25f	-0.03390729
120	0x3bb91e38	0.0056493543
121	0x3d167353	0.036731075
122	0xbd1c2efe	-0.038130753
123	0x3d1732a3	0.036913525
124	0xbc633ca1	-0.0138694355
125	0xbc0bfbbf	-0.008543908
126	0x3d1dfe19	0.038572405
127	0xbd56d19b	-0.05244599
128	0x3d2972f2	0.041369386
129	0x3cb9c1dd	0.022675449
130	0x3ce3d804	0.027812965
131	0xbc35838f	-0.011078729
132	0xbd13ff23	-0.03613199
133	0xbd035af1	-0.03206915
134	0x3d244f1d	0.04011451
135	0x3cdc548f	0.02689579
136	0x3c40fad3	0.011778551
137	0x3ce0bbe5	0.027433345
138	0x3d82456f	0.063609
139	0x3c2feda3	0.010737809
140	0xbbdbba73	-0.006705576
141	0x3d1ac59f	0.037786122
142	0xbd8b964b	-0.068157755
143	0x3bc89054	0.006120721
144	0x3d2fb1b5	0.042894084
145	0xbc1fb4c6	-0.00974769
146	0xbd06767c	-0.03282784
147	0xbcab40e4	-0.020904966
148	0xbd193195	-0.0374008
149	0xbc7349a1	-0.0148490975
150	0x3b0c082d	0.0021367178
151	0x3d05c638	0.03265974
152	0xbc9e1dea	-0.019301374
153	0xbb42377d	-0.0029635124
154	0x3d59edb6	0.053205214
155	0x3d21373a	0.03935931
156	0xbc90d19a	-0.01767807
157	0x3dbd4cf8	0.09243196
158	0xbbeeb412	-0.0072846496
159	0xbc862507	-0.016375078
160	0xbc059ec2	-0.008155527
161	0x3d92808d	0.07153425
162	0xbb8644b9	-0.004097548
163	0x3c9662e7	0.018357707
164	0x3cf854be	0.030313846
165	0xbc992610	-0.018694907
166	0xbd34b4bb	-0.04411767
167	0x3c24bab5	0.01005428
168	0x3d8119bf	0.06303739
169	0x3cfe7669	0.031062322
170	0xbae8dff4	-0.0017766939
171	0x3c758860	0.014986128
172	0xbce0b2ca	-0.027429003
173	0xbd1017bf	-0.035178896
174	0x3cfaeac7	0.030629529
175	0x3c355d30	0.011069581
176	0x3d244db2	0.04011316
177	0x3d138476	0.036014996
178	0x3bc8bb43	0.006125839
179	0x3ccae948	0.02476944
180	0xbd247440	-0.040149927
181	0x3c1bc099	0.009506368
182	0x3c2e67e7	0.010644889
183	0x3d02d60e	0.03194242
184	0x3c66d0a8	0.014087833
185	0xbccf3386	-0.025293123
186	0x3c605332	0.01369171
187	0xbca04334	-0.019563295
188	0x3c4ccc55	0.012499888
189	0xbb9505d5	-0.0045478144
190	0xbd481aa8	-0.048853546
191	0xbd2eda50	-0.042688668
192	0xbd06dd2b	-0.032925766
193	0x3db3b912	0.08775534
194	0x3ccd68af	0.025074331
195	0xbd2061c9	-0.039155755
196	0x3b8ead9d	0.0043541924
197	0x3d611c24	0.054958478
198	0xbd209ec9	-0.03921393
199	0x3c0332fa	0.008007759
200	0xbd1403b9	-0.036136363
201	0xbd31dc0b	-0.04342274
202	0xbd868f19	-0.065702625
203	0xbd8f3304	-0.06992152
204	0xbd5cb6e5	-0.05388536
205	0xbca24ae6	-0.019811105
206	0x3cff231e	0.031144675
207	0x3ccfdca5	0.025373766
208	0x3d5b4b2e	0.053538494
209	0x3da6e6fe	0.08149527
210	0xbd16788a	-0.03673605
211	0x3cac68e8	0.021046117
212	0xbc186ff9	-0.00930404
213	0xbc7f75ca	-0.015592048
214	0x3cd04e72	0.02542803
215	0x3bdff4d4	0.0068346057
216	0x3c95b5a7	0.018275095
217	0xbd5b18c2	-0.053490408
218	0x3cc2e8a5	0.023792574
219	0x3c7de621	0.015496762
220	0xbd266bbd	-0.04063009
221	0x3bb92c9b	0.0056510693
222	0x3bf1f316	0.0073837144
223	0xbba84ea8	-0.0051363297
224	0x3c955c1e	0.018232401
225	0xbbcb3d6f	-0.006202392
226	0xbd3011e4	-0.04298581
227	0xbb6e79e4	-0.003638857
228	0xbcde21c2	-0.027115706
229	0xbb82e57b	-0.0039946414
230	0x3b8ebff2	0.0043563778
231	0x3cbcabbc	0.023031108
232	0xbd8a2245	-0.06744818
233	0x3cd34d4b	0.025793692
234	0x3b255f27	0.0025233717
235	0x3d30773c	0.04308246
236	0x3ca21d3a	0.019789327
237	0xbbff5d60	-0.0077931136
238	0x3d26491e	0.040597074
239	0xbc88c2dc	-0.016694479
240	0x3d4812dd	0.048846114
241	0x3d4e6be8	0.050395876
242	0xbcdb943d	-0.026804084
243	0x3c233900	0.00996232
244	0x3958d767	0.00020679609
245	0x3cf46033	0.029831028
246	0x3d8f5e90	0.07000458
247	0x3d775076	0.060379468
248	0x3d19b25e	0.03752362
249	0xba42c099	-0.0007429212
250	0x3d2095be	0.039205305
251	0xbd06cf36	-0.032912455
252	0x3b57e848	0.0032944847
253	0x3ca92482	0.020647291
254	0xbbe1c238	-0.0068896078
255	0x3b126c9f	0.0022342575

bias f4 [16]
0	0xbc9c5f79	-0.019088494
1	0x3e00d514	0.12581283
2	0x3e2500fe	0.1611366
3	0xbe4a99a7	-0.19785176
4	0x3e495b44	0.19663721
5	0x3dd8c5f0	0.105846286
6	0x3d7f9d44	0.06240584
7	0xbd8b00c4	-0.067872554
8	0xbe1c2fab	-0.15252559
9	0x3cee0279	0.029053913
10	0xbdeb8962	-0.11500813
11	0xbe21ccc8	-0.15800774
12	0x3d93267c	0.07185075
13	0x3e13b14a	0.14423099
14	0x3e251b12	0.16123608
15	0xbe14e231	-0.1453941

weight f4 [8, 16, 3, 3]
0	0xbc859798	-0.016307637
1	0xbcc88873	-0.024479127
2	0xbd8b9c66	-0.0681694
3	0x3b14553a	0.0022633807
4	0x3d4a1afd	0.049342144
5	0x3cd7d914	0.026348628
6	0xbd87f893	-0.06639209
7	0x3c70d777	0.014699808
8	0x3d9258a2	0.071458116
9	0x3ba00adc	0.004884107
10	0xbd77bb11	-0.060481135
11	0x3c6a1045	0.0142861055
12	0xbd4bb45a	-0.049732544
13	0x3d1231f5	0.035692174
14	0xbd145dc5	-0.036222238
15	0xbd7f2ae7	-0.062296774
16	0xbbdfdb18	-0.006831538
17	0x3d8780e5	0.066163816
18	0xbc08dbc4	-0.008353177
19	0x3da49b8f	0.08037483
20	0x3d7d5c7e	0.061855786
21	0xbb7c1683	-0.0038465566
22	0x3dad2182	0.08453657
23	0x3caca836	0.021076303
24	0xbd4cfaeb	-0.05004398
25	0xbd482132	-0.048859783
26	0xbcb70c5b	-0.022344759
27	0xbcee8a30	-0.029118627
28	0xbd759353	-0.059954952
29	0x3c46d275	0.012135138
30	0x3d0a7622	0.033804066
31	0x3cd14d27	0.025549484
32	0xbdaec9d9	-0.08534593
33	0xbd3f78a5	-0.046745915
34	0xbd590a1c	-0.052988157
35	0xbce17ac6	-0.027524363
36	0xbd5e308a	-0.05424551
37	0x3d0158f7	0.031578984
38	0x3cf53774	0.029933669
39	0x3d7a1491	0.06105477
40	0xbb0b0203	-0.0021210916
41	0xbdb87d97	-0.09008329
42	0x3dadce4a	0.08486612
43	0xbcb7cf2e	-0.022437658
44	0xbd11ae97	-0.035566892
45	0xbd4803c2	-0.04883171
46	0x3d16736e	0.036731176
47	0xbd96fcd8	-0.07372445
48	0xbd8407ca	-0.06446798
49	0x3d3485f9	0.04407308
50	0xbd874699	-0.06605262
51	0x3cb1f031	0.021720978
52	0x3d36777e	0.04454755
53	0xbb70e3de	-0.0036756913
54	0x3d850833	0.064957045
55	0xbd8b893f	-0.06813287
56	0x3d983930	0.07432783
57	0x3d66964d	0.05629568
58	0xbcb4beb1	-0.022063585
59	0xbd8aa978	-0.06770605
60	0x3d960024	0.073242456
61	0xbd6272b1	-0.05528516
62	0xbd402618	-0.04691133
63	0x3d9a2919	0.0752737
64	0xbc24e400	-0.010064125
65	0x3d8d7b6d	0.06908307
66	0xbd621dc6	-0.055204175
67	0xbcc5097d	-0.024052376
68	0x3d2601a1	0.040528897
69	0xbbb64553	-0.0055624633
70	0x3c64ebb4	0.013972212
71	0x3dabfb64	0.08397558
72	0xbcf68f26	-0.030097555
73	0xbd476d1b	-0.048688035
74	0x3d291f93	0.041289877
75	0xbd413a67	-0.047174837
76	0x3da96142	0.082705036
77	0xbd2bb1ad	-0.04191749
78	0x3da16e89	0.07882411
79	0xbd87324a	-0.06601389
80	0x3d4ec801	0.050483707
81	0x3dc22375	0.09479419
82	0xbba6e4d8	-0.0050931983
83	0xbbcd1c99	-0.0062595126
84	0x3da97be9	0.08275587
85	0xbdb623f3	-0.088935755
86	0x3d4387b7	0.04773685
87	0x3d345c68	0.044033438
88	0xbca54740	-0.020175576
89	0x3d5e77e0	0.05431354
90	0x3ca265c1	0.01982391
91	0x3cad7ae8	0.02117677
92	0x3d475bd8	0.048671573
93	0x3d82f771	0.06394852
94	0x3c7522e6	0.014961934
95	0xbd8f6a49	-0.07002694
96	0xbca3c8f6	-0.019993287
97	0x3b9defc0	0.00481984
98	0x3d333274	0.043749288
99	0x3cd51127	0.026009155
100	0xbd2ad60a	-0.04170803
101	0xbdc56e2d	-0.09640155
102	0xbd6e52f7	-0.05818459
103	0x3d224909	0.039620433
104	0xbd7a447d	-0.06110047
105	0xbd773010	-0.06034857
106	0xbcc35801	-0.023845674
107	0xbd867cba	-0.065667585
108	0x3d82c688	0.06385523
109	0x3cb08f64	0.021552749
110	0xbd92c72a	-0.07166894
111	0x3c8cfae4	0.017209478
112	0x3db3e76b	0.08784374
113	0x3d2d01a5	0.042237896
114	0x3c3a9899	0.011388921
115	0xbd4ee8c6	-0.05051496
116	0x3d8679db	0.06566211
117	0x3d4f41f2	0.0506
118	0x3c8ec306	0.017426979
119	0xbd27261d	-0.040807832
120	0x3d4d06ef	0.05005544
121	0xbcb6f45f	-0.022333322
122	0x3d7bcbb2	0.061473556
123	0x3d5ad81c	0.053428754
124	0xbcccfc7d	-0.02502274
125	0xbd3061c6	-0.043061994
126	0xbc16e213	-0.009209174
127	0xbdc584d0	-0.096444726
128	0x3d17a60b	0.037023585
129	0x3d440b66	0.047862433
130	0xbc8d3bea	-0.017240483
131	0x3d75b93d	0.05999111
132	0x3b8aca83	0.004235567
133	0xb98a8db8	-0.00026427
134	0xbcd7ff5c	-0.026366882
135	0xbde001e3	-0.1093786
136	0xbd62d596	-0.055379473
137	0xbda7d49d	-0.0819485
138	0x3b960f4e	0.004579461
139	0xbcbb67e7	-0.022876693
140	0xbc671b04	-0.014105562
141	0xbdc9a905	-0.09846691
142	0x3d44e583	0.048070442
143	0xbc4404c7	-0.01196403
144	0x3d68ce6d	0.056837488
145	0xbd9cc7f7	-0.07655328
146	0xbd92ac66	-0.07161789
147	0x3d9e1ec6	0.07720713
148	0x3cc5fd6e	0.024168696
149	0x3d330059	0.043701503
150	0x3d4b22e8	0.049593836
151	0x3d4fa5cd	0.05069523
152	0x3d07889c	0.033089265
153	0x3cb6dce6	0.02232213
154	0x3d61153b	0.054951888
155	0x3d7f85a7	0.06238332
156	0x3d9714bc	0.07377002
157	0x3ce7c591	0.02829245
158	0x3d38594b	0.04500703
159	0x3d6e5ef2	0.058196016
160	0xbb867bf2	-0.004104131
161	0xbda89ad3	-0.082326554
162	0xbd8b48dc	-0.06801006
163	0xbdaca2f5	-0.08429519
164	0xbbe6b27f	-0.0070403214
165	0xbdaf5291	-0.0856067
166	0xbd984b0f	-0.07436191
167	0x3c59de55	0.013297637
168	0x3cc52bd8	0.024068758
169	0x3d91cde4	0.07119349
170	0xbcc89024	-0.024482794
171	0x3d0f33fb	0.03496168
172	0xbd496d42	-0.049176462
173	0x3c562a79	0.01307165
174	0xbda168ff	-0.078813545
175	0xbdc6ec8a	-0.09713085
176	0xbd7f97cc	-0.062400624
177	0x3ceb5611	0.028727563
178	0xbc9d5781	-0.019206764
179	0xbd6c04d9	-0.05762181
180	0xbd283573	-0.0410666
181	0xbc77824c	-0.015106749
182	0x3d7536c7	0.059866693
183	0xbbe3255b	-0.0069319434
184	0x3d30ca3a	0.04316161
185	0x3c42a2a7	0.0118796
186	0x3d89bff0	0.06726062
187	0x3db3b6e0	0.08775115
188	0x39852652	0.00025396288
189	0x3d8c1cac	0.06841406
190	0xbd5fa15d	-0.054597247
191	0x3c88b71b	0.016688874
192	0x3dab81a3	0.083743356
193	0xbd58087b	-0.052742463
194	0x3d7f53f1	0.062335912
195	0x3dc01421	0.09378839
196	0xbc2031f2	-0.009777533
197	0x3c3bdd9c	0.01146641
198	0x3d7b4f80	0.061355114
199	0x3ba226cb	0.004948472
200	0xbbede8c6	-0.007260415
201	0x3d1a4f8b	0.037673514
202	0xbd965c74	-0.07341853
203	0x3d92df3f	0.07171487
204	0x3d087f6c	0.033324644
205	0xbcc75441	-0.024332168
206	0xbbdaad39	-0.006673482
207	0x3d6ccfc6	0.057815336
208	0xbd2c04c2	-0.041996725
209	0xbd18bd34	-0.037289813
210	0xbce5ebba	-0.028066505
211	0x3d9cadef	0.07650363
212	0xbd618c41	-0.055065397
213	0x3cb56e11	0.02214721
214	0xbcd625d9	-0.026141094
215	0x3ca91c91	0.020643504
216	0x3d3e652f	0.046483215
217	0xbc4767c7	-0.012170739
218	0xbdbc85f5	-0.09205238
219	0x3a2a05fa	0.0006485876
220	0xbdb07cc6	-0.08617549
221	0xbdc7ceb3	-0.097562216
222	0x3d3258bb	0.04354165
223	0x3d58128b	0.05275206
224	0xbd27220b	-0.04080395
225	0xbd0d7c8f	-0.034542616
226	0xbc98e719	-0.018664883
227	0x3de5337d	0.11191461
228	0x3d9b2491	0.07575334
229	0x3cc09a3d	0.023511047
230	0x3d9e6028	0.07733184
231	0xbd296370	-0.041354597
232	0x3db48905	0.08815197
233	0x3daf088f	0.08546554
234	0x3ce18306	0.027528297
235	0xbba6e918	-0.005093705
236	0xbdaef73b	-0.08543249
237	0xbd3ba82f	-0.04581469
238	0x3d4d5fff	0.050140377
239	0xbd5beac2	-0.05369068
240	0xbc23714b	-0.009975742
241	0xbc9d0b9c	-0.019170575
242	0xbc164179	-0.009170883
243	0xbd974691	-0.07386506
244	0x3b87f6a0	0.004149273
245	0x3bc675fe	0.0060565462
246	0xbdbb7086	-0.091523215
247	0x3d66f737	0.056388106
248	0x3cc32a13	0.023823773
249	0xbceafda2	-0.028685395
250	0xbdba7277	-0.09103864
251	0xbc0dfaaf	-0.008665725
252	0x3cad2f08	0.02114059
253	0xbd6e9db5	-0.05825587
254	0xbd8e4ff3	-0.06948843
255	0x3da91e81	0.08257771

bias f4 [8]
0	0x3ddf50ff	0.10904121
1	0x3e071452	0.13191345
2	0xbdc17cd2	-0.09447636
3	0xbde6d9dc	-0.11272022
4	0xbcdfd173	-0.027321553
5	0x3e51f6ea	0.20504346
6	0x3d97c969	0.07411463
7	0x3dd10da3	0.10207679

weight f4 [8, 16, 3, 3]
0	0xbd1c6bf1	-0.03818888
1	0x3d0ca388	0.034335643
2	0x3db59902	0.088670745
3	0x3da8e976	0.08247654
4	0x3c24cd6e	0.010058744
5	0xbc59c1ac	-0.013290804
6	0x3d2748cb	0.040840905
7	0xbd751710	-0.059836447
8	0x3c731961	0.014837594
9	0xbc34fe59	-0.011046969
10	0xbd97b3e0	-0.07407355
11	0xbdb8c996	-0.090228245
12	0x3d302739	0.043006156
13	0xbda7588d	-0.081711866
14	0x3d24493a	0.040108897
15	0x3c15f04a	0.009151528
16	0x3d10a153	0.0353101
17	0x3c42a27f	0.011879562
18	0x3c7a2b82	0.015269162
19	0x3c84a6e4	0.01619286
20	0x3c5fec7f	0.013667225
21	0xbcb898f9	-0.02253388
22	0xbbcc4d0f	-0.006234772
23	0x3d3925c0	0.045202017
24	0x3d42b1b1	0.04753274
25	0x3ca9d9ae	0.02073368
26	0x3cb55921	0.022137227
27	0x3d616c74	0.05503507
28	0x3d376872	0.04477734
29	0x3d03f78d	0.032218505
30	0x3e018af8	0.12650669
31	0x3c99e6a6	0.01878674
32	0xbcf60845	-0.03003324
33	0x3d90145a	0.07035132
34	0xbdc02d9b	-0.093836986
35	0x3c81efb5	0.015861372
36	0x3dc30916	0.095232174
37	0x3dfa070d	0.12208376
38	0xbca8201e	-0.020523127
39	0xbcac9abe	-0.02106988
40	0xbc387492	-0.011258261
41	0x3d999138	0.074984014
42	0x3d7233c4	0.0591314
43	0x3d8beb85	0.06832031
44	0x3cd1e845	0.02562345
45	0xbac93c16	-0.001535299
46	0x3d26e617	0.040746775
47	0xbd49fb59	-0.04931197
48	0x3ced809c	0.02899199
49	0x3d953f95	0.07287518
50	0x3dbdeb22	0.09273364
51	0x3d8ad25e	0.067784056
52	0x3de7da13	0.11320891
53	0x3d471f53	0.048613857
54	0x3d250838	0.04029104
55	0x3d72a0c2	0.05923534
56	0x3ac908ef	0.0015337745
57	0x3d21c42b	0.03949372
58	0xbc9b7454	-0.018976368
59	0xbd8526c6	-0.06501536
60	0x3d62ff41	0.05541921
61	0x3d364b69	0.04450551
62	0xbd14d062	-0.03633154
63	0xbd1b43f1	-0.03790659
64	0x3d9a2799	0.07527084
65	0x3d77382e	0.06035631
66	0xbca454eb	-0.020060023
67	0x3bcbcc7a	0.006219444
68	0x3cc8c5c9	0.024508374
69	0x3dc390a8	0.09549075
70	0x3d85fc41	0.06542254
71	0x3d854daf	0.065089576
72	0x3d8a36ea	0.06748755
73	0x3d3f9ad3	0.04677851
74	0x3d3698dc	0.04457937
75	0xbd086806	-0.03330233
76	0x3d48eb7b	0.049052697
77	0xbd155ca6	-0.03646531
78	0xbd8ea476	-0.06964962
79	0xbd43343d	-0.04765724
80	0xbd8b9bbd	-0.06816814
81	0xbd39cd75	-0.045361955
82	0x3cb774c1	0.02239454
83	0xbddc866d	-0.10767827
84	0xbc2fd2e0	-0.010731429
85	0xbd4ea5a8	-0.05045095
86	0x3d04d76a	0.032431997
87	0x3d150a1a	0.036386587
88	0x3d401fd6	0.04690536
89	0xbd242011	-0.040069643
90	0x3b106933	0.002203536
91	0x3d904096	0.07043569
92	0x3d88dd60	0.06682849
93	0x3baa5c58	0.0051989965
94	0x3da4aaf6	0.08040421
95	0x3dd4f41d	0.103981234
96	0x3de5014a	0.111818865
97	0x3cedbb8c	0.029020093
98	0x3d7c65f6	0.061620675
99	0xbd7c4139	-0.06158564
100	0xbca779e5	-0.020443866
101	0x3cf89dad	0.030348623
102	0x3da492c3	0.08035805
103	0xbc37950c	-0.011204969
104	0xbd0ae5f9	-0.033910725
105	0x3d94fd94	0.07274929
106	0x3d25247d	0.040318
107	0x3ceeab2c	0.029134355
108	0x3d1b6b88	0.037944347
109	0xbd46fa50	-0.04857856
110	0x3c7bd483	0.015370491
111	0x3cdeed82	0.027212862
112	0xbb7057b3	-0.0036673367
113	0xbc29b690	-0.010358468
114	0x3c529399	0.012852573
115	0xbd962d60	-0.07332873
116	0xbdb44a5b	-0.08803245
117	0x3d670de0	0.056409717
118	0xbd70a50c	-0.05875115
119	0x3c82ecdb	0.015982082
120	0xbc3372b6	-0.010952642
121	0x3d0b66d3	0.034033608
122	0xbda691c2	-0.0813327
123	0xbdae2159	-0.08502454
124	0xbdda81d7	-0.10669296
125	0x3be450ab	0.006967624
126	0x3db5376d	0.08848462
127	0x3d597bf2	0.05309672
128	0xbd2dd683	-0.042440902
129	0x3dc8af48	0.09799057
130	0x3cf782ac	0.030213676
131	0x3d9f1309	0.077673025
132	0x3d07006f	0.032959398
133	0xbb61f389	-0.0034477434
134	0x3b404c3a	0.002934231
135	0x3c8083d0	0.015687853
136	0x3d891fba	0.066955045
137	0xbcd78343	-0.026307708
138	0x3d5db3b2	0.05412645
139	0x3d9f3aa7	0.07774859
140	0x3d3749ab	0.04474799
141	0xbd2c9cfc	-0.0421419
142	0xbcda26e1	-0.026629867
143	0x3cc74c61	0.024328412
144	0xbdc52b76	-0.0962743
145	0xbca9a8eb	-0.02071043
146	0xbcae71a9	-0.021294432
147	0x3ba2a317	0.0049632895
148	0x3c0a3db4	0.008437563
149	0xbc5fbcb9	-0.013655835
150	0x3d89dd9c	0.06731722
151	0x3bcfa6f2	0.00633704
152	0x3d8ab8f0	0.06773555
153	0xbd889e02	-0.066707626
154	0xbd9722ce	-0.07379685
155	0xbd09294c	-0.03348665
156	0x3c06841b	0.008210207
157	0x3c8a7949	0.016903536
158	0xbdd166aa	-0.1022466
159	0xbd9eee44	-0.07760289
160	0xbdc4abdc	-0.09603092
161	0xbdb61984	-0.088915855
162	0x3c5af58a	0.013364205
163	0x3d890726	0.066908166
164	0xbc16d1cc	-0.009205293
165	0x3d120755	0.035651524
166	0xbd895c29	-0.06707031
167	0x3d268aee	0.040659837
168	0x3d62db32	0.055384822
169	0x3c96dc0f	0.018415479
170	0xbc18e28c	-0.009331357
171	0xbd632d68	-0.055463225
172	0x3dada1c1	0.08478118
173	0x3ce3fcb4	0.02783046
174	0x3d2767a8	0.04087034
175	0xbd23647a	-0.039890744
176	0x3d2cd306	0.042193435
177	0x3d436d5b	0.04771171
178	0x3c673468	0.014111616
179	0xbdbd8de5	-0.0925558
180	0x3d634e06	0.05549433
181	0x3cd7903d	0.026313895
182	0xbcb3f51a	-0.02196746
183	0xbbd86a66	-0.0066044806
184	0xbd516a3b	-0.0511267
185	0xbd881b19	-0.066457935
186	0xbccd6b1a	-0.025075484
187	0xbc5db72a	-0.013532439
188	0x3db21f64	0.086973935
189	0x3ccc66c9	0.024951356
190	0x3da64f68	0.08120614
191	0xbb61c1e4	-0.0034447843
192	0x3d9b1493	0.075722836
193	0xbd7dd4da	-0.06197057
194	0x3cdd7048	0.027031079
195	0x3dc42fe9	0.09579451
196	0x3d241d0d	0.040066767
197	0x3d35021a	0.044191457
198	0x3cf34bd1	0.029699238
199	0xbd8dbfcc	-0.06921348
200	0xbd943828	-0.072372735
201	0x3d248bba	0.040172316
202	0xbd9c289b	-0.076249324
203	0xbd854eb2	-0.065091506
204	0xbc101bad	-0.008795661
205	0xbd02592a	-0.031823315
206	0xbd2a5fc6	-0.041595243
207	0xbd8f7fe0	-0.07006812
208	0x3d5dca8a	0.054148234
209	0xbd9d5034	-0.07681313
210	0x3b9a3d76	0.0047070337
211	0x3d8562ae	0.06512962
212	0x3c82a06f	0.015945641
213	0xbd15546d	-0.036457468
214	0xba97e4d6	-0.0011588584
215	0x3d856cc5	0.06514887
216	0x3d46eefc	0.048567757
217	0x3d83e849	0.06440789
218	0xbda58452	-0.08081879
219	0x3d314a1f	0.043283578
220	0x3d4c23e3	0.04983891
221	0xbda841b6	-0.08215658
222	0x3cabf2ed	0.02098986
223	0xbd68accd	-0.05680542
224	0xbd7effea	-0.062255777
225	0xbd7ef85a	-0.062248565
226	0x3d3f751d	0.046742547
227	0x3c1d0baa	0.0095853
228	0xbdcce6c8	-0.100049555
229	0x3ccc9c3e	0.024976846
230	0x3d10c4d6	0.035343967
231	0xbbe91701	-0.007113338
232	0x3d5f2d7b	0.054486733
233	0xbd9caab0	-0.076497436
234	0xbd60a016	-0.05484017
235	0x3d414bdb	0.047191482
236	0xbbbb33fe	-0.005712985
237	0x3ce26d32	0.027639959
238	0xbcc2aaf8	-0.023763165
239	0x3ca23c3c	0.019804113
240	0x3bd254bd	0.006418793
241	0x3bc21f52	0.005924144
242	0x3c24be8f	0.010055198
243	0xbce07334	-0.027398683
244	0xbd2ff520	-0.04295838
245	0xbcd001ef	-0.025391547
246	0x3d3aecef	0.045636114
247	0x3dade237	0.08490413
248	0x3da87883	0.08226111
249	0xbd66522e	-0.056230716
250	0xbc361c74	-0.011115182
251	0xbd32b9e6	-0.043634318
252	0xbd941f4d	-0.07232533
253	0xbd116d8d	-0.035504866
254	0xbcf26f93	-0.029594218
255	0xbdd693da	-0.10477419

bias f4 [16]
0	0x3e040dac	0.1289584
1	0xbe1ed39b	-0.15510409
2	0x3e319615	0.17342408
3	0xbe207379	-0.1566905
4	0x3e1995ab	0.149985
5	0xbe27c08a	-0.16382042
6	0x3d4b72e0	0.0496701
7	0x3e2d372c	0.16915578
8	0xbd8a3ba0	-0.06749654
9	0xbd0779a9	-0.03307501
10	0x3e10c418	0.14137304
11	0x3e1126f0	0.1417501
12	0xbe346e0d	-0.17620106
13	0x3d852fab	0.065032326
14	0x3d404ace	0.04694634
15	0x3e191a28	0.14951384

weight f4 [16, 32, 3, 3]
0	0x3d74f3f6	0.05980297
1	0xbd227df3	-0.039670896
2	0x3d28cc93	0.041210722
3	0x3d467584	0.048451915
4	0x3dd3276d	0.10310254
5	0xbbdb5003	-0.0066928877
6	0x3b8543e1	0.0040669297
7	0x3dca8645	0.09888891
8	0xbb9b4ed5	-0.004739622
9	0x3d6c4a44	0.057688013
10	0x3cb01d69	0.021498399
11	0x3c124380	0.008927226
12	0x3d647ce2	0.05578316
13	0x3d88d468	0.06681138
14	0xbbd8c07b	-0.0066147423
15	0x3d3e5250	0.046465218
16	0x3d7a872b	0.061164062
17	0xbd04a5ef	-0.03238481
18	0xbb32a776	-0.002726046
19	0xbc866ef7	-0.016410334
20	0xbc9cc843	-0.019138461
21	0xbc0970bb	-0.008388693
22	0x3d1dcc35	0.038524825
23	0xbcd94769	-0.026523309
24	0x3dce8909	0.10084731
25	0x3d61aabb	0.055094462
26	0x3db178b1	0.08665598
27	0x3c80503a	0.015663255
28	0x3cbd3ba1	0.023099722
29	0x3d6bf3fc	0.05760573
30	0x3aabc7cb	0.0013105808
31	0xbd3fc264	-0.046816245
32	0x3cd47694	0.025935449
33	0xbcb84ae2	-0.022496644
34	0xbd8ef7c7	-0.069808535
35	0xbbd22b9c	-0.00641389
36	0xbd297327	-0.041369583
37	0x3d8f0899	0.06984062
38	0xb9369d08	-0.00017415371
39	0x3b5ff5e3	0.003417366
40	0x3d72ae82	0.059248455
41	0x3d09e66a	0.033667006
42	0x3c88a7a5	0.016681502
43	0x3cbc1499	0.02295904
44	0xbcab296c	-0.020893775
45	0x3e7e16b0	0.24813342
46	0x3df0c01a	0.117553905
47	0xbd3636d9	-0.0444859
48	0xbbedd684	-0.0072582383
49	0xbcaf2707	-0.021380914
50	0xbe1fa8a4	-0.15591675
51	0x3d1c754e	0.038197808
52	0x3d4a40e1	0.04937828
53	0xbcbf0071	-0.02331564
54	0x3cd2314d	0.025658274
55	0x3cddc35e	0.027070697
56	0x3d8bea90	0.068318486
57	0xbd4c4595	-0.049871046
58	0x38a50f21	7.870631e-05
59	0x3d5fcc59	0.05463824
60	0xbc21489e	-0.009843973
61	0xbcf044a4	-0.029329605
62	0x3d874042	0.06604053
63	0x3d906063	0.07049634
64	0xbcd66928	-0.02617319
65	0x3c81613f	0.01579344
66	0x3e431405	0.19050606
67	0x3cd3dea3	0.025862997
68	0x3e153a8f	0.1457312
69	0x3da11d13	0.078668736
70	0x3d3e5d28	0.04647556
71	0x3dd4c35c	0.10388824
72	0x3d5b055d	0.05347191
73	0x3cc3ff8b	0.023925563
74	0x3cb7ce83	0.02243734
75	0x3ba4c793	0.005028674
76	0xbd1e178f	-0.038596686
77	0x3d8722ea	0.06598456
78	0xbcecd8fa	-0.028912056
79	0x3d335658	0.043783516
80	0x3ceb0b2e	0.028691854
81	0xbc9183b6	-0.017763
82	0x3d8e5438	0.06949657
83	0xb9c16bb9	-0.00036892088
84	0x3c639554	0.013890583
85	0xbbd10890	-0.0063791946
86	0x3d505abe	0.05086779
87	0x3c158418	0.009125732
88	0x3c9979ca	0.018734831
89	0xbbd6140e	-0.0065331524
90	0x3d5ce21a	0.053926565
91	0x3cf04fe0	0.029334962
92	0xbd753a33	-0.059869956
93	0xbd1b0297	-0.037844267
94	0xbe12bfff	-0.14331053
95	0xbd7df29e	-0.061998956
96	0x3d3652d0	0.04451257
97	0x3c5915f1	0.01324986
98	0xbd2990cd	-0.04139786
99	0xbc85ff65	-0.016357133
100	0x3d539b0c	0.051661536
101	0x3ce69aab	0.028149923
102	0xb96e21a3	-0.0002270998
103	0xbc83fb20	-0.016110957
104	0xbd37c2b6	-0.044863425
105	0xba8c5974	-0.0010707811
106	0x3c926f8d	0.017875457
107	0xbd14137c	-0.036151394
108	0x3c86bb70	0.016446799
109	0xbd4455f7	-0.047933545
110	0x3c10894b	0.008821796
111	0xbcf0b99d	-0.029385382
112	0x3d28da45	0.041223783
113	0xbd14cf66	-0.036330603
114	0xbd26db76	-0.040736638
115	0x3d22e48f	0.03976875
116	0x3c84d8a0	0.016216576
117	0xbc64dd64	-0.013968799
118	0x3dc9dc2d	0.09856448
119	0x3d607192	0.05479581
120	0x3c064002	0.008193972
121	0xbc906925	-0.017628262
122	0xbcb2ed25	-0.021841595
123	0x3d8f0443	0.06983235
124	0x3d35f17e	0.044419758
125	0x3d0f459b	0.03497849
126	0x3d854d09	0.06508834
127	0x3cf04e82	0.02933431
128	0x3d0d6da9	0.03452841
129	0xbc35e58c	-0.0111020915
130	0xbc5e2ef1	-0.013560996
131	0x3dde7006	0.108612105
132	0xbca226a7	-0.019793821
133	0xbcdcdaf0	-0.026959866
134	0xbd993e80	-0.07482624
135	0x3bb77d1e	0.005599632
136	0xbd9da93a	-0.07698293
137	0xbd0f0549	-0.03491715
138	0x3b8195bc	0.0039546173
139	0xbccc4879	-0.024936901
140	0xbd5c22fe	-0.05374431
141	0x3cbe5a6e	0.02323648
142	0x3d2fe483	0.042942535
143	0x3cc68f4f	0.024238257
144	0xbb2c929f	-0.002633251
145	0x3d6af53e	0.057362787
146	0x3ca25a80	0.019818544
147	0xbcf236f9	-0.029567229
148	0xbbed514f	-0.0072423588
149	0xbcdb711d	-0.026787335
150	0xbd486ad1	-0.048929993
151	0xbc7d5f8e	-0.015464677
152	0x3d14c4c1	0.03632045
153	0xbae8853a	-0.00177399
154	0xbcbeb6b1	-0.023280473
155	0xbd0d1e56	-0.03445276
156	0x3d1b402e	0.037903003
157	0x3d79e46c	0.061008856
158	0xbbeca24a	-0.007221495
159	0x3da133b9	0.078711934
160	0x3d94f704	0.07273677
161	0xbaa30c4f	-0.0012439581
162	0xbd2ce88a	-0.042213954
163	0xbe0b70a2	-0.13617185
164	0xbde552c6	-0.111974284
165	0x3d45f0e9	0.048325453
166	0xbd2470ce	-0.04014664
167	0x3d283a7c	0.0410714
168	0x3c268fa3	0.010166082
169	0xbc1a7df9	-0.009429448
170	0xbd98a844	-0.07453969
171	0x3d6d26da	0.05789838
172	0xbc844e5e	-0.01615065
173	0xbcaf7f8c	-0.021423124
174	0xbcd9201a	-0.026504565
175	0xbd021525	-0.031758446
176	0xbdfc2e8e	-0.12313567
177	0x3cbc17ff	0.022960661
178	0xbd0646c5	-0.032782335
179	0xbcdcc3fc	-0.026948921
180	0xbcbc09ec	-0.02295395
181	0xbd01f325	-0.03172602
182	0xbd18cf07	-0.03730681
183	0xbccd6ca3	-0.025076216
184	0xbd06101b	-0.032730203
185	0xbb012930	-0.0019708388
186	0xbde20a17	-0.11037081
187	0xbbf5b3c4	-0.0074982364
188	0xbc67054b	-0.014100383
189	0x3d4883e2	0.0489539
190	0x3d36b99b	0.0446106
191	0x3d3be304	0.045870796
192	0x3d81917d	0.06326578
193	0x3d9f9a66	0.07793121
194	0x3da539d5	0.08067671
195	0xbc97c821	-0.018528046
196	0x3a3eabe4	0.00072735385
197	0x3b87b91d	0.0041419403
198	0x3c1288b4	0.008943725
199	0xbd4489c6	-0.047982953
200	0x3bc12c1a	0.00589515
201	0xbd17026b	-0.03686754
202	0x3d682831	0.056678955
203	0x3bdfc19a	0.006828499
204	0x3ce623f3	0.028093314
205	0xbd1f7b00	-0.03893566
206	0xbd0047a0	-0.031318307
207	0xbd0ffb2b	-0.03515164
208	0xbdd3e1bc	-0.1034579
209	0xbdc671ea	-0.09689696
210	0x3d2d3c0a	0.042293586
211	0x3cc328a2	0.023823086
212	0x3d7403c2	0.059573896
213	0x3d2ed48a	0.04268316
214	0x3d360852	0.04444153
215	0xbd052557	-0.032506313
216	0x3d41f87a	0.047356106
217	0xbd0b6c80	-0.03403902
218	0x3d1c419c	0.038148507
219	0xbd2cd998	-0.0421997
220	0xbd55b55a	-0.052174903
221	0x3cea1684	0.02857519
222	0x3d140580	0.036138058
223	0x3a319b90	0.0006775195
224	0xbceff8f2	-0.029293511
225	0x3d2a6dbf	0.04160857
226	0xbc4649c5	-0.012102549
227	0x3ced33f0	0.02895543
228	0x3d95b4b9	0.07309861
229	0x3d5b3d04	0.053524986
230	0x3d209d67	0.03921261
231	0x3d043bf3	0.032283735
232	0x3dd1bb1d	0.10240767
233	0xbbd2f432	-0.0064378018
234	0x3bcc80fe	0.006240963
235	0x3d46fe3a	0.048582293
236	0x3cb0990b	0.021557352
237	0x3d7c36e4	0.061575785
238	0x3c8de608	0.017321602
239	0x3b9299f0	0.004473917
240	0xbc091bf8	-0.008368485
241	0xbd98b2fe	-0.07456015
242	0xbd1990b7	-0.037491526
243	0x3c1b94d4	0.009495933
244	0xbc34e496	-0.011040827
245	0xbce6444c	-0.028108738
246	0x3d635b66	0.055507086
247	0x3dbe97cc	0.09306297
248	0x3cf16c1b	0.029470494
249	0xbd1e4ceb	-0.038647573
250	0xbcea94d3	-0.028635418
251	0xbcf46122	-0.029831473
252	0x3d11ee88	0.03562787
253	0x3d93a9f1	0.07210148
254	0x3c044cac	0.008074921
255	0xbbc4a1b1	-0.0060007204

bias f4 [32]
0	0x3e2bed6a	0.16789785
1	0x3dd800d5	0.10547034
2	0xbdcac24d	-0.09900341
3	0xbcc18fdf	-0.023628173
4	0x3e2b4f0d	0.16729374
5	0x3b01e3c3	0.0019819594
6	0x3db608f2	0.08888425
7	0xbe249365	-0.16071852
8	0xbd6c8a89	-0.057749305
9	0x3e2af224	0.16693932
10	0xbd986702	-0.07441522
11	0xbd422689	-0.04740003
12	0x3e2a5409	0.1663362
13	0x3db7e92b	0.0898002
14	0xbe5fae3d	-0.2184381
15	0x3e2527f5	0.16128524
16	0x3dc386f3	0.09547224
17	0x3dffa8c5	0.12483362
18	0x3e0ec6ca	0.1394302
19	0xbdf8e3f9	-0.12152857
20	0xbdfa5b4a	-0.12224443
21	0xbce9fdd3	-0.028563416
22	0x3e071897	0.13192974
23	0x3d837c76	0.064202234
24	0xbe045363	-0.12922435
25	0x3dbec911	0.09315694
26	0xbc885976	-0.01664422
27	0x3dc31b56	0.09526698
28	0xbd8b4801	-0.06800843
29	0xbda866d3	-0.08222737
30	0x3e1562c1	0.14588453
31	0x3dd3ca3f	0.1034131

weight f4 [32, 3, 3, 3]
0	0xbd25acfc	-0.040448174
1	0x3db801b8	0.08984703
2	0xbdb1da9a	-0.08684273
3	0x3e36e738	0.1786164
4	0xbe3a7b50	-0.18211102
5	0x3dddbb0c	0.10826692
6	0x3d6a04bc	0.05713342
7	0x3e313f48	0.17309296
8	0xbe4bef43	-0.1991549
9	0x3dff1810	0.124557614
10	0xbe0987f2	-0.13430765
11	0xbd9b9a11	-0.07597745
12	0xbe533f8a	-0.20629707
13	0xbe24cee3	-0.16094546
14	0x3cdbe6fd	0.026843542
15	0x3e0d4c9c	0.13798755
16	0xbce0bb63	-0.027433103
17	0xbe5776b2	-0.21041372
18	0xbdaf9d84	-0.085749656
19	0xbd41d4a9	-0.04732195
20	0x3dafdd26	0.085871026
21	0xbe560726	-0.20901164
22	0xbe0f9b77	-0.14024149
23	0xbbfbadc2	-0.0076806257
24	0x3df63b5d	0.120230414
25	0xbde6a473	-0.11261835
26	0x3d92ce66	0.07168274
27	0xbe10e49d	-0.14149709
28	0xbe06c87b	-0.13162415
29	0x3c5de13d	0.0135424705
30	0xbd0268e5	-0.031838316
31	0xbdd04d7e	-0.101710305
32	0x3cb7a277	0.022416336
33	0x3dde597a	0.1085691
34	0x3e185e6a	0.14879766
35	0xbe12cbd9	-0.14335574
36	0x3e126a47	0.14298354
37	0x3d0507ed	0.03247826
38	0xbdee18b3	-0.11625805
39	0xbc7d3477	-0.015454403
40	0xbd9fbb9b	-0.07799455
41	0xbdb7eaf7	-0.08980363
42	0x3b1de018	0.002408987
43	0xbdf6859e	-0.12037204
44	0xbe1fc255	-0.15601476
45	0xbe713f8c	-0.23559397
46	0xbc45c549	-0.012070962
47	0xbe0a6e0b	-0.1351854
48	0x3d516a23	0.05112661
49	0xbe6be199	-0.23035277
50	0xbe664b2c	-0.22489613
51	0xbda065b3	-0.078318976
52	0x3d5e9ea9	0.05435053
53	0xbe81decd	-0.25365296
54	0x3d155724	0.036460057
55	0xbdeb8b23	-0.115011476
56	0xbe052ada	-0.13004628
57	0xbc03b7f9	-0.008039468
58	0x3d96c9da	0.07362719
59	0xbc18f75f	-0.009336322
60	0x3e0ac0bb	0.13550083
61	0x3e02cfaf	0.12774538
62	0x3e5b9981	0.21445276
63	0x3c8ad569	0.016947465
64	0xbd6c825a	-0.0577415
65	0x3dd56542	0.10419704
66	0xbd74ff19	-0.059813593
67	0xba369f33	-0.00069664716
68	0xbde32b93	-0.110922955
69	0x3dfb5c5e	0.12273477
70	0xbc842c44	-0.016134389
71	0x3cea3180	0.028588057
72	0xbdcdfe5d	-0.100582816
73	0xbcf94d46	-0.030432355
74	0xbd91b172	-0.07113923
75	0x3e561a60	0.20908499
76	0x3df72055	0.12066714
77	0x3e252634	0.16127855
78	0x3e57b801	0.21066286
79	0xbdf113e8	-0.11771375
80	0x3dbe4108	0.092897475
81	0xbd4cf67a	-0.050039746
82	0x39564770	0.00020435243
83	0xbdc6f22e	-0.09714161
84	0xbce93591	-0.028467925
85	0x3d46dcb6	0.04855033
86	0xbcd0d768	-0.025493339
87	0xbd547699	-0.051870916
88	0xbdfab5a4	-0.122416764
89	0xbda2efaf	-0.07955872
90	0xbd57b4b9	-0.052662585
91	0xb9c280d4	-0.00037098548
92	0xbdfc250d	-0.123117544
93	0x3b320020	0.002716072
94	0x3d4e4390	0.0503574
95	0xbd88bdbe	-0.066768155
96	0x3d025d45	0.03182723
97	0xbd48a58f	-0.048986014
98	0x3d856453	0.06513276
99	0xbdbed8c9	-0.09318692
100	0x3e08d8bc	0.13363928
101	0xbdf6458e	-0.12024985
102	0x3e4b8da8	0.19878256
103	0x3dc57c49	0.09642846
104	0x3d16f94f	0.036858853
105	0x3e546397	0.20741116
106	0x3e0873a6	0.13325366
107	0x3e2d35a0	0.16914988
108	0xbe21b6ad	-0.15792342
109	0xbe28ef17	-0.16497456
110	0x3e1237dc	0.14279121
111	0xbdfd8fdf	-0.12380957
112	0x3dcabfd8	0.098998725
113	0x3dba6527	0.091013245
114	0xbdcbb29a	-0.09946175
115	0x3c213c0a	0.009840975
116	0x3d3b80fb	0.045777302
117	0x3caefe6f	0.021361558
118	0xbd9e8ca0	-0.07741666
119	0x3d88788f	0.0666362
120	0xbde3199f	-0.11088871
121	0xbd206f87	-0.03916886
122	0xbe2fd654	-0.17171603
123	0xbe2ec315	-0.17066605
124	0xbdc736de	-0.09727262
125	0xbdc38881	-0.095475204
126	0xbce5f4b8	-0.028070793
127	0xbe3592f4	-0.1773184
128	0x3cfc7c74	0.030821063
129	0x3db74932	0.08949508
130	0xbe52a9b2	-0.20572546
131	0xbe52bc3c	-0.20579618
132	0xbd03c54e	-0.032170586
133	0xbba15936	-0.004923965
134	0xbe5073bb	-0.20356648
135	0x3e332e48	0.17498124
136	0xbce3a7f6	-0.027790051
137	0x3c0ff779	0.008787029
138	0x3e330f8c	0.174864
139	0xbd7025c2	-0.05862976
140	0xbbbe372c	-0.005804917
141	0x3d2eba4d	0.04265814
142	0xbd54e3bd	-0.051975
143	0xbe2aa9af	-0.16666292
144	0xbe2f29a7	-0.17105733
145	0xbe10a232	-0.14124373
146	0xbe1253fc	-0.1428985
147	0x3e2cb62e	0.16866371
148	0x3d271db1	0.0407998
149	0x3d812258	0.06305379
150	0x3d9cf075	0.07663051
151	0x3b28fe68	0.0025786404
152	0xbe64bb16	-0.22336993
153	0x3d2da8d5	0.04239734
154	0x3db9cec4	0.090726405
155	0x3cdba60b	0.026812574
156	0x3dcd7aee	0.100332126
157	0x3b9e02b2	0.0048220987
158	0x3e23dd26	0.1600233
159	0x3de71500	0.11283302
160	0xbe271074	-0.1631487
161	0xbc64d499	-0.013966703
162	0x3c96d944	0.018414147
163	0xbe0e77d0	-0.13912892
164	0x3db6e393	0.08930125
165	0xbe149f16	-0.14513811
166	0x3bc62c3b	0.006047753
167	0x3e64af27	0.2233244
168	0x3e4e0ef2	0.20122889
169	0x3e3e43f6	0.18580613
170	0xbdeb2087	-0.114808135
171	0xbe010a12	-0.12601498
172	0xbdc14fe8	-0.09439069
173	0x3dd68683	0.10474875
174	0xbdaed09f	-0.08535885
175	0x3c90a001	0.01765442
176	0x3b9fb79d	0.0048741833
177	0xbe315047	-0.1731578
178	0xbde782bf	-0.11304235
179	0xbe59eb39	-0.21281137
180	0x3dcbbe1d	0.099483706
181	0x39316bcd	0.00016920194
182	0xbe130882	-0.14358714
183	0xbddc2fe8	-0.10751325
184	0x3e207511	0.15669657
185	0x3e44ccc8	0.19218743
186	0x3cd3f8cd	0.025875473
187	0x3dbc2532	0.09186782
188	0x3e095450	0.13411069
189	0xbe0bac12	-0.13639858
190	0x3d99d30e	0.075109586
191	0xbd210b7e	-0.0393176
192	0x3cc4186d	0.023937428
193	0x3d0ff82d	0.03514879
194	0xbe73365b	-0.23751204
195	0x3e495dfe	0.19664761
196	0x3df9b34a	0.121924
197	0x3dc93384	0.09824279
198	0x3ba6c4cc	0.005089378
199	0xbb595877	-0.0033164301
200	0xbdb9f07a	-0.090790704
201	0xbc61ba58	-0.013777338
202	0xbdda5b20	-0.10661912
203	0xbe98a8da	-0.29816324
204	0x3e62708f	0.2211325
205	0x3e0c3f4a	0.13696018
206	0xbd13d0e1	-0.036087874
207	0xbcaf12a7	-0.021371199
208	0x3debd7df	0.115157835
209	0xbd16d7c1	-0.036826853
210	0x3d9f79ec	0.077869266
211	0xbaedc0bd	-0.0018139106
212	0xbe620aaf	-0.22074388
213	0x3e39cf06	0.1814538
214	0x3e32e04e	0.17468378
215	0xbd0c6437	-0.03427526
216	0xbd0c4503	-0.034245502
217	0xbb95b380	-0.004568517
218	0x3d0171fa	0.031602837
219	0xbe2330e3	-0.15936618
220	0x3db1cfdb	0.086822234
221	0x3e32ff78	0.17480266
222	0xbe2bb41c	-0.16767925
223	0xbd8bb8e3	-0.06822374
224	0x3c68fa9a	0.014219904
225	0xbd09e154	-0.033662155
226	0x3dfdb55b	0.123881064
227	0xbd709f8a	-0.0587459
228	0x3d8717aa	0.065963104
229	0x3d114671	0.03546757
230	0xbdfbb002	-0.1228943
231	0xbdb71427	-0.08939391
232	0xbd64de7f	-0.05587625
233	0xbe12aaf9	-0.14323033
234	0x3e3a00f8	0.18164432
235	0x3d0a2430	0.033725917
236	0x3db93444	0.09043172
237	0xbddc9447	-0.10770469
238	0xbdfe1f1b	-0.12408277
239	0xbd5201c9	-0.051271234
240	0x3c8512fb	0.016244402
241	0xbd64237b	-0.0556979
242	0x3d3dd0a7	0.046341565
243	0x3d95c81d	0.07313559
244	0xbe3e11b1	-0.18561436
245	0xbd6bb3db	-0.05754457
246	0x3d3cbb2f	0.04607695
247	0xbe1ea03b	-0.1549081
248	0xbe1070b5	-0.14105494
249	0xbdbc59ad	-0.09196792
250	0xbe71e13a	-0.23621073
251	0xbda2024d	-0.07910595
252	0xbdfaa0f0	-0.12237728
253	0x3dae8a5d	0.085224845
254	0x3daba780	0.083815575
255	0xbe37e8ab	-0.1795985

bias f4 [3]
0	0xbe3ca290	-0.18421388
1	0xbe64c751	-0.22341658
2	0x3d557412	0.052112646
